MNIST/Models/Client_2/Trained local models/Trained_8_5_2021_10_40_43.pth (torch, 90095 bytes, 8 tensors)

conv1.weight f4 [10, 1, 5, 5]
0	0xbe0e261a	-0.13881722
1	0x3d936ce5	0.07198504
2	0x3db5567f	0.088543884
3	0xbcbc60d1	-0.022995384
4	0xbdb9535d	-0.090491034
5	0x3e0c08ea	0.13675275
6	0xbd862181	-0.06549359
7	0xbd4e5c73	-0.050381135
8	0x3d174301	0.036929134
9	0x3c8aabe7	0.016927673
10	0x3d83d2b0	0.0643667
11	0xbdd5ed8e	-0.104457006
12	0xbda6f832	-0.08152808
13	0x3d39c0fe	0.045350067
14	0xbd9bb217	-0.07602327
15	0xbdcce771	-0.100050814
16	0x3e2a6f6d	0.16644068
17	0x3c189bde	0.009314505
18	0xbbf3fc53	-0.007445851
19	0x3df2c40e	0.11853801
20	0xbe01d7af	-0.12679933
21	0xbe30bd5d	-0.17259736
22	0x3dc77613	0.09739318
23	0xbddd9c0c	-0.10820779
24	0xbe1bba96	-0.15207896
25	0xbe56fc99	-0.20994796
26	0xbdfbd3e6	-0.12296276
27	0x3d9c6718	0.07636851
28	0xbe25c546	-0.16188535
29	0x3df10172	0.11767854
30	0xbcf133a9	-0.029443579
31	0x3cc05477	0.023477776
32	0xbd13522a	-0.03596703
33	0xbd371204	-0.044694915
34	0x3cc98036	0.024597269
35	0xbe505c01	-0.20347597
36	0x3d23badb	0.03997312
37	0x3d9cbb45	0.07652906
38	0xbd027578	-0.03185031
39	0x3dafdd00	0.08587074
40	0xbd1f66b0	-0.03891629
41	0x3d8d6f46	0.06905989
42	0xbe29d83c	-0.16586393
43	0xbd634a0f	-0.05549055
44	0x3e3545b4	0.17702371
45	0x3e0674eb	0.13130538
46	0x3e49b847	0.19699202
47	0x3e4a3cbc	0.19749731
48	0x3e351287	0.17682849
49	0x3e1c5c41	0.15269567
50	0xbdc3ee08	-0.09566885
51	0x3ddeff8f	0.10888588
52	0x3deac0bf	0.11462545
53	0x3e5c2090	0.21496797
54	0x3e338de5	0.17534597
55	0xbbcebe26	-0.0063092886
56	0x3d9ef14f	0.0776087
57	0xbddfbd37	-0.10924762
58	0xbe1d4ccf	-0.15361331
59	0x3b594867	0.0033154727
60	0x3d93e572	0.072214976
61	0x3e0af0fb	0.13568489
62	0xbc59c0d8	-0.013290606
63	0x3dd7c2cf	0.10535204
64	0xbe3b3422	-0.18281606
65	0xbdb59bb4	-0.08867589
66	0xbe08cbf5	-0.13359053
67	0xbe403270	-0.1876924
68	0xbe0d9862	-0.1382766
69	0xbe063428	-0.13105834
70	0xbe47a25d	-0.1949553
71	0xbe2d9cbf	-0.16954325
72	0xbd808a19	-0.0627634
73	0xbd57eb61	-0.05271471
74	0x3e1db424	0.1540075
75	0x3d228f84	0.03968765
76	0x3ddbf390	0.10739815
77	0x3cbde14a	0.023178715
78	0x3df1ab2c	0.118002266
79	0x3e3f40eb	0.18677108
80	0xbe3b4c4b	-0.18290822
81	0xbe2accef	-0.16679738
82	0xbd2242a2	-0.039614327
83	0x3e32771e	0.17428252
84	0xbdf57554	-0.11985269
85	0xbd4874de	-0.04893958
86	0x3e211d39	0.15733804
87	0x3dc510c0	0.096223354
88	0x3da71b3a	0.0815949
89	0x3ae9caee	0.0017836967
90	0x3d9568be	0.072953686
91	0xbc48878c	-0.012239348
92	0x3e3a92de	0.18220088
93	0xbe223235	-0.15839465
94	0xbd3f62e7	-0.04672518
95	0x3cbda7b4	0.023151256
96	0x3d63a4ca	0.055577077
97	0xbc618171	-0.013763771
98	0x3df2ff5a	0.11865111
99	0xbe4cd7ef	-0.20004247
100	0x3c2d2bf9	0.010569566
101	0xbe2367ef	-0.15957616
102	0x3dd76a3e	0.10518311
103	0x3e55f5a7	0.2089449
104	0x3dfc1812	0.123092785
105	0xbdecf820	-0.115707636
106	0xbe43e515	-0.19130357
107	0xbd81d593	-0.06339564
108	0xbd814bc8	-0.06313282
109	0x3d530119	0.05151472
110	0xbe595787	-0.21224795
111	0xbe28e9c4	-0.16495425
112	0xbca920aa	-0.020645458
113	0x3db4d0f0	0.08828914
114	0x3e1618a0	0.14657831
115	0x3da5d3d0	0.08097041
116	0x3e141925	0.14462717
117	0xbcbe3806	-0.023220073
118	0xbdd80ee5	-0.10549716
119	0x3de063f9	0.10956568
120	0xbe1466b2	-0.144923
121	0xbe7691e3	-0.24079089
122	0x3dcaf8c9	0.09910733
123	0x3e28b3c5	0.16474827
124	0x3e5ef0bc	0.2177152
125	0xbde36d0f	-0.11104786
126	0xbe13ad90	-0.14421678
127	0x3e027e3e	0.1274347
128	0xbdd0d312	-0.101965085
129	0x3e57e1fa	0.21082297
130	0xbda1c7d9	-0.07899446
131	0x3e5e9a7e	0.21738622
132	0x3e20a268	0.15686953
133	0x3e5cdad7	0.21567856
134	0xbdce8ea5	-0.10085801
135	0x3e01ca7c	0.12674898
136	0xbe0b649a	-0.13612595
137	0x3e284120	0.16431093
138	0x3c9de757	0.01927535
139	0x3aec19dd	0.0018013079
140	0x3cc6b3e9	0.02425571
141	0xbde45417	-0.11148851
142	0xbe1a1ddc	-0.15050453
143	0xbd5293e7	-0.051410582
144	0x3e3876b8	0.18014038
145	0xbbf8f049	-0.0075970036
146	0xbe1fe774	-0.15615636
147	0xbdf65b59	-0.12029142
148	0xbe432115	-0.19055589
149	0xbd20e3dc	-0.039279804
150	0x3cb442ec	0.022004567
151	0xbdd4b8d7	-0.10386818
152	0x3e27a10a	0.16370025
153	0x3c0ee55a	0.008721674
154	0xbe23dcfe	-0.1600227
155	0xbe460e54	-0.19341403
156	0xbe45e0f4	-0.19324094
157	0xbdd8e004	-0.105896026
158	0x3e341660	0.1758666
159	0x3dc1d64d	0.09464703
160	0x3e301efe	0.17199323
161	0x3e630546	0.2216998
162	0xbd021f0a	-0.031767882
163	0xbb4429da	-0.0029932172
164	0x3e424e3d	0.18975158
165	0x3e1b74c3	0.1518126
166	0x3dc980ab	0.098389946
167	0x3dee1489	0.116250105
168	0x3dc0a402	0.09406282
169	0xbe04229f	-0.12903832
170	0xbccd6813	-0.02507404
171	0xbe144740	-0.14480305
172	0xbc34aec2	-0.011027994
173	0x3dc34547	0.09534698
174	0xbdd7774e	-0.105208024
175	0x3dfe4e2d	0.124172546
176	0xbe104f72	-0.14092806
177	0xbd8473a2	-0.06467368
178	0xbd78cb1a	-0.060740568
179	0xbe07435e	-0.13209292
180	0xbe0fa95b	-0.14029448
181	0x3d954018	0.072876155
182	0xbc44884e	-0.011995388
183	0xbe496f89	-0.19671454
184	0xbdc55769	-0.09635813
185	0x3e499366	0.19685134
186	0x3e16d653	0.14730196
187	0xbdced204	-0.10098651
188	0xbc156dfb	-0.00912046
189	0x3e214eca	0.15752712
190	0xbd3e3d1d	-0.046445
191	0xbb1459fc	-0.0022636643
192	0x3e2c3159	0.168157
193	0x3e4d6796	0.20059046
194	0xbe18643a	-0.14881983
195	0x3de44f6a	0.111479595
196	0x3e07abb5	0.13249095
197	0x3e2efdfa	0.17089072
198	0xbe33b104	-0.17547995
199	0xbe06bee7	-0.13158761
200	0x3cf10737	0.029422386
201	0x3deaeab7	0.114705496
202	0x3ca1a865	0.019733617
203	0x3cf7d752	0.03025404
204	0x3d2ae6ba	0.041723944
205	0xbe34a317	-0.17640339
206	0x3daa12bc	0.083043545
207	0x3e1c1e63	0.15245967
208	0xbd932ab4	-0.07185879
209	0xbdd22c9c	-0.10262415
210	0x3d921b02	0.071340576
211	0xbe4de6ab	-0.20107524
212	0xbcf975f5	-0.030451754
213	0x3e089e2f	0.13341592
214	0x3d59afac	0.05314605
215	0xbe1ce25e	-0.15320727
216	0xbdee7a8d	-0.116444685
217	0xbe32833a	-0.17432871
218	0xbdd3e532	-0.1034645
219	0x3d9c1102	0.076204315
220	0xbdd8d591	-0.105876096
221	0x3e05e8a6	0.1307703
222	0xbdb367ba	-0.08760019
223	0xbdc56f80	-0.096404076
224	0x3d8e47c0	0.06947279
225	0x3d1be016	0.038055502
226	0x3e3f1ed9	0.18664111
227	0xbdb2091b	-0.08693143
228	0x3e28a633	0.1646965
229	0x3dbce112	0.09222616
230	0xbe5738a8	-0.21017706
231	0xbe3fb42a	-0.18721071
232	0x3e06b7e6	0.13156089
233	0x3dcfb9c4	0.10142854
234	0x3e619463	0.22029261
235	0xbb664de2	-0.0035141637
236	0xbe2ade1e	-0.16686293
237	0xbe0b5e38	-0.1361016
238	0xbc95230e	-0.018205192
239	0xbe22297f	-0.15836142
240	0x3e14fd16	0.1454967
241	0xbdb7ac22	-0.089683786
242	0xbd9c56f7	-0.07633775
243	0xbdc5f8e8	-0.09666616
244	0xbe2e450e	-0.1701853
245	0x3dfd52aa	0.123692825
246	0x3dc67a03	0.09691241
247	0x3d032001	0.032012943
248	0xbdc6c6a3	-0.09705856
249	0xbdabbd2c	-0.08385691

conv1.bias f4 [10]
0	0xbddb7456	-0.10715549
1	0x3e0e8784	0.13918883
2	0x3d661db7	0.056180682
3	0xbe44d147	-0.19220458
4	0x3bb6597a	0.0055648657
5	0x3e067b5d	0.13132997
6	0xbdb62866	-0.08894424
7	0xbe11edad	-0.14250822
8	0x3e2d5e2a	0.16930452
9	0x3ddec6a7	0.10877734

conv2.weight f4 [20, 10, 5, 5]
0	0xbd55a29d	-0.052157033
1	0xbbd42d6f	-0.0064751427
2	0x3d12c542	0.03583265
3	0xbd7c6f43	-0.061629545
4	0x3d80059a	0.062510684
5	0xbc8d334e	-0.017236378
6	0xbd0cc7ae	-0.034370117
7	0x3d7a9b7c	0.061183438
8	0x3d15bab4	0.036555007
9	0x3d58e35c	0.0529512
10	0xbd75e189	-0.06002954
11	0xbd218ed9	-0.03944287
12	0x3ce4e2c8	0.027940169
13	0xbcd5048b	-0.026003143
14	0x3d78439b	0.06061135
15	0x3d2e34c5	0.042530794
16	0xbc75bdec	-0.014998894
17	0x3d5bb591	0.053639952
18	0x3af63285	0.0018783367
19	0x3d2db273	0.04240651
20	0x3d68be58	0.05682215
21	0x3b2882ce	0.0025712731
22	0xbd86270b	-0.065504156
23	0xbd459836	-0.048240863
24	0xbd80e546	-0.062937304
25	0xbb78c299	-0.0037957786
26	0xbd607620	-0.054800153
27	0x3b728685	0.003700645
28	0xbd8b5b2b	-0.06804498
29	0xbbebf07e	-0.0072002998
30	0xbda72d5f	-0.08162951
31	0x3b2009a1	0.0024419802
32	0xbc08d6c9	-0.00835199
33	0x3d00b3d7	0.03142151
34	0xbd29aa34	-0.041422084
35	0xbc4087f5	-0.011751165
36	0xbd4d5a0e	-0.05013471
37	0xbd945553	-0.07242837
38	0x3d0b17e3	0.033958327
39	0xbd2cca18	-0.04218492
40	0x3d5cff79	0.053954575
41	0xbcacd135	-0.021095851
42	0x3d5d0d2b	0.053967636
43	0xbd29b3c4	-0.041431203
44	0xbd30313e	-0.04301571
45	0x3d4a4fbf	0.049392458
46	0x3d961eb2	0.073300734
47	0xbd2b1c2c	-0.041774914
48	0x3d529436	0.051410876
49	0x3d350cfa	0.04420183
50	0xbd15029a	-0.036379434
51	0x3d38a41f	0.045078393
52	0x3d8d0790	0.06886208
53	0x3d505a71	0.0508675
54	0x3c0a61c9	0.008446165
55	0x3d568722	0.052374966
56	0xbcbe94cc	-0.023264311
57	0xbc7be425	-0.015374218
58	0x3cc4b9ab	0.024014315
59	0xba734152	-0.0009279448
60	0xbccb8a03	-0.024846083
61	0xbc4fbd00	-0.012679338
62	0xbc50a0bc	-0.012733635
63	0x3d358098	0.04431209
64	0x3d4be2ff	0.049777027
65	0xbd494c4f	-0.04914504
66	0x3d22b571	0.039723817
67	0xbd56cd7e	-0.052442066
68	0xbaba5e6e	-0.0014218816
69	0xbd895386	-0.06705384
70	0xbc78c06c	-0.015182596
71	0xbcdd3ec9	-0.027007477
72	0xbd4e11eb	-0.050310057
73	0xbd4631cf	-0.048387345
74	0xbcaa7084	-0.020805605
75	0xbb953b12	-0.004554161
76	0xbd432eef	-0.04765218
77	0x3cf58fa2	0.029975716
78	0x3cb0257d	0.02150225
79	0x3c8986ea	0.016787965
80	0xbd33acf1	-0.0438661
81	0x3d0f784d	0.035026837
82	0x3c89f1b6	0.01683889
83	0xbcfb9091	-0.030708583
84	0x3d258a69	0.0404152
85	0xbd60ee88	-0.05491498
86	0xbda80afd	-0.08205221
87	0xbc11f78d	-0.008909118
88	0x3c3a588e	0.011373652
89	0xbcc7669a	-0.024340916
90	0x3bd2b766	0.006430554
91	0x3d609328	0.05482784
92	0x3a85da0f	0.0010212081
93	0x3aee6d4b	0.0018190531
94	0xbd8a179f	-0.067427866
95	0xb9fa16dc	-0.00047700747
96	0xbcc3a582	-0.023882631
97	0x3b4686db	0.0030292782
98	0xbadda0fb	-0.0016908938
99	0xbcf8fda9	-0.030394392
100	0x3cb1f768	0.021724418
101	0x3d87581b	0.06608602
102	0xbc8d32eb	-0.017236194
103	0x3d08ae4e	0.033369355
104	0xbd616263	-0.05502547
105	0xbd68024b	-0.05664281
106	0x3d5d6b71	0.054057542
107	0x3c60fa2a	0.013731519
108	0x3c92bf09	0.017913358
109	0x3d2d42d3	0.042300057
110	0xbd379966	-0.044824027
111	0xbbf6ee0a	-0.0075357007
112	0xbd547253	-0.05186684
113	0xbc016feb	-0.0079002185
114	0xbc9f4678	-0.019442782
115	0x3c564742	0.013078513
116	0x3d93e406	0.072212264
117	0xbd4c0cc7	-0.049816873
118	0x3cd77e2d	0.026305282
119	0xbcaa3205	-0.020775804
120	0x3b512cfc	0.0031917682
121	0x3d92903e	0.07156418
122	0xbda6820d	-0.08130274
123	0xbd8e9281	-0.06961537
124	0xbd6901e2	-0.05688656
125	0x3c4f1a30	0.012640521
126	0x3d150d26	0.036389492
127	0x3c9ec059	0.019378828
128	0x3d026e8d	0.03184371
129	0x3c8583fb	0.016298285
130	0x3ce0194e	0.027355816
131	0xbd88ac2a	-0.06673463
132	0xbcf0e715	-0.029407063
133	0xbc274902	-0.0102102775
134	0x3c3381a7	0.0109562045
135	0xbcb9e027	-0.022689892
136	0xbd7dde66	-0.061979674
137	0xbd2b7f49	-0.041869435
138	0xbcaabd5c	-0.020842247
139	0x3caed37b	0.021341076
140	0x3ce19813	0.027538335
141	0x3cfcee0b	0.030875226
142	0x3c20bbd9	0.009810411
143	0xbd4ab8ce	-0.04949265
144	0x3b2ef2e1	0.002669506
145	0xbd8f84be	-0.070077404
146	0x3d28f4af	0.041248973
147	0xbd8d0f4f	-0.068876855
148	0xbc9d8d0d	-0.019232297
149	0x3c815d87	0.015791668
150	0xbd887397	-0.06662672
151	0xbd3d184d	-0.046165753
152	0x3c0bace5	0.008525108
153	0x3d6429b1	0.055703823
154	0xbaf88c52	-0.0018962717
155	0x3c8d007b	0.017212143
156	0xbc85960e	-0.016306903
157	0xbd4331db	-0.047654968
158	0x3ce3f4b0	0.027826637
159	0xbd73ceea	-0.0595235
160	0xbd5412f8	-0.051775903
161	0x3c92d5b8	0.017924175
162	0xbc8bcdb4	-0.01706586
163	0xbd08f2d3	-0.0334347
164	0xbc9dd85c	-0.019268207
165	0xbd4b5673	-0.04964299
166	0x3d41947c	0.047260746
167	0xbc2c35a7	-0.010510839
168	0x3bc64568	0.0060507543
169	0xbd0e6cc4	-0.034771696
170	0x3d6e0e47	0.058119085
171	0xbcddd90a	-0.027081031
172	0x3ca7a41a	0.020463992
173	0x3d7b9e70	0.061430395
174	0x3cfa82d4	0.030579962
175	0xbd92bdc1	-0.07165099
176	0xbb47afee	-0.0030469852
177	0xbc6ffe2c	-0.014648002
178	0xbd3a7164	-0.045518294
179	0xbd302b52	-0.043010063
180	0xbd707104	-0.05870153
181	0xbb97ccc7	-0.0046325657
182	0xbd211b6e	-0.0393328
183	0xbc9ea343	-0.019364959
184	0xbbc767d4	-0.0060853753
185	0x3d2ab773	0.041678857
186	0xbd8b7e38	-0.06811184
187	0xbd0109bc	-0.031503424
188	0xbd52190d	-0.05129342
189	0xbd02bbb8	-0.031917304
190	0x3cc97de9	0.024596171
191	0x3ca3c58d	0.01999166
192	0xbce9dc00	-0.028547287
193	0x3d046f1b	0.03233252
194	0x3d0ba42a	0.034092106
195	0x3d322a52	0.04349739
196	0xbcac41f6	-0.021027546
197	0xbc619b21	-0.013769896
198	0x3cf090e2	0.02936596
199	0x3b914b11	0.0044339974
200	0x3c249c4d	0.010047031
201	0x3d2dfee5	0.042479414
202	0x3d8020a0	0.06256223
203	0x3c7a4db0	0.015277311
204	0x3d20b45a	0.039234497
205	0xbd521ece	-0.05129891
206	0xbba1978e	-0.004931397
207	0x3d04e912	0.032448836
208	0xbd33c1c4	-0.04388596
209	0xbd39bcbe	-0.045346014
210	0x3d737838	0.05944082
211	0x3cde5ea8	0.027144745
212	0xbd72c4d4	-0.05926974
213	0x3d01897d	0.03162526
214	0x3d228edd	0.039687026
215	0x3d22608f	0.039642867
216	0xbd470029	-0.048584137
217	0xbd96fb7d	-0.07372186
218	0xbd2bfc4f	-0.041988667
219	0xba6e53bf	-0.00090914586
220	0x3b7f449e	0.003895081
221	0xbd9b0760	-0.07569766
222	0x3cb048cc	0.021519087
223	0x3c5bdd43	0.013419452
224	0xbd88bf98	-0.066771686
225	0xbd6de4d3	-0.058079552
226	0x3d36a5c0	0.044591665
227	0x3d8e5e39	0.06951565
228	0x3c80ccd7	0.015722675
229	0xbb832625	-0.00400235
230	0x3d39efcc	0.045394704
231	0xbcd59b73	-0.0260751
232	0x3d22041f	0.03955471
233	0x3cd7c6e7	0.026339961
234	0x3d2e1883	0.042503845
235	0xbd01b8d2	-0.0316704
236	0xbc635de2	-0.013877364
237	0x3d344466	0.044010542
238	0x3b67b725	0.0035356965
239	0xbd6f790f	-0.05846506
240	0xbd6720a8	-0.056427628
241	0xbdad8810	-0.084732175
242	0x3d14b588	0.036305934
243	0x3d27a6af	0.040930446
244	0xbbdf3ea3	-0.006812887
245	0xbc268c62	-0.010165306
246	0xbcfd735f	-0.030938802
247	0x3ce1346f	0.027490823
248	0x3d3a38b2	0.045464225
249	0xbb94a3b3	-0.004536116
250	0x3c735517	0.01485183
251	0xbd252ead	-0.040327717
252	0xbb505bd2	-0.003179301
253	0x3cac9d07	0.02107097
254	0xbc3a87aa	-0.011384884
255	0xbd2a1f28	-0.04153362

conv2.bias f4 [20]
0	0xbd857048	-0.065155566
1	0xbd31359e	-0.043264024
2	0xbd607a1d	-0.054803956
3	0xbd0f3e70	-0.034971654
4	0x39b12913	0.00033790673
5	0x3cede10c	0.029037975
6	0xbce9c30c	-0.028535388
7	0xbc566537	-0.013085655
8	0x3d210e7a	0.039320447
9	0x3d0323ee	0.032016687
10	0x3d0e8c0b	0.034801524
11	0x3b4c07a8	0.0031132493
12	0x3bf52b99	0.007482004
13	0x3d29dff8	0.04147336
14	0x3d2d7fdd	0.042358268
15	0xbd344e14	-0.044019774
16	0x3c0853d1	0.008320765
17	0x3d1dc7c9	0.038520608
18	0x3cf65dbf	0.030073998
19	0xbd10deda	-0.035368778

fc1.weight f4 [50, 320]
0	0xbbdc8292	-0.0067294324
1	0x3d208051	0.039184872
2	0x3c88b9b9	0.016690122
3	0xbd446a04	-0.047952667
4	0xbbef5e48	-0.0073049404
5	0xbb0458b2	-0.0020194468
6	0xbd33bd40	-0.043881655
7	0x3acc09c9	0.0015566881
8	0x3c3a325e	0.011364548
9	0xbc0d871f	-0.008638172
10	0xbd0448f3	-0.032296132
11	0x3d1cff20	0.038329244
12	0xbd05e045	-0.032684583
13	0xbd24793f	-0.04015469
14	0xbcf932c5	-0.030419717
15	0x3bd51c04	0.006503584
16	0x3cfcc3f3	0.030855155
17	0xbc8d2f53	-0.01723448
18	0xbcf45493	-0.029825484
19	0x3c549e67	0.012977219
20	0xbd25ce1d	-0.040479768
21	0x3ca6c64b	0.020358225
22	0x3d29cdcf	0.04145604
23	0xbb8826f9	-0.0041550365
24	0xbc381f75	-0.011237969
25	0xbd56185e	-0.052269332
26	0xbcf1e262	-0.029526893
27	0x3d532f95	0.05155905
28	0xbb99a09b	-0.004688335
29	0xbb88d8f6	-0.0041762544
30	0x3bdef309	0.0068038744
31	0xbd421f6d	-0.04739325
32	0x3bcb77b9	0.0062093404
33	0xbd5f2569	-0.054479036
34	0xbd025ab9	-0.0318248
35	0x3d29cdcf	0.04145604
36	0xbc7c104d	-0.015384746
37	0xbd18d847	-0.037315633
38	0x3c0c076e	0.008546693
39	0x3cd99b5c	0.026563339
40	0x3caac660	0.020846546
41	0xbc8bce64	-0.017066188
42	0xbd08b3ea	-0.033374704
43	0xbce6b50c	-0.028162502
44	0xbd2732ed	-0.04082005
45	0x3d122a41	0.035684828
46	0xba9fc4b6	-0.0012189362
47	0xbd133a20	-0.035944104
48	0xbd445ce1	-0.04794014
49	0xbd6fe1a7	-0.05856481
50	0xbd1477cc	-0.03624706
51	0xbc4fd3fd	-0.012684819
52	0xbbb404ca	-0.005493735
53	0x3ce13729	0.027492123
54	0x3b167de7	0.0022963227
55	0xbc4e96b7	-0.012609175
56	0x3d31285f	0.04325139
57	0x3ce9224a	0.028458733
58	0xbd28d04f	-0.041214284
59	0x3d64d3e6	0.055866145
60	0xbc7562b7	-0.014977149
61	0xbb33235f	-0.0027334315
62	0x3cac6763	0.021045392
63	0x3cd42f20	0.025901377
64	0x3d0cb20b	0.034349483
65	0xbd1bcc62	-0.03803671
66	0xbd129d84	-0.03579475
67	0xba50683a	-0.0007950101
68	0xbc723431	-0.014782951
69	0xbd45bb3f	-0.048274275
70	0xbd1e076d	-0.0385813
71	0x3ad30502	0.0016099515
72	0xbd43349d	-0.047657598
73	0xbd35bf19	-0.044371698
74	0x3d3be0cf	0.04586869
75	0x3d3f20a3	0.046661984
76	0x3d1ef4df	0.038807746
77	0xbd4a7953	-0.04943211
78	0xbd212f67	-0.039351847
79	0xbd0cb5c7	-0.034353044
80	0x3c6b7634	0.014371444
81	0xbcfebe22	-0.031096522
82	0xbd65d83f	-0.05611443
83	0xbc1871eb	-0.009304504
84	0xbcd7a58d	-0.026324058
85	0x3d28bba5	0.041194577
86	0x3cd12afe	0.025533196
87	0xbc90e63e	-0.017687913
88	0x3d3d4797	0.04621085
89	0x3cea0d11	0.028570684
90	0xbcb224e2	-0.021746103
91	0xbd503e5e	-0.050840728
92	0xbc5333f7	-0.012890807
93	0xbb2e8902	-0.0026631956
94	0x3cb45bce	0.022016432
95	0x3cab05d3	0.0208768
96	0xbb77b584	-0.00377974
97	0xbcc8d7c6	-0.024516951
98	0xbd5119a9	-0.051049862
99	0x3c87236a	0.016496379
100	0xbd39c75a	-0.045356132
101	0xbbc917a8	-0.0061368532
102	0xbbc28081	-0.005935729
103	0x3c943ea2	0.018096272
104	0x3c62d1d4	0.013843972
105	0xbc6b9900	-0.01437974
106	0xbcc2ee55	-0.023795286
107	0x3d59ab40	0.053141832
108	0xbd0db50f	-0.0345965
109	0x3ab37d41	0.0013693945
110	0xb905b07a	-0.00012749611
111	0xbd5400be	-0.05175852
112	0xbcd9c3db	-0.026582649
113	0xbd275a78	-0.040857762
114	0x3d40523c	0.046953425
115	0x3d5f135f	0.054461833
116	0x3cc0a43f	0.023515819
117	0x3bde7558	0.006788891
118	0xbc6d6c38	-0.014491133
119	0x3d23d6d2	0.03999979
120	0xbc46af19	-0.0121267075
121	0x3c0000c9	0.007812687
122	0xbc507236	-0.0127225425
123	0xbd3d59b6	-0.046228133
124	0xbc161b0b	-0.009161721
125	0xbd164e9d	-0.036696065
126	0x3bd2f2d9	0.006437641
127	0xbbca4efe	-0.0061739674
128	0xbd60af84	-0.054854885
129	0xbc30f710	-0.010801092
130	0x3bfc1008	0.0076923408
131	0xbbb8e9b9	-0.0056430963
132	0x3d269577	0.040669885
133	0x3b9450e6	0.0045262454
134	0x3c3e5b87	0.0116185015
135	0x3c614614	0.013749618
136	0xbd56786a	-0.05236093
137	0x3d27693d	0.040871847
138	0xbd1b1e7f	-0.03787088
139	0x3d1b3292	0.037890024
140	0x3d201b37	0.039088454
141	0x3d190b0c	0.03736405
142	0x3d1e7d3b	0.038693648
143	0x3c049c51	0.008093909
144	0x3d3b00c6	0.045655034
145	0x3ca22380	0.019792318
146	0x3ca3b00d	0.019981408
147	0xbd29aa2b	-0.04142205
148	0xbb0b553a	-0.0021260516
149	0xbd41ef74	-0.0473475
150	0xbc01de2c	-0.007926505
151	0x3c1728a3	0.009225997
152	0xbd51deb7	-0.051237788
153	0x3badf9de	0.0053093275
154	0xbd1d03ba	-0.038333632
155	0xbc6cc296	-0.01445069
156	0x3b05639b	0.002035356
157	0xbc8f7557	-0.017512007
158	0x3ccbb201	0.024865152
159	0x3cd15a6b	0.02555581
160	0x3d503862	0.05083502
161	0x3d1dfdbe	0.038572066
162	0xbd20ec05	-0.039287586
163	0x3ca1d708	0.019755855
164	0x3b06db74	0.0020577582
165	0xbd58ec2f	-0.052959617
166	0xbd3d86a3	-0.046270978
167	0xbc67cf92	-0.01414861
168	0xbcb20706	-0.021731865
169	0x3d078fcd	0.033096123
170	0x3cdb8741	0.026797893
171	0x3d0bed4e	0.03416186
172	0x3c834e61	0.016028585
173	0xbd4c8461	-0.049930934
174	0xbd4cc6d5	-0.04999431
175	0x3b998a26	0.004685658
176	0xbc29144d	-0.0103197815
177	0xbb936604	-0.004498245
178	0x3ce4bdce	0.027922537
179	0xbc8a04be	-0.016847964
180	0xbcf5933c	-0.029977433
181	0x3b025ff5	0.001989362
182	0xbd3ade56	-0.045622192
183	0x3d04ef50	0.03245479
184	0xbd5bd483	-0.053669464
185	0x3a39962f	0.0007079569
186	0xbcfb4af6	-0.030675393
187	0xbd37ac36	-0.044841968
188	0xbc8b179f	-0.016979037
189	0xbc93eaec	-0.018056355
190	0x3d019aee	0.031641893
191	0xbcccb23a	-0.024987329
192	0x3d35b7dc	0.044364795
193	0xbc46dc75	-0.012137522
194	0xbd687870	-0.056755483
195	0xbc4f9d52	-0.012671785
196	0x3ce56c68	0.028005794
197	0x3bbbb78b	0.005728667
198	0x3bed26d2	0.0072372938
199	0x3bbe13d0	0.0058007017
200	0xbd34369e	-0.0439974
201	0xbd1c5b63	-0.03817309
202	0x3cadb41a	0.021204043
203	0x3d1dccaf	0.03852528
204	0xbd00dc85	-0.031460304
205	0x3be29585	0.006914797
206	0x3d0d482c	0.034492657
207	0x3ad199d6	0.0015991281
208	0x3ce1ec92	0.027578626
209	0x3b73a5ec	0.0037177755
210	0xbcc74a40	-0.024327397
211	0xbd0fdd34	-0.035123065
212	0x3b981c75	0.004642064
213	0xbce7812f	-0.028259842
214	0x3d1b86e0	0.037970424
215	0xbccd9471	-0.025095196
216	0xbd208ae1	-0.039194945
217	0x3c9d936f	0.01923534
218	0xbd10930b	-0.03529648
219	0x3be025da	0.0068404498
220	0x3c14d86d	0.009084803
221	0x3d2184c5	0.03943326
222	0xbd0591c0	-0.0326097
223	0xbd17103d	-0.03688072
224	0xbd4e6307	-0.05038741
225	0xbbed382f	-0.0072393636
226	0x3d0617ca	0.03273753
227	0x3d629a3b	0.055322867
228	0xbcc97426	-0.024591517
229	0xbba792e7	-0.0051139477
230	0x3cc0a741	0.023517253
231	0xbd66adf9	-0.056318257
232	0x3d5314a1	0.051533345
233	0xbd2bdcd2	-0.041958638
234	0x3cf9d054	0.030494846
235	0xbd6666fc	-0.056250557
236	0xbb2f7958	-0.0026775207
237	0x3d4d6d1a	0.050152875
238	0xbd108cfe	-0.03529071
239	0xbd64386a	-0.055717863
240	0x3d41820c	0.047243163
241	0x3c2d489a	0.010576392
242	0x3be239c2	0.006903858
243	0x3d20e493	0.039280485
244	0x3cb9dfbf	0.022689698
245	0x3d363d59	0.0444921
246	0xbcd5266a	-0.026019294
247	0xbcfa802d	-0.030578697
248	0xbd48b920	-0.049004674
249	0xbcd07109	-0.025444524
250	0xbc5435bf	-0.012952267
251	0x3d2517c0	0.040305853
252	0x3bf4a11c	0.007465495
253	0x3c024224	0.0079503395
254	0x3c07b1cb	0.008282135
255	0xbcde7235	-0.027154068

fc1.bias f4 [50]
0	0xbb830675	-0.0039985725
1	0xbcc98133	-0.02459774
2	0xbd0048a6	-0.031319283
3	0xbd820b75	-0.063498415
4	0x3be4e53c	0.0069853347
5	0x396a13d6	0.00022323368
6	0x3cc1b30b	0.023644945
7	0x3cceb5d3	0.025233185
8	0xbcf7b615	-0.03023819
9	0x3c36ef32	0.011165427
10	0xbd418929	-0.047249947
11	0xbb0d90da	-0.002160123
12	0xbbc7e6ad	-0.0061004967
13	0x3c8923aa	0.016740639
14	0x3ce97615	0.028498689
15	0xbcf74887	-0.03018595
16	0xbcd8beff	-0.026458262
17	0x3cb2fee3	0.021850055
18	0x3c7567eb	0.014978389
19	0x38159004	3.5658493e-05
20	0xbd06e79c	-0.032935724
21	0xbc08e509	-0.0083553875
22	0xbc9d5439	-0.0192052
23	0x3d92c7be	0.07167004
24	0x3d654949	0.055978093
25	0x3c5360e6	0.01290152
26	0x3cfd9581	0.030955078
27	0xbd2be0fe	-0.041962616
28	0xbd7e63a3	-0.06210674
29	0x3d368b67	0.04456654
30	0xbd073563	-0.033009898
31	0xbb61e1be	-0.0034466828
32	0x3ae4eac0	0.001746498
33	0xbd16e166	-0.03683605
34	0xbd28a3f9	-0.041172
35	0x3d5f4d7f	0.054517265
36	0xbd14ee3e	-0.036360018
37	0xbd4e02a4	-0.050295487
38	0x3d3badf6	0.0458202
39	0xbc448ec2	-0.011996927
40	0xbd471889	-0.048607383
41	0xbd5ee212	-0.054414816
42	0x3b5a9414	0.0033352422
43	0x3d26cddd	0.04072367
44	0x3ca22532	0.019793127
45	0x3ca5502f	0.020179836
46	0xbafe2e68	-0.0019392492
47	0xba399210	-0.0007078955
48	0xbc93be5b	-0.018035104
49	0x3d7c7c9a	0.061642267

fc2.weight f4 [10, 50]
0	0xbdf53a52	-0.11974014
1	0x3d42c154	0.047547653
2	0xbdd478c2	-0.10374595
3	0x3d4c163c	0.04982589
4	0x3d45bd7e	0.048276417
5	0xbd82d41e	-0.063881144
6	0xbdf73bb1	-0.12071932
7	0xbd16c310	-0.03680712
8	0xbd210e53	-0.0393203
9	0xbdae65f1	-0.085155375
10	0x3df28b66	0.118429944
11	0xbdebd4fa	-0.115152314
12	0x3e226ee2	0.15862611
13	0xbe7de8f8	-0.24795902
14	0xbd91df9e	-0.0712273
15	0xbcab05ec	-0.020876847
16	0xbcc07d7d	-0.023497337
17	0xbe17accf	-0.14812015
18	0xbd71a686	-0.0589967
19	0x3d01689d	0.031593908
20	0xbdfb7c0a	-0.12279518
21	0x3d444fcb	0.04792766
22	0x3d808f37	0.06277316
23	0xbddb344b	-0.107033335
24	0xbdf2c3fb	-0.118537866
25	0xbd5b75d7	-0.053579178
26	0x3b824deb	0.0039765737
27	0xbddc82ca	-0.107671335
28	0x3d68eac9	0.056864534
29	0xbe2e6fda	-0.17034855
30	0xbdf71bb4	-0.12065831
31	0x3de63194	0.11239925
32	0x3e1e4558	0.1545614
33	0xbca8c26a	-0.020600516
34	0xbd962c2d	-0.073326446
35	0x3d9fd773	0.078047656
36	0x3dade5ea	0.08491118
37	0x3dcc8f5b	0.099882804
38	0x3dd57b44	0.10423902
39	0x3de8045e	0.11328958
40	0xbdbc76f6	-0.092023775
41	0x3ce50e09	0.027960794
42	0xbdb3afa7	-0.087737374
43	0xbda2609f	-0.07928585
44	0x3c1511b8	0.009098463
45	0xbd7e88f3	-0.062142324
46	0xbe45a28b	-0.19300286
47	0xbd6a2063	-0.057159793
48	0x3e732d5e	0.23747775
49	0x3e57ef66	0.21087417
50	0x3d0abd45	0.033871908
51	0x3e156927	0.14590894
52	0xbd2d78a0	-0.042351365
53	0xbd9d2771	-0.076735385
54	0x3dc8a51e	0.097971186
55	0xbdcd9e80	-0.10039997
56	0xbe0c5bb2	-0.13706854
57	0xbccb7bc4	-0.02483929
58	0xbce7ddab	-0.028303942
59	0x3d9d111d	0.0766928
60	0xbe18e389	-0.14930548
61	0xbe1304d1	-0.14357306
62	0xbe2dc0aa	-0.16968027
63	0xbdbb5785	-0.091475524
64	0x3d519ba3	0.051173817
65	0x3e1bf123	0.15228705
66	0xbe0e1df8	-0.1387862
67	0xbcfe9029	-0.0310746
68	0x3e0189a9	0.1265017
69	0x3c420166	0.011841154
70	0x3da4ef71	0.08053482
71	0x3c3dfcce	0.011595918
72	0xbe2cff78	-0.16894329
73	0xbd4fdf53	-0.050750088
74	0xbd1ce904	-0.03830816
75	0xbddc10d4	-0.10745397
76	0x3ddcfb14	0.10790077
77	0xbbff48e4	-0.0077906717
78	0xbdb2b67a	-0.08726211
79	0x3dec6cda	0.11544199
80	0x3d07b6e1	0.03313339
81	0x3d7ec04d	0.06219511
82	0xbd5b1aa8	-0.05349222
83	0xbcd77513	-0.026300943
84	0xbda3eafb	-0.08003803
85	0x3d2c6587	0.04208901
86	0xbddafa37	-0.10692256
87	0x3cd30edc	0.025763921
88	0xbe12e5fe	-0.14345548
89	0x3d770137	0.060303893
90	0xbdc62680	-0.09675312
91	0xbd3f034e	-0.04663401
92	0xbe17686a	-0.14785925
93	0xbd168044	-0.036743417
94	0xbe376d03	-0.17912678
95	0xbd157bd1	-0.036495034
96	0xbcad82e0	-0.02118057
97	0x3dc5b933	0.096544646
98	0x3c0d8168	0.00863681
99	0xbd0e5244	-0.034746423
100	0x3dbfb83f	0.09361314
101	0xbd886a3e	-0.06660889
102	0xbdb710b7	-0.08938735
103	0xbbdd62cb	-0.006756162
104	0x3e5ad20f	0.21369193
105	0xbd9b95dc	-0.07596943
106	0x3d04080a	0.03223423
107	0x3d709055	0.058731396
108	0x3d455fd0	0.048187077
109	0x3dd11648	0.10209328
110	0x3d0941ab	0.03350989
111	0xbd12dfef	-0.03585809
112	0x3da554c6	0.0807281
113	0xbdad259f	-0.08454441
114	0xbde25a2a	-0.11052354
115	0x3c897e36	0.016783815
116	0x3deada2c	0.11467394
117	0x3cd8854f	0.026430754
118	0xbe00be14	-0.12572509
119	0x3d6150dd	0.055008758
120	0x3be098ee	0.006854168
121	0xbdb65fbe	-0.0890498
122	0x3d99c787	0.0750876
123	0xbe3813f4	-0.17976362
124	0xbd1d6212	-0.038423605
125	0xbc51bd23	-0.012801441
126	0x3da3640c	0.07978067
127	0xbdca5ede	-0.09881376
128	0xbd94f060	-0.072724104
129	0x3da8970c	0.08231935
130	0x3d8656df	0.06559538
131	0x3dc9caae	0.09853111
132	0xbd38effb	-0.04515074
133	0xbd8cac4f	-0.06868803
134	0xbc3e67cc	-0.011621427
135	0x3dc16919	0.09443874
136	0xbe00dd55	-0.12584431
137	0x3d6635e4	0.056203738
138	0xbc751a97	-0.014959953
139	0x3d9d529a	0.076817706
140	0xbde479a6	-0.11156015
141	0xbd7f1932	-0.062279887
142	0x3b678656	0.0035327873
143	0x3dac89bd	0.08424709
144	0xbcb3475f	-0.021884618
145	0xbdc387c0	-0.09547377
146	0x3df2938a	0.11844547
147	0x3ce78757	0.028262777
148	0xbdb7302c	-0.08944735
149	0xbb9cea6a	-0.0047886865
150	0x3da66430	0.08124578
151	0xbdaa2d82	-0.08309461
152	0x3cb0a009	0.021560686
153	0x3db7142d	0.08939395
154	0xbd301aa4	-0.042994156
155	0x3db237a9	0.087020226
156	0x3d4205f5	0.047368962
157	0x3ce1f81c	0.027584128
158	0x3e12e1ce	0.1434395
159	0xbd79a4ab	-0.060948055
160	0xbdb09de0	-0.08623862
161	0x3d9c541c	0.0763323
162	0xbdaf2c28	-0.08553344
163	0xbd8b99d9	-0.068164535
164	0xbdc4e92a	-0.09614785
165	0xbdea1246	-0.11429267
166	0xbbfff93a	-0.0078116925
167	0xbd05eac7	-0.032694604
168	0xbc1a98f5	-0.009435882
169	0x3e09c256	0.1345304
170	0x3cf844a4	0.030306168
171	0x3d58eb38	0.052958697
172	0xbdd33811	-0.10313428
173	0xbd10fb47	-0.035395887
174	0x3d185256	0.037187897
175	0xbde2bed7	-0.11071556
176	0x3e3c634b	0.18397252
177	0xbd7cd32e	-0.061724834
178	0x3ca41c35	0.020032981
179	0x3e062cd8	0.13103044
180	0xbd8ac920	-0.06776643
181	0x3e129fc0	0.14318752
182	0xbe20cb3c	-0.15702528
183	0xbd9a3866	-0.075302884
184	0x3cc94b90	0.024572164
185	0xbd945a7f	-0.07243823
186	0xbe61c89a	-0.2204918
187	0x3dc56c25	0.096397676
188	0x3d21c742	0.039496668
189	0xbddf8587	-0.1091414
190	0xbd8f1c96	-0.06987874
191	0xbd094073	-0.03350873
192	0x3d83a84f	0.06428587
193	0xbd4d48a1	-0.050118092
194	0x3dec15b6	0.115275785
195	0xbdc25d4f	-0.094904535
196	0x3e0b73e4	0.13618428
197	0x3e468a29	0.19388641
198	0xbe0dff6d	-0.13866968
199	0xbb096c7e	-0.0020969207
200	0x3d1d79de	0.0384463
201	0xbdd43ec3	-0.10363533
202	0x3d45b5ce	0.048269086
203	0x3d021a25	0.031763215
204	0xbc52bfc1	-0.0128631005
205	0xbc2696d4	-0.010167796
206	0xbdf3e09a	-0.11908074
207	0xbdcd88ac	-0.10035834
208	0x3e092ac9	0.13395227
209	0xbdf31e92	-0.11871065
210	0x3d53162f	0.051534828
211	0xbc2d2f6c	-0.010570388
212	0xbb50b06c	-0.0031843437
213	0x3c6dc7cf	0.01451297
214	0x3dbc5902	0.091966644
215	0x3dbafbf1	0.09130085
216	0x3ca583fe	0.02020454
217	0x3d1e5f59	0.03866515
218	0xbcd92138	-0.026505098
219	0xbc8db9fc	-0.017300598
220	0xbd9bc892	-0.07606615
221	0xbb458d5e	-0.0030144076
222	0x3d401f52	0.04690487
223	0xbd3e9013	-0.04652412
224	0x3d8a922c	0.06766161
225	0x3d852d2a	0.06502755
226	0x3df5ff4b	0.12011584
227	0xbe194aa9	-0.14969887
228	0x3dad0629	0.084484406
229	0xbd8190a8	-0.06326419
230	0x3deb1ea3	0.11480453
231	0x3ca887f1	0.020572634
232	0xbd43fe3f	-0.04784989
233	0x3dbc1255	0.09183184
234	0x3de8d1f0	0.113681674
235	0xbd6206aa	-0.055182137
236	0xbb6e93c0	-0.0036403984
237	0x3daf736d	0.085669376
238	0x3c5a53d3	0.013325649
239	0xbe38e468	-0.1805588
240	0x3d78a09a	0.060700037
241	0xbd9a28bf	-0.07527303
242	0x3d6fb880	0.058525562
243	0x3e3391ba	0.17536059
244	0xbdb8cee7	-0.090238385
245	0xbdc4d45a	-0.09610815
246	0x3d6ded0e	0.0580874
247	0x3db2a42e	0.08722721
248	0xbe287cce	-0.16453859
249	0x3da1a486	0.078927085
250	0x3d7d4d79	0.06184146
251	0xbda613fe	-0.08109282
252	0xbcb09caa	-0.021559078
253	0x3df865d3	0.121287964
254	0xbd96f773	-0.07371416
255	0xbe0176d3	-0.12642984

fc2.bias f4 [10]
0	0xbd987076	-0.07443325
1	0x3e1a439e	0.15064856
2	0xbd4203bb	-0.04736684
3	0xbd777c24	-0.060421124
4	0xbc83ff94	-0.01611308
5	0xbd6dbb18	-0.058039755
6	0xbae69ebe	-0.0017594916
7	0xbd172d85	-0.036908645
8	0xbd1cfe53	-0.03832848
9	0xbc84cb58	-0.016210243
