MNIST/Models/Client_2/Trained local models/Trained_8_5_2021_10_42_4.pth (torch, 90095 bytes, 8 tensors)

conv1.weight f4 [10, 1, 5, 5]
000000 19 c7 11 be 69 9b 87 3d 41 a4 ac 3d 44 69 ca bc
       -0.14236106 0.06621439 0.084297664 -0.024708398
000010 0c 15 bb bd 21 49 05 3e e8 17 91 bd 2e 3a 5b bd
       -0.09134874 0.13016178 -0.07084638 -0.05352228
000020 aa d5 0d 3d 9c 83 72 3c 5c 28 76 3d 3f 5d d9 bd
       0.034627594 0.014801886 0.060097083 -0.106134884
000030 e0 b4 a6 bd 6d 39 3b 3d d7 0c 9c bd b1 e7 cc bd
       -0.08139968 0.045709062 -0.076196365 -0.10005129
000040 8f 1e 2b 3e 42 be 3d 3c 7a 11 a9 bb 6b 0a f6 3d
       0.16710876 0.0115810055 -0.005159554 0.12013706
000050 42 5c ff bd 63 bc 2d be 22 82 cf 3d fc d1 d7 bd
       -0.12468769 -0.16966395 0.10132243 -0.10538098
000060 a2 f0 19 be b4 11 64 be a6 9c 0e be 2a d7 7a 3d
       -0.150332 -0.22272378 -0.13926944 0.061240353
000070 0d f8 31 be bc 46 e2 3d 21 cd 1d bd b2 2c 59 3c
       -0.1737978 0.11048648 -0.038525704 0.013255285
000080 5a 47 30 bd 0a 93 42 bd 42 17 f2 3c d4 19 55 be
       -0.043036796 -0.04750351 0.029552106 -0.20810634
000090 ad ef 23 3d cd 16 a4 3d 67 fc b9 bc 94 b2 ce 3d
       0.040023495 0.080121614 -0.022703363 0.10092655
0000a0 7c 6d 03 bd 59 ea aa 3d 4c 99 16 be 96 cf e6 bc
       -0.032086834 0.083454795 -0.14706916 -0.028175157
0000b0 29 78 53 3e 38 e8 17 3e aa 88 61 3e 06 ec 68 3e
       0.20651306 0.14834678 0.2202479 0.22746286
0000c0 c6 05 5b 3e 01 75 42 3e cb e9 a9 bd 50 24 f9 3d
       0.21388921 0.18989946 -0.082965456 0.12165129
0000d0 00 dd 0a 3e 97 af 78 3e 94 c8 4f 3e 07 37 f6 bb
       0.13560867 0.24285732 0.20291358 -0.007513884
0000e0 13 00 9c 3d b4 cd d2 bd 57 d7 12 be e5 b8 5f 3c
       0.07617202 -0.10293141 -0.14339958 0.013654922
0000f0 30 d5 7c 3d c9 e2 04 3e f8 5e 42 bc 58 69 d8 3d
       0.06172675 0.12977137 -0.011863463 0.10566968
000100 ac 8d 3c be 93 22 cd bd b2 48 0b be 60 a9 3f be
       -0.18413419 -0.1001636 -0.1360195 -0.18716955
000110 a5 0c 10 be 70 fd 0b be 2c ba 4d be e1 6f 2d be
       -0.14067324 -0.13670897 -0.2009055 -0.1693721
000120 3b 7e 80 bd 07 e5 69 bd ef 88 12 3e b0 c7 d0 3c
       -0.062740766 -0.057103183 0.14310049 0.025485843
000130 17 02 cd 3d 51 33 d5 3c d8 af fb 3d 50 cd 3c 3e
       0.10010164 0.026025446 0.12289399 0.18437696
000140 92 39 44 be 26 f7 29 be 96 85 f0 bc 65 fd 3a 3e
       -0.19162586 -0.16598186 -0.029360574 0.18260725
000150 2c e9 ff bd 1f df 6e bd 3c 93 23 3e 14 fe db 3d
       -0.12495646 -0.058318254 0.15974134 0.10741821
000160 de bd b4 3d d7 03 c7 bb 6d 02 85 3d f7 4b f5 bb
       0.08825277 -0.006073456 0.06494603 -0.0074858624
000170 7e 9a 45 3e 3a 2e 1f be 48 e0 63 bd e1 45 a7 3c
       0.19297215 -0.15544978 -0.055633813 0.020419063
000180 b8 01 84 3d f0 fc 2b bb b2 d8 f1 3d d0 4c 55 be
       0.0644564 -0.0026243292 0.118089095 -0.20830083
000190 73 53 8a bb a5 7d 33 be 45 65 a6 3d c3 32 41 3e
       -0.0042213737 -0.17528398 0.081247844 0.1886702
0001a0 db 9f e7 3d ed ff fd bd af a5 4f be 72 c1 ac bd
       0.11309787 -0.124023296 -0.20278047 -0.08435334
0001b0 46 4c 97 bd 5a 3d 4e 3d 9c 4b 64 be af 81 3b be
       -0.07387595 0.05035148 -0.22294468 -0.18311189
0001c0 48 6a 36 bd fb b3 a4 3d 17 06 14 3e 07 49 6b 3d
       -0.04453495 0.08042141 0.14455448 0.05744269
0001d0 ba cf e5 3d 3a fc 4e bd 73 a8 e8 bd f3 51 d3 3d
       0.11221261 -0.05053351 -0.11360254 0.10318365
0001e0 b8 21 2d be 00 cd 8a be 12 7f 9b 3d 89 88 1c 3e
       -0.16907394 -0.27109528 0.07592596 0.15286459
0001f0 34 9c 51 3e 56 58 b2 bd f4 df fd bd d9 48 10 3e
       0.20469743 -0.08708255 -0.12396231 0.14090289
000200 d7 5b b9 bd 78 e1 64 3e bc e6 66 bd 5b 55 72 3e
       -0.0905072 0.22351635 -0.05637239 0.23665373
000210 85 8c 34 3e 90 5b 74 3e cc bf 93 bd 99 1b 06 3e
       0.17631729 0.23863053 -0.07214317 0.13096465
000220 79 6d 07 be d5 63 32 3e 9c 36 24 3d ad 64 e0 3c
       -0.13225354 0.17420895 0.040091142 0.027391756
000230 23 6b c1 3b bc c6 00 be 78 2c 21 be c1 4a 3c bd
       0.0059026643 -0.12575811 -0.1573962 -0.04596973
000240 1a 57 41 3e 46 44 0c bd 0b 4a 30 be e4 47 04 be
       0.18880883 -0.034244798 -0.17215745 -0.12918049
000250 7c 67 48 be 87 fa 36 bd 2c d4 bd 3c 62 83 e3 bd
       -0.19570726 -0.044672515 0.02317246 -0.11109044
000260 51 7a 19 3e 3f 36 c7 bb 1e 86 33 be bb 10 3f be
       0.14988066 -0.0060794647 -0.1753163 -0.18658726
000270 3e 5f 46 be 84 ff de bd db 22 30 3e c2 b2 b4 3d
       -0.1937227 -0.108885795 0.17200796 0.08823158
000280 13 fd 3b 3e b7 1b 6d 3e 7f e8 a4 bc 2d bb c6 3b
       0.18358259 0.23155104 -0.020130394 0.0060647936
000290 1c 2f 48 3e 25 04 1f 3e 92 39 dd 3d 11 ab 04 3e
       0.19549221 0.15528925 0.10801996 0.12955882
0002a0 45 ec d4 3d df ce f4 bd 1a d4 22 bd 6f fc 18 be
       0.10396627 -0.1195352 -0.039753057 -0.14940046
0002b0 db 32 2e bc 89 9a c7 3d 23 20 cf bd 8f bd 0b 3e
       -0.010632242 0.09746272 -0.101135515 0.1364653
0002c0 5a b2 02 be a0 a3 7a bd e9 a5 8d bd bc 36 14 be
       -0.12763348 -0.0611912 -0.069164105 -0.14474005
0002d0 ad 38 fb bd b0 69 b3 3d 1a 8c 2e bc 1a 76 53 be
       -0.122666694 0.08760393 -0.01065352 -0.20650521
0002e0 b7 f2 da bd 79 d3 5e 3e 22 ad 29 3e b5 49 c3 bd
       -0.106908254 0.21760358 0.16569951 -0.09535543
0002f0 90 a0 4d bc 15 df 1f 3e 5c 03 b3 bc 68 0b ad 3c
       -0.012550488 0.15612443 -0.021852188 0.021123603
000300 f6 c1 38 3e b9 b3 51 3e d5 a5 11 be 28 6b 09 3e
       0.1804274 0.20478715 -0.14223416 0.13419783
000310 9a 0b 1e 3e 0a 39 3c 3e 55 a6 2d be d6 ba fd bd
       0.15434113 0.18381134 -0.16957982 -0.12389152
000320 0d f5 20 3d c2 26 05 3e fb f3 23 3d 7f c2 59 3d
       0.0392962 0.13003066 0.0400276 0.053164
000330 b7 71 80 3d 17 f0 37 be 42 67 b0 3d 08 59 27 3e
       0.062716894 -0.17962681 0.08613445 0.16342556
000340 14 ae 72 bd 33 34 bb bd f2 e6 82 3d 0e 79 50 be
       -0.059248045 -0.091408156 0.063917056 -0.20358679
000350 56 3a ed bc fc 29 0d 3e 23 a5 70 3d 59 07 1f be
       -0.02895848 0.13785547 0.058751237 -0.15530147
000360 91 23 f2 bd 45 79 33 be 6d 2e d2 bd 41 2f a0 3d
       -0.1182319 -0.1752673 -0.10262761 0.07821513
000370 90 78 df bd a2 17 01 3e 92 ee ba bd bb 36 c7 bd
       -0.10911667 0.12606671 -0.09127535 -0.09727236
000380 89 97 90 3d 86 af 2a 3d df 44 49 3e 7e 27 95 bd
       0.07060153 0.0416713 0.19655178 -0.07282923
000390 28 6f 38 3e ae 3b e3 3d 4e e7 57 be 60 ce 3d be
       0.18011153 0.11095367 -0.2108433 -0.18535757
0003a0 74 d7 0c 3e 1e c1 e4 3d 36 a1 72 3e ae 43 00 bc
       0.13754064 0.11169647 0.2369431 -0.007828636
0003b0 ef e5 2f be a8 4d 10 be 10 59 a0 bc 6b 70 1c be
       -0.17177556 -0.14092124 -0.019573718 -0.15277259
0003c0 ff 6d 0f 3e 7a 2b c3 bd ad a9 a8 bd 6b 87 cf bd
       0.14006804 -0.09529777 -0.08235488 -0.10133251
0003d0 8b 79 2e be d9 8e f3 3d d5 70 bd 3d 3a 0c e0 3c
       -0.17038552 0.118924804 0.092500366 0.02734958
0003e0 66 a8 ce bd d5 cf ae bd
       -0.10090713 -0.085357346

conv1.bias f4 [10]
000000 4c 61 e6 bd 8e 52 13 3e 82 62 42 3d 7f 99 45 be
       -0.11249027 0.14386961 0.047457226 -0.19296835
000010 d1 1a 78 bc a7 eb e9 3d ac 3c bc bd c1 86 0a be
       -0.015143112 0.114219 -0.0919126 -0.13527967
000020 eb 45 2d 3e ee 66 c8 3d
       0.16921203 0.09785257

conv2.weight f4 [20, 10, 5, 5]
000000 bf 11 51 bd b2 01 a7 bb 7d 0d 19 3d f2 6a 77 bd
       -0.051042315 -0.0050966376 0.03736638 -0.060404725
000010 37 1f 83 3d 0d f8 83 bc ac 2b 09 bd 18 41 7e 3d
       0.06402438 -0.01610949 -0.033488914 0.062073797
000020 48 ba 18 3d a0 14 5e 3d 46 31 72 bd 5e 66 1f bd
       0.037287027 0.05421889 -0.059129022 -0.038915984
000030 56 b5 e8 3c c5 53 d2 bc 15 f1 7c 3d cc 2b 2f 3d
       0.02840678 -0.02567471 0.06175335 0.042766377
000040 aa c5 75 bc 35 89 5b 3d 67 b0 ea 3a 08 58 30 3d
       -0.01500074 0.053597648 0.0017905355 0.043052703
000050 f4 eb 6a 3d ee b1 5a 3b 28 3f 85 bd 79 95 42 bd
       0.05735393 0.0033370215 -0.06506187 -0.04750583
000060 39 2d 7e bd bc e6 36 bc 19 d3 71 bd 92 fb 93 ba
       -0.062054846 -0.01116341 -0.05903921 -0.0011290184
000070 47 2e 97 bd d9 e4 60 bc f3 3f b1 bd f0 60 9f b9
       -0.073818736 -0.0137264365 -0.086547755 -0.00030399067
000080 93 3f 63 bc 7c 6c d2 3c e8 7a 43 bd 57 07 44 bc
       -0.013870138 0.025686495 -0.047724634 -0.011964641
000090 d6 72 40 bd 79 70 92 bd 81 f4 ff 3c b1 ef 4b bd
       -0.046984516 -0.07150359 0.031244518 -0.049789134
0000a0 75 33 91 3d 74 1c db ba 01 6b 8c 3d 15 b5 12 bd
       0.07089893 -0.0016716854 0.06856347 -0.035817225
0000b0 0f f1 2e bd d9 33 9c 3d ee 93 c8 3d 59 65 da bc
       -0.04271036 0.07627077 0.0979384 -0.026659654
0000c0 74 89 7c 3d 50 89 60 3d b6 2b 01 bd ce 37 5c 3d
       0.061654523 0.05481845 -0.031535827 0.053764157
0000d0 5c ce a0 3d c1 37 78 3d 61 76 84 3c 05 86 5b 3d
       0.0785186 0.060600046 0.016169729 0.053594608
0000e0 8a ab a2 bc 5e 4c 2d bc e3 62 ee 3c 46 b0 0b 3b
       -0.019857187 -0.010577289 0.029099887 0.0021314784
0000f0 60 10 cb bc d9 6d 6c bc 83 e2 68 bc c0 07 2f 3d
       -0.024788082 -0.014430487 -0.014214161 0.042732
000100 a9 a8 47 3d 41 00 4a bd 61 b8 12 3d e1 93 6a bd
       0.04874483 -0.04931665 0.03582037 -0.057269935
000110 4d 82 a1 bb 9d 01 8b bd 0e a6 95 bc 86 41 fe bc
       -0.004928863 -0.06787417 -0.018267658 -0.031037103
000120 dd f1 58 bd c2 e6 46 bd 5e e0 a4 bc 17 c3 e0 ba
       -0.052965034 -0.04855991 -0.020126518 -0.0017147985
000130 74 b9 34 bd 49 f7 15 3d 5f b0 d1 3c 7d 4b 9c 3c
       -0.044122174 0.036612783 0.025596796 0.019078964
000140 b5 21 34 bd da ce 10 3d b4 67 a9 3c 4e 1a f5 bc
       -0.043977458 0.03535352 0.020679332 -0.02991977
000150 96 c9 2b 3d f0 f8 67 bd fe 41 aa bd 92 62 e2 bb
       0.041940294 -0.05663389 -0.08313368 -0.006908723
000160 d6 47 35 3c 08 93 b5 bc 46 a5 8d 3b 30 85 6e 3d
       0.01106449 -0.022164837 0.0043226806 0.058232486
000170 c7 26 c0 3b c7 6f 3a 3b 9f 58 89 bd 1a 80 5d 3b
       0.0058639976 0.0028447972 -0.06706356 0.0033798278
000180 8a 9f 52 bc 36 a3 31 3c 06 d8 29 39 ac 17 fc bc
       -0.01285542 0.010842135 0.00016197571 -0.030773006
000190 fe 0a d4 3c ce 32 a1 3d 4b 5b b3 bb 2d c7 1a 3d
       0.025884148 0.07871018 -0.0054735295 0.037787605
0001a0 4f 14 4d bd 12 dc 5c bd de dc 83 3d 1c 52 b9 3c
       -0.050068196 -0.053920813 0.064386114 0.02262216
0001b0 2c 49 bd 3c 72 d0 44 3d 2f 3e 18 bd 89 9d b3 3b
       0.02310618 0.04805035 -0.037168678 0.005481426
0001c0 90 9a 37 bd 86 20 67 bb e5 c4 8c bc 6f c0 fa 3c
       -0.044825137 -0.0035267188 -0.01718373 0.030609338
0001d0 16 6a b9 3d 58 50 3b bd 2c 4e e8 3c b6 cc ac bc
       0.090534374 -0.04573092 0.028357588 -0.021093708
0001e0 11 b6 bb 3c 54 7f b3 3d a5 e3 a6 bd f4 43 8e bd
       0.022913964 0.0876452 -0.081488885 -0.06946555
0001f0 8e ac 6a bd 64 e3 67 3c 37 98 2c 3d e8 0d da 3c
       -0.057293467 0.014153335 0.04213735 0.02661796
000200 93 71 1b 3d ae f1 a6 3c b9 36 c5 3c 76 23 8d bd
       0.03795011 0.020378914 0.024073945 -0.06891529
000210 5d 74 fa bc e6 4e 38 bc 4f 95 13 3c 49 d6 d1 bc
       -0.030573064 -0.01124928 0.009007766 -0.025614874
000220 fa 93 89 bd 2f 04 45 bd 95 05 da bc 0e 80 89 3c
       -0.067176774 -0.048099693 -0.02661399 0.016784694
000230 43 41 c8 3c 5d c4 c5 3c 65 42 e5 3a 4c dd 5d bd
       0.024445182 0.024141485 0.0017491101 -0.054166123
000240 93 13 a4 ba 76 80 8c bd 90 52 33 3d 86 9c 8d bd
       -0.0012518041 -0.068604395 0.04377991 -0.0691462
000250 cb 2b a5 bc f7 f0 67 3c 80 94 8f bd 68 d2 48 bd
       -0.020162484 0.014156572 -0.07010746 -0.049028784
000260 85 8a 08 3c dc 49 63 3d 20 75 30 bb cd 7b 4a 3c
       0.008333807 0.05549036 -0.002692528 0.012358618
000270 7a 07 a4 bc 20 29 4b bd e9 6e ca 3c 59 93 80 bd
       -0.020023096 -0.049599767 0.02471109 -0.06278104
000280 26 75 63 bd c8 ae 7f 3c 1a fc 9f bc a2 59 17 bd
       -0.055531643 0.015605636 -0.019529391 -0.036950715
000290 33 c0 c0 bc 34 5c 59 bd 69 13 4a 3d 80 33 e5 bb
       -0.023529148 -0.053066447 0.049334917 -0.0069946647
0002a0 02 24 c6 3b 80 01 1b bd fa a5 8a 3d 62 ee 38 bc
       0.006046773 -0.037843227 0.06769939 -0.011287304
0002b0 a0 8b 05 3d b5 4a 8e 3d 56 97 12 3d 6b d3 99 bd
       0.03260386 0.06947843 0.035788856 -0.07511028
0002c0 19 24 f4 bb e9 67 a2 bc fd 74 44 bd f3 aa 33 bd
       -0.0074505922 -0.019824939 -0.04796313 -0.0438642
0002d0 89 97 78 bd b0 69 ff bb 2c eb 30 bd fc 69 c2 bc
       -0.06069139 -0.0077945814 -0.043193027 -0.023732178
0002e0 12 08 1e bc f1 ce 1e 3d 47 6c 8f bd b2 40 f6 bc
       -0.009645479 0.038771573 -0.07003074 -0.030060146
0002f0 3f e4 58 bd dd 3c 13 bd 3f d1 cb 3c 3c fa d3 3c
       -0.052952047 -0.035946716 0.02488005 0.025876157
000300 22 d5 80 bc ac 39 1e 3d 5e 19 0f 3d 64 97 5c 3d
       -0.01572663 0.03862922 0.0349363 0.053855315
000310 63 a6 df bb 9d 76 b1 3b bf 98 33 3d e9 f0 84 3c
       -0.0068252548 0.005415751 0.043846842 0.016228156
000320 e0 a8 63 3c ce 0d 48 3d 06 e8 8d 3d 42 cd ac 3c
       0.013895243 0.04884129 0.069290206 0.021093968
000330 33 a8 36 3d 17 ad 49 bd 69 87 da ba c0 8e 11 3d
       0.044594 -0.049237337 -0.0016672435 0.035536528
000340 2f 49 23 bd 96 8a 2a bd 76 7b 7c 3d ec 40 e7 3c
       -0.039864715 -0.041636072 0.06164118 0.0282292
000350 53 ab 73 bd c2 43 01 3d 52 c2 24 3d f1 05 30 3d
       -0.05948956 0.03155876 0.04022438 0.042974416
000360 60 55 49 bd 2a 96 9b bd bc fe 31 bd f5 0b 26 ba
       -0.049153686 -0.07597001 -0.043455824 -0.0006334179
000370 76 58 aa 3b 96 fd 9d bd a8 4f 95 3c af 93 40 3c
       0.0051985336 -0.07714383 0.01822646 0.0117539605
000380 b1 9a 88 bd 92 a9 54 bd a9 74 56 3d aa b6 9d 3d
       -0.0667013 -0.051919527 0.05235735 0.07700856
000390 fb 1f ae 3c 16 d6 96 38 1d e6 44 3d 95 47 b3 bc
       0.021255484 7.192434e-05 0.048071016 -0.021884719
0003a0 e9 68 3c 3d 08 06 f8 3c cd c7 37 3d 44 28 05 bd
       0.045998488 0.030276313 0.04486828 -0.032509103
0003b0 fc 46 68 bc 2d 52 3c 3d b6 85 b8 3b aa 12 69 bd
       -0.01417708 0.045976806 0.005631174 -0.056902565
0003c0 72 64 6a bd 83 14 af bd 93 fb 1b 3d 47 37 37 3d
       -0.0572247 -0.08548834 0.038081717 0.04473045
0003d0 b5 52 92 bb 79 d8 35 bc 31 a3 01 bd 2d 67 d7 3c
       -0.004465426 -0.011098974 -0.031649772 0.026294315
0003e0 c4 a3 3f 3d 46 ac 38 bb bf 75 62 3c f0 10 29 bd
       0.04678704 -0.0028178855 0.013822018 -0.04127592
0003f0 64 fc 8a bb b1 f4 a2 3c 7b 86 53 bc 9d 54 2e bd
       -0.004241513 0.019892069 -0.012910481 -0.042561162

conv2.bias f4 [20]
000000 21 d0 6d bd 7d 8d 7b bd 62 f0 64 bd 06 a6 01 bd
       -0.058059815 -0.06141423 -0.05589331 -0.031652473
000010 75 23 10 38 45 5b 3a 3c aa 58 d6 bc 06 5f 2f bc
       3.4365297e-05 0.011374299 -0.026165325 -0.010703808
000020 1d e9 0a 3d 40 4e d2 3c 78 73 84 3c ce 60 b1 3b
       0.03391372 0.025672078 0.016168341 0.0054131513
000030 af e0 d9 3a 64 95 28 3d 9a 1e 5a 3d 6a 6f 34 bd
       0.0016622747 0.041158095 0.05325184 -0.044051565
000040 88 be 12 3c 39 a8 59 3d e8 84 05 3d 86 db 9f bc
       0.008956559 0.053138945 0.032597452 -0.019513857

fc1.weight f4 [50, 320]
000000 3b ff dc bb 1a f7 1e 3d ba fa 87 3c bf e3 44 bd
       -0.006744293 0.038809873 0.016599048 -0.048068758
000010 83 bd f2 bb c7 bb 0f bb ea 0f 33 bd 10 84 dd 3a
       -0.0074078455 -0.0021931992 -0.04371635 0.001690032
000020 a0 1a 3a 3c f9 d1 0d bc ce fd 03 bd b0 a6 1c 3d
       0.011358887 -0.008656018 -0.03222447 0.038244903
000030 de 2b 04 bd f5 22 22 bd e2 4e f6 bc 21 86 d3 3b
       -0.032268398 -0.03958412 -0.030066911 0.0064551984
000040 09 19 ff 3c 80 65 88 bc 02 9b ef bc 97 4a 54 3c
       0.031139867 -0.016649961 -0.029248718 0.012957237
000050 3e 1c 25 bd 6c a1 ab 3c 3a 8e 2c 3d 48 f5 8d bb
       -0.040310137 0.020950995 0.042127825 -0.0043322183
000060 ed e5 36 bc 08 69 54 bd de ae ec bc 0f 0b 53 3d
       -0.011163217 -0.051857978 -0.028891977 0.05152422
000070 07 9c 88 bb 52 fe 6f bb 7b 3d ee 3b 8f c2 41 bd
       -0.0041689905 -0.0036620093 0.0072705126 -0.047304686
000080 ef 5e d6 3b 2e 4b 5f bd 5d da 02 bd f9 ef 29 3d
       0.0065420787 -0.054515056 -0.03194653 0.04148862
000090 e0 2e 7b bc 54 71 18 bd fe 85 09 3c 39 b1 d8 3c
       -0.015331 -0.037217453 0.008393763 0.026451694
0000a0 67 12 ad 3c 78 b6 8a bc 9a f9 08 bd 3b dc e6 bc
       0.021126939 -0.016932711 -0.033441164 -0.028181186
0000b0 c6 96 27 bd 20 d5 11 3d 6b ef af ba d2 5c 13 bd
       -0.040915273 0.035603642 -0.0013422793 -0.035977192
0000c0 f0 79 44 bd 68 9c 70 bd 6f 84 15 bd eb 61 52 bc
       -0.04796785 -0.05874291 -0.03650325 -0.012840728
0000d0 0f 54 b3 bb 1f 0e e0 3c 71 cf f2 3a c7 8b 4d bc
       -0.005472667 0.027350483 0.0018524957 -0.012545533
0000e0 b8 42 31 3d 25 7f e5 3c 54 68 2a bd c0 9c 65 3d
       0.04327652 0.028014729 -0.0416034 0.05605769
0000f0 f6 dc 71 bc 50 3f 39 bb 66 d7 a8 3c 10 23 d4 3c
       -0.014762154 -0.0028266497 0.020610522 0.025895625
000100 c3 c2 0c 3d 20 01 1b bd 19 0f 12 bd 06 2f 51 ba
       0.034365427 -0.03784287 -0.03565893 -0.00079797243
000110 11 d7 75 bc 25 b0 44 bd 17 e9 1c bd 95 aa d1 3a
       -0.015004889 -0.048019547 -0.03830823 0.0015996272
000120 c0 a6 43 bd fa b1 34 bd b4 a9 3c 3d 2f 9a 3e 3d
       -0.047766447 -0.044115044 0.04606028 0.04653376
000130 09 49 1d 3d a0 99 49 bd 23 ae 20 bd 3a cf 0c bd
       0.03839973 -0.049218774 -0.03922857 -0.034377314
000140 39 0b 67 3c 15 1f 02 bd 7c f2 65 bd 9e 2c 0f bc
       0.014101797 -0.031767923 -0.056139454 -0.008738665
000150 97 97 db bc d9 41 25 3d a1 05 d0 3c 4f f1 8c bc
       -0.026805682 0.040346 0.02539331 -0.017204909
000160 c8 91 3b 3d 83 2c e5 3c dd d3 b2 bc 47 f9 4d bd
       0.045793325 0.027975326 -0.02182954 -0.050286558
000170 ef ee 56 bc 4d 32 45 bb ed 99 b0 3c 28 7b aa 3c
       -0.01311849 -0.0030089796 0.021557773 0.020810679
000180 e1 8d 62 bb 87 5a c5 bc 3a d3 50 bd 99 f1 87 3c
       -0.003456943 -0.024091018 -0.05098269 0.016594695
000190 32 aa 38 bd 9a 44 ba bb e9 35 b7 bb 6b 7f 93 3c
       -0.045084186 -0.0056844475 -0.0055911434 0.018005094
0001a0 6d fc 64 3c dd 1f 65 bc 08 45 c0 bc 1c e5 58 3d
       0.013976199 -0.013984648 -0.023470417 0.05295287
0001b0 4c 97 0d bd 1f 22 c4 3a 07 fd fe 38 4c a5 52 bd
       -0.034568116 0.0014963782 0.00012158794 -0.05142717
0001c0 9c 61 d8 bc 81 df 25 bd 10 b1 40 3d 32 db 5e 3d
       -0.026413731 -0.040496353 0.04704386 0.05440826
0001d0 8b 22 c3 3c 1b 78 ea 3b e2 c5 6d bc c0 fc 23 3d
       0.023820182 0.007155431 -0.014512511 0.040035963
0001e0 3e 8d 44 bc c9 88 06 3c 22 7b 4b bc 48 28 3d bd
       -0.011996565 0.008211323 -0.012419494 -0.046180993
0001f0 41 b4 10 bc 54 16 15 bd 80 ba d5 3b 62 f9 c6 bb
       -0.008832038 -0.036398247 0.0065224767 -0.006072209
000200 65 9e 5a bd b8 06 1a bc 04 68 28 3c 8e 0c 17 bb
       -0.053373713 -0.009401016 0.0102787055 -0.0023048255
000210 53 25 28 3d a2 58 a2 3b 78 78 6e 3c ad f2 85 3c
       0.04105122 0.0049544135 0.014555089 0.016351068
000220 f3 a1 52 bd a3 4c 30 3d 07 65 0e bd c5 b1 26 3d
       -0.051423978 0.043041836 -0.034764316 0.040696878
000230 65 56 26 3d ec 03 21 3d 8c c4 28 3d 5f 45 2e 3c
       0.040609736 0.03931038 0.041203067 0.010636657
000240 64 ca 3a 3d 4a 01 a1 3c c9 61 a5 3c b0 9e 28 bd
       0.04560317 0.019653935 0.02018823 -0.04116696
000250 30 1f 15 bb 41 cb 42 bd e3 14 01 bc 1c 7e 18 3c
       -0.0022754185 -0.04755712 -0.007878515 0.009307411
000260 46 e2 52 bd c1 26 a7 3b 50 5c 1c bd 9b 86 6b bc
       -0.051485322 0.0051010554 -0.038173974 -0.014375354
000270 2b 65 00 3b 61 19 8f bc 97 7e cc 3c 50 a4 d1 3c
       0.001959155 -0.017468156 0.024962706 0.025591046
000280 f1 83 59 3d 46 e7 28 3d 22 d2 1a bd d1 cc a4 3c
       0.053104345 0.041236185 -0.037798055 0.020117195
000290 14 c7 1e 3b 17 23 56 bd 80 b3 39 bd 07 f3 68 bc
       0.0024227547 -0.052279558 -0.0453372 -0.0142180985
0002a0 f5 30 9f bc 78 e6 16 3d c5 0e f1 3c a2 67 0b 3d
       -0.019432524 0.036840886 0.029425988 0.03403438
0002b0 ab ba 86 3c 10 4a 4b bd 1d 46 4a bd 37 f4 c9 3b
       0.016446432 -0.04963118 -0.04938327 0.006163146
0002c0 bd 59 25 bc 8f 17 8b bb 93 4a e9 3c c6 02 86 bc
       -0.010092196 -0.0042447518 0.028477943 -0.016358744
0002d0 ba 47 f3 bc d2 b9 f5 3a 06 57 39 bd 82 ea 06 3d
       -0.029697288 0.0018747395 -0.045249008 0.032938488
0002e0 72 b5 5a bd ce 92 5f 3a ad f1 f8 bc d7 f0 35 bd
       -0.053395696 0.00085286505 -0.030388677 -0.044419136
0002f0 47 42 88 bc 8c 8f 91 bc bb 52 02 3d 28 05 c9 bc
       -0.016633166 -0.017768644 0.03181718 -0.024538592
000300 db 93 35 3d 12 04 44 bc 0d af 68 bd 08 45 50 bc
       0.04433046 -0.011963861 -0.056807566 -0.012711771
000310 9f 86 e5 3c 66 6f bf 3b b1 0c dd 3b 17 e5 b1 3b
       0.028018294 0.005842137 0.0067458977 0.005428921
000320 20 15 34 bd d6 ac 1b bd c1 33 ac 3c ec 15 1d 3d
       -0.04396546 -0.038006626 0.021020772 0.038350984
000330 b7 13 01 bd 54 86 e6 3b ff a1 0d 3d ad 20 d7 3a
       -0.031512942 0.007035056 0.03457832 0.0016412936
000340 11 5c e3 3c b4 03 7f 3b a1 90 c9 bc 54 99 10 bd
       0.027753862 0.003891212 -0.024605097 -0.035302475
000350 4a 16 9b 3b 38 cb e8 bc c0 f6 19 3d ef fd d0 bc
       0.0047328817 -0.028417215 0.037588835 -0.02551171
000360 72 3e 1f bd 95 b7 a1 3c 45 2b 11 bd 9a 3a d4 3b
       -0.038877912 0.019740859 -0.035441656 0.0064767124
000370 a3 58 15 3c f1 c1 21 3d 85 ce 05 bd 85 d4 17 bd
       0.009115371 0.039491598 -0.032667655 -0.03706791
000380 28 31 4f bd 74 92 ff bb bf 40 04 3d fe 93 61 3d
       -0.05058399 -0.007799441 0.03228831 0.055072777
000390 fe 3b cc bc a7 a4 bc bb 78 b6 bd 3c 4b 56 67 bd
       -0.02493095 -0.005756933 0.023158297 -0.05647878
0003a0 92 ce 50 3d f5 fe 2f bd 6c 7d f5 3c 7b 1b 67 bd
       0.05097825 -0.042967755 0.029967032 -0.05642269
0003b0 ae d9 44 bb a2 0c 4b 3d 96 94 11 bd 89 0f 65 bd
       -0.0030036974 0.049572594 -0.035542093 -0.05592302
0003c0 96 c1 43 3d dd cd 37 3c 73 3b eb 3b 6c 25 22 3d
       0.04779204 0.011218515 0.0071787178 0.03958647
0003d0 e9 54 bb 3c 26 7e 36 3d ea 73 d2 bc 3c 68 f7 bc
       0.022867637 0.0445539 -0.025690038 -0.03020107
0003e0 41 e4 47 bd 30 c4 cc bc d6 04 49 bc c7 19 26 3d
       -0.048801664 -0.024995893 -0.012269219 0.040551927
0003f0 f9 0c fe 3b 43 0d 0a 3c f4 0d 10 3c ee 1b dc bc
       0.0077530113 0.008426013 0.008792389 -0.026868787

fc1.bias f4 [50]
000000 91 33 73 bb 73 1d ad bc 15 f7 e1 bc 4d f0 81 bd
       -0.0037109593 -0.021132207 -0.027583638 -0.06344662
000010 8e 9b 07 3c 70 a5 e4 38 12 ae da 3c 56 70 df 3c
       0.008276833 0.00010902702 0.026694331 0.027275246
000020 9b d0 eb bc 49 dd 67 3c 2a 42 44 bd 94 c6 e4 ba
       -0.028785994 0.01415188 -0.04791466 -0.00174542
000030 0a be f3 39 27 e3 a2 3c 54 d0 04 3d a3 71 ce bc
       0.00046490162 0.019883705 0.03242524 -0.02520067
000040 96 ba e3 bc aa 0d b5 3c e5 19 93 3c 44 9b 11 3a
       -0.027798932 0.022101242 0.017956683 0.00055544474
000050 76 24 00 bd 7c d3 c1 bb 7a 8c 97 bc da 99 97 3d
       -0.03128477 -0.0059151035 -0.018499602 0.07402392
000060 f5 27 63 3d 3f 58 3e 3c d0 8b 12 3d e6 35 2f bd
       0.055458028 0.011617719 0.035777867 -0.04277601
000070 32 1b 74 bd 4d 3d 46 3d b2 96 03 bd 0e 69 aa bb
       -0.059596248 0.048398305 -0.032126136 -0.005200512
000080 14 68 ba 3b 14 aa 07 bd 9b 77 28 bd fe 6f 6d 3d
       0.0056886766 -0.033121184 -0.04112969 0.057968132
000090 fc 31 23 bd 0d d2 4c bd 44 0f 46 3d 70 e7 c1 bb
       -0.03984259 -0.050005008 0.048354402 -0.005917482
0000a0 b4 af 46 bd 4f 32 61 bd ee d6 ef 3a e3 20 16 3d
       -0.048507407 -0.05497962 0.0018298307 0.036652457
0000b0 63 29 c2 3c 70 66 a5 3c f4 6d a0 bb 16 a8 69 3b
       0.023701375 0.020190448 -0.00489592 0.0035653166
0000c0 8f 9f 91 bc 1c 30 87 3d
       -0.017776279 0.06600973

fc2.weight f4 [10, 50]
000000 7c 36 f7 bd ed 81 07 3d 69 c1 e9 bd d5 fd 65 3d
       -0.12070939 0.03308289 -0.11413843 0.056150276
000010 ec eb aa 3c 5f 45 83 bd 96 c2 ef bd 80 eb 37 bd
       0.02086445 -0.06409716 -0.11707036 -0.044902325
000020 97 a6 78 bd 9a 47 bb bd 9f 48 3d 3e d1 fe e0 bd
       -0.060705747 -0.09144516 0.18484734 -0.10986102
000030 9a c4 3f 3e 73 0d 70 be 7a a2 ae bd 92 94 40 bd
       0.18727341 -0.2344263 -0.08527084 -0.047016688
000040 dc 25 92 bc 3b 6e 2a be d3 8a 95 bd 8f a2 c5 3c
       -0.017840318 -0.16643612 -0.07301869 0.024125366
000050 e3 e8 02 be 42 19 9e 3d 9b 8e 12 3d 8b 84 98 bd
       -0.12784152 0.07719661 0.03578053 -0.074471556
000060 7e 51 17 be ad 95 8e bd ed cd 21 bd 26 37 dd bd
       -0.1477718 -0.06962142 -0.039503027 -0.10801534
000070 80 62 99 3d b0 59 46 be 4f 37 1a be 0c a3 c8 3d
       0.074894905 -0.1937015 -0.15060161 0.09796724
000080 d8 d8 79 3e a5 7b 04 bd 49 3b ab bd c2 84 87 3d
       0.24399126 -0.03234448 -0.08360917 0.066171184
000090 4a 20 32 3e 8e 77 c0 3d cb fa a2 3d 8b a5 ac 3d
       0.1739513 0.09397803 0.07957991 0.08430012
0000a0 76 40 bc bd f5 25 e4 3c 7c 40 b2 bd 1f 5d a1 bd
       -0.091919824 0.02785013 -0.08703706 -0.078790896
0000b0 4d cc 11 3d ce 41 65 bd 2b 5c 68 be 9d 65 d3 bd
       0.035595227 -0.05597096 -0.2269141 -0.103221156
0000c0 53 15 8f 3e 4c 1c 5d 3e 5e 91 06 3d 49 bb 3e 3e
       0.27945957 0.21592826 0.032853477 0.18626131
0000d0 ac 09 3d bd 50 98 9e bd 6f c4 a0 3d 05 59 cd bd
       -0.046151802 -0.07743895 0.07849967 -0.10026745
0000e0 d3 9d 0e be 22 62 f4 bc 75 c0 36 bd 71 f9 b8 3d
       -0.13927393 -0.02983195 -0.044617135 0.09031952
0000f0 b7 07 19 be cb 46 18 be ba ca 43 be 6d cf c5 bd
       -0.14944349 -0.14870755 -0.19120303 -0.09658704
000100 c6 14 8d 3d 1b 13 36 3e c9 ba 0c be 21 42 39 bd
       0.06888728 0.17780726 -0.13743128 -0.04522908
000110 73 b0 3a 3e 5f 3c c5 b9 b4 ca a9 3d cd 42 07 3d
       0.18231373 -0.00037619748 0.08290616 0.03302269
000120 3b be 3d be 77 c2 51 bd bf b8 3f bd 25 cd f6 bd
       -0.18529598 -0.051210847 -0.046807047 -0.12050847
000130 6a 9f eb 3d 00 12 09 bc f8 40 c5 bd 81 a3 02 3e
       0.11505015 -0.008366108 -0.096315324 0.12757684
000140 86 5b e9 3c 05 0e 44 3d 9d 42 a7 bc 9a 15 30 bd
       0.028486025 0.047864933 -0.020417506 -0.04298935
000150 ae 61 ba bd 26 24 fc 3c 7b d9 5f bd 1c 7d 67 3c
       -0.09100662 0.030778956 -0.054650765 0.0141289495
000160 6f 04 39 be 0f b8 56 3d 08 6e c9 bd de a8 32 bd
       -0.18068098 0.052421626 -0.0983544 -0.043618076
000170 4c cb 16 be 64 8b 77 bd 75 92 4c be a2 ab 28 bd
       -0.14725989 -0.060435668 -0.19977744 -0.041179307
000180 70 ac 28 bd 83 54 ed 3d 68 65 8a 3c 0c da 54 bd
       -0.041180074 0.11588385 0.016894057 -0.05196576
000190 01 6d bb 3d 82 ad d8 bc a3 cb bd bd 5b da 27 bb
       0.0915165 -0.026449922 -0.09267356 -0.0025612328
0001a0 4f 2c 6f 3e 2b 52 9e bd a9 50 d5 3c 97 8f 8a 3d
       0.23356746 -0.07730516 0.026039438 0.06765669
0001b0 13 37 39 3c 48 de d8 3d b6 b9 21 3d 50 81 37 bd
       0.011304635 0.10589272 0.03948375 -0.044801056
0001c0 8d 50 b5 3d 03 c1 c5 bd 42 fe d3 bd f5 47 9e 3d
       0.088532545 -0.09655955 -0.1035123 0.077285685
0001d0 fb e3 e7 3d 8f 85 47 3a 56 e8 a9 bd 11 db 65 3d
       0.11322781 0.00076111493 -0.08296268 0.05611712
0001e0 f3 27 01 3c 88 01 ad bd 3e a5 69 3d cd ad 41 be
       0.00788306 -0.08447558 0.057042353 -0.18913956
0001f0 c7 a5 9b bd fe 07 27 bc e3 40 8e 3d 96 b1 c9 bd
       -0.07599979 -0.010194777 0.0694597 -0.09848325
000200 c5 9a 82 bd 27 b3 b9 3d ba 38 d3 3d 23 69 91 3d
       -0.06377176 0.09067374 0.10313554 0.07100131
000210 11 c0 2a bc 07 14 9d bd 8a 1c ae bc fe 94 13 3e
       -0.010421769 -0.076698355 -0.021253843 0.14412305
000220 bf 1a 04 be 59 57 57 3d 26 d0 7d bd 25 ca 14 3e
       -0.12900828 0.052573536 -0.061966084 0.14530237
000230 f4 b7 e4 bd 59 33 80 bd ef 64 8f 3a 57 a8 d7 3d
       -0.11167899 -0.06259794 0.0010940115 0.10530155
000240 56 5c 11 bd 01 b9 d0 bd 51 d7 9c 3d 88 3a 87 3c
       -0.03548845 -0.10191537 0.07658256 0.016507402
000250 48 cf 82 bd 3f 22 b3 3c f7 59 af 3d f0 b9 b2 bd
       -0.06387192 0.021866916 0.08562081 -0.08726871
000260 72 68 88 3c 14 e6 b6 3d 70 ab 49 3d 79 4a b2 3d
       0.016651366 0.08930603 0.04923576 0.08705611
000270 87 c3 32 3d 77 05 56 3d 80 dd f3 3d b3 c3 43 bd
       0.0436435 0.052251305 0.11907482 -0.047794055
000280 f8 6f a5 bd e4 37 84 3d 79 19 81 bd 3c ba ae bd
       -0.08077997 0.06455973 -0.06303687 -0.08531615
000290 23 bb df bd c8 da d1 bd 7e 90 29 bc ec b8 8b bd
       -0.10924365 -0.10246807 -0.010349391 -0.068223804
0002a0 58 b0 b6 bc 49 b2 32 3e 8c 3a 07 3d 11 86 34 3d
       -0.022300884 0.17450823 0.03301482 0.04407317
0002b0 5d 0f 09 be 3d 27 58 bd 8a 2d 73 bc 76 a4 11 be
       -0.13384767 -0.052771796 -0.0148424 -0.14222893
0002c0 60 fb 50 3e cf bf 76 bd 2d dd 22 3c 68 a3 3b 3e
       0.20408392 -0.060241517 0.009940428 0.18324053
0002d0 19 c1 60 bd 84 84 16 3e e7 39 2e be d1 b3 e0 bd
       -0.054871652 0.14698988 -0.17014275 -0.10971797
0002e0 49 d4 04 bc e3 f2 1a bd cb 61 75 be 3e 12 d7 3d
       -0.008107253 -0.03782929 -0.23963086 0.10501526
0002f0 0f 4c cd 3c 58 f1 01 bc ae 30 93 bd 9d d6 0a bd
       0.025060682 -0.007931076 -0.07187019 -0.033896077
000300 74 a6 71 3d f4 83 75 bd 90 94 bf 3d 7a 77 ca bd
       0.058996633 -0.059940293 0.09354508 -0.098860696
000310 5d b9 2c 3e 45 9f 3f 3e e0 3e 0e be 32 8d 01 3b
       0.16867585 0.187131 -0.13891172 0.0019767997
000320 73 9e 21 3d 1c 41 e7 bd b5 7d 1b 3d 37 32 f8 3c
       0.03945775 -0.112917155 0.03796168 0.030297382
000330 f8 e7 82 bc 8b 86 f2 bb 4d 2f 04 be d8 29 c4 bd
       -0.015979752 -0.0074012927 -0.12908669 -0.095782936
000340 04 57 44 3e f2 c3 ff bd d3 e4 48 3d 41 1a d4 bc
       0.19173819 -0.124885455 0.04904635 -0.025891425
000350 ca 68 02 bd a8 d4 be bb ff 77 d4 3d 61 4d 8e 3d
       -0.031838216 -0.0058236904 0.1037445 0.069483526
000360 21 e0 9f 3c 03 55 49 3c 55 b1 2f bd 60 01 57 3c
       0.019516053 0.012288335 -0.042893726 0.013122886
000370 2e e0 99 bd 0a b2 25 bc 23 80 13 3d c6 db 80 bd
       -0.07513462 -0.010113249 0.036010873 -0.062919185
000380 e8 bf 23 3d b6 bb d7 3d ef 9c 27 3e 55 08 1a be
       0.039977938 0.1053385 0.16368459 -0.15042241
000390 a7 62 a8 3d 0b 71 6d bd 38 c9 03 3e 83 64 6c 3b
       0.082219414 -0.057969134 0.12869728 0.0036070652
0003a0 eb 24 95 bd bb 8b c1 3d 5c f4 eb 3d 5c fc 79 bd
       -0.07282432 0.094504796 0.11521217 -0.061031684
0003b0 92 13 13 3c 53 96 9e 3d 30 ac 51 bc a0 fb 52 be
       0.008976834 0.07743516 -0.0127974 -0.206038
0003c0 fc 63 74 3d 06 1a 9b bd 84 c8 73 3d ad 9f 68 3e
       0.059665665 -0.07573323 0.0595174 0.22717161
0003d0 d3 d3 09 be bb 5c db bd 29 06 0f 3e f8 71 b5 3d
       -0.13459711 -0.10711046 0.13967194 0.088596284
0003e0 29 d9 2c be 06 2e 99 3d ec e7 7e 3d 2d 86 b3 bd
       -0.16879715 0.074794814 0.062232897 -0.087658264
0003f0 88 cf 09 bd e3 68 f2 3d 0d 11 bd bd b9 1b 02 be
       -0.033645183 0.11836412 -0.09231768 -0.12705888

fc2.bias f4 [10]
000000 be 9f 83 bd f5 6b 36 3e be 89 86 bd ee cd 81 bd
       -0.06426953 0.1781462 -0.06569241 -0.06338106
000010 22 be 90 bc de 14 54 bd 59 d3 a9 bc 06 06 1f bd
       -0.017668787 -0.051777713 -0.020730661 -0.038824104
000020 01 4c b7 bc 2d 8b 04 bd
       -0.022375109 -0.03235929
