MNIST/Models/Client_2/Trained local models/Trained_8_5_2021_10_37_27.pth (torch, 90095 bytes, 8 tensors)

conv1.weight f4 [10, 1, 5, 5]
000000 1c 99 0b be 0c c0 95 3d 3c ed b2 3d cd 00 d2 bc
       -0.13632625 0.07312021 0.08736655 -0.025635147
000010 e0 84 bf bd 62 97 11 3e 56 ed 82 bd 5b 4c 47 bd
       -0.09351516 0.14217904 -0.063929245 -0.048656803
000020 98 3d 29 3d 0c 72 b0 3c 54 8e 8b 3d 26 71 d9 bd
       0.041318506 0.021538757 0.06814256 -0.106172845
000030 61 66 a9 bd 78 56 45 3d 53 0c 92 bd 06 9c d1 bd
       -0.0827148 0.048178166 -0.07131257 -0.10234837
000040 fa 03 26 3e 4e 1b 88 3b c0 76 2a bc 10 f8 f6 3d
       0.16212454 0.0041536456 -0.010404289 0.12059033
000050 70 48 07 be bf 12 38 be b3 c3 b6 3d b4 83 e9 bd
       -0.13211226 -0.17975901 0.089240454 -0.114020735
000060 c7 f2 1e be 08 30 33 be c1 d2 9d bd f8 d0 00 3e
       -0.155223 -0.17498791 -0.07706214 0.12579715
000070 9d 78 f7 bd 4a dd 20 3e 1b ed 5d bb 88 bf 62 3d
       -0.12083552 0.15709415 -0.003386325 0.05535844
000080 26 a0 cd bb 4c 63 b7 bc 4c 0a 29 3d 08 f2 41 be
       -0.0062751947 -0.022386216 0.041269585 -0.18939984
000090 24 6d 56 3d 97 5b ad 3d a9 b4 01 bd e1 34 ac 3d
       0.05235018 0.08464735 -0.03166643 0.08408523
0000a0 5a 02 3c bd e0 d7 65 3d 22 b7 3c be ac d2 a6 bd
       -0.04590068 0.056114078 -0.18429235 -0.08145651
0000b0 74 0d 1f 3e 77 0c db 3d 8d 12 2b 3e be 45 26 3e
       0.15532476 0.10695737 0.16706295 0.16237542
0000c0 06 dc 11 3e 18 99 00 3e c7 fa 07 be 98 93 85 3d
       0.14244089 0.125584 -0.13279258 0.06522292
0000d0 40 f4 6e 3d 0c ab 1a 3e 75 f0 f4 3d de ef 90 bc
       0.058338404 0.15104312 0.11959926 -0.017692503
0000e0 df fa 87 3d 64 d2 00 be 7e 3a 2d be 29 ef 0b bc
       0.06639647 -0.12580258 -0.16916844 -0.008540907
0000f0 57 f4 a6 3d 46 0c 10 3e 3d 7e 5a bc a4 c8 e0 3d
       0.08152073 0.14067182 -0.013335762 0.10975769
000100 c9 49 2f be 80 7b 92 bd 7c 6d 03 be 6e 7e 3e be
       -0.1711799 -0.07152462 -0.12834734 -0.18602917
000110 c2 11 07 be 37 4b e5 bd 60 fa 3d be b6 43 2d be
       -0.13190368 -0.11195987 -0.18552542 -0.16920361
000120 e1 5c 7e bd 9b 1b 36 bd 78 49 3a 3e ee 0a 49 3d
       -0.062100295 -0.04445992 0.18192089 0.04908269
000130 4c 62 dc 3d d4 22 5e 3c f4 e4 dc 3d da 2f 3b 3e
       0.10760936 0.013558108 0.10785857 0.18279973
000140 91 6e 2f be 31 a1 2b be fe 0c 51 bd d2 12 28 3e
       -0.17132021 -0.16760708 -0.05103778 0.1641343
000150 31 92 f5 bd 67 f3 e1 bc bc 09 2a 3e 38 dc c1 3d
       -0.119907744 -0.027581884 0.16605276 0.094658315
000160 07 ba aa 3d 4a 94 7c 3c e9 01 bf 3d 6d f6 dc bb
       0.08336263 0.015416214 0.09326536 -0.0067432434
000170 1c b1 3c 3e fc 5d 16 be 03 17 d0 bc cc d7 f3 3c
       0.18426937 -0.1468429 -0.025401598 0.029765986
000180 d8 d2 47 3d 75 7c 86 bc f2 c5 05 3e dc 7d 3b be
       0.04878506 -0.016416768 0.13063791 -0.1830973
000190 48 55 ea 3c 14 be 15 be 56 8d e5 3d 0b 22 46 3e
       0.028605118 -0.1462329 0.11208598 0.19348924
0001a0 60 46 ab 3d a1 ee c9 bd b1 b6 31 be 05 48 4e bd
       0.08363032 -0.09859968 -0.17354847 -0.050361652
0001b0 a2 01 ab bd c4 e0 81 3b f1 cd 44 be 60 00 0e be
       -0.08349921 0.0039635617 -0.19219185 -0.1386733
0001c0 b3 80 b5 bb 88 26 77 3d 65 08 c6 3d fd 5f e5 3d
       -0.005539024 0.06033948 0.0966957 0.11199949
0001d0 f3 b9 37 3e 8e 0e 65 bc 4b ed 0f be 97 70 78 3d
       0.17942028 -0.013980521 -0.14055364 0.06065425
0001e0 56 bb e9 bd 09 85 58 be d4 2d bf 3d 54 af 00 3e
       -0.114126846 -0.21144499 0.09334913 0.12566882
0001f0 cf 5f 32 3e b9 5d 0d be b7 34 2e be b0 24 d5 3d
       0.1741936 -0.13805284 -0.17012297 0.10407388
000200 53 bf 02 be 46 e4 39 3e 5e c2 dc bd fa c5 3f 3e
       -0.12768297 0.18153486 -0.1077926 0.18727866
000210 39 ad f7 3d 3d 03 30 3e 69 12 18 be 7e d4 ed 3d
       0.120935865 0.17188735 -0.14850773 0.11612795
000220 41 a8 1a be 91 66 0c 3e 2f d5 ba bc 29 52 1c bd
       -0.15103246 0.13711001 -0.022806732 -0.03816429
000230 a0 8e 25 3d 6d d5 d3 bd 87 4c 1e be 2d cc 8f bd
       0.04041922 -0.10343442 -0.1545888 -0.07021365
000240 55 b5 2e 3e ca 8b af 3c 8f 9a 14 be c2 74 f6 bd
       0.1706136 0.021428961 -0.14512084 -0.120339885
000250 7e f5 43 be 5e df d0 bc 66 55 bd 3c 3b 60 cc bd
       -0.19136617 -0.025497135 0.02311201 -0.09979292
000260 de c6 2f 3e d5 53 81 3c 14 b8 1d be ad 87 4f be
       0.17165706 0.015787045 -0.15402251 -0.202666
000270 c5 8f 4a be c4 3c ea bd c2 11 24 3e 26 3d 9b 3d
       -0.19781406 -0.114373714 0.16022399 0.075800225
000280 f8 c3 12 3e c2 2f 42 3e e2 1e 8d bd 13 f0 29 bd
       0.14332569 0.1896353 -0.06890656 -0.04148872
000290 16 18 18 3e d1 da 08 3e e5 5c 86 3d 60 78 9b 3d
       0.14852938 0.13364722 0.06560687 0.07591319
0002a0 e7 43 66 3d fd 02 29 be 18 a7 30 bc 7a 27 1a be
       0.0562171 -0.16505046 -0.010782026 -0.15054122
0002b0 ac a8 c8 bc 6c f3 a0 3d 30 74 f9 bd d8 aa 01 3e
       -0.024494492 0.07858929 -0.12180364 0.12662828
0002c0 ea 25 12 be 16 6a 7a bd 43 e8 45 bd ac a4 ec bd
       -0.14272276 -0.061136328 -0.048317205 -0.11554846
0002d0 60 b9 18 be fe 3e 8a 3d f9 ca fd bb b1 c0 3c be
       -0.14914465 0.06750296 -0.0077451435 -0.18432881
0002e0 31 86 aa bd 60 0c 35 3e b3 b8 04 3e c8 60 de bd
       -0.08326376 0.17680502 0.12961082 -0.10858303
0002f0 f0 c9 05 bc a7 ff 20 3e 89 97 8c bd 5c 4a e5 bc
       -0.008165821 0.15722524 -0.068648405 -0.027989559
000300 48 7c 18 3e 93 95 42 3e 22 ed 24 be 51 81 c8 3d
       0.1489116 0.1900237 -0.16106084 0.0979029
000310 ef 1d e1 3d 50 96 19 3e 93 e4 43 be 30 b6 16 be
       0.109920375 0.14998746 -0.19130163 -0.14717937
000320 65 77 78 3c 14 21 c5 3d 61 91 12 bb 31 8e d5 3b
       0.015165185 0.0962545 -0.0022364485 0.0065171947
000330 90 1a ae 3c b8 11 2e be af 01 a6 3d 1f e9 11 3e
       0.0212529 -0.16998947 0.0810579 0.14249085
000340 99 48 a8 bd f3 0b dd bd 88 23 a6 3d c0 9e 4a be
       -0.08216972 -0.10793295 0.08112246 -0.19787121
000350 f3 92 fd bc 30 ca 0a 3e 6f 5f 7b 3d b6 7d 1a be
       -0.03095386 0.13553691 0.06137031 -0.15087017
000360 2f df ee bd a5 f9 31 be 76 29 c5 bd 37 f6 bf 3d
       -0.11663663 -0.17380388 -0.09627049 0.09373134
000370 fa 8d c9 bd 96 8c 11 3e f1 c0 9a bd d1 f1 a2 bd
       -0.09841533 0.14213786 -0.07556332 -0.07956279
000380 0a 35 bc 3d 29 29 5c 3d 9a c4 42 3e f7 26 c1 bd
       0.09189804 0.05375019 0.1902031 -0.0943126
000390 97 54 17 3e 2a db 7b 3d b4 12 49 be e6 e7 35 be
       0.14778362 0.061488308 -0.19636041 -0.17764243
0003a0 43 c1 0a 3e 77 b6 bc 3d ab b1 43 3e a8 2c 67 3c
       0.13550286 0.0921449 0.19110744 0.014109768
0003b0 a6 73 1b be 13 a0 fa bd 85 83 8d bc 52 f1 31 be
       -0.15180835 -0.12237563 -0.017274627 -0.17377213
0003c0 fc 2a 28 3e 53 a7 9a bd cd ff 84 bd 49 fb c3 bd
       0.16422647 -0.07551446 -0.064941026 -0.09569413
0003d0 a2 95 35 be b6 6a 11 3e ae 20 e0 3d bd 10 25 3d
       -0.17732862 0.14200863 0.10943733 0.040299166
0003e0 64 8a c5 bd 31 10 b5 bd
       -0.096455365 -0.08840979

conv1.bias f4 [10]
000000 5f 6a bf bd 3e d8 15 3e d7 82 82 3d 3c af 42 be
       -0.093464606 0.14633271 0.06372612 -0.19012159
000010 a2 c8 16 bc b4 ab 2b 3e 4c 39 c6 bd 6a a0 15 be
       -0.009203108 0.16764718 -0.09678897 -0.14611974
000020 34 97 35 3e 73 ee 10 3e
       0.1773346 0.14153461

conv2.weight f4 [20, 10, 5, 5]
000000 9a 9c 4f bd e9 20 ab bb 7e b5 17 3d fa 04 76 bd
       -0.050686456 -0.005222429 0.03703832 -0.06006334
000010 e4 13 84 3d 51 3e 87 bc 4e 0e 06 bd 2b 2b 81 3d
       0.06449106 -0.016509207 -0.032728486 0.06307062
000020 a9 c3 1f 3d c2 65 61 3d 3e fd 6f bd 85 a0 18 bd
       0.039004955 0.055028684 -0.05859112 -0.03726246
000030 e9 8b fb 3c 6d ae b3 bc a6 46 82 3d b8 da 3b 3d
       0.030706363 -0.021933759 0.06361131 0.045862883
000040 ac 04 41 bc 9d 7c 70 3d 56 44 e6 3b e4 49 3d 3d
       -0.011780899 0.05871259 0.0070271892 0.046213046
000050 aa e1 76 3d f2 66 ec 3b 0e cf 73 bd 57 6c 32 bd
       0.060273804 0.0072144205 -0.059523635 -0.043560352
000060 d3 b4 6e bd 0b 24 23 3d ee a7 98 bc 7d cd 1e 3d
       -0.058277916 0.039829295 -0.018634763 0.038770188
000070 5b b6 fd bc 67 ef f1 3c 6e ac 00 bd de cf 45 3d
       -0.030970743 0.029533101 -0.03141444 0.04829394
000080 7a 1a 1a 3d 60 ca 92 3d f4 8d 9d bb ef 4a f8 3c
       0.037622906 0.07167506 -0.004808182 0.030309169
000090 0e c0 14 bc 31 d9 07 bd 28 79 8a 3d 4c fb 85 bc
       -0.0090789925 -0.033166114 0.0676139 -0.01635518
0000a0 2b bb 90 3d ce fa ad ba fc af 99 3d 74 e3 87 bc
       0.070669495 -0.0013273598 0.075042695 -0.01658795
0000b0 a5 38 d5 bc fd 0c 58 3d 2b 33 a7 3d db 80 f4 bc
       -0.026027987 0.05274676 0.081640564 -0.0298466
0000c0 71 62 79 3d 86 ff 2b 3d 7c 34 da bc 82 d5 40 3d
       0.060884897 0.041991733 -0.026636355 0.047078617
0000d0 f0 ac 90 3d 31 d8 61 3d 5d 3a 6f 3c 34 3b 84 3d
       0.07064235 0.055137817 0.014601317 0.064566046
0000e0 8c 95 61 bc d3 ab 11 bc 9a 85 e2 3c ed e2 8d 3b
       -0.013768565 -0.008891064 0.027651597 0.00433003
0000f0 fc e7 4b bc 9a e6 d8 3a f9 a4 07 3a 08 b6 6c 3d
       -0.012445446 0.0016548217 0.0005174424 0.057790786
000100 fc bc 84 3d 6c be 07 bd 35 39 77 3d 37 83 01 bd
       0.064813584 -0.033140585 0.06035729 -0.031619277
000110 a8 4f 91 3c 0d f9 4e bd 86 d2 fb 3b 81 9b 4c bb
       0.017738178 -0.050530482 0.0076850085 -0.0031220617
000120 8d 57 fe bc 9e 6e 00 bd b6 ce a4 bb 4c 0a 4c 3c
       -0.031047607 -0.031355493 -0.0050295247 0.012453627
000130 f5 f3 06 bd 1f 10 2a 3d 13 93 e5 3c c4 9d d7 3c
       -0.0329475 0.04151928 0.028024232 0.026320346
000140 02 3f 88 bc 53 31 87 3d 70 ee 28 3d b9 80 19 bc
       -0.016631607 0.06601205 0.041243017 -0.009369069
000150 be 63 78 3d 23 89 c3 bc 00 01 3e bd c4 16 ae 3c
       0.060641997 -0.023869103 -0.046387672 0.02125109
000160 93 eb 24 3d c8 70 74 bb c5 fe 2c 3d 5f 86 b0 3d
       0.040263724 -0.0037298668 0.042235155 0.08619379
000170 d0 55 da 3c 9b 6a f5 3c 24 8f 4a bd 4b 9c e3 3c
       0.026652247 0.02995806 -0.049452916 0.027784487
000180 d0 9b e2 bb 7c d4 a3 3c 49 10 9a 3c ff ad 95 bc
       -0.006915547 0.019998781 0.018806593 -0.018271444
000190 ff 30 36 3d f8 62 9d 3d fc f3 2e bc 92 b3 41 3d
       0.04448032 0.076848924 -0.010678288 0.047290392
0001a0 04 dc 23 bd cc 13 e9 bc 24 ec 9c 3d 48 b1 02 3d
       -0.040004745 -0.028451823 0.07662228 0.03190735
0001b0 32 ab 0a 3d 38 d2 52 3d 91 c2 bf bc f7 b8 58 3c
       0.03385467 0.05147001 -0.023408206 0.013227693
0001c0 90 1d f6 bc c9 e7 e5 3b 1e fc 2e bc c1 c8 e7 3c
       -0.030043393 0.0070161563 -0.010680227 0.02829397
0001d0 a6 0b b9 3d 85 06 c0 bc b1 24 2b 3d 2b 28 0e bc
       0.09035425 -0.023440609 0.04178304 -0.008676569
0001e0 dd ec 61 3c ef 71 b5 3d 27 da 63 bd 90 2c 6d bd
       0.013789383 0.08859622 -0.05562797 -0.057903826
0001f0 a9 da 43 bd 12 78 e0 3c b6 eb 34 3d 78 b9 c7 3c
       -0.047815952 0.027401004 0.044170104 0.02438043
000200 df b4 14 3d 9b df b6 3c 34 35 39 3d 40 a5 52 bd
       0.036305305 0.02232342 0.045216754 -0.051427126
000210 8a 23 84 bc 9e 0c 0c bb ea 73 c0 3c 2b da 09 bb
       -0.016130228 -0.0021369825 0.023492772 -0.002103458
000220 79 c2 23 bd 75 7d a7 bc e2 54 79 ba a1 c4 33 3d
       -0.039980385 -0.020445565 -0.0009511245 0.04388869
000230 55 a9 4d 3d 1a 25 7a 3d 41 a3 0c 3d f8 c8 fb bc
       0.050210316 0.06107054 0.03433538 -0.030735478
000240 78 58 af 3c 9a fa 4f bd a4 ca 83 3d 5d 69 3e bd
       0.02140449 -0.0507761 0.06435135 -0.0464872
000250 04 a6 f7 b9 4f 49 08 3d a0 80 69 bd 0b 19 15 bd
       -0.00047235203 0.033273038 -0.057007432 -0.036400836
000260 9c 8f 90 3c 6c 55 81 3d 04 d2 c4 3b 1c f1 06 3d
       0.017646603 0.06315121 0.006006481 0.032944784
000270 e4 d2 8f b9 97 67 09 bd 9d e1 2b 3d 3e 2f 2f bd
       -0.0002743221 -0.033546057 0.04196321 -0.042769663
000280 18 8b 16 bd 6f 16 14 3d 2e 80 e2 39 75 a6 8b bc
       -0.036753744 0.036154207 0.0004320158 -0.017047146
000290 62 61 ae bb fe 81 0b bd f8 2c 7d 3d eb 1b 84 3a
       -0.0053216675 -0.034059517 0.061810464 0.0010079121
0002a0 f6 a3 9a 3c 36 f3 c9 bc b6 60 82 3d 1b a9 cc bc
       0.01887701 -0.024652105 0.063661024 -0.02498298
0002b0 02 3d d3 3c 5a 75 8d 3d 7a 36 13 3d a7 a6 61 bd
       0.025785927 0.06907149 0.035940625 -0.055090573
0002c0 37 c7 80 3c 02 f0 a3 3b e3 29 01 bd 5e 35 12 bd
       0.015719993 0.0050029764 -0.031534087 -0.035695426
0002d0 0a b4 1f bd a3 8f 6d 3c bc fb a9 bc 4b f8 eb ba
       -0.038990058 0.014499578 -0.02074992 -0.0018003074
0002e0 cc 71 34 3c 5b 88 79 3d d2 43 4b bd b7 d0 ad bc
       0.011013459 0.060921054 -0.049625225 -0.021217687
0002f0 d0 ee 1f bd b1 78 8c bc 99 3f 15 3d 36 c2 d7 3c
       -0.03904611 -0.017147394 0.036437605 0.026337724
000300 59 d8 06 bd 8c a9 20 3d 18 b7 43 3d be 3e 2d 3d
       -0.03292117 0.039224193 0.047782034 0.042296164
000310 c4 37 db bc cb ae d0 bc 68 b9 f5 3c 52 8e 13 3c
       -0.02675999 -0.025473973 0.029995635 0.0090061
000320 cc f4 d1 3c 24 0b 58 3d 77 78 8d 3d 64 9e ab 3c
       0.025629424 0.052745 0.069077425 0.02094955
000330 c1 18 3d 3d ed 08 18 bd df c4 0a 3c 6b aa 3a 3d
       0.046166185 -0.037117887 0.008469789 0.04557268
000340 30 eb 14 bd 10 33 22 bd 71 85 96 3d de 9f 2e 3d
       -0.036357105 -0.03959948 0.07349671 0.04263293
000350 7d fe 35 bd 04 84 34 3d 04 79 57 3d a5 71 5f 3d
       -0.044432152 0.044071212 0.052605644 0.05455174
000360 36 3d e7 bc 58 94 62 bd 97 8f dd bc 89 ec 6e 3c
       -0.02822743 -0.055317253 -0.027046008 0.014582762
000370 4d 60 a7 3c 55 8a 54 bd 7c 18 38 3d ac f0 fc 3c
       0.020431662 -0.051889736 0.044945225 0.03087648
000380 4d f3 51 bd 41 78 3a bd 3e 47 4a 3d 66 37 97 3d
       -0.05125742 -0.04552484 0.049384348 0.07383613
000390 4d 3f c9 3c af 87 18 3c 7d 5a 86 3d bb b7 03 bc
       0.024566317 0.009309693 0.06560228 -0.00803941
0003a0 e0 8d 59 3d e0 67 21 3d ae 28 6f 3d 5c 7f 1e bc
       0.05311382 0.039405704 0.058388405 -0.0096739195
0003b0 ff 7c 55 3c 92 01 8f 3d 0e 36 df 3c e5 f5 1a bd
       0.01303029 0.069827214 0.027247455 -0.03783216
0003c0 e0 a0 f6 bc 3b 6f 65 bd 1e 97 75 3d 20 4d 85 3d
       -0.030106008 -0.05601428 0.05995857 0.06508851
0003d0 20 5d 7c 3c a8 28 a7 3c c0 c0 f3 38 5e dc 5a 3d
       0.015403062 0.020405129 0.000116230454 0.053432815
0003e0 ae 45 86 3d 2d f9 58 3c bf fe 57 3c 64 4d 2a bd
       0.06556259 0.013243002 0.013183295 -0.04157771
0003f0 98 dc 8c bb 6d 81 a5 3c 74 6e 54 bc 8b e0 30 bd
       -0.0042987578 0.020203317 -0.012965787 -0.04318289

conv2.bias f4 [20]
000000 29 99 bf bc 68 3e 81 bd 37 9d 83 bd 7d 72 e3 bc
       -0.023388462 -0.06310731 -0.06426471 -0.027764553
000010 bf ab 16 3c 64 04 35 3c c9 9b 91 bc ca 7a 5f bc
       0.009196221 0.01104841 -0.01777448 -0.013640115
000020 e0 c1 0f 3d 79 8a a2 3c 71 b8 16 3d ea 94 c4 ba
       0.035097003 0.01984142 0.03679699 -0.0014997993
000030 53 b2 e4 3b c9 65 ae 3c b2 12 46 3d 5a e7 38 bd
       0.0069792657 0.02128877 0.048357673 -0.04514251
000040 ea 44 07 3c 11 a1 33 3d aa a6 d9 3c e3 5d 02 bd
       0.0082561765 0.043854777 0.02656873 -0.03182782

fc1.weight f4 [50, 320]
000000 e2 3c d5 bb 77 62 21 3d 22 2b 85 3c 03 2a 44 bd
       -0.006507502 0.039400544 0.016255919 -0.047891628
000010 4e 2b ea bb 93 cb 1f bb d5 19 36 bd 4d 3c a1 3a
       -0.0071462756 -0.0024382814 -0.04445823 0.0012301296
000020 f5 f8 44 3c ff 58 12 bc e9 35 02 bd 3c dd 1d 3d
       0.012022247 -0.008932351 -0.031789694 0.038541064
000030 46 ae 0a bd 7d 98 28 bd dc c4 fa bc 7e ec de 3b
       -0.033857606 -0.04116105 -0.030611448 0.0068030944
000040 94 41 04 3d a5 cc 82 bc 48 d9 e8 bc 96 6d 6a 3c
       0.032289103 -0.015966723 -0.02842392 0.014308354
000050 5d 85 20 bd 87 d1 af 3c 05 2a 2a 3d 7e 68 7e bb
       -0.039189685 0.021462215 0.04154398 -0.0038819606
000060 28 b3 18 bc 51 92 53 bd 08 ae f1 bc 0f 4f 53 3d
       -0.009320058 -0.05165321 -0.02950193 0.051589068
000070 ea 44 3c bb 11 a3 50 bb 7e 44 d8 3b 68 f7 41 bd
       -0.00287276 -0.0031835476 0.006599962 -0.047355086
000080 ee 62 d2 3b 6b 35 5d bd a4 0d 02 bd 3f ba 29 3d
       0.0064204847 -0.05400602 -0.03175129 0.041437384
000090 85 a9 75 bc 30 39 19 bd 3e 8d 0d 3c aa 15 da 3c
       -0.01499403 -0.037408054 0.008639632 0.026621658
0000a0 c4 6d a6 3c 8d 4b 8c bc 63 9e 08 bd 43 af e6 bc
       0.020316012 -0.01712587 -0.033354174 -0.028159743
0000b0 83 2b 24 bd e4 93 12 3d 2a 0a 8c ba f8 10 13 bd
       -0.04008056 0.03578557 -0.0010684181 -0.035904855
0000c0 f7 be 47 bd 77 f9 72 bd 42 42 19 bd a3 f1 67 bc
       -0.048766103 -0.05931994 -0.037416704 -0.014156732
0000d0 f0 12 d3 bb d5 04 d5 3c 13 fb b1 3a c3 21 6d bc
       -0.0064414665 0.02600328 0.0013578854 -0.014473381
0000e0 e7 aa 29 3d cb d9 dd 3c 29 ee 2a bd 76 dc 5d 3d
       0.04142275 0.02708139 -0.041731033 0.054165326
0000f0 7a d3 87 bc a4 a6 89 bb b9 78 a6 3c 1c fe ca 3c
       -0.016580332 -0.0042007733 0.020321237 0.024779372
000100 df 45 1b 3d e7 f2 0a bd 82 b5 03 bd 3e aa e8 3a
       0.03790843 -0.033923056 -0.03215552 0.0017750931
000110 70 5c 29 bc 5a a7 39 bd 3a 34 11 bd 31 9e a0 3b
       -0.01033698 -0.045325615 -0.035450198 0.0049016704
000120 78 df 34 bd 11 b7 2b bd 85 13 52 3d f4 01 51 3d
       -0.04415843 -0.041922633 0.051288147 0.051027253
000130 b7 9f 33 3d 1a 48 3a bd c7 b5 0d bd 98 6f 02 bd
       0.043853488 -0.045478918 -0.034597185 -0.031844705
000140 f0 cb 6a 3c 15 42 f0 bc 07 d4 61 bd b5 60 18 bc
       0.014330849 -0.029328385 -0.055133846 -0.0093004005
000150 90 64 d6 bc fd a0 37 3d 96 3d e0 3c 8f f5 91 bc
       -0.026170999 0.044831265 0.027373116 -0.017817287
000160 e3 b4 3c 3d f3 7c 02 3d 31 da a8 bc a2 77 4b bd
       0.046070945 0.031857442 -0.020611854 -0.049674638
000170 25 d8 64 bc 9f 5f ab ba 1b 8a be 3c ae 60 a4 3c
       -0.0139675485 -0.0013074762 0.023259213 0.020065632
000180 37 a2 fd ba 21 6b ac bc bd 26 38 bd 7e 7a a1 3c
       -0.0019350712 -0.021047177 -0.04495882 0.01971173
000190 a3 95 33 bd 1f db eb ba 5e c2 6e ba 7e 89 af 3c
       -0.043843877 -0.001799438 -0.00091079425 0.021427866
0001a0 bc c5 7b 3c 05 34 20 bc 82 ca 94 bc 27 96 6b 3d
       0.015366968 -0.009778027 -0.01816297 0.057516243
0001b0 90 01 00 bd c2 54 db 3b 1d 63 a2 3b c5 d5 43 bd
       -0.03125149 0.0066934535 0.004955663 -0.04781129
0001c0 c2 5d d8 bc a4 38 29 bd 17 10 40 3d 58 0a 5f 3d
       -0.026411895 -0.041313782 0.046890344 0.054453224
0001d0 a5 8c b6 3c 6f 81 c0 3b 0a 13 60 bc 78 21 24 3d
       0.022283861 0.0058748047 -0.013676414 0.04007098
0001e0 3a c5 46 bc 37 cf 02 3c 72 3f 51 bc 61 07 3f bd
       -0.012131983 0.007983974 -0.012771474 -0.046637896
0001f0 9a 8c 1b bc 50 1b 16 bd 74 72 c2 3b b8 11 d3 bb
       -0.009493971 -0.03664714 0.005934054 -0.006441321
000200 da 70 5b bd 64 e3 85 ba 92 b9 89 3c 5b 13 78 ba
       -0.05357442 -0.0010214862 0.01681212 -0.00094633334
000210 82 57 37 3d f2 0e 89 3c 12 b9 98 3c 4b 65 ad 3c
       0.04476119 0.01673076 0.018642936 0.021166464
000220 f8 0b 4c bd 06 98 4f 3d 11 98 fa bc 20 b8 45 3d
       -0.0498161 0.05068209 -0.030590089 0.0482713
000230 4f d3 2b 3d ef 47 3a 3d 1e 1e 3c 3d 42 54 71 3c
       0.041949566 0.045478757 0.04592716 0.014729561
000240 f3 c1 3b 3d 97 7e a7 3c 09 1d a7 3c 61 24 28 bd
       0.04583926 0.020446105 0.020399587 -0.04105032
000250 c6 87 cc ba df 09 3d bd 4b 92 fb bb 5f 62 1e 3c
       -0.0015604428 -0.046151992 -0.0076773516 0.009667008
000260 6d 37 4d bd 26 35 dd 3b b3 d8 1c bd 75 ec 5c bc
       -0.050101686 0.0067507206 -0.038292598 -0.01348411
000270 8b af 11 3b cb 6a 8e bc 9a fc c9 3c 95 b5 d2 3c
       0.0022229876 -0.017384907 0.024656583 0.02572135
000280 41 48 55 3d c5 b9 1e 3d ec 14 08 bd fe 39 de 3c
       0.05207086 0.038751382 -0.033223078 0.027127262
000290 a9 e6 c5 3b 3b 1f 42 bd d2 fe 27 bd 68 ea 1a bc
       0.0060394597 -0.047393065 -0.0410145 -0.009455301
0002a0 36 7e a6 bc 79 d9 09 3d 12 34 ed 3c 8c 29 21 3d
       -0.020323854 0.033654664 0.028955493 0.039346263
0002b0 ea 0c b1 3c 63 4d 2b bd 2a 80 31 bd 39 92 1a 3c
       0.021612603 -0.04182185 -0.043335117 0.009434276
0002c0 b2 3f 26 bc b5 d8 0d bb 5e 79 03 3d 02 74 54 bc
       -0.010147022 -0.002164406 0.032098167 -0.012967112
0002d0 1b be ee bc 15 bd ea 3b 44 eb 28 bd 78 33 13 3d
       -0.029143384 0.0071636536 -0.04123999 0.035937756
0002e0 95 c7 56 bd e0 ee 93 3b fa 42 d4 bc 19 4a 23 bd
       -0.05243643 0.00451456 -0.025910843 -0.039865587
0002f0 56 18 86 bc 8f 22 78 bc 49 0f 12 3d b3 a2 b1 bc
       -0.016369026 -0.015144958 0.03565911 -0.021684026
000300 3d 37 36 3d 6a 70 5d bc 94 e9 6c bd da ce 60 bc
       0.044486273 -0.013515571 -0.057839945 -0.013721192
000310 21 38 e2 3c 03 f0 83 3b 33 cb f6 3b 8c e2 b3 3b
       0.027614655 0.0040264144 0.0075315475 0.005489653
000320 75 06 3b bd fc e3 25 bd 0a b9 9e 3c 20 68 19 3d
       -0.045660455 -0.040500626 0.019375343 0.037452817
000330 a7 3a 06 bd 36 92 86 3b b0 6c 05 3d ef 94 cc 39
       -0.03277078 0.004106785 0.032574356 0.00039020876
000340 48 dd e2 3c df 0f 50 3b ea c9 c2 bc 6a 35 0e bd
       0.027693406 0.003174774 -0.02377792 -0.03471891
000350 74 0b b8 3b b8 f7 e0 bc 74 2c 1f 3d f7 ee c6 bc
       0.0056165997 -0.027461872 0.038860753 -0.02428387
000360 1f 5d 21 bd da aa 91 3c de ec 10 bd db 2c f0 3b
       -0.039395448 0.017781664 -0.035382144 0.007329566
000370 85 c5 07 3c 72 57 1f 3d 89 62 03 bd cc 27 11 bd
       0.008286838 0.038901754 -0.032076392 -0.035438344
000380 97 b5 4d bd e3 aa e4 bb b6 03 04 3d ce 0c 61 3d
       -0.050222006 -0.006978379 0.0322301 0.054943852
000390 f4 62 c2 bc f6 33 86 bb 8c 65 bd 3c 38 64 66 bd
       -0.023728825 -0.0040955497 0.02311971 -0.05624792
0003a0 ff 5c 59 3d cb 93 25 bd 9b 4b f6 3c 9a 95 65 bd
       0.053067204 -0.04042415 0.030065348 -0.056050874
0003b0 63 c3 1d bb eb c3 4c 3d dd e4 11 bd c4 1f 63 bd
       -0.0024072758 0.04999153 -0.03561865 -0.055450216
0003c0 46 a5 57 3d 15 88 94 3c 1d 45 81 3c c2 59 38 3d
       0.05264785 0.018131295 0.015780026 0.045007475
0003d0 c7 79 ee 3c 8e ae 58 3d a5 e6 95 bc ad 3e c6 bc
       0.029110802 0.052900843 -0.018298456 -0.024199808
0003e0 95 0f 35 bd e5 99 98 bc cf dd af bb c5 aa 3e 3d
       -0.044204313 -0.01862807 -0.005367018 0.046549577
0003f0 1e 67 4e 3c db 9d 71 3c c8 0e 80 3c f9 1d 9f bc
       0.012597827 0.014747108 0.015632048 -0.019423472

fc1.bias f4 [50]
000000 39 0d b7 39 38 49 c4 bc 85 04 09 bd 19 b6 74 bd
       0.00034914332 -0.023960695 -0.033451576 -0.059743974
000010 d1 2e bd bb 08 6d d2 3a 8c 2b 9c 3c e7 8d d2 3c
       -0.005773403 0.0016054222 0.019063734 0.02570243
000020 5c 06 0b bd f0 84 17 3c 22 50 62 bd b7 22 30 ba
       -0.03394161 0.009248003 -0.0552522 -0.000671904
000030 6f 0c 05 bd c7 de 55 bc 6a 4c 06 3d 70 09 39 bd
       -0.03248256 -0.013053603 0.032787718 -0.045175016
000040 1c 89 7d bc 70 10 a1 3a 24 de 74 3c 38 c6 b5 bb
       -0.015474584 0.0012288224 0.014945541 -0.005547311
000050 1d e6 19 bd 2e 15 d9 bb b7 ef b2 bc fc 16 51 3d
       -0.03757297 -0.0066248393 -0.02184282 0.05104731
000060 bb 5f 0e 3d d2 0b 79 3a 08 32 b9 3b 9b 4b 0c bd
       0.034759264 0.00095003576 0.005651716 -0.03425179
000070 d0 b8 75 bd 38 85 f6 3c 14 43 35 bd 59 dc 65 bc
       -0.059990704 0.03009282 -0.044253424 -0.014029586
000080 e4 3e 01 3c 2c 70 23 bd 7c 6c 5b bd c8 73 4f 3d
       0.007888529 -0.039901897 -0.053570256 0.050647527
000090 93 33 60 bc f6 09 68 bd ed 02 90 3c 07 2e 9a bc
       -0.013684171 -0.056650124 0.01757952 -0.018820776
0000a0 03 dd 43 bd 54 4f 3e bd 96 f2 55 3c 95 a2 b9 3c
       -0.047818195 -0.046462372 0.013058325 0.022660533
0000b0 8f d6 66 bc 88 e6 b1 3c df c1 a0 bc 7c 83 ed bc
       -0.014089241 0.021716371 -0.019623695 -0.02899336
0000c0 dd ae 93 3c 6e d1 61 3d
       0.018027717 0.05513137

fc2.weight f4 [10, 50]
000000 1e ec f4 bd d9 bf 10 3d 20 b8 95 bd 95 ab 38 3d
       -0.11959098 0.03533921 -0.0731051 0.04508551
000010 6a e8 a6 3d 94 10 7f bd a3 77 d2 bd c5 97 20 bd
       0.08149798 -0.06227167 -0.10276725 -0.03920724
000020 ed b6 17 bd 75 d1 9d bd d7 26 24 3d 4f 91 01 be
       -0.037039686 -0.077059664 0.040076103 -0.12653087
000030 f4 90 2c 3e 33 f2 49 be 1a 45 81 bd 98 df 32 3c
       0.1685217 -0.19721298 -0.06312008 0.010917567
000040 3a 23 2c bd b4 56 76 bd a0 e1 74 bd 0a 8b 58 3d
       -0.042025782 -0.06014128 -0.059785485 0.052866973
000050 6d 42 ea bd 29 63 2a bc 38 13 63 3d 55 c4 9c bd
       -0.11438451 -0.010399618 0.05543825 -0.07654635
000060 0e d3 c4 bc 87 61 16 bd 15 60 bf 3d 41 ca d3 bd
       -0.02402642 -0.036714103 0.09344498 -0.10341311
000070 c8 f1 f1 3c 2f 61 99 bd 49 e9 bd bd 9b de 07 3e
       0.029534236 -0.074892394 -0.09273011 0.13268511
000080 54 50 f5 bc 42 73 1b bd df 2e ad bc 08 08 96 3d
       -0.02994553 -0.037951715 -0.021140514 0.073257506
000090 12 15 a6 bd b7 81 0c 3e ad ca bd 3d e6 d5 9e 3d
       -0.081094876 0.13721357 0.09267173 0.07755642
0000a0 1b f9 b3 bd 16 ce e4 3c db 7b a0 bd 8e 3f a1 bd
       -0.087877475 0.0279303 -0.078361236 -0.0787345
0000b0 02 91 92 3c 90 5d 91 bd 9c 7b f5 bd 84 7b 0e 3d
       0.01789141 -0.07097924 -0.11986467 0.034785762
0000c0 db 4a 3c bd ba b2 fc 3d 7c 8f 10 3d 66 0e f6 3b
       -0.045969825 0.12338777 0.035293087 0.0075090406
0000d0 18 87 d5 bc 76 63 8d bd d7 2c d2 3d b6 6c cc bd
       -0.026065394 -0.06903736 0.10262459 -0.099816725
0000e0 65 d7 f5 bd 35 fc 13 bd 99 87 dc 3a 1a 03 90 3d
       -0.12003974 -0.036129195 0.0016825079 0.070318416
0000f0 30 90 1f be 59 6c 06 be c8 ef ea bd 87 c5 e7 bc
       -0.15582347 -0.13127269 -0.11471516 -0.02829243
000100 ee 2b e2 3c 26 59 d9 3d fb 07 0b be 1e 32 15 3d
       0.027608838 0.10612707 -0.13577263 0.03642475
000110 3f b8 93 3d d1 3e 6a 3c cf 81 a8 3d b0 da 9a bc
       0.072128765 0.014297203 0.08227884 -0.018903106
000120 3d ff 14 be e9 c2 76 bb c1 a6 f4 3a fa ec ad bd
       -0.1455049 -0.0037652797 0.0018665419 -0.08492465
000130 54 07 09 3e 20 c6 c7 ba 4e 55 86 bd 69 b4 71 3d
       0.13381702 -0.0015241541 -0.06559239 0.059009943
000140 a7 8f f1 3c e9 a1 95 3d ca 82 b2 bd 73 57 b8 3b
       0.029487444 0.073062725 -0.08716352 0.005625659
000150 f4 ed 45 bc 86 56 40 3d 8c 34 15 be b0 cd 83 3d
       -0.012080658 0.046957515 -0.14570826 0.06435716
000160 e2 8d a5 bd 18 2d bd b8 40 df b8 bd 15 28 62 bd
       -0.080837026 -9.020622e-05 -0.090269566 -0.055214006
000170 7d 01 0d be 2e 81 00 bc 27 db f5 bd 01 f5 0c bd
       -0.13770099 -0.007843299 -0.120046906 -0.03441334
000180 2b a2 69 3d de 3d 07 3e 12 b3 0a be af 4a d3 bc
       0.05703942 0.13207194 -0.13544872 -0.025792448
000190 ea 06 bc 3d a4 5e fe bd 33 a9 88 bd 18 22 de bb
       0.09181006 -0.12420395 -0.06672897 -0.0067789666
0001a0 4c 4d bb 3d 1a e8 98 bd 52 aa 47 3d 4c 57 6d 3d
       0.091456026 -0.07466145 0.048746414 0.05794458
0001b0 fb 63 b1 3d ba fa c1 3d 8c 26 8d 3d b5 81 b0 bc
       0.08661648 0.094716504 0.06892118 -0.021546224
0001c0 86 2c da 3d 64 13 9e bb b4 81 00 be 7f ce 13 bd
       0.106530234 -0.004824089 -0.12549478 -0.036085602
0001d0 12 1d 03 3e aa 8f 08 3e 72 48 19 be 7e 9e c2 3c
       0.12804058 0.13336053 -0.14969042 0.023757216
0001e0 a6 8d c3 3b 53 45 5a bd b3 2a ce 3d d0 71 01 be
       0.0059678135 -0.05328877 0.10066738 -0.12641072
0001f0 e9 7e 99 3d 5c 52 f3 3b 4a ae 8d 3d d6 40 cb bd
       0.07494909 0.0074255895 0.069180086 -0.09924476
000200 79 a7 98 bd bc 5e b9 bc 9b d9 35 3d 70 49 ba 3d
       -0.07453818 -0.02262818 0.044396978 0.09096038
000210 ce 3c 2e bc b3 81 4b bd e3 e0 a2 3d a0 c3 bd 3d
       -0.010634614 -0.049684238 0.0795305 0.09265828
000220 17 5d ce bd 35 a8 49 3d f2 71 12 3d 67 c7 a7 bc
       -0.10076349 0.04923268 0.035753198 -0.020480825
000230 26 f1 dc bd 2d 22 87 bd 00 db db 3c b0 fb bd 3d
       -0.10788183 -0.065983154 0.026837826 0.09276521
000240 22 b9 4d 3d 29 fe c3 bd 2e 24 02 3e 30 de 39 3c
       0.050225385 -0.095699616 0.12709114 0.0113444775
000250 16 2d 03 be 83 a0 99 bd 06 60 a7 3d f7 12 72 bd
       -0.12810168 -0.07501318 0.08172612 -0.059100118
000260 d0 73 81 3d 41 1a c5 3d c2 97 cf bd 92 53 af 3d
       0.063209176 0.09624148 -0.101363674 0.08560862
000270 dd 61 00 3d c2 03 07 bd f8 34 0e 3e e7 19 af bd
       0.03134333 -0.032962568 0.13887393 -0.08549862
000280 75 70 27 bd 47 44 c1 3d 58 16 53 bd b4 66 4e 3d
       -0.04087873 0.09436851 -0.05153498 0.050390914
000290 5b df b1 bd 5a ac d2 bd 15 80 3e 3c 3d d1 02 3d
       -0.0868518 -0.1028678 0.011627217 0.031937826
0002a0 fa cb 3d bc 2b 1b 28 3c 19 5c dc 3c b4 8a f5 3d
       -0.011584276 0.010260384 0.026899384 0.11989346
0002b0 7e f8 a5 bd 33 29 1d 3d 76 f5 cb 3d a3 c0 86 bd
       -0.08104037 0.03836937 0.09958927 -0.06579711
0002c0 22 05 84 3d 2b a7 56 bd 02 12 83 3d e8 64 75 3c
       0.064462915 -0.052405518 0.06399919 0.014977671
0002d0 6b bd 89 bd 6f 87 c0 3d 12 6a be bd da 5a a4 bc
       -0.06725582 0.09400832 -0.09297575 -0.020062853
0002e0 11 95 05 3e 99 ae 91 bd 4d 9a 3b be e8 91 9b 3d
       0.13045146 -0.0711338 -0.1832058 0.07596189
0002f0 22 eb 27 39 73 d9 fb bd 4e c4 7d bd a4 a2 06 bd
       0.00016013955 -0.122973345 -0.06195479 -0.03286995
000300 47 50 b2 3d da e3 cb bc 9e d2 3b 3e 49 cc b7 bd
       0.08706718 -0.024888922 0.18342063 -0.08974511
000310 a2 15 13 3d 95 6e 12 3e bc 64 ae bd 31 a7 1a 3d
       0.035909303 0.14299996 -0.08515307 0.037757102
000320 a2 34 4f 3d fb ee 86 bd eb b5 ce 3d 80 be 73 3d
       0.050587304 -0.06588551 0.10093292 0.059507847
000330 86 d0 30 3c d1 ee 9c bc ba 73 04 be 06 f2 e9 bd
       0.010791903 -0.019156845 -0.12934771 -0.114231154
000340 73 eb 55 3d d2 42 ed bd fe 0c d5 3d 2a 72 82 3c
       0.052226495 -0.115850106 0.10402869 0.015923578
000350 76 1c 8c 3d ef d3 27 3e 7e af b8 3d 0d 3c f0 3d
       0.06841366 0.1638944 0.090178475 0.11730204
000360 a3 55 11 3d 27 fd c9 3d 1a 14 7d bc b2 2c de bd
       0.03548206 0.09862738 -0.015446687 -0.10848369
000370 92 6e 94 bd 07 eb 50 3d 80 89 db 3d 00 c8 5c 3d
       -0.07247652 0.05100539 0.107195854 0.053901672
000380 b3 b2 0e 3d 15 b0 76 3d 99 63 88 bd 54 31 0d be
       0.03483839 0.06022652 -0.06659622 -0.13788348
000390 bf 35 8c 3d f5 f1 ee bd 74 26 ef 3d 86 ba ed bc
       0.06846189 -0.116672434 0.11677256 -0.029019605
0003a0 1a 1e 70 3d 55 94 b5 3d 16 83 76 3d 1f c7 5d bd
       0.058622457 0.08866183 0.060183607 -0.054144975
0003b0 d1 f5 06 3d ab 59 8e 3d 16 49 a7 bb 54 73 05 be
       0.032949273 0.069506966 -0.005105148 -0.13032275
0003c0 d1 d6 96 3d 18 13 96 bd 38 b1 32 3d 21 25 17 3e
       0.07365192 -0.073278606 0.04362604 0.14760257
0003d0 f6 d0 0d bd fa 23 b3 bd 1b 13 bd bd 56 e6 7a bd
       -0.03462311 -0.08747096 -0.0923216 -0.06125482
0003e0 64 a6 d3 bd d1 c6 44 3d a3 d2 88 3d f0 a8 2a bd
       -0.10334471 0.04804117 0.06680801 -0.041665018
0003f0 a4 e4 38 3b 25 68 1c 3e 8a d9 36 bd d3 1b 02 be
       0.0028212452 0.15274103 -0.044641055 -0.12705927

fc2.bias f4 [10]
000000 47 c2 e1 bd 45 9d 2f 3d bf 51 99 bd 6a dc 41 bd
       -0.110233836 0.042874593 -0.07486295 -0.047329344
000010 e9 56 06 3c 16 54 79 bc 1c 95 8a bb a9 f9 cd bc
       0.008199432 -0.015217802 -0.004229201 -0.025143461
000020 3f 2b 64 bc 0e ad 27 3d
       -0.013926326 0.040936522
