New folder/Models/Client_1/Global models/Initial_5_4_2021_3_48_42.pth (torch, 76655 bytes, 8 tensors)

conv1.weight f4 [10, 1, 3, 3]
00000000: 0f86 9bbe 80fa 91be 9d76 a13e c07f 85bb
00000010: 60b9 4cbc 4968 8a3e 2011 66be c805 3d3d
00000020: f23b a9be ba22 743e 9412 9d3d a4bd 843d
00000030: 6abd 96be 8059 263d 7059 3fbe 2469 c03d
00000040: 8a0f 6d3e 1058 edbc 2765 a13e 16be 6b3e
00000050: e85b 723d b479 c03d 8e9a 8bbe ac22 c1bd
00000060: 9e07 403e 46cf bebd 6764 993e e429 a2be
00000070: d2d2 553e 1001 50be a607 fdbd 577b a4be
00000080: d401 d03d 6060 d33d 8cd2 dc3d 8108 853e
00000090: 0624 64be a832 79bd d704 8ebe 0025 f83d
000000a0: e250 493e 46a3 80be c13b a93e e329 8c3e
000000b0: 204f 73bd f07d c0bd 0843 45bd b3c2 a03e
000000c0: a587 a13e f0e8 64be 041e 81bd d8f8 403d
000000d0: 8031 6f3d 7b5d 4cbe be27 7d3e d796 82be
000000e0: c040 d13d b2bc 1a3e 16c6 3d3e dc87 993d
000000f0: 5572 a43e 4cb3 8bbe 2b88 9e3e 004a b4bd
00000100: 14cf ca3d ff40 a13e 5c59 b1bd 1edf 4bbe
00000110: 3b36 7dbe 4b5a a6be fc7a ac3d 5034 efbc
00000120: d2e5 793e 92ee 523e d37c 61be e270 7d3e
00000130: f657 ebbd 32f3 6e3e 3c3c 8fbd 17d6 8b3e
00000140: c0d6 d33b 60b2 8b3d 4cc1 903d 51a0 873e
00000150: 3860 5b3d dc7c ca3d 130c 0fbe 8827 0cbd
00000160: fd5b 853e ca4b 413e
-0.30375716 -0.2851143 0.31535807 -0.004074067 -0.012495369 0.27032688 -0.2246747 0.04614809
-0.33053547 0.23841372 0.07669559 0.064814836 -0.29441386 0.040612698 -0.18686461 0.09395054
0.23150459 -0.028972656 0.31522486 0.23021731 0.05916968 0.09398213 -0.27266353 -0.09430441
0.18752906 -0.09316878 0.29959413 -0.31672585 0.20881203 -0.20312905 -0.123549744 -0.3212535
0.10156599 0.103211164 0.10782346 0.2598305 -0.22279367 -0.060839325 -0.27738068 0.12116432
0.1965976 -0.25124568 0.330534 0.27375707 -0.05940163 -0.09399021 -0.04815963 0.31398544
0.315488 -0.22354484 -0.06304553 0.047112316 0.058396816 -0.19957535 0.24722192 -0.25505707
0.10217428 0.15111044 0.18532595 0.07496616 0.32118478 -0.2728523 0.30963263 -0.08803177
0.09902778 0.314949 -0.08659622 -0.19909331 -0.24727719 -0.32490763 0.08421895 -0.02919975
0.24404076 0.2059882 -0.22020273 0.24750093 -0.114913866 0.23334959 -0.06993911 0.27311775
0.006464809 0.06821132 0.070681185 0.264895 0.05355856 0.09887096 -0.1396945 -0.034217387
0.26046744 0.18876567

conv1.bias f4 [10]
00000000: 5ddd 8d3e f1ff 973e bc16 813d b2df 513e
00000010: 8553 a53e eb93 65be c050 243e c0e3 43be
00000020: 5eb2 6ebe 00a9 c13d
0.2770795 0.29687455 0.06303164 0.20495489 0.32290283 -0.22419707 0.16046429 -0.19129848
-0.23310229 0.09456062

conv2.weight f4 [20, 10, 3, 3]
00000000: d2f0 4e3d 00ae 81ba 6de0 d43d 672a 9b3d
00000010: 012c abbd fe33 8ebd a95c a13d 9927 a53d
00000020: 6fae ca3d 0130 a33d ac89 833c 94d4 efbc
00000030: a6bd 0abd 3520 d73d 5a87 1cbd c048 d5bd
00000040: 10fa 5fbd f240 c5bd 8d36 a83d a484 91bd
00000050: b675 5ebd cdb8 8d3d 7cb1 b0bc c4e9 e5bc
00000060: 5c70 c53c 6ada 743d 1835 8fbd cea4 153d
00000070: b8f0 12bc d6dd a4bd d69b 503d 006c 273a
00000080: cb35 bc3d 9025 763c 5826 9fbc d048 bbbd
00000090: 1711 a5bd 4e85 a5bd 1ddb 5dbd 1cb2 d0bd
000000a0: e504 c5bd cd70 a73d 0805 63bc 3a0f 95bd
000000b0: 81f6 65bd 6677 17bd 32a0 043d f367 893d
000000c0: e9ad af3d b522 69bd 80d6 b3bd 52c0 213d
000000d0: 46e0 543d 7721 ad3d 87ee ab3d c8cf 9fbd
000000e0: 28f3 2fbc c848 3fbc a0e9 3abc 15ad c5bd
000000f0: a1da c83d 401a e2bb ba5c a5bd 5a04 a1bd
00000100: d0bd 2d3c 5cf8 cc3c 86d4 3e3d 259b d73d
00000110: 64bc 8ebd 93f7 a73d b871 90bc c62c 4cbd
00000120: 4a12 403d 1806 9a3c 67a0 b03d 0084 1b3b
00000130: 1696 3dbd 8716 d63d 3849 063c 1c22 b93c
00000140: 1f96 803d a4b3 b73c 05ee c3bd 4cac fd3c
00000150: 88cf 80bd e079 58bb e8ab 55bd 3315 b4bd
00000160: 4063 5cbc 8296 763d 9dfa ab3d 87e6 863d
00000170: 0092 e33a 86fa 4e3d a087 c0bc 286b 453c
00000180: 952f b83d 66a6 213d dc62 12bd 3504 65bd
00000190: 1dd1 c33d 206a 66bb ccf7 a2bc c1ee d13d
000001a0: c503 cc3d 56ff cebd 7428 993c 3036 3e3c
000001b0: 2908 a33d f67f 4b3d 7249 adbd 73b5 8c3d
000001c0: 87ab c93d 1a6a 0b3d 2050 7abb a37f 54bd
000001d0: 6a26 003d 052b 873d 6432 ec3c d9af 963d
000001e0: e055 40bd 50fb a6bd c080 a33b 8366 963d
000001f0: 001f 96bc 5c2a e33c fdd4 8a3d 1efd 8abd
00000200: f8c0 8abc 509b dc3b 491a 88bd e475 babc
00000210: 1ff0 8f3d d337 b23d 4f96 3abd f2db 75bd
00000220: 7076 e93b 58bd 52bc cb87 c73d 339f 62bd
00000230: a65f 81bd 2db6 a73d 047e f33c 3897 dcbc
00000240: 5744 d23d ec8c febc ac1b ef3c a871 543c
00000250: 407e 763c 692d ac3d 9c95 a43c 1655 2c3d
00000260: 5299 723d 43c4 c23d 2bcc ae3d d8ec 27bc
00000270: 2056 95bd 4d42 8d3d c558 d33d c863 71bd
00000280: 68f9 543c ecc2 b5bd 701f b8bb dba1 9f3d
00000290: fa64 5cbd faf5 693d 3876 27bc 4f9c ae3d
000002a0: 044d 94bc 14fc 93bd 0599 cc3d fc77 b73c
000002b0: 13a5 b03d 7023 ddbb e291 8abd bb02 4bbd
000002c0: 71fe 3cbd 2cd8 adbd 767e 8abd 4ee4 19bd
000002d0: 3c86 59bd e2a5 cdbd cc55 bf3c cea6 5cbd
000002e0: 6df9 bc3d 8006 c6bb 6ee9 033d 2e9c 513d
000002f0: 75a1 57bd ae2c 6b3d 7a7d 003d 00a8 29bd
00000300: 2307 883d 91b0 d0bd 763b 53bd a364 9f3d
00000310: 0a74 5c3d fc31 94bc 803b b73a 53b3 cb3d
00000320: 98f9 1c3c eea2 a8bd 7047 8bbb 280f 2ebd
00000330: ea4b 3ebd 3c58 a0bc 8074 c5ba 6fd6 b8bd
00000340: acf0 5cbd f018 02bd 5e1b 2cbd f963 62bd
00000350: 888d 473c 093b 44bd e09e 90bb cbbc a03d
00000360: 9c63 17bd 70c6 13bd 5cad d43c 3038 d1bd
00000370: 8a98 173d 9c79 9dbc 7f53 8c3d bcc5 ed3c
00000380: 7aac 653d b70a 923d 8977 d1bd b2e1 30bd
00000390: 093a 993d 40d6 8d3b 4cd1 d0bd 6a4f 84bd
000003a0: 583b 70bc e217 203d 2b36 9e3d 0c76 e13c
000003b0: 583e 0cbc 46de 553d d8e9 803c 1378 d3bd
000003c0: 80f1 8b3c d837 d3bc 7f3c 8cbd 0ecf b8bd
000003d0: 3c72 80bc 8ea7 263d 787f 26bd a2f0 91bd
000003e0: d093 a53b bc55 06bd ca0e 503d 88e6 c7bc
000003f0: 08d3 95bc e5ab 76bd d0fa c0bb d648 063d
0.050522633 -0.0009893775 0.10394368 0.07576447 -0.083580025 -0.069435105 0.07879002 0.08064193
0.09896552 0.079681404 0.016056858 -0.02927617 -0.03387227 0.1050419 -0.03821502 -0.104142666
-0.054681838 -0.09631528 0.0821353 -0.07105377 -0.054311477 0.069200136 -0.021569006 -0.02806557
0.024101429 0.05977861 -0.06992549 0.036534123 -0.008968525 -0.08050124 0.050929867 0.00063866377
0.09189948 0.015023604 -0.019427463 -0.09144747 -0.080599 -0.080820665 -0.05416404 -0.10190222
-0.09620074 0.08175812 -0.01385618 -0.07278295 -0.056143288 -0.0369791 0.032379337 0.0670928
0.085780926 -0.056917865 -0.08781147 0.03949005 0.051971696 0.084536485 0.08395105 -0.07803303
-0.010739125 -0.011675067 -0.01140824 -0.096521534 0.09807325 -0.006900102 -0.08074327 -0.07862158
0.010604337 0.02502077 0.046589397 0.10527638 -0.069695264 0.08201518 -0.01763235 -0.049847387
0.04689244 0.018801734 0.08624344 0.0023729801 -0.04628571 0.104535155 0.008196168 0.022599272
0.06278633 0.022424527 -0.09566883 0.030965947 -0.062895834 -0.0033031628 -0.052165896 -0.08793106
-0.013451397 0.06020213 0.0839741 0.06586938 0.0017362237 0.050531887 -0.023502171 0.012049474
0.089934506 0.03946533 -0.03573881 -0.055912215 0.095613696 -0.003515847 -0.01989355 0.10250617
0.099616565 -0.10107295 0.018696047 0.011609599 0.07960541 0.04968258 -0.08461274 0.06870546
0.09847169 0.034036733 -0.003819473 -0.051879536 0.031286635 0.06600002 0.028832622 0.07357759
-0.046956897 -0.08153403 0.0049897134 0.07343771 -0.018325329 0.02773016 0.067789055 -0.067865595
-0.016937718 0.006732382 -0.066456385 -0.022761293 0.07028221 0.08702054 -0.0455535 -0.06002421
0.0071247146 -0.012862526 0.09742697 -0.055327605 -0.063170716 0.08189044 0.029723175 -0.026927575
0.10266941 -0.031073056 0.029188 0.012966551 0.015044749 0.08407099 0.02009087 0.04207333
0.05922825 0.0951009 0.08535036 -0.010249339 -0.07291818 0.068974115 0.10319666 -0.05893305
0.012998916 -0.08875069 -0.005618982 0.07794543 -0.053807236 0.057119347 -0.010221057 0.08525907
-0.01810313 -0.072258145 0.09990124 0.02239608 0.086252354 -0.0067486092 -0.06766106 -0.04956315
-0.04614109 -0.08488497 -0.06762402 -0.037571244 -0.05310653 -0.10041405 0.02335634 -0.053870015
0.09227262 -0.0060432553 0.032205038 0.051174335 -0.05264421 0.057415657 0.031369664 -0.041419983
0.06641986 -0.10189927 -0.05157038 0.07782867 0.0538216 -0.01809024 0.0013979524 0.09946313
0.009580992 -0.08234201 -0.0042504594 -0.042494923 -0.046459116 -0.019573323 -0.0015064627 -0.09025275
-0.05394046 -0.031762064 -0.042018287 -0.055271123 0.01217974 -0.047907863 -0.0044134706 0.078485094
-0.03696023 -0.036077917 0.02596157 -0.10215795 0.037010707 -0.019223027 0.06851863 0.029024951
0.05607269 0.0713095 -0.10227878 -0.04318399 0.074817725 0.004328519 -0.1019617 -0.064604595
-0.014662586 0.039085276 0.077251755 0.02752211 -0.008559786 0.05221393 0.015736505 -0.10325637
0.01708293 -0.025783464 -0.06847476 -0.090238675 -0.015679471 0.040687136 -0.040648907 -0.07125975
0.005053021 -0.032796606 0.050795354 -0.024401918 -0.018289104 -0.060222525 -0.005889274 0.032784306

conv2.bias f4 [20]
00000000: 7087 abbc d002 733c 78ad 1a3c e06e cd3b
00000010: 90ea 5f3c 98ef 9bbd 433f 923d 70ef 4ebc
00000020: 1a4b 7d3d 9cc7 c8bc 8528 c53d 60a5 9e3c
00000030: 974f a03d 24ff 18bd c256 5dbd 4059 2ebb
00000040: 3540 cebd 20d9 383c d6e4 783d 3d2a ab3d
-0.020938605 0.0148322135 0.009440772 0.006269321 0.013666764 -0.07614058 0.071409725 -0.012630329
0.0618392 -0.024509244 0.09626869 0.019365966 0.078276806 -0.037352696 -0.054037817 -0.002660349
-0.1007084 0.011282235 0.06076511 0.08357666

fc1.weight f4 [50, 320]
00000000: 30ea 0c3c 04b6 aebc 727f 20bd 5c96 c53c
00000010: 260f dcbc 6c91 15bc 545f bd3c f031 3b3d
00000020: 2686 033d cc1f 60bd 70a7 5f3c 603f d0bb
00000030: b7c5 4abd dc80 9cbc 6c59 3d3d 1aae 62bd
00000040: b0e0 433b 84a9 3c3d 6867 d4bb 0a83 42bd
00000050: 80f0 3ebd 5867 523d 1408 37bd b80a bd3c
00000060: d4ff 72bc f0f6 fc3c 4f06 d9bc fe63 e4bc
00000070: 0cb3 323d ec05 67bc 1e9c bcbc 98f3 983c
00000080: e877 58bd 2812 9dbb 8637 83bc 361c 013d
00000090: 8043 32ba 801a ed3c c8dd 213c fc84 85bc
000000a0: 6026 523c a8f0 893b 6401 9c3c 006a 703c
000000b0: 3458 dfbc c02a 7abc dc88 823c d097 80bc
000000c0: 9061 a8bb 1292 a7bc 9759 e1bc a8c3 2f3c
000000d0: 52a0 383d f246 b1bc 3003 0fbd 40f7 343d
000000e0: bcb5 1f3d 88ef 293c e815 8dbc d265 133d
000000f0: 40f1 55bd 386a cd3b 8e4a 593d d002 a83b
00000100: a21f 3ebd 6892 8d3c 4a13 113d aa44 57bd
00000110: 7ac2 80bc dad2 043d f2d7 583d e81d 4d3d
00000120: c8ec 1fbc ecfa a93c 2ea7 9cbc 70b1 2c3c
00000130: 94d3 553d c28a 5b3d e07a 383c 46fd cdbc
00000140: 78fa 55bc 609f f8bb f0f4 943c 629a 473d
00000150: feca 9abc b69f 88bc f099 893b e4c1 30bd
00000160: 70e2 b83c 5818 fcbc dc16 4a3d 7d92 01bd
00000170: e829 3ebc dcd5 4abd b4d3 3cbc 643c 0cbd
00000180: 72d7 11bd e017 4d3d a0d0 9e3b 3ca9 e13c
00000190: f061 0e3b 1607 203d 3062 3d3d ff2e 54bd
000001a0: 6050 023d 200b d43c 2f42 63bd b0fd 34bd
000001b0: a8b7 493c 4a6e 573d dc35 13bd c0e4 d4ba
000001c0: d0f3 073d dc2c 34bc 0015 7a39 d04a 11bc
000001d0: 5e55 c3bc b0b5 183d a042 d63c 76d4 5dbd
000001e0: 5872 c4bb 0ed3 bcbc b49f 613d d149 cebc
000001f0: c057 be3c 53ee 03bd 6e15 8cbc a4a0 20bc
00000200: c0de 803c d01d 243d 06da 37bd 36c8 27bd
00000210: 50b3 463c 3814 3f3d 9c16 5e3d f602 3abd
00000220: c434 e13c ff98 1dbd 2e14 5e3d f455 0bbd
00000230: 3c4f 07bd be98 3dbd dc2b ca3c e122 13bd
00000240: e43d 833c c7da 42bd 6a21 45bd 083e 0dbc
00000250: 6513 3abd 1cf8 03bc 0038 4d3a 8c6b c3bc
00000260: 5007 793c 5cd9 07bd 5079 8d3c e427 bf3c
00000270: e46b 21bd e821 9dbb 0459 8d3c 94b8 7cbc
00000280: 3dec 61bd 50ef 363d ce1d 1a3d 204a 5ebd
00000290: 5945 44bd 3804 c23c e4fe 8e3c 1812 0c3d
000002a0: 54fa d5bc 0ad6 4f3d 6071 e33b 4afc 253d
000002b0: b3cb 0ebd 8661 283d 509e 393c 9c9d f63c
000002c0: ec69 2e3d c8d4 e9bb 1776 63bd 1f61 ffbc
000002d0: 44ec 80bc 5a9c 153d 4855 40bd 16e8 083d
000002e0: c0f3 d93a 101b 4c3d 1c48 65bc 9c8d ea3c
000002f0: 705c 0e3c 5c58 aabc 9c91 3e3d dcbc 043d
00000300: 68cb 583c f866 1d3c d4cb b33c da5d 23bd
00000310: 1430 8b3c 88ce 093d 005f bb3a 00a0 ea37
00000320: 9831 ca3c c25a 94bc 9026 40bd ace5 1bbc
00000330: 06d6 b3bc 349d cabc 2c42 2ebd 3418 97bc
00000340: 40f5 613c ea45 5c3d 242a 5e3d 49d0 16bd
00000350: be55 333d 20a3 c1bb 3886 05bd ba24 263d
00000360: 6cb7 f23c 601c ea3c 66a3 bdbc 34fc d53c
00000370: f3e4 39bd 00c7 863a 1fcc 29bd 38fc 9fbb
00000380: d013 12bc 64c2 4ebc 26e0 293d e36c 55bd
00000390: 8eac 29bd 57cd f4bc 645e a53c 8ed2 3c3d
000003a0: bb8c 4ebd a333 dcbc 6d8e 63bd c014 59bb
000003b0: 8753 e4bc acb5 453d b84f b43b 309b 4d3d
000003c0: 8069 723c e001 183c d8e3 6d3c 6452 1a3d
000003d0: c025 24bb d2f3 323d b0d8 25bb f07d 42bb
000003e0: 0650 333d ec7a 86bc 94cd 3abd e021 b5bc
000003f0: ba96 edbc 0099 21b9 a027 613c f6b7 353d
0.0086007565 -0.021327026 -0.03918404 0.024119548 -0.026862692 -0.00912891 0.023116745 0.04570192
0.032110356 -0.054717824 0.01365076 -0.006355211 -0.04950496 -0.019104414 0.046227857 -0.055341817
0.0029888563 0.0460601 -0.0064820535 -0.04748825 -0.046616077 0.051368088 -0.04468544 0.0230764
-0.014831502 0.030879468 -0.026492266 -0.027879711 0.043627784 -0.014100533 -0.023023661 0.018670842
-0.052848727 -0.004793424 -0.016017687 0.031521045 -0.00068002194 0.0289433 0.009879537 -0.016298763
0.012826532 0.0042095967 0.019043632 0.01467371 -0.027263738 -0.015268981 0.0159344 -0.01569739
-0.0051385835 -0.020455394 -0.02750854 0.0107278 0.04507477 -0.021640275 -0.03491515 0.04418111
0.038991675 0.01037205 -0.01722236 0.035985775 -0.052232027 0.006268766 0.053049617 0.0051272884
-0.046416886 0.017281726 0.035418786 -0.052555718 -0.015717734 0.032427646 0.052940316 0.05007735
-0.009761043 0.020749532 -0.019122686 0.010540351 0.05220373 0.053599127 0.011259764 -0.025145184
-0.013060205 -0.0075873584 0.018183202 0.048731215 -0.018895622 -0.016677719 0.004199259 -0.04315366
0.022568911 -0.030773327 0.049338207 -0.031633843 -0.011606671 -0.04952036 -0.011525083 -0.03423728
-0.035605855 0.050071597 0.0048466474 0.027546518 0.0021725856 0.039069258 0.046236217 -0.05180263
0.031814933 0.025884211 -0.05548304 -0.044187248 0.0123118535 0.052595414 -0.035940036 -0.0016242489
0.033191502 -0.010997023 0.00023849681 -0.008867934 -0.023844417 0.037282646 0.026154816 -0.054157697
-0.005995076 -0.023049857 0.055083945 -0.025181683 0.023235202 -0.032209706 -0.017100062 -0.009803925
0.015731215 0.040067494 -0.044885658 -0.04096242 0.012127712 0.04665014 0.05422078 -0.04541298
0.02749098 -0.038475987 0.054218464 -0.03401752 -0.03303455 -0.046288244 0.024679117 -0.035921935
0.016020723 -0.047571924 -0.04812757 -0.008620746 -0.045428652 -0.008054759 0.0007828474 -0.023854993
0.015199497 -0.033166274 0.01726976 0.023334451 -0.039409533 -0.0047953017 0.01725436 -0.015424866
-0.055156935 0.04466182 0.03762608 -0.05426991 -0.047917698 0.023683652 0.017455526 0.034196943
-0.026120342 0.050741233 0.0069410056 0.040523805 -0.03486223 0.04110863 0.011329249 0.03010445
0.042581484 -0.007135961 -0.05553254 -0.03117424 -0.01573766 0.03652606 -0.04695633 0.03342446
0.0016628429 0.049830496 -0.013994243 0.028631978 0.008689031 -0.020794086 0.046525583 0.032406673
0.01323209 0.009607069 0.021947779 -0.039884426 0.016990699 0.03364423 0.001429528 2.796948e-05
0.024681851 -0.018109683 -0.046911776 -0.009515207 -0.02195264 -0.024733163 -0.042543575 -0.018444158
0.013791382 0.053777613 0.054239407 -0.03681973 0.043782942 -0.0059093386 -0.032598704 0.04056237
0.029628478 0.028577983 -0.023149204 0.026121236 -0.04538436 0.0010282695 -0.04145443 -0.0048823617
-0.0089158565 -0.0126195885 0.04147353 -0.052105796 -0.041424327 -0.02988307 0.02018661 0.046099238
-0.05042718 -0.026880091 -0.05555575 -0.003312394 -0.02787186 0.04826896 0.0055026673 0.050196826
0.014795661 0.009277791 0.014519654 0.03767623 -0.0025046915 0.043689556 -0.0025306158 -0.0029677115
0.04377749 -0.016416036 -0.04560621 -0.02211088 -0.029002536 -0.00015411153 0.0137423575 0.044364892

fc1.bias f4 [50]
00000000: eb56 e7bc 242c 20bc e441 63bd 9aa2 18bd
00000010: b85f 34bd 9ae3 293d 3cd5 50bd d498 8a3c
00000020: f8f8 30bc a0ce b13b eac6 213d 809b 00bc
00000030: 189a bf3c 8c77 43bc d0dd da3b 307f b03c
00000040: c81f d33b cce0 633d 808d 6f3b 0640 153d
00000050: 411e dbbc 1c8a 133d dfea 53bd e408 333d
00000060: 8f65 55bd bc09 2fbc ef07 5ebd 6892 56bd
00000070: 24c3 98bc 348a 573d 4c00 303d b2d9 293d
00000080: 40da 3c3b a088 babb a93f 31bd 5e3b 33bd
00000090: f819 c53c a0f8 123c 4cb4 5ebd 2e4d 5ebd
000000a0: 8948 58bd 50be 75bc f820 30bc 17c9 5cbd
000000b0: b94a 07bd 182f d43c 76da 043d fc90 93bc
000000c0: 6099 21bd 9420 14bc
-0.028239688 -0.009776149 -0.05548276 -0.037264444 -0.044036597 0.041476823 -0.050984606 0.016918577
-0.010801546 0.005426243 0.03949634 -0.007849574 0.023388907 -0.011930358 0.006679274 0.021545023
0.0064429976 0.055634305 0.0036552846 0.03643801 -0.026747825 0.036020383 -0.051737662 0.04370965
-0.052098807 -0.010683473 -0.054206785 -0.052385718 -0.018647738 0.052622035 0.042969033 0.041467376
0.002881661 -0.0056925565 -0.0432736 -0.04375779 0.024060234 0.00897041 -0.054371163 -0.054272823
-0.05280355 -0.014998987 -0.010750048 -0.05390271 -0.033030245 0.025901362 0.032434903 -0.01801347
-0.03945291 -0.00904097

fc2.weight f4 [10, 50]
00000000: 0aa9 953d e038 5f3d 4619 ec3d f81f f2bd
00000010: 54b0 a0bc 300b cdbc c84d f13c 82e6 0abd
00000020: be28 b4bd d84c 123d 20dc 963d d87f 0f3d
00000030: 36b2 75bd 8c00 bb3d 707f 46bd f840 6cbd
00000040: c40f a7bd 2788 073e 8059 783d 0650 e43d
00000050: 3e3f b03d 1cf1 4dbd 9024 cabd 1011 bcbd
00000060: e6f9 fc3d de36 2ebd 32f2 46bd 9eb9 2abd
00000070: 1874 e6bd 641c b0bc e81b 83bc 9840 5fbd
00000080: adc9 0f3e ec14 07be 1c26 84bd fa8f 26bd
00000090: 7026 b93c 3d9b 0f3e b429 63bd a6fb 823d
000000a0: 0099 75bd 9cb9 233d 13d3 a0bd c7cb e5bd
000000b0: 9617 9c3d cc63 d43d c838 6cbd da15 4fbd
000000c0: 1064 613d 106f 993c ac1a 70bd f636 63bd
000000d0: 80ab 293d 1d2d 0f3e 4eb7 db3d 220c c33d
000000e0: 666a 53bd 2650 db3d e0e7 923c c081 913c
000000f0: 8067 edbb 1859 873d f6ab 6fbd 8e85 bc3d
00000100: e4ca 403d d220 0abe 9a79 a3bd 9a87 ae3d
00000110: 9236 32bd 9922 0d3e 7158 0e3e 00d8 fb39
00000120: b038 0b3c c0a8 f0bb 1428 d7bc 04ba 673d
00000130: e116 f5bd 5fdb 013e a03d 563d c668 fe3d
00000140: 6021 c0bb 3461 bfbc 9abe b6bd f65d f63d
00000150: 524b eb3d 7fd2 dabd 00e5 c33a 2083 d33b
00000160: 9869 943c 7eca 01bd 4c0b 21bd 6b09 90bd
00000170: 81ba 0a3e a0a9 8c3d f04b 2dbd d4d7 263d
00000180: 026d f53d 52a8 b5bd aacb 18bd 9791 0d3e
00000190: fe9c 883d cce0 023d 959c 95bd e2e8 dbbd
000001a0: a012 75bc 7ad6 c9bd 102f 7e3c 2027 b13b
000001b0: be86 be3d 7044 27bc 808b b43d fea7 d4bd
000001c0: 6ec2 923d e0b3 bcbb d8b4 c2bc 3812 343d
000001d0: d8a4 353d 47c7 073e 10be 643d 3efd 833d
000001e0: cf2e e4bd 3015 86bc ae66 e53d e113 b7bd
000001f0: 27dc 0f3e 5987 e6bd 94f9 afbd e426 2f3d
00000200: 6e2c ea3d 20e3 793d 3c8b bfbc 85d1 eabd
00000210: 4532 053e 286e 833d 440a 243d 84c1 f0bc
00000220: 50d8 693d d56c 08be e2d5 c53d 981d 583d
00000230: 4ab6 ba3d e222 10be bf9b fcbd 1469 a9bd
00000240: 06f5 de3d cda3 03be 2011 dcbd 28c4 0d3d
00000250: ca50 df3d f280 09bd 70c2 b33c 7926 033e
00000260: 33ff 03be de58 b7bd 4086 1bbd f830 9f3c
00000270: e8b5 853c e25f 42bd de89 f43d 9833 143d
00000280: 2471 09be b3ff 023e 4023 a3bd e086 363d
00000290: b4ec 953d 00a9 10bc ba7a 85bd ade6 0fbe
000002a0: 921d d0bd 9cf2 693d 40d5 c63c 4a49 943d
000002b0: 16da 4abd d3eb 93bd c4f8 b63d fc7f a2bd
000002c0: 4cfa c03d 0015 10be b6ff d53d 78fc c6bc
000002d0: 3e48 b8bd 60bf 383d c3f5 043e 00e8 b0bc
000002e0: a03d 48bc 0cb4 8fbd ac6a 5dbd cd7f cebd
000002f0: 42a5 90bd 1ecb ef3d 8e63 c33d c4c9 c0bd
00000300: 2cb8 013d 8a4e d23d 1062 103d 9ab1 db3d
00000310: 8006 063c de49 c13d 018c 003e bf2d f1bd
00000320: 08e9 3cbd 73b9 ccbd 607c a53c 564d ff3d
00000330: 287c b63c 15c2 0b3e 7e06 31bd 2876 403d
00000340: 60aa afbd feea b13d 4182 043e 8826 8b3d
00000350: d205 8b3d f2bb f0bd b8b8 813c 90ff d1bc
00000360: 04a9 563d 3bb0 043e e6ce e4bd 1835 973d
00000370: 6cbc cc3d 7cb7 413d 7059 6b3c cc24 f5bd
00000380: 4032 263d b423 ab3d e0ee d0bc 662d edbd
00000390: 16c2 b33d f1dc 0f3e 65d7 98bd 20f6 7e3c
000003a0: 588c c33d 1a99 a23d a40b a43d 1067 6a3c
000003b0: f458 1e3d 0650 25bd f073 033c 8415 70bd
000003c0: 5e61 a3bd 70fd 853c faf6 d4bd 38f7 f8bc
000003d0: 02dd e1bd 8f79 04be b826 843c 889e dc3c
000003e0: 47a4 8fbd a61c cd3d 26f8 0abe d802 bebd
000003f0: ee0d fb3d 1f00 063e 6a0a 5abd 64a4 853d
0.07307632 0.0544976 0.11528258 -0.11822504 -0.01961533 -0.025029749 0.029456034 -0.033911236
-0.087968335 0.035717815 0.07366204 0.03503403 -0.05998441 0.09130964 -0.048461378 -0.057679147
-0.08157304 0.13235532 0.06063223 0.11148076 0.086058125 -0.050278768 -0.09870255 -0.09182942
0.12352352 -0.042532794 -0.04857082 -0.041680925 -0.11252612 -0.021497913 -0.016004518 -0.05450496
0.14041777 -0.13191575 -0.06452581 -0.04066465 0.022601336 0.14024062 -0.055459693 0.063956544
-0.059960365 0.039971933 -0.07852759 -0.11220508 0.07621686 0.10370597 -0.05767134 -0.05055795
0.055027068 0.018729717 -0.058619186 -0.055472337 0.04142332 0.13982053 0.10728322 0.095237985
-0.05161514 0.107086465 0.017932832 0.017762065 -0.007245004 0.0660879 -0.058513604 0.09205161
0.04706849 -0.13489082 -0.07982178 0.08521958 -0.043509074 0.13782729 0.13900925 0.00048035383
0.008497402 -0.0073443353 -0.026264228 0.056573883 -0.119672544 0.1268134 0.052304864 0.12422328
-0.0058633536 -0.02336178 -0.08923073 0.120296404 0.114889756 -0.1068468 0.0014945567 0.0064548403
0.018116757 -0.031687252 -0.039317414 -0.07033046 0.13547708 0.06868291 -0.042308748 0.040733173
0.11983682 -0.08869995 -0.037303604 0.1382507 0.06670569 0.031952664 -0.07305256 -0.10737778
-0.014958054 -0.09855361 0.01551415 0.0054062754 0.09303044 -0.010209188 0.0881567 -0.103836045
0.07165991 -0.0057587475 -0.023767874 0.043962687 0.04434666 0.13259612 0.05584532 0.064447865
-0.111417405 -0.016367525 0.11201225 -0.089393385 0.14048825 -0.11256284 -0.08592525 0.0427617
0.114342555 0.06100762 -0.023381822 -0.11465744 0.13007458 0.06417495 0.040048853 -0.02938915
0.057091057 -0.13322766 0.096599355 0.052762598 0.091168 -0.14075807 -0.12334394 -0.08271995
0.10886578 -0.12855454 -0.10745454 0.034610897 0.10904081 -0.033570237 0.021943301 0.12807645
-0.1289032 -0.08952497 -0.037969828 0.01943253 0.016322091 -0.047454722 0.119403586 0.036182016
-0.13422066 0.12792854 -0.07965708 0.04456222 0.07320538 -0.008829355 -0.06517549 -0.1405284
-0.1016189 0.057116136 0.024271607 0.07240541 -0.04952439 -0.07222714 0.08934167 -0.07934567
0.0942274 -0.14070511 0.104491636 -0.024290308 -0.08998154 0.045104384 0.12984376 -0.021595001
-0.012221724 -0.07016763 -0.05405681 -0.1008297 -0.070627704 0.117086634 0.09540473 -0.09413484
0.03166978 0.102688864 0.03524977 0.10727234 0.008180261 0.09437917 0.12553407 -0.117763035
-0.046120673 -0.09996309 0.020200908 0.124659225 0.022276 0.13648255 -0.043219082 0.046987683
-0.08577418 0.08687399 0.12940313 0.06794459 0.067882195 -0.11754598 0.015835151 -0.025634557
0.05240728 0.12957852 -0.11172275 0.07383174 0.09996876 0.047294125 0.014364585 -0.11969909
0.040575266 0.08356419 -0.02550453 -0.11580925 0.08777253 0.14049126 -0.07462958 0.01556161
0.09548253 0.07939358 0.08010033 0.014306799 0.03865905 -0.04035952 0.008023247 -0.05861427
-0.07977556 0.0163562 -0.103986695 -0.03039132 -0.11028482 -0.12936996 0.016131744 0.026931062
-0.07013755 0.1001523 -0.13571224 -0.09277886 0.12258516 0.13085984 -0.053232588 0.06525496

fc2.bias f4 [10]
00000000: 642e 853d 7678 5fbd 3e9b b4bd 08ba 973d
00000010: 6064 6abd 54e4 e6bc 6020 5fbd ba09 c03d
00000020: 00a0 9c3c 7019 43bc
0.06502989 -0.05455824 -0.088186726 0.074085295 -0.05722463 -0.028185047 -0.054474235 0.09376855
0.019119263 -0.01190792
