New folder/Models/Client_1/Global models/Initial_5_4_2021_2_45_13.pth (torch, 76655 bytes, 8 tensors)

conv1.weight f4 [10, 1, 3, 3]
000000 08 3e 3e 3d 1c 23 d1 bd 73 58 96 be 79 40 a5 3e
       0.046445876 -0.10211775 -0.29364356 0.3227575
000010 8a fb 68 3e 83 0b a4 3e 03 18 74 be 28 cf 25 be
       0.22752205 0.32040033 -0.23837285 -0.16192305
000020 5e 88 1a 3e 00 21 c7 3c 00 e2 b8 3b 26 36 39 3e
       0.15091082 0.024307728 0.0056421757 0.18087062
000030 82 0e 6f 3e 20 c6 35 3c 00 00 56 36 a0 c2 19 be
       0.23345378 0.0110946 3.1888485e-06 -0.1501565
000040 2c fe 8b be 3c c7 92 3d 10 89 ed 3c 34 7d f9 3d
       -0.27342355 0.07166907 0.02899602 0.12182084
000050 c0 74 62 be 2a ca 0d 3e fe 96 34 3e af 6a a2 be
       -0.22114849 0.1384665 0.17635724 -0.31722018
000060 80 00 25 3d e8 73 7b be 3c 22 f9 3d fa 5e 18 3e
       0.04028368 -0.24555933 0.12164733 0.1487998
000070 d8 99 6c 3d 98 57 90 be 26 d3 01 3e 2f 33 8a 3e
       0.057763904 -0.2819183 0.12678203 0.26992175
000080 90 14 ae 3c 28 44 2b bd 47 12 9e be ac 76 a6 be
       0.02125004 -0.041813046 -0.3087332 -0.32512414
000090 80 8d a7 be a2 cf 5b 3e a8 5c 54 3d 26 47 6b 3e
       -0.32725143 0.21465924 0.051846176 0.2297636
0000a0 d8 b6 2e be 00 1f 96 3b b7 05 9e 3e 23 a8 43 be
       -0.17061937 0.004581332 0.30863735 -0.19107108
0000b0 80 dc 47 3b 52 36 5f 3e 7e 5a 30 3e a1 0a 93 3e
       0.0030496418 0.21798065 0.1722202 0.28719047
0000c0 00 36 13 ba 18 66 38 3d 80 8c 16 be 94 29 93 3d
       -0.00056156516 0.04501924 -0.14702034 0.07185665
0000d0 9c e5 81 be 00 e9 80 3a 50 91 b6 3d 86 89 e4 bd
       -0.2537049 0.0009835064 0.08914435 -0.11159043
0000e0 e0 37 36 bd 40 e0 88 bb 80 ef 0f 3d 58 45 1f bd
       -0.04448688 -0.0041771233 0.035140514 -0.03888449
0000f0 e5 3f 8c 3e 04 36 90 be fb 6b 67 be 23 71 26 be
       0.27392498 -0.2816621 -0.22599785 -0.16254096
000100 c0 91 aa 3d 43 b5 47 be a3 69 29 be bd cd 93 3e
       0.08328581 -0.1950274 -0.16544203 0.28867903
000110 52 94 1b 3e 18 ac 08 3d 74 03 db 3d 8c 51 d9 bd
       0.15193298 0.033367246 0.10694018 -0.10611257
000120 96 43 0e be 39 8c 87 3e ca 0b 53 3e 5e 6c a7 be
       -0.1389297 0.2647417 0.20609966 -0.32699865
000130 c6 ef 77 3e b8 90 65 bd 99 cc 80 3e 18 07 59 bd
       0.2421256 -0.056046218 0.25156096 -0.05298528
000140 58 cb 2d 3d 08 0a 09 3e bd bb 8d 3e 8c c2 8e bd
       0.04243025 0.13382733 0.27682295 -0.069707006
000150 05 9a 8f 3e 08 af a6 be 50 4a aa be d0 78 98 3d
       0.28047195 -0.32555413 -0.3325982 0.07444918
000160 27 c6 a1 3e d0 99 9c bc
       0.3159649 -0.019116312

conv1.bias f4 [10]
000000 1d 46 a8 3e e0 d9 0a 3c 60 c7 1e bc 53 53 a4 be
       0.32865992 0.008474797 -0.009691089 -0.3209482
000010 32 07 51 3e b3 c2 44 be 95 c5 8b 3e be 04 2c be
       0.20412901 -0.19214897 0.2729918 -0.16798684
000020 a8 1f 33 bd 66 fd 6f be
       -0.04373136 -0.23436508

conv2.weight f4 [20, 10, 3, 3]
000000 7a 98 58 3d a0 9a 40 bb 95 2e 8c bd 6f 00 a5 bd
       0.052879788 -0.0029389039 -0.06844822 -0.08056723
000010 b9 8c 83 bd 47 bd 4e bd 05 72 a5 bd 7c c5 be bd
       -0.06423325 -0.050473478 -0.08078388 -0.09315011
000020 ad ec d3 3d c0 1f c8 bc 0d c2 9a 3d 40 11 9b 3a
       0.10347877 -0.024429202 0.075565435 0.0011830702
000030 4b b2 c3 3d ec e9 eb bc bf 74 c1 bd f0 d4 bf 3b
       0.09555491 -0.028798066 -0.09446096 0.0058542415
000040 5c f5 b3 3c d6 43 27 3d b4 18 8a bc 5d b4 9d 3d
       0.021967582 0.040836178 -0.016857482 0.07700417
000050 25 ab a4 bd a0 d3 d2 bb 47 77 c0 3d af c5 c5 3d
       -0.08040456 -0.006433919 0.0939775 0.09656846
000060 f8 d6 bd bc c4 4b e7 3c b6 e2 77 3d a1 2b d7 3d
       -0.023173794 0.02823437 0.060518943 0.105063684
000070 90 df bd 3b 75 88 81 3d f6 52 a0 bd b5 d8 50 bd
       0.005794473 0.06324855 -0.078283235 -0.050987918
000080 e0 80 1b 3b cc 3d c9 bc 76 d7 4d 3d 80 c0 f6 ba
       0.0023727939 -0.0245656 0.050254308 -0.001882568
000090 fa fe 35 3d 78 52 72 bc d9 63 b2 3d 13 56 a1 3d
       0.044432618 -0.01479017 0.08710451 0.078777455
0000a0 b5 47 68 bd 69 1f b3 3d 20 00 d8 3b 9e 79 18 3d
       -0.05670901 0.087462254 0.006591812 0.03722536
0000b0 92 27 5c 3d 01 88 c5 bd 33 12 86 3d 80 8f ab bd
       0.053748675 -0.09645081 0.0654644 -0.0837698
0000c0 fc f6 b5 3c b0 17 b2 3b 60 a7 87 bb e1 17 ad 3d
       0.022212498 0.0054349527 -0.0041398257 0.0845182
0000d0 ae da 6b 3d 1b fa be bd db b9 86 3d c4 35 dc 3c
       0.057581596 -0.093250476 0.06578418 0.026881106
0000e0 c8 7d 84 bc 28 7c c5 bc 60 f7 8c bd 34 13 92 bd
       -0.016173258 -0.024107054 -0.068831205 -0.07132569
0000f0 c4 14 ce 3c 0c d1 97 3c 5c a4 9b 3c 50 6e bc bc
       0.025156386 0.018532299 0.018999271 -0.02300182
000100 00 85 ef ba 72 25 48 3d 15 12 84 3d 7e d6 59 bd
       -0.001827389 0.048863836 0.064487614 -0.05318307
000110 47 4a bb bd 21 94 aa 3d c9 96 c7 bd 0f ff b1 bd
       -0.09145027 0.083290346 -0.09745557 -0.08691227
000120 e0 8f 79 bc d7 f0 9f 3d 51 5f c9 3d b4 15 90 bd
       -0.015232056 0.078096084 0.09832633 -0.070353895
000130 60 4f 99 3c c2 c6 ae bd ee e9 76 3d 36 f7 11 3d
       0.018714607 -0.08534004 0.060281686 0.03563615
000140 a8 bd 2f bd 27 02 b0 3d 62 6f 4a 3d 47 d2 4e bd
       -0.04290548 0.085941605 0.04942263 -0.050493505
000150 45 51 a7 bd 9c 04 ad 3c 62 a2 43 3d 38 3a 00 bd
       -0.08169798 0.021120362 0.047762282 -0.03130552
000160 30 aa f4 3b c0 b3 bc bd ea f1 6e 3d 02 0a 3a 3d
       0.007466577 -0.09213972 0.058336176 0.0454197
000170 e4 14 e0 3c 38 05 0c 3c 8e c5 28 3d 60 40 8d bd
       0.027353711 0.008546166 0.041204028 -0.06897044
000180 14 3c 5f bd 23 c3 99 3d cc af 2e bd 38 90 93 bd
       -0.054500654 0.075079225 -0.04264812 -0.07205242
000190 a4 d6 82 bd e6 d3 a2 bd 08 ef 9f bc 1a a6 7c 3d
       -0.06388596 -0.07950573 -0.019523159 0.061681844
0001a0 16 10 c7 bd 50 0a b3 bc 02 15 00 3d cb 0a 92 bd
       -0.09719865 -0.021855503 0.031270035 -0.07130965
0001b0 49 be d4 3d 6f 52 bc 3d ee a9 75 3d 25 29 83 3d
       0.103878565 0.091954105 0.05997651 0.06404332
0001c0 72 f8 68 3d 5c 3c a2 bd e3 27 cd 3d 9c 4f 8b bd
       0.05687756 -0.07921669 0.100173734 -0.06802294
0001d0 74 f9 fd bc 92 68 44 bd 70 a0 70 bc 7d 64 8c 3d
       -0.031002738 -0.04795129 -0.014686689 0.06855104
0001e0 fa 64 20 3d aa 43 2b bd 63 af 57 bd c2 ee 29 bd
       0.0391588 -0.041812576 -0.052657496 -0.041487463
0001f0 ed 64 a6 3d 19 5b a5 3d 02 01 19 3d 00 a1 dd 39
       0.08124719 0.08074016 0.037354477 0.0004227236
000200 74 31 a3 bc 16 6e 0a 3d 37 00 a6 3d c4 54 e1 3c
       -0.019921042 0.033796392 0.0810551 0.02750624
000210 50 7b b5 bb c6 8f 54 3d 1e d6 67 3d b3 cb 7a bd
       -0.0055383816 0.051894926 0.056600682 -0.06122942
000220 bc 1f c2 3c aa 6d 56 bd 59 fa ca 3d d8 77 f6 bc
       0.023696773 -0.052350678 0.09911031 -0.030086443
000230 40 68 bc 3a 62 eb 67 bd 74 a4 b4 bd 5a b9 29 bd
       0.0014374331 -0.056620963 -0.088204294 -0.04143653
000240 73 c5 c1 3d d7 f3 a9 3d 24 8d b9 3c 00 6c cd bd
       0.094614886 0.08298462 0.022650309 -0.10030365
000250 0e ea 40 3d 34 94 a0 3c 3a a5 c5 bd 29 e0 b4 3d
       0.047098212 0.019601919 -0.09650655 0.08831818
000260 75 65 89 3d f6 cd 45 3d 10 cf 8a bc ac 18 00 bd
       0.067088045 0.048292123 -0.016944438 -0.03127353
000270 00 f6 22 3b cc 76 91 3c 40 fa 08 bb 4c 3c dc bc
       0.0024865866 0.017756842 -0.0020901114 -0.02688422
000280 28 11 30 3c 9c 4d 49 bd 54 98 aa bd 1d 17 be 3d
       0.010746278 -0.04914628 -0.083298355 0.09281752
000290 2f b2 a0 3d a4 72 09 bd 0b 1d 9e 3d eb ef a5 3d
       0.07846486 -0.033556595 0.07720383 0.08102401
0002a0 45 b2 c8 3d 98 2e 91 bc 08 33 96 bd e0 62 c5 3b
       0.09799627 -0.017722413 -0.07333952 0.0060237497
0002b0 8d 27 3d bd ac 5d b3 3c 32 40 69 bd c0 b2 a4 bd
       -0.046180297 0.021895252 -0.056945987 -0.08041906
0002c0 f4 02 b5 3c 88 71 93 bd 3b c3 b9 3d e4 75 c6 bd
       0.022096135 -0.07199389 0.090704404 -0.096904546
0002d0 47 e3 be 3d 84 ea 80 bd 08 3f 7f bc 37 74 a9 3d
       0.093206935 -0.0629473 -0.015578993 0.08274119
0002e0 3e 2c 64 3d 1f b7 88 bd 93 f0 ad 3d ed eb ce 3d
       0.055706255 -0.066755526 0.084931515 0.10103593
0002f0 f3 2b 9c 3d 40 0f e4 bb 72 ac aa bd 40 ed 38 3b
       0.0762557 -0.0069598258 -0.083336726 0.0028217584
000300 b6 d6 04 bd 78 5a 63 3c 7c 24 0d bd 00 8a 8b ba
       -0.032431327 0.01387655 -0.034458622 -0.0010645986
000310 b1 f4 84 3d ec 45 d5 3c 8c b0 fd 3c b8 7a b0 bc
       0.06491984 0.026034318 0.030967973 -0.021542892
000320 ac ba ab bd fc 5b ad bd 47 65 8a 3d c4 7a 84 bd
       -0.08385214 -0.0846481 0.06757598 -0.06468728
000330 ad 0a b8 3d 5d d8 cf 3d b2 ba 0f 3d 54 cb c4 3c
       0.08986411 0.1014869 0.035090156 0.024022736
000340 c8 4d 66 bd 34 91 91 bd 18 df 03 3c e0 e5 19 bc
       -0.05622652 -0.071077734 0.008048795 -0.009393185
000350 41 1f ca 3d ee c7 b1 bd b2 fd 13 bd 90 2a 66 3c
       0.098692425 -0.08680712 -0.036130615 0.014048234
000360 1c f7 fe 3c 6c 9d a9 bc 06 d5 46 bd e8 e3 1a bd
       0.03112369 -0.020704947 -0.048543 -0.037815005
000370 50 ad 86 bc 60 69 8d bd d9 1f bd 3d c5 45 b5 3d
       -0.016440064 -0.06904864 0.0923459 0.08851198
000380 00 68 7b 38 94 3e 86 3c b4 dc a6 bc 73 32 52 bd
       5.993992e-05 0.016387261 -0.020368911 -0.051317643
000390 3d ae 81 3d a2 ba 79 3d 99 a2 a4 3d 38 e8 ff bc
       0.063320614 0.060969003 0.080388255 -0.03123866
0003a0 b2 b5 44 3d 92 da 19 3d 9c 25 2c bd 52 fd 3f bd
       0.04802484 0.03756196 -0.042028055 -0.046872444
0003b0 4a 8c 66 3d c8 98 36 3c 76 20 9f bd 74 61 9e bd
       0.056286134 0.011144824 -0.07769863 -0.077334315
0003c0 2d bd 98 3d f3 7c 4d bd ff 70 c0 3d 1c 2a d7 3c
       0.074579574 -0.05016799 0.09396552 0.026265197
0003d0 81 10 82 3d c4 8c 0e bd a1 3f bb bd d0 c0 c3 bd
       0.06350804 -0.034802213 -0.091429956 -0.095582604
0003e0 f3 e0 c5 bd 0a d8 5f 3d 3c 05 e4 3c 74 7b be bc
       -0.09662046 0.05464939 0.027834527 -0.023252226
0003f0 db e6 b8 3d 00 6a b2 bd d5 79 b6 bd 87 e7 c9 bd
       0.09028407 -0.08711624 -0.08909956 -0.098586135

conv2.bias f4 [20]
000000 1f 86 ad bd 53 3a 85 3d bb c7 8a 3d 48 4f 35 bd
       -0.08472847 0.06505265 0.06776377 -0.04426506
000010 75 fc d0 3d c8 41 b7 bc b6 4a 2d 3d 68 a6 24 3c
       0.10204402 -0.022370234 0.042307578 0.01004944
000020 b6 83 22 3d f6 17 17 3d ee 93 ad bd 70 c5 5c 3c
       0.03967639 0.036888085 -0.08475481 0.013474807
000030 bf ec d4 bd b1 48 73 bd 09 f8 7b bd 15 db b4 3d
       -0.10396718 -0.059395496 -0.06151584 0.08830849
000040 2e 9c a7 bd 70 4c a3 bd 6c 05 f5 3c 52 37 82 bd
       -0.08184086 -0.07973564 0.029909812 -0.06358208

fc1.weight f4 [50, 320]
000000 1f 13 5e bd 4c 78 e4 bc f2 ed 38 3d 81 d6 63 bd
       -0.054217454 -0.027889393 0.045148797 -0.05562449
000010 04 ce c2 3c d8 54 17 3d 2a 9c 0c 3d 90 c7 66 3c
       0.023779877 0.036946148 0.034328617 0.014085665
000020 80 a1 3a 3b a0 c2 c6 3c 80 c2 3b ba 50 58 46 3b
       0.002847761 0.024262726 -0.00071624666 0.003026504
000030 dc 32 c5 3c 58 94 a0 3c 20 19 0e 3d c4 ad 22 3d
       0.024072103 0.019601986 0.03469193 0.039716497
000040 3c 3a 9f 3c 7b 60 5e bd 84 ec 71 bc c4 6c 1a bc
       0.019436948 -0.05429123 -0.014765862 -0.009425346
000050 44 fe 48 bc 6c d4 70 bc c2 44 cd bc f8 17 45 3c
       -0.012267653 -0.014699083 -0.0250572 0.01202964
000060 d7 55 1a bd 60 15 0b 3d de fd 42 bd 90 a5 24 3c
       -0.03767952 0.03395593 -0.047605388 0.010049239
000070 f8 19 50 3d a6 81 0c 3d 00 61 85 3a d3 16 35 bd
       0.050806016 0.03430333 0.0010176003 -0.04421122
000080 1c cb 5e 3d 90 83 91 bc 74 7d 8e bc d8 b5 4c 3c
       0.05439292 -0.01776293 -0.017393805 0.012494527
000090 60 71 e1 ba 18 cc 41 3d 81 30 16 bd 90 4b 36 3c
       -0.0017199926 0.04731378 -0.03666735 0.011126414
0000a0 d3 08 45 bd 70 41 19 3c c6 61 9b bc ec 24 3f bd
       -0.04810412 0.00935398 -0.01896752 -0.04666607
0000b0 24 cb f9 bc 7c c6 d5 3c 90 cf 32 3b ba a9 87 bc
       -0.030492373 0.026095621 0.0027284361 -0.016560424
0000c0 3c 44 c1 3c 76 95 ac bc 58 15 4a 3d ae ae 04 3d
       0.023592107 -0.021067362 0.04933676 0.03239315
0000d0 4c d2 a7 3c 95 2a 64 bd ee 35 60 bd 85 ab d6 bc
       0.02048602 -0.055704672 -0.05473893 -0.026204834
0000e0 4c 9c 58 3d 85 b9 3c bd 68 27 e2 bc 92 11 b9 bc
       0.05288343 -0.046075363 -0.027606681 -0.022591386
0000f0 70 77 b5 3c d0 af 80 3c 28 95 0c bc 5e ee 29 bd
       0.022151679 0.015708834 -0.0085804835 -0.04148709
000100 58 c9 ce 3b b6 96 55 bd 78 13 4d bc ec a3 10 bd
       0.006310623 -0.052145682 -0.012516849 -0.035312578
000110 e0 e4 f7 3b 5f bc 41 bd e2 4c 58 3d 60 80 f0 ba
       0.007565126 -0.047298785 0.052807696 -0.0018348806
000120 c0 2a 85 3c c4 9b 95 bc 6a 80 4d 3d 42 27 16 bd
       0.016255736 -0.018262751 0.050171293 -0.036658533
000130 54 cf 25 bd eb f0 45 bd 00 b6 40 ba 8c c2 b3 bc
       -0.040480927 -0.04832546 -0.0007351339 -0.021943353
000140 6e 44 60 bd 49 c4 34 bd 00 61 2e 39 00 cd c4 3b
       -0.05475276 -0.044132505 0.00016630068 0.006005883
000150 58 6b a7 bc f6 27 b9 bc af c9 00 bd ca c9 0c 3d
       -0.020436928 -0.022602063 -0.03144234 0.03437213
000160 b8 3f 32 3d dc b5 30 3d 93 34 01 bd c0 31 fd 3c
       0.0435178 0.043142185 -0.03154428 0.030907512
000170 62 a4 c8 bc 8a 02 49 3d 00 0c a4 b9 2c de 50 bd
       -0.024492446 0.049074687 -0.00031289458 -0.05099313
000180 40 92 ed 3c 40 3e a8 bb 97 ca 44 bd 9f 64 0c bd
       0.029000401 -0.005134374 -0.048044767 -0.034275647
000190 a0 c0 f2 bb ef 99 e1 bc 7f 0b 4b bd 02 36 58 3d
       -0.0074082166 -0.027539222 -0.04957151 0.05278588
0001a0 e8 1b d5 3c 5c d4 15 bd dc df a0 bc cf a5 3a bd
       0.026014283 -0.036579475 -0.019637994 -0.045568284
0001b0 08 a8 60 bc 70 e7 58 3d f5 86 db bc f8 50 40 3d
       -0.013711937 0.05295509 -0.026797751 0.046952218
0001c0 78 b9 0f bc 00 6c 58 b8 82 9a 61 3d b8 c1 1f 3d
       -0.008772247 -5.1598996e-05 0.05507899 0.039003104
0001d0 d0 c7 d6 3c 18 5e a4 3c 80 44 ed 39 8c 24 a1 bc
       0.026218325 0.020064399 0.000452552 -0.019670747
0001e0 00 5d ec 3b 40 62 0a 3c cc 54 a7 3c f6 96 3c 3d
       0.007213235 0.008446276 0.020426176 0.046042405
0001f0 2a fb 36 bd e0 f6 8d bb b6 50 44 bd a8 a4 4e 3c
       -0.044673122 -0.0043324083 -0.047928534 0.012612499
000200 b8 f1 b6 bb 1e cf 0a bd 98 42 5e bd b0 13 7a 3c
       -0.0055830143 -0.03388893 -0.054262727 0.015263483
000210 7f c2 25 bd a8 8f 9a 3b a0 1e 0a 3d 94 f9 86 bc
       -0.04046869 0.004716832 0.033720613 -0.01647643
000220 a0 44 c4 3a 90 4f 6f bc dc e6 91 bc 52 b1 45 3d
       0.0014974065 -0.0146063715 -0.017810278 0.04826481
000230 38 d7 63 3d ce 80 5e 3d 60 2a f8 bb 1e 60 2a bd
       0.05562517 0.054322056 -0.007573411 -0.04159557
000240 50 ad c2 3b f0 d9 56 3c 60 1d 02 3c dc e8 a5 3c
       0.0059410706 0.013113484 0.007941574 0.020252638
000250 ad ba d2 bc e7 26 da bc 8c 17 03 3d d8 04 68 3c
       -0.02572378 -0.026629878 0.032004878 0.014161311
000260 86 7e e0 bc 59 ff 1a bd d0 0a 4c 3d 4c 71 5d 3d
       -0.027404081 -0.037841175 0.049815 0.054063126
000270 98 ff 8f bb dc 2e f9 3c 01 44 4b bd d0 14 7d bc
       -0.004394483 0.030417852 -0.0496254 -0.015446857
000280 60 66 4c bd 59 be 4f bd b8 64 db bb 64 a9 47 3d
       -0.04990232 -0.05071864 -0.006695356 0.048745528
000290 30 5e 19 bc b0 6b 2f bd c0 80 fd 3b 90 98 79 bc
       -0.009360835 -0.04282731 0.0077362955 -0.015234128
0002a0 dc 3e 98 bc ee 4f 1b bd d0 0d 56 3c eb ff fd bc
       -0.018584661 -0.037918024 0.013064817 -0.03100582
0002b0 ba 0c cb bc f8 cc 81 3b a9 41 13 bd bc 0f a3 3c
       -0.024786342 0.0039612018 -0.03595129 0.019904964
0002c0 7c 16 32 bd 98 ca 69 3c 68 0f d1 3c 7e 59 36 3d
       -0.043478474 0.0142694935 0.025520042 0.04451894
0002d0 a0 aa ba 3c 32 ab 23 3d 22 fa a7 bc 78 42 84 3c
       0.022786438 0.039958186 -0.020505015 0.016144976
0002e0 ca 21 25 bd 29 c8 58 bd 80 b9 e2 3c 66 12 20 bd
       -0.040315427 -0.052925263 0.027676344 -0.039080046
0002f0 d0 28 48 3b 1c 4e b0 3c 18 e6 51 3d f0 78 6d 3c
       0.0030541904 0.02152162 0.051244825 0.014494166
000300 52 99 1a bd 20 3d 64 3b 24 fc 31 bd b0 09 15 bd
       -0.037743874 0.0034826472 -0.04345335 -0.03638619
000310 a4 f9 bf bc 14 b6 06 3d b4 f3 37 bd 84 9e 4f 3d
       -0.023434468 0.032888487 -0.044910148 0.05068828
000320 58 51 90 3c a6 de 0f bd ff 99 5e bd 7c a2 c1 3c
       0.017616913 -0.035124443 -0.05434608 0.023637049
000330 16 d3 b2 bc ac 8e 07 3d e0 23 e6 bc 98 d3 7b 3c
       -0.02182917 0.033095047 -0.028093278 0.015370272
000340 5a ab ed bc 3a 96 d1 bc 3f 53 da bc c0 2f 55 ba
       -0.02901237 -0.025584329 -0.026651023 -0.00081324205
000350 e8 23 7e bc b2 2f 8f bc d2 47 0d 3d f9 fb e2 bc
       -0.01551149 -0.017478798 0.03449232 -0.02770804
000360 60 b4 26 3d 4c 89 4b 3d a8 26 d4 3c ef 3e 16 bd
       0.040699363 0.049691483 0.025897339 -0.036681112
000370 5a e1 36 3d c0 34 96 bc ea d5 5f 3d 98 f2 07 3d
       0.044648506 -0.0183357 0.054647364 0.03319034
000380 44 79 0e 3d 48 fa 11 bc 32 11 13 3d 1c 11 58 3d
       0.034783617 -0.008909769 0.03590507 0.05275069
000390 d0 07 45 3c c0 00 61 3d f0 86 34 3d 5c 1f 28 bc
       0.012025788 0.054932356 0.044074 -0.010261383
0003a0 e8 6c 66 3c 10 15 ea 3c 96 9e ba bc c6 2e dc bc
       0.014064051 0.028574497 -0.022780698 -0.026877772
0003b0 58 82 f1 3c 34 f8 15 bd 58 cb 92 bb 3a 3d 07 bd
       0.029481098 -0.036613658 -0.004479807 -0.033017375
0003c0 3e 7f 2f 3d 2c 1f 25 3d 06 23 1b 3d 3e c6 9f bc
       0.042845957 0.04031293 0.037875198 -0.019503709
0003d0 80 ff c2 3c 0c 5d 51 bc e8 dd 1b bc 3c d1 33 bd
       0.023803473 -0.012778532 -0.009513356 -0.043900713
0003e0 00 0a 21 bc 48 8d 25 bd b0 43 54 3b e8 c8 a9 3c
       -0.009829044 -0.04041794 0.0032388978 0.020725682
0003f0 d8 57 28 3d 8c eb 09 bc f9 88 dd bc b2 81 5f 3d
       0.0410994 -0.008417975 -0.027042853 0.054567046

fc1.bias f4 [50]
000000 73 75 ce bc 90 2b 4b 3d c0 ea 99 3b dc 3d 97 3c
       -0.025202489 0.04960209 0.004697174 0.018462114
000010 a0 08 ed ba e1 f8 64 bd 84 7c b3 3c 24 86 01 3d
       -0.0018084235 -0.055901412 0.02190996 0.031622067
000020 6c 78 1f bd a9 9d 17 bd 84 a6 c8 3c e9 9c 1d bd
       -0.038933203 -0.03701559 0.024493463 -0.03847972
000030 ee f9 ba bc 6a 6c f1 bc 30 08 cd bc 8e 9a 0e bd
       -0.022824254 -0.029470641 -0.025028318 -0.034815364
000040 00 17 87 39 15 ba d6 bc 90 c1 f6 3b 44 c1 a9 3c
       0.00025766343 -0.026211778 0.0075303987 0.020722039
000050 f7 32 49 bd c2 61 ed bc 90 0e 90 3b 2c 91 c9 3c
       -0.04912087 -0.028977279 0.0043962672 0.024605356
000060 5e 26 ca bc 97 d3 e6 bc fc 66 ec bc a0 08 53 bb
       -0.024676498 -0.028177066 -0.0288577 -0.0032201186
000070 52 43 41 3d 74 36 53 3d c0 11 30 ba d0 6f 01 3c
       0.047183342 0.051565602 -0.0006716512 0.007900193
000080 95 69 f4 bc bc 06 88 bc 50 4b 2a 3c 00 6f 7a 3c
       -0.029835502 -0.016604774 0.010393932 0.0152852535
000090 02 aa 21 bd 38 c4 23 3d 38 06 21 3d c0 62 43 3d
       -0.039468773 0.03998205 0.03931257 0.047701597
0000a0 40 e8 8a 3c 40 a5 15 3c 70 ab 9e 3c f2 9c af bc
       0.016956449 0.009133637 0.019368857 -0.021437142
0000b0 cd 0a d5 bc 42 3c 54 3d f0 27 8f 3c c8 6d 99 bc
       -0.026006127 0.05181528 0.017475098 -0.018729106
0000c0 40 a8 92 ba da 53 8b bc
       -0.0011189058 -0.017007757

fc2.weight f4 [10, 50]
000000 bc a2 cc 3d a0 a6 38 3c a8 3b 7a bd a8 96 a5 3c
       0.099919766 0.011270195 -0.06109205 0.02021344
000010 fc 0c 89 bc 0c 50 c8 bd 18 d7 ac bd 24 54 4c bd
       -0.016729824 -0.09780893 -0.084394634 -0.04988493
000020 e4 56 d1 3d 4a ac cf 3d 6f ba 0d be 70 ae d0 3c
       0.10221651 0.101402834 -0.1384065 0.025473803
000030 b8 5e 61 3d f8 fd 85 3d ed 08 08 3e ec 2e b9 bc
       0.05502197 0.06542581 0.13284655 -0.022605382
000040 20 91 ed bd d8 1e db 3c 86 88 b1 bd 7a da e7 bd
       -0.11599946 0.026748106 -0.08668618 -0.11320968
000050 1e 71 c5 bd 3a b3 82 bd 6e e4 bc bd a9 e1 e7 bd
       -0.09640716 -0.06381841 -0.09223257 -0.11322338
000060 e2 9b e0 bd 00 d9 c8 ba b0 69 a1 bd d0 a3 f3 bd
       -0.10967232 -0.001532346 -0.078814864 -0.11896479
000070 20 33 a3 bd 60 ae 2f bc 24 2e d9 3d 78 82 aa 3d
       -0.07968736 -0.010722727 0.10604504 0.08325666
000080 a0 84 eb 3c 50 51 d4 3d a6 ac af bd 78 5f d0 3d
       0.028749764 0.10367072 -0.08577852 0.10174459
000090 86 72 8f bd 16 f8 ae bd 2a c2 0a bd 74 9c 0b 3d
       -0.070042655 -0.085434124 -0.033876576 0.034084752
0000a0 80 58 1d 3d 5a 46 15 bd b0 03 b4 3d 1e 2b e5 3d
       0.03841448 -0.036444046 0.08789766 0.111898646
0000b0 08 21 e1 bd 2f de 94 bd 32 fd e7 3d 3e b1 a7 3d
       -0.10992628 -0.07268941 0.1132759 0.08188103
0000c0 dc e0 e6 bd a0 ab 0d 3c a5 18 f6 bd 72 88 08 bd
       -0.11273357 0.008646876 -0.12016419 -0.03333325
0000d0 d4 4f 04 3d 25 47 8c bd 00 70 60 38 28 cc 2d 3d
       0.032302693 -0.06849507 5.351007e-05 0.042431027
0000e0 80 a8 e5 bc e8 40 67 3d 10 32 31 3c b2 b8 cc 3d
       -0.028034449 0.056458384 0.0108151585 0.09996165
0000f0 40 94 1f 3d 60 e5 53 bc dc 62 5f bd 92 2c 98 3d
       0.03895974 -0.012933105 -0.05453764 0.07430376
000100 8c f4 64 3d fa e5 c2 3d e8 ed e6 3c 3e 20 c9 3d
       0.05589728 0.09516521 0.028189614 0.09820603
000110 c6 74 ac bd 10 b3 d6 3c 42 13 fa 3d 58 73 13 bd
       -0.0842071 0.02620843 0.122107044 -0.035998672
000120 22 4e c2 3d d8 90 c5 3c ba 79 e4 3d f0 af 26 bd
       0.09487559 0.024116918 0.1115603 -0.04069513
000130 94 a8 cc bd 2c 38 7c bd f4 30 7a 3d 9f 37 04 3e
       -0.09993091 -0.061577007 0.06108184 0.12911843
000140 95 cc 9a bd 94 d5 4e 3d de 15 95 3d 96 c1 d0 bd
       -0.07558552 0.050496653 0.072795615 -0.101931736
000150 70 84 04 3c 0c e6 f8 bd 24 88 90 bd 26 82 f9 3d
       0.008088216 -0.12153253 -0.07057217 0.12183027
000160 ca 76 62 bd e4 c9 9c 3d 16 ac ee 3d d6 c5 af bd
       -0.055289067 0.07655695 0.116539165 -0.08582656
000170 2c eb 86 bd 88 ea a8 3d 2c c9 96 3d 3c 3a 0a be
       -0.06587824 0.08247858 0.07362589 -0.13498777
000180 ea fc 0f bd 7e c7 d6 bd 3a 05 a7 bd f6 a3 35 bd
       -0.035153307 -0.10487269 -0.08155294 -0.04434582
000190 18 fa fb 3c a4 dd 82 3d f0 3e dd 3d f0 f1 3c 3c
       0.030758902 0.06389931 0.1080302 0.011532292
0001a0 89 6f 08 be 76 d0 da 3d 5a bf bd 3d 1a 03 a6 3d
       -0.13323797 0.10684292 0.09265013 0.0810606
0001b0 9c 20 76 bd e1 2b aa bd 80 e7 3d bc 80 8a 90 3b
       -0.060089692 -0.083091505 -0.011590838 0.0044110417
0001c0 64 41 c2 bd 86 87 aa 3d af 8a 97 bd 8e 5a 53 bd
       -0.094851285 0.0832663 -0.07399499 -0.05160003
0001d0 4e d8 28 bd 2a e9 bd 3d b2 83 7f bd 26 84 f1 3d
       -0.04122191 0.09272988 -0.062381454 0.117927834
0001e0 9e 38 4f bd 8e 9f fa 3d ca 42 e5 3d 00 ca 2c bc
       -0.050591104 0.12237464 0.1119438 -0.010546207
0001f0 3c 8f 8f 3d f0 64 60 bc b2 18 d1 3d 08 bd 8c bc
       0.07009742 -0.01369594 0.102097884 -0.01717998
000200 da 5f bc bd b8 58 51 3d ce 74 f0 bd 3c 00 60 3d
       -0.0919797 0.05111 -0.11741029 0.054687724
000210 ce 13 ea bd 0e aa ee 3d 4d 0a df bd 08 85 cc 3d
       -0.11429559 0.11653529 -0.108906366 0.09986311
000220 24 1d eb bc f6 75 c5 bd f8 f6 5e 3d 10 93 fd 3c
       -0.028700419 -0.0964164 0.054434747 0.030953914
000230 ae f9 aa 3d 0c 2e bb bd 36 93 d8 3d ac f7 b8 bd
       0.08348404 -0.09139642 0.10574953 -0.09031615
000240 bc d2 aa 3d 90 99 c2 3c 8d 47 0d 3e 40 7f 9b bd
       0.08340976 0.023754865 0.13796826 -0.075926304
000250 7a 96 54 bd d6 c4 27 bd ff 45 05 be 8b 07 08 3e
       -0.051901318 -0.0409592 -0.13014983 0.13284127
000260 d2 6c 4f bd 84 f1 0a be 7c 1a a1 3d 48 27 dd bc
       -0.05064089 -0.13568693 0.078663796 -0.02699627
000270 af 88 01 3e 4d b7 07 be 30 3b c1 bd b2 0c 92 3d
       0.12649797 -0.13253517 -0.09435117 0.07131328
000280 76 7c a2 bd f4 fb 88 3d bf 6c 06 3e fc c8 ce bc
       -0.07933895 0.06688681 0.13127421 -0.025242321
000290 0e c6 7f bd 00 bd a3 bd 6a 82 5b bd f0 5c 76 3d
       -0.06244474 -0.07995033 -0.05359117 0.060147226
0002a0 20 83 54 3d ce fe b1 bd 32 e0 2d bd 14 93 b1 3d
       0.051882863 -0.08691178 -0.042450137 0.08670631
0002b0 e1 8f e3 bd 96 9e e5 bd c2 c0 01 be 48 a0 04 3d
       -0.11111427 -0.112118885 -0.12671188 0.03237942
0002c0 95 1e ee bd ec d8 3e 3d 36 60 ec bd 36 53 d3 3d
       -0.11626927 0.04659359 -0.11541788 0.103186056
0002d0 ad 27 9a bd fa bc a8 bd ee 8f a7 3d 9a 7a 9e 3d
       -0.07527099 -0.082391694 0.08181749 0.07738228
0002e0 c8 50 ad 3c 10 e9 84 bc 88 1d 91 3c 5a b5 1e bd
       0.021156684 -0.016224414 0.017714277 -0.03874717
0002f0 ea 50 d8 3d 72 3e df 3d 40 ca e5 bd 6b ab 07 3e
       0.10562308 0.109005824 -0.11220217 0.13248985
000300 85 f3 06 3e 44 33 82 bd 2d 37 07 be d0 e0 17 bc
       0.13178833 -0.063574344 -0.13204642 -0.009269908
000310 98 0f 75 bd 60 9a 68 3c 2e ad ef 3d b2 eb 6c bd
       -0.059829324 0.014196962 0.11702953 -0.057841964
000320 ec 2f 5a 3d c2 bf 9f 3d 80 a1 7a 3d 88 f0 ef bd
       0.053268358 0.07800247 0.061189175 -0.117157996
000330 d4 da 5e 3d 92 c1 c1 bd cf 46 e2 bd a6 55 05 be
       0.05440791 -0.09460749 -0.11048662 -0.13020954
000340 c4 0a 71 3d e0 83 92 bb 32 54 85 3d 2e 4f e1 3d
       0.058848158 -0.004471287 0.065101996 0.110014305
000350 9a fc b1 3d 56 a0 84 bd aa 4b 97 3d a0 10 04 bc
       0.08690758 -0.06475894 0.07387479 -0.008060604
000360 cc f6 c8 bc d8 2d ca bd 98 d4 f4 bd 15 fe c2 bd
       -0.024531744 -0.09872025 -0.119546115 -0.095211186
000370 be ce ca 3d 49 03 c7 bd 3e 25 11 bd 12 c4 43 bd
       0.09902714 -0.097174235 -0.035435908 -0.04779441
000380 0f a3 03 be 60 99 93 bd 98 ce 53 3d b5 aa aa bd
       -0.1285517 -0.07206988 0.051710695 -0.08333341
000390 f2 7a df 3d dd 33 e6 bd 83 a3 88 bd 18 76 9b 3c
       0.10912122 -0.11240361 -0.066718124 0.01897721
0003a0 88 f6 25 bd f0 6d 0f 3d 18 0b ff 3c 8a da ab 3d
       -0.040518314 0.035016954 0.03113322 0.083912924
0003b0 90 32 25 bc 80 cd 48 3d 56 31 4d bd f8 97 e4 3c
       -0.010082856 0.049024105 -0.05009588 0.027904496
0003c0 20 4f 5f 3d c4 38 a6 3d 84 e0 44 3d 30 69 ab 3c
       0.05451882 0.08116296 0.048065677 0.02092418
0003d0 4d 97 0b be 87 e4 03 3e 83 31 08 3e 42 66 fb 3d
       -0.13631935 0.12880145 0.13300137 0.122753635
0003e0 18 c9 a2 bc 61 0d f1 bd 4d 5a 02 3e ec 47 19 bd
       -0.01987128 -0.1177013 0.1272976 -0.037422106
0003f0 13 18 c6 bd e0 a7 d2 3b 0c 41 ac bd 1c 97 bd bc
       -0.096725605 0.0064287037 -0.08410844 -0.023143344

fc2.bias f4 [10]
000000 ca af f1 3d 5b a4 06 3e 9f 37 cf bd ea 26 ba bd
       0.11801107 0.13148634 -0.10118031 -0.090894535
000010 e2 ab 0b bd fc f9 26 3d b0 43 3a 3d 70 fa 37 bd
       -0.034099467 0.040765747 0.045474708 -0.04491657
000020 ea 10 bf 3d 75 f0 f2 bd
       0.09329398 -0.1186227
