New folder/Models/Client_1/Global models/Initial_5_4_2021_4_3_48.pth (torch, 76655 bytes, 8 tensors)

conv1.weight f4 [10, 1, 3, 3]
0	0xbd967060	-0.073456526
1	0x3e63870a	0.22219482
2	0x3d597d48	0.053097993
3	0xbe85e310	-0.26149797
4	0xbe0d221b	-0.13782541
5	0xbea9538c	-0.33071554
6	0x3e8c365d	0.27385226
7	0xbd4d93c0	-0.050189734
8	0xbd93d2ac	-0.07217917
9	0x3e8a1f5b	0.26977047
10	0x3e8cbfc5	0.2749006
11	0x3e83905d	0.25696078
12	0x3c887140	0.016655564
13	0x3e5d2b3a	0.21598521
14	0xbd324048	-0.043518335
15	0x3e97798d	0.29584923
16	0x3e9769b3	0.2957283
17	0x3d96f5e4	0.07371119
18	0x3cf19050	0.029487759
19	0xbe583ba8	-0.21116507
20	0x3e6a45ae	0.22878143
21	0x3d8004cc	0.06250915
22	0x3e7c4eaa	0.24639383
23	0xbdcb9860	-0.099411726
24	0x3daaf254	0.08347002
25	0xbe785f2e	-0.24255058
26	0x3e7ce4b2	0.24696615
27	0xbe4b6af3	-0.19865017
28	0x3c84ff10	0.016234905
29	0xbe3c5648	-0.18392289
30	0xbdfb8250	-0.122807145
31	0x3d32fa68	0.043695837
32	0x3df49d90	0.11944115
33	0xbe144ab8	-0.14481628
34	0xbe918b73	-0.28426704
35	0xbe548420	-0.20753527
36	0x3e64260a	0.22280136
37	0xbe46b318	-0.19404256
38	0xbe403dc0	-0.18773556
39	0xbd3ecab8	-0.046580046
40	0x3dd008a0	0.10157895
41	0x3dce5170	0.10074127
42	0xbdb0b896	-0.08628957
43	0xbe9f3c92	-0.311009
44	0xbe17a71b	-0.1480984
45	0xbe91c8fc	-0.2847365
46	0xbd593bc8	-0.053035527
47	0xbdee1cdc	-0.11626598
48	0x3e3251ba	0.17413989
49	0xbe440a1b	-0.1914448
50	0x3d229908	0.039696723
51	0x3e3d861a	0.18508187
52	0xbe90a726	-0.28252524
53	0xbe49e223	-0.1971517
54	0x3d0cc3e0	0.03436649
55	0x3e67ebb2	0.22648504
56	0x3ea2c735	0.31792608
57	0xbe243e66	-0.16039428
58	0x3e735ee2	0.23766664
59	0xbe66fc56	-0.22557196
60	0xbdaaab06	-0.083334014
61	0x3c40b420	0.011761695
62	0xbe82a050	-0.25512934
63	0x3ddbb720	0.10728288
64	0xbda0a834	-0.07844582
65	0xbd8332bc	-0.06406161
66	0x3e9b1937	0.30292675
67	0xbe50ccfe	-0.20390698
68	0x3ddfeafc	0.109334916
69	0x3d606ab8	0.054789275
70	0xbd945790	-0.07243264
71	0xbe00e0ce	-0.12585756
72	0x3bdf9840	0.0068235695
73	0xbe1ed406	-0.15510568
74	0xbe53d338	-0.20686042
75	0xbe237358	-0.15961969
76	0x3e958be9	0.29208305
77	0xbe2f9bd6	-0.1714929
78	0xbe7802db	-0.2421984
79	0xbe1889bb	-0.1489629
80	0xbd7f34a0	-0.062306046
81	0x3df85acc	0.12126693
82	0x3daf6af4	0.085653216
83	0x3ea4fb27	0.32222864
84	0x3e9251e9	0.28578117
85	0xbea727d3	-0.3264757
86	0x3e2e973e	0.17049882
87	0xbe9b2f32	-0.30309445
88	0x3e1159ba	0.14194384
89	0xbe831a70	-0.25606108

conv1.bias f4 [10]
0	0x3d881c7c	0.06646058
1	0x3e9f3ccd	0.31101075
2	0xbdc0415c	-0.09387466
3	0x3e45ae72	0.19304827
4	0xbdc652ec	-0.09683785
5	0xbe7b8ab0	-0.24564624
6	0xbda854c0	-0.0821929
7	0x3e455476	0.192705
8	0xbe89cb3c	-0.26912868
9	0x3de4dbb0	0.111747146

conv2.weight f4 [20, 10, 3, 3]
0	0x3d5baefa	0.053633668
1	0x3b7dc4c0	0.0038722008
2	0x3d7fcbda	0.062450267
3	0xbce60308	-0.028077617
4	0xbcd802d4	-0.026368536
5	0xbc6aeae0	-0.014338225
6	0xbd88a1b2	-0.06671466
7	0x3d24000a	0.0400391
8	0x3c696818	0.014246009
9	0xbd86aa4c	-0.0657545
10	0x3d432546	0.04764297
11	0xbdb49d8c	-0.08819112
12	0x3d114e1e	0.03547489
13	0x3da541d3	0.080691956
14	0xbdd22c18	-0.102623165
15	0xbdd74c09	-0.105125494
16	0x3b7306a0	0.0037082806
17	0xbc99c56c	-0.018770896
18	0x3d9f204d	0.07769833
19	0x3dcf5fb1	0.101256736
20	0xbb2de280	-0.002653271
21	0x3d870a81	0.065938
22	0x3cf749c4	0.030186541
23	0xbdc37eea	-0.09545691
24	0xbc229578	-0.009923331
25	0x3db9f767	0.090803914
26	0x3db45c05	0.08806614
27	0xbc0bffb0	-0.008544847
28	0x3dc02697	0.093823604
29	0x3dc09b63	0.09404638
30	0x3d9e8cc1	0.077416904
31	0xbca0d384	-0.019632109
32	0xbd95a46b	-0.07306751
33	0x3c3c7630	0.0115027875
34	0xbd7260a2	-0.059174187
35	0xbda22010	-0.07916272
36	0x3c355c30	0.0110693425
37	0xbd2eb6ba	-0.04265473
38	0xbd44fab2	-0.048090644
39	0xbdb8715f	-0.09005999
40	0xbcdb7724	-0.02679021
41	0x3d977901	0.073961265
42	0xbbcb7260	-0.006208703
43	0xbd51896a	-0.05115644
44	0x3dcaa39d	0.09894488
45	0x3dcdff5d	0.10058472
46	0xbdbc6100	-0.09198189
47	0x3cff5ddc	0.031172685
48	0x3c313018	0.010814689
49	0xbd4432de	-0.047900073
50	0x3dca9f3f	0.09893655
51	0xbab2f5c0	-0.0013653561
52	0xbdacf210	-0.08444607
53	0x3c268258	0.010162912
54	0x3c9d7578	0.019221053
55	0xbdaff4ba	-0.085916
56	0xbdc72557	-0.09723919
57	0xbdc79187	-0.09744554
58	0x3d49c6b6	0.04926177
59	0xbd78bbea	-0.060726084
60	0x3d460e0e	0.048353247
61	0x3d27821a	0.04089556
62	0x3d908fb7	0.070586614
63	0x3d89efbd	0.067351796
64	0x3dbe4661	0.092907675
65	0x3cc87dc4	0.024474032
66	0xbcc77dd8	-0.024352
67	0x3db7ff15	0.089842
68	0xbd67763f	-0.056509253
69	0xbd7c8076	-0.061645947
70	0xbb88d710	-0.004176028
71	0xbdb0786d	-0.086167194
72	0xbc8b4eec	-0.017005406
73	0xbd5852a3	-0.052813184
74	0x3d0cb3aa	0.03435103
75	0x3d5187be	0.051154844
76	0x3d8c61d7	0.06854599
77	0x3d97f8a7	0.074204735
78	0x3ba882f0	0.005142562
79	0x3bef4280	0.0073016286
80	0x3db18a4f	0.086689584
81	0xbdb18b13	-0.086691044
82	0x3d33aabe	0.043864004
83	0xbd824220	-0.063602686
84	0xb8a8f800	-8.057058e-05
85	0xbc00d7c8	-0.007863946
86	0x3dca920f	0.0989114
87	0xbda5d808	-0.08097845
88	0x3d353af2	0.044245668
89	0x3cebbc1c	0.028776221
90	0x3c8381a4	0.016053028
91	0x3cc659bc	0.02421271
92	0x3dd37873	0.10325708
93	0x3d5d55b2	0.054036804
94	0x3db159b1	0.086596854
95	0x3daef7bb	0.085433446
96	0xbc1ec880	-0.009691358
97	0xbda8254e	-0.0821024
98	0xbd2be806	-0.04196932
99	0x3d9d3b1b	0.07677289
100	0x3d9ed8c5	0.07756189
101	0xbdae7076	-0.08517544
102	0xbdad92ee	-0.0847529
103	0xbbf0b240	-0.007345468
104	0x3cb32c6c	0.021871768
105	0xbd9d37ea	-0.076766804
106	0x3d8d6cfb	0.06905552
107	0x3d3211b6	0.04347392
108	0xbc8bbf08	-0.017058864
109	0x3d435f4a	0.047698297
110	0x3dd7189b	0.1050274
111	0x3d40b46a	0.047047056
112	0x3cf0f3ec	0.029413186
113	0x3dce5337	0.10074466
114	0x3dc860d5	0.09784094
115	0x3d3ffdee	0.046873026
116	0x3c402a70	0.011728868
117	0xbdb9036c	-0.09033856
118	0xbdcd47b5	-0.10023443
119	0xbcff9b18	-0.031201884
120	0x3db44589	0.08802325
121	0x3ce76ce4	0.028250165
122	0x3d41e83e	0.047340624
123	0x3d20b142	0.039231546
124	0x3d63bf36	0.055602275
125	0xbcf68ed4	-0.030097403
126	0x3c2805a8	0.010255255
127	0xbdb4e4d8	-0.08832711
128	0xbdc281ec	-0.09497437
129	0x3c0c29b8	0.008554868
130	0xbd93f6e2	-0.072248235
131	0xbdd1f913	-0.10252585
132	0xbaf52ac0	-0.0018704757
133	0x3be4bd10	0.006980546
134	0x3dbb8739	0.09156651
135	0xbd55630e	-0.05209642
136	0xbd0a3c02	-0.033748634
137	0xbd5c024a	-0.05371312
138	0x3cbe209c	0.023208909
139	0xbd989a24	-0.07451275
140	0xbd5c62db	-0.053805213
141	0x3db033f7	0.086036615
142	0xbc304260	-0.0107580125
143	0xbdd566bf	-0.10419988
144	0xbd3ad462	-0.0456127
145	0xbc083b60	-0.008314937
146	0xbdd6387d	-0.10459993
147	0x3dc75091	0.09732164
148	0xbdc9b8b2	-0.09849681
149	0x3db7a8c7	0.089677386
150	0xbd98480e	-0.07435618
151	0xbda3498e	-0.07973014
152	0xbc3fed78	-0.011714332
153	0x3ca7349c	0.020410828
154	0xbdb3143f	-0.08744096
155	0xbcf0a978	-0.029377684
156	0xbd25b3f4	-0.04045482
157	0xbcdc41d8	-0.026886865
158	0xbd279a46	-0.04091861
159	0xbd48e291	-0.049044196
160	0x3da74d8b	0.08169087
161	0xbd779943	-0.060448896
162	0xbd0d939a	-0.034564592
163	0x3d720532	0.059086986
164	0x3d8a7c33	0.0676197
165	0xbd9f3c51	-0.07775176
166	0xbdb09d93	-0.08623805
167	0x3d776d02	0.060406692
168	0xbdd0b2c6	-0.10190348
169	0x3d693f26	0.05694499
170	0x3d69555a	0.056966163
171	0x3cb16b34	0.021657564
172	0x3d945083	0.07241919
173	0x3d0001de	0.03125178
174	0xbd566fc2	-0.052352674
175	0x3d8f6c3d	0.07003067
176	0xbb0ae940	-0.0021196157
177	0xbdaee373	-0.08539476
178	0x3dab7919	0.08372707
179	0x3d32d352	0.043658562
180	0xbdaf8618	-0.08570498
181	0xbdb7d949	-0.08976991
182	0x3d20f18a	0.03929285
183	0xbda61f3a	-0.08111425
184	0xbdbe59bb	-0.092944585
185	0xbd070120	-0.032960057
186	0x3db2f9a9	0.08739025
187	0xbd7e9024	-0.062149182
188	0xbda002f4	-0.07813063
189	0xbdbda0b6	-0.09259169
190	0xbd81b6a6	-0.063336655
191	0x3dd6ff63	0.1049793
192	0xbdd2a116	-0.10284631
193	0x3d7a67ca	0.061134137
194	0x3d365b42	0.044520624
195	0xbbe8cf90	-0.0071048215
196	0x3cfe66ec	0.031054936
197	0xbdbd26ed	-0.0923594
198	0xbb4882c0	-0.0030595511
199	0xbc5c6a50	-0.013453081
200	0xbdcd7680	-0.10032368
201	0xbd269aa0	-0.040674806
202	0x3d9c2759	0.076246925
203	0x3d104c1e	0.03522884
204	0x3dbc54ad	0.09195838
205	0x3d60e2be	0.05490374
206	0xbd199b6c	-0.037501737
207	0xbbec82a0	-0.00721772
208	0x3c84ad5c	0.016195945
209	0x3ccae88c	0.02476909
210	0xbda12c7a	-0.07869811
211	0x3dc1d721	0.09464861
212	0xbd2f7738	-0.042838305
213	0x3c9d1278	0.019173846
214	0xbc87afa0	-0.016563237
215	0xbdc50ed2	-0.096219674
216	0xbdb593e2	-0.08866097
217	0x3da24aa9	0.079243965
218	0xbcde0d14	-0.027105846
219	0x3dd2623f	0.10272645
220	0xbdd258a1	-0.10270811
221	0x3d5a61fa	0.053316094
222	0x3d819b5b	0.0632846
223	0x3d959567	0.07303887
224	0xbd87cace	-0.06630479
225	0x3ccb5794	0.024822034
226	0x3b84c610	0.004051931
227	0xbcbca190	-0.023026258
228	0x3cba6444	0.022752889
229	0x3cb5c254	0.02218739
230	0x3d41191e	0.047143094
231	0x3d00525e	0.03132855
232	0x3d442f86	0.047896884
233	0xbd09b724	-0.033621922
234	0xbcdeaa58	-0.027180836
235	0xbb9cdbe0	-0.0047869533
236	0x3c4a6e18	0.01235535
237	0x3da0f77f	0.07859706
238	0x3dd61317	0.1045286
239	0xbda4417e	-0.08020304
240	0xbdb973c0	-0.09055281
241	0xbcce5ab8	-0.025189742
242	0x3d409696	0.04701861
243	0xbb997700	-0.0046833754
244	0xbce3ddac	-0.027815662
245	0xbdcd8440	-0.1003499
246	0x3dbd2557	0.09235638
247	0xbcae1cac	-0.021253906
248	0xbdbdcdda	-0.09267779
249	0xbd4cad85	-0.04997017
250	0xbd5a8fa8	-0.053359658
251	0x3d05ada2	0.032636292
252	0xbd3442ef	-0.044009145
253	0xbd533d85	-0.05157234
254	0xbda098ce	-0.07841645
255	0x3b5439e0	0.003238313

conv2.bias f4 [20]
0	0x3d8e194f	0.06938421
1	0xbc3d3ee0	-0.011550635
2	0x3daceab7	0.08443206
3	0xbd16a66e	-0.036779813
4	0xbd892820	-0.06697106
5	0x3c213c38	0.009841017
6	0x3cca4db4	0.024695255
7	0x3d8214ed	0.063516475
8	0xb99bbb00	-0.0002970323
9	0xbc729630	-0.014806315
10	0xbd126b66	-0.035746954
11	0x3c358158	0.011078201
12	0xbd14dbe6	-0.036342524
13	0xbc894e2c	-0.016760908
14	0xbdbeee06	-0.09322743
15	0x3d37c7de	0.044868343
16	0x3d1431da	0.036180355
17	0xbd7e9e0a	-0.062162437
18	0xbd2552ea	-0.040362276
19	0xbcc375dc	-0.02385991

fc1.weight f4 [50, 320]
0	0xbd4f4b36	-0.050608836
1	0xbd191da6	-0.03738179
2	0x3d0c8fcc	0.034316823
3	0x3ca9c36c	0.020723067
4	0xbd4bd33c	-0.049761996
5	0xbc458adc	-0.012057032
6	0xbd40373a	-0.04692767
7	0xbb526eb0	-0.0032109432
8	0xbd24d79b	-0.04024468
9	0xbcf23484	-0.029566057
10	0x3b98a850	0.0046587363
11	0x3c905e70	0.017623156
12	0xbd355c70	-0.04427761
13	0xbb380710	-0.0028080381
14	0xbd41bd66	-0.047299765
15	0x3d35f7b0	0.044425666
16	0x3cb0b71c	0.021571688
17	0xbd1591f9	-0.036516163
18	0xbd385904	-0.045006767
19	0x3d328946	0.043587945
20	0xbcad86ce	-0.021182444
21	0xba6398c0	-0.00086821243
22	0x3cc235a4	0.023707218
23	0x3c304b70	0.010760173
24	0x3ceb4c64	0.02872295
25	0xbd32fcd7	-0.043698158
26	0xbd2bd06f	-0.041946825
27	0xbc507054	-0.012722094
28	0xbd2e5b40	-0.04256749
29	0xbcac31a2	-0.02101976
30	0x3d18ea46	0.037332796
31	0x3d414ffa	0.047195412
32	0x3d49f426	0.049305104
33	0xbc956220	-0.018235266
34	0xbd37ba37	-0.044855323
35	0x3d34cd42	0.04414106
36	0x3cdb9e30	0.026808828
37	0xbcf40a17	-0.029789967
38	0xbd18c585	-0.037297744
39	0x3c106b78	0.008814685
40	0x3c764108	0.015030153
41	0xbd0df93b	-0.034661513
42	0xbd552327	-0.052035477
43	0xbd23bd14	-0.03997524
44	0x3cf5a8a4	0.02998764
45	0xbcb73b74	-0.022367217
46	0xbc8ccfbc	-0.0171889
47	0xba179580	-0.000578247
48	0x3c27ca38	0.010241084
49	0xbc86e1cc	-0.01646509
50	0x3d0a5f1c	0.03378211
51	0x3d4c178e	0.04982715
52	0xbd2f6dd3	-0.042829346
53	0xbd1f3874	-0.038872197
54	0xbd509100	-0.050919533
55	0x3b17b050	0.0023145862
56	0xbd1e38ae	-0.038628273
57	0x3d404822	0.04694379
58	0x3d34e8e6	0.04416742
59	0x3b7d9b70	0.0038697384
60	0xbd371751	-0.04469997
61	0x3cb0f700	0.021602154
62	0x3b5c2ac0	0.0033594817
63	0x3b5db6e0	0.0033830926
64	0xbd344924	-0.044015065
65	0xbcbe2aca	-0.023213763
66	0xbd3ba729	-0.045813713
67	0x3ceca084	0.028885134
68	0xbcfdf86a	-0.031002242
69	0xbce3dec4	-0.027816184
70	0x3d198ac4	0.037485853
71	0xbcfa84dc	-0.03058093
72	0xbcc1145a	-0.023569275
73	0xbcccad84	-0.024985082
74	0x3ccf8494	0.025331773
75	0x3d0e3be2	0.034725077
76	0x3ce95364	0.028482147
77	0x3d21a86e	0.039467268
78	0xbc177a58	-0.009245478
79	0xbd481060	-0.04884374
80	0xbd1d024e	-0.038332276
81	0x3d1b360a	0.037893333
82	0xbc26cc28	-0.010180511
83	0xbcf5bdf8	-0.02999781
84	0xbb000b50	-0.0019537993
85	0x3c95d624	0.018290587
86	0x3d0ee0aa	0.034882225
87	0x3c338160	0.010956138
88	0xbd5a0834	-0.05323048
89	0xbd011771	-0.031516496
90	0x3d4cd452	0.050007172
91	0xbc91dbd6	-0.017805021
92	0xbd15988c	-0.036522433
93	0xbd33e7ca	-0.043922223
94	0x3c9fb4d0	0.019495398
95	0xbd080930	-0.033211887
96	0x3a9f3220	0.0012145676
97	0x3d442eda	0.047896244
98	0x3ce6f450	0.02819267
99	0x3cec14f0	0.028818578
100	0xbc98e6b8	-0.018664703
101	0xbb7ac3a0	-0.0038263574
102	0x3c67ad10	0.014140382
103	0xbbee3c60	-0.007270381
104	0x3cd4b3c0	0.025964618
105	0x3c53bb60	0.012923092
106	0xbcd2c93d	-0.025730724
107	0xbb047ef0	-0.0020217262
108	0xbd267f35	-0.040648658
109	0x3c6cacb8	0.014445476
110	0x3d2bfac6	0.041987203
111	0xbb88ab30	-0.0041707978
112	0x3cf1c9f0	0.029515237
113	0xbd2c628c	-0.04208617
114	0xbd51c25c	-0.051210746
115	0xbd395fa0	-0.04525721
116	0xbd0a3354	-0.033740357
117	0x39f8e280	0.00047471002
118	0x3d0e1076	0.034683667
119	0x3b9737a8	0.004614789
120	0x3d1156a6	0.035483025
121	0xbcc8be0a	-0.02450468
122	0x3ce45514	0.0278726
123	0xbd1bf014	-0.038070753
124	0x3cf19418	0.029489562
125	0x3d3075d8	0.043081135
126	0xba87c620	-0.0010358728
127	0x3d1cd4c6	0.038288854
128	0xbbd54ec8	-0.0065096356
129	0xbcec762d	-0.028864944
130	0xbd0426ae	-0.03226345
131	0x3bf92170	0.007602863
132	0xbc06c114	-0.008224744
133	0xbcd50b60	-0.0260064
134	0x3ce70270	0.028199404
135	0xbcdb41d2	-0.026764784
136	0xbd6084ac	-0.054814026
137	0xbcf852a1	-0.030312838
138	0x3b157090	0.0022802688
139	0xbc7a57d4	-0.015279729
140	0xbd075972	-0.033044286
141	0xbd1f20dc	-0.038849697
142	0xbc775010	-0.015094772
143	0x3b96b558	0.0045992546
144	0x3cf80c70	0.030279368
145	0x3d5bd288	0.053667575
146	0xbd3e539d	-0.04646646
147	0x3c839e0c	0.016066574
148	0x3bb93628	0.005652208
149	0xbd467817	-0.04845437
150	0x3caa91a4	0.0208214
151	0x3d3022d4	0.043001965
152	0xbd1566b4	-0.0364749
153	0x3c1b9f68	0.009498455
154	0xbaaa7840	-0.0013005808
155	0xbd23d39f	-0.03999674
156	0x3c533e48	0.012893267
157	0xbd472999	-0.048623655
158	0x3af85d00	0.0018948615
159	0x3afd56e0	0.0019328259
160	0xbd5eec9b	-0.054424863
161	0x3d377110	0.04478556
162	0x3a352240	0.00069097057
163	0x3c977b8c	0.018491529
164	0x3d184cd6	0.03718265
165	0x3d526e1e	0.051374547
166	0xbd4b7756	-0.049674354
167	0x3cdfbbe0	0.027311265
168	0x3c7461b8	0.014915876
169	0x3b957258	0.00456075
170	0xbcbdd2ce	-0.023171809
171	0x3cdae724	0.026721545
172	0xbb83bf80	-0.0040206313
173	0x3ce282f0	0.027650326
174	0x3b35ae30	0.0027722232
175	0xbc833fb0	-0.01602158
176	0xbd2941ee	-0.04132264
177	0xbcb1f624	-0.021723814
178	0x3c01a668	0.0079132095
179	0xbc1a5140	-0.009418786
180	0x3cc1b090	0.023643762
181	0x3b618c80	0.003441602
182	0xbba5bb88	-0.005057756
183	0xbd1fabfe	-0.038982384
184	0xbb89d7e8	-0.0042066462
185	0xbcd5edea	-0.026114423
186	0x3c9fd3d0	0.01951018
187	0xbca03ef6	-0.019561272
188	0x3ce94920	0.028477252
189	0x3d29fe04	0.041502014
190	0xbcb5c8cc	-0.022190474
191	0xbd32b7d8	-0.04363236
192	0x3aa8d7a0	0.0012881644
193	0x3d0e0d2c	0.03468053
194	0xbd04acd8	-0.0323914
195	0xbbba3930	-0.005683087
196	0xbce65170	-0.028115004
197	0xbcc76068	-0.024337962
198	0xbcd2989b	-0.025707534
199	0x3d422acc	0.047404096
200	0x3d573bae	0.05254715
201	0xbb7c6fd0	-0.0038518794
202	0xbce8dc05	-0.028425226
203	0x3c905914	0.0176206
204	0x3c45caf8	0.012072317
205	0x3c1f5590	0.0097249895
206	0x3b9598b0	0.004565321
207	0x3b8fdc38	0.004390266
208	0x3d18b61a	0.03728304
209	0x3cba5e3c	0.022750013
210	0xbd48780d	-0.048942614
211	0xbc10440c	-0.008805286
212	0xbcb37b70	-0.021909446
213	0xba574f80	-0.00082134455
214	0x3b89c730	0.004204653
215	0xbc173bbc	-0.00923055
216	0xbd14de90	-0.036345065
217	0x3d573952	0.0525449
218	0x3d271556	0.040791832
219	0x3d22d394	0.039752558
220	0x3d054550	0.032536805
221	0xbd4d6715	-0.050147135
222	0xbd5d7a2e	-0.054071598
223	0x3cc7c550	0.024386078
224	0x3ced3a24	0.028958388
225	0xbd3cfaf9	-0.046137784
226	0xbd514a32	-0.05109615
227	0x3d031d36	0.03201028
228	0x3c285428	0.010273971
229	0xbb48c120	-0.003063269
230	0x3c339cf8	0.010962717
231	0x3c4fa9a0	0.012674719
232	0x3c0badc8	0.008525319
233	0x3cb3cff8	0.021949753
234	0xbc8a784e	-0.016903069
235	0x3cfe8210	0.031067878
236	0xbd01f108	-0.031724006
237	0x3cd6b0ac	0.02620729
238	0xbbc90468	-0.0061345585
239	0x3ca47088	0.02007319
240	0xbd1cdeea	-0.038298525
241	0xbd0cd21a	-0.034380056
242	0xbd4921c1	-0.049104456
243	0x3cacfe00	0.02111721
244	0x3d46a5ee	0.048498087
245	0x3d3e442c	0.046451733
246	0x3ceda79c	0.029010586
247	0x3ca28264	0.019837566
248	0x3d3c9f88	0.04605058
249	0xbd056491	-0.03256661
250	0x3c4376e0	0.0119301975
251	0xbd1374c1	-0.036000017
252	0x3ce018dc	0.027355604
253	0x3c510db0	0.012759611
254	0xbb3650e0	-0.0027819201
255	0x3d3e7d62	0.046506293

fc1.bias f4 [50]
0	0xbcea5e95	-0.028609553
1	0x3c9de654	0.019274868
2	0xbd1c2ae9	-0.03812686
3	0x3d619b96	0.05508002
4	0xbc58c140	-0.013229668
5	0xbd51da5f	-0.051233646
6	0x3d33b418	0.043872923
7	0xbc992e1a	-0.01869874
8	0x3bbb04a0	0.0057073385
9	0xbc003158	-0.0078242645
10	0xbcda9b3f	-0.026685355
11	0x3d46c7ca	0.048530377
12	0x3c07f4c0	0.008298099
13	0xbb805618	-0.003916513
14	0xbd5468d2	-0.051857777
15	0xbcffa361	-0.031205835
16	0xbd5f041e	-0.054447286
17	0xbd4972b0	-0.04918164
18	0x3d069f26	0.03286662
19	0xbd5bf33f	-0.053698774
20	0x3c9628c8	0.018329993
21	0x3c4bdea8	0.012443222
22	0xbcdae8b6	-0.026722293
23	0xbcc8d614	-0.024516143
24	0x3cfdc960	0.030979812
25	0x3d1734be	0.036915533
26	0x3cb1b92c	0.021694742
27	0x3d46c078	0.048523396
28	0xbd31592e	-0.04329794
29	0x3c9675d4	0.018366732
30	0x3ca43ca0	0.02004844
31	0xbd0e172c	-0.034690067
32	0xbd2c69bf	-0.042093035
33	0x3c8a2934	0.01686535
34	0x3d060ec2	0.032728918
35	0x3d383b18	0.04497823
36	0xbbdb6bf8	-0.0066962205
37	0x3d2f74fe	0.04283618
38	0x3d628566	0.055303
39	0x3cbeeeec	0.023307286
40	0xbd4de19c	-0.050263986
41	0x3bc17370	0.005903654
42	0xbd15615e	-0.03646981
43	0xbd515254	-0.051103905
44	0xbcf479ec	-0.029843293
45	0x3b24f070	0.0025167726
46	0xbc5befe4	-0.013423894
47	0x3d1c4988	0.038156062
48	0xbd6326d2	-0.055456944
49	0xbd471737	-0.048606124

fc2.weight f4 [10, 50]
0	0x3dab6890	0.08369553
1	0xbbc61340	-0.0060447752
2	0x3d78b9d0	0.06072408
3	0x3d322328	0.04349056
4	0xbd800cf8	-0.062524736
5	0x3dada42c	0.08478579
6	0x3ce35018	0.027748153
7	0x3bd864c0	0.006603807
8	0xbdaa255b	-0.08307906
9	0x3cdb7690	0.026789933
10	0xbde405a8	-0.11133891
11	0xbdead911	-0.114671834
12	0x3ded0292	0.11572756
13	0x3b464ac0	0.0030256957
14	0x3e097721	0.1342435
15	0xbdaffe32	-0.08593406
16	0xbd2733a6	-0.04082074
17	0xbdbb4128	-0.09143287
18	0xbcbb361c	-0.02285295
19	0xbda21e54	-0.07915941
20	0x3ca1f268	0.019768909
21	0xbda3014a	-0.0795923
22	0xbe01d8d5	-0.12680371
23	0x3d3d8eb0	0.046278656
24	0x3dd48f5a	0.10378905
25	0xbe0ad672	-0.13558367
26	0xbde2d001	-0.1107483
27	0x3dc3d410	0.09561932
28	0x3c192800	0.009347916
29	0xbd696fa6	-0.056991242
30	0x3d008610	0.031377852
31	0x3dd6ff40	0.10497904
32	0x3d569908	0.052392036
33	0x3de6ef56	0.112761185
34	0xbda53ee8	-0.08068639
35	0xbe0e3563	-0.13887553
36	0xbd1e2086	-0.038605236
37	0xbdd57d9c	-0.10424349
38	0x3d990ab6	0.07472746
39	0xbdf3741a	-0.11887379
40	0xbd646732	-0.055762477
41	0x3daebb44	0.08531812
42	0xbde06a5e	-0.10957788
43	0xbd58ff3c	-0.052977785
44	0x3ca4f270	0.020135134
45	0x3de2a522	0.11066653
46	0x3daff3d4	0.085914284
47	0xbdc5727f	-0.09640979
48	0xbdcfcb07	-0.10146146
49	0xbdcf1072	-0.101105586
50	0xbcd490dc	-0.02594798
51	0xbdbb043e	-0.091316685
52	0x3e0ad583	0.13558011
53	0xbdf45932	-0.11931075
54	0xbd595a92	-0.05306489
55	0x3cf30530	0.02966556
56	0x3dcba716	0.099439785
57	0x3d8238de	0.06358503
58	0xbd184f20	-0.037184834
59	0x3e074fa7	0.13213979
60	0xbde82964	-0.1133602
61	0x3d0b3b54	0.033992127
62	0xbc881414	-0.016611136
63	0x3daefd70	0.08544433
64	0x3c40e110	0.011772409
65	0xbd843ab5	-0.0645651
66	0x3d140604	0.03613855
67	0xbc491eb0	-0.012275383
68	0x3e01ac29	0.1266333
69	0x3bad3be0	0.0052866787
70	0x3d9f298e	0.07771598
71	0x3da08cbc	0.07839343
72	0xbba1a2a0	-0.0049327165
73	0xbd8cac01	-0.06868745
74	0x3c6c2f90	0.014415637
75	0x3cf149a8	0.029454067
76	0x3e0bbb8f	0.13645767
77	0xbcf03fb8	-0.029327258
78	0x3dae42b4	0.08508816
79	0xbda7f5e7	-0.08201199
80	0xbd0309e8	-0.03199187
81	0x3d319ca0	0.04336226
82	0x3bec3380	0.0072082877
83	0x3c965e00	0.01835537
84	0xbe01b7f1	-0.12667824
85	0xbd0fa290	-0.03506714
86	0x3d72fa50	0.059320748
87	0xbcf83ebc	-0.030303352
88	0xbdfa63c6	-0.122260615
89	0xbdd5bf50	-0.104368806
90	0xbe096827	-0.13418637
91	0xbb4c3b40	-0.0031163245
92	0x3dda0214	0.106449276
93	0xbdb7798b	-0.08958729
94	0xbc149ec0	-0.009071052
95	0xbb81dea0	-0.0039633065
96	0xbc97ce10	-0.018530875
97	0xbd54d5fa	-0.051961876
98	0xbdc8d9b7	-0.09807151
99	0x3d810fe0	0.06301856
100	0x3df3a99e	0.11897586
101	0xbc64c910	-0.013963953
102	0x3de0a53a	0.109690145
103	0x3db44b8e	0.088034734
104	0xbe0e5329	-0.1389891
105	0x3dfd6a4a	0.12373789
106	0xbe00bce6	-0.12572059
107	0x3d56ee6c	0.05247347
108	0xbd7b8c58	-0.06141314
109	0x3d5470f4	0.051865533
110	0xbd9c5964	-0.076342374
111	0x3deb4cc2	0.1148925
112	0xbdf42c69	-0.11922533
113	0xbdfe4114	-0.124147564
114	0xbdc7052b	-0.097177826
115	0xbdfd3be4	-0.12364939
116	0xbde36425	-0.111030854
117	0x3e0ec9c3	0.13944153
118	0x3e0cdcbf	0.13756083
119	0xbdaa877a	-0.08326621
120	0x3db981a8	0.09057933
121	0xbd2c1aa4	-0.042017594
122	0xbd7d7ba2	-0.061885484
123	0xbde1ffd5	-0.11035124
124	0x3dc25ac6	0.0948997
125	0xbd8b3381	-0.06796933
126	0x3d47c09c	0.04876767
127	0x3d61a488	0.05508855
128	0xbd34c65c	-0.044134483
129	0xbbdcdb00	-0.006739974
130	0x3da39f2a	0.079893425
131	0xbcc4561c	-0.023966841
132	0x3ddf1e3a	0.10894437
133	0x3d95f9c0	0.07323027
134	0xbc3fa750	-0.011697605
135	0xbdd86773	-0.105666064
136	0xbcdf1fa0	-0.02723676
137	0x3d7d7448	0.061878473
138	0x3e107ec7	0.14110862
139	0x3cae63b0	0.02128777
140	0x3daa5a36	0.083179876
141	0x3d46fbcc	0.048579976
142	0x3c07f830	0.008298919
143	0x3d614e90	0.055006564
144	0x3aa65e80	0.0012692958
145	0xbbd9abe0	-0.0066428035
146	0x3d4e43f8	0.05035779
147	0xbd8ee2d7	-0.0697686
148	0x3c0e4460	0.008683294
149	0xbd2fe72e	-0.04294508
150	0x3da729aa	0.08162244
151	0xbd6e023a	-0.058107592
152	0xbd4eb4f0	-0.050465524
153	0x3e0cd833	0.13754348
154	0x3dce58ca	0.10075529
155	0xbcbc2c14	-0.022970237
156	0x3c2b8d00	0.010470629
157	0xbc320650	-0.010865763
158	0xbddd97b0	-0.10819948
159	0xbd57f916	-0.05272778
160	0xbd9ca396	-0.07648389
161	0xbe06af42	-0.13152793
162	0x3ccd03a0	0.025026143
163	0x3db58ebe	0.088651165
164	0x3d1d5f90	0.038421214
165	0x3db1ef2c	0.086881965
166	0x3d1925c4	0.03738953
167	0xbd83268e	-0.06403838
168	0x3c914768	0.017734244
169	0xbd97acb6	-0.07405989
170	0xbe0fdcc9	-0.14049067
171	0x3d004d18	0.031323522
172	0xbdd5872a	-0.10426171
173	0x3df70216	0.12060945
174	0x3dcb2938	0.09919971
175	0x3c8762f8	0.016526684
176	0xbcd37120	-0.025810778
177	0xbdf019d6	-0.11723678
178	0xbd55dc5e	-0.05221211
179	0x3dd9b878	0.10630888
180	0x3df00812	0.11720289
181	0x3d15c808	0.036567718
182	0x3c3e1b00	0.011603117
183	0xbdc01b36	-0.0938019
184	0x3c3dfc70	0.01159583
185	0xbdc6f16e	-0.09714018
186	0xbd29a640	-0.041418314
187	0xbdbc06b0	-0.09180963
188	0x3d5a7bd8	0.053340763
189	0xbdd317fe	-0.103073105
190	0x3c8271a8	0.015923336
191	0xbc642cf0	-0.01392673
192	0x3d3408f4	0.04395385
193	0xbd7f422e	-0.062318973
194	0xbd37ca84	-0.04487087
195	0xbd78426c	-0.06061022
196	0x3e0d9b43	0.13828759
197	0xbd3a5c52	-0.0454982
198	0x3d8aa69a	0.06770058
199	0xbcf118a0	-0.029430687
200	0xbd3dc9c0	-0.046334982
201	0x3c0a2690	0.008432046
202	0x3e03b3c9	0.12861551
203	0x3b128380	0.0022356212
204	0x3c157ab0	0.009123489
205	0x3bd047e0	0.0063562244
206	0x3dfde1ae	0.123965606
207	0x3d6cedd0	0.057843983
208	0x3d8252f8	0.06363481
209	0x3d8ab592	0.06772913
210	0x3d60aba8	0.054851204
211	0x3d2e86dc	0.04260908
212	0xbc89a2d0	-0.016801268
213	0xbdf8545c	-0.12125465
214	0xbd80a4e8	-0.06281453
215	0x3c481b10	0.012213483
216	0xbb72f640	-0.0037073046
217	0x3c254a30	0.010088488
218	0xbdf81b7d	-0.12114618
219	0x3dd611a2	0.10452582
220	0xbdaecf23	-0.08535602
221	0x3df714e6	0.12064533
222	0x3da7516a	0.081698254
223	0xbd8eb83a	-0.06968732
224	0x3da626d4	0.081128746
225	0xbd612592	-0.05496747
226	0x3d902e32	0.07040061
227	0x3cca4480	0.024690866
228	0x3d8d7964	0.06907919
229	0x3d823fa6	0.06359796
230	0xbe080060	-0.13281393
231	0x3b93ec40	0.004514247
232	0x3c475cb0	0.0121680945
233	0x3c080d30	0.008303925
234	0xbdc27760	-0.09495425
235	0x3df798de	0.12089704
236	0xbded166d	-0.11576543
237	0xbdc97c18	-0.09838122
238	0xbccd6164	-0.025070854
239	0xbdb65039	-0.0890202
240	0xbdd9851d	-0.106210925
241	0x3c49dbf0	0.012320504
242	0xbdc391ca	-0.095492914
243	0x3dcc271c	0.09968397
244	0x3a86ed80	0.0010294169
245	0x3dcdeae4	0.100545675
246	0xbdcb884a	-0.099381045
247	0xbce1a924	-0.027546473
248	0xbe0bfc0e	-0.1367037
249	0x3d809dc6	0.06280093
250	0x3dd41f2e	0.103575096
251	0x3c807518	0.015680835
252	0xbdc1c9ab	-0.09462293
253	0xbd4df010	-0.05027777
254	0xbdbc7ec6	-0.092038676
255	0x3dc3c9de	0.095599875

fc2.bias f4 [10]
0	0x3de33cce	0.11095582
1	0xbdf917c2	-0.121627346
2	0xbd85fe7e	-0.06542681
3	0x3de265d2	0.11054577
4	0xbd8746bc	-0.066052884
5	0x3d01b7b4	0.031669334
6	0x3cc57620	0.024104178
7	0xbdf2c00a	-0.11853035
8	0x3caf2318	0.021379039
9	0x3d8b574e	0.068037614
