New folder/Models/Client_1/Global models/Initial_5_4_2021_3_39_21.pth (torch, 76655 bytes, 8 tensors)

conv1.weight f4 [10, 1, 3, 3]
000000 40 51 24 3e 7e b5 61 3e c3 3f 86 be e3 7c 94 3e
       0.1604662 0.2204189 -0.2622052 0.2900153
000010 06 27 d2 bd f2 07 49 3e 7e e5 68 be 38 af 9b be
       -0.102613494 0.19631937 -0.22743794 -0.3040712
000020 60 d9 02 3e 10 ef 86 3c 9b 45 55 be c2 18 44 3e
       0.12778234 0.016471416 -0.20827334 0.1915007
000030 d1 8b 99 3e eb 69 38 be f4 d7 9b bd 97 5c a9 3e
       0.29989484 -0.18009154 -0.07609549 0.33078453
000040 0b e1 84 3e 03 c3 04 be 26 5c 3a 3e 55 07 85 3e
       0.25952944 -0.12965016 0.18199214 0.25982156
000050 b5 0d aa 3e 26 fc ea bd c0 ab 78 be 00 a4 d9 bb
       0.33213583 -0.11473875 -0.24284267 -0.006641865
000060 48 68 83 be de 7c 5e 3e 38 ed 3a 3d 1c 90 e4 bd
       -0.25665498 0.2172732 0.045636386 -0.11160299
000070 88 2c 07 3d 00 d6 da 3b c6 0f 54 3e e9 95 a5 3e
       0.033001453 0.006678343 0.20709142 0.32340935
000080 30 40 91 3c 26 4d ec bd 10 62 90 bc 5a 1f 31 3e
       0.017730802 -0.115381524 -0.017624885 0.17297116
000090 88 45 1e 3e b0 f7 ac bc ba c0 49 3e b0 b3 2d be
       0.15456212 -0.0211142 0.19702426 -0.16963077
0000a0 89 82 a7 3e da 48 2e 3e 90 06 60 be 56 4f 4f be
       0.32716778 0.17019978 -0.21877503 -0.20245108
0000b0 9d d1 a3 3e cd 22 9f 3e 78 b9 4f bd 80 e1 2c 3c
       0.3199586 0.31081238 -0.050713986 0.01055181
0000c0 40 bf 6a be a9 03 a9 3e 48 b5 22 3e 00 aa e3 3d
       -0.22924519 0.33010605 0.15889466 0.11116409
0000d0 59 69 8b 3e 60 c1 56 bd bb ce 32 be c3 1c 59 be
       0.2722881 -0.05243051 -0.17461674 -0.21202378
0000e0 46 92 2f 3e 58 09 59 be f1 15 a2 3e fe 35 67 be
       0.17145643 -0.2119497 0.31657365 -0.2257919
0000f0 96 18 8c be b0 d4 36 be 78 9c 5c 3d 74 a1 94 be
       -0.27362508 -0.17854571 0.053860158 -0.2902943
000100 80 f8 1d bd 16 4c 5e 3e 94 0b 8b bd 82 35 9f be
       -0.038567066 0.21708712 -0.06789318 -0.3109551
000110 5b a3 8d 3e 67 43 a0 be 48 48 94 be 08 41 73 3d
       0.27663693 -0.31301424 -0.28961396 0.05938819
000120 92 c9 00 3e 90 69 98 3c 46 e6 f3 bd f0 f2 f7 3c
       0.12576893 0.018605024 -0.119091555 0.030267209
000130 8e 43 26 be f6 02 66 be b6 7e 3d be c1 24 9b 3e
       -0.16236708 -0.22462067 -0.18505368 0.30301479
000140 80 1f ad 3c 98 21 38 bd f0 1e ac 3c c1 a7 a6 3e
       0.021133184 -0.044953912 0.021010846 0.3254986
000150 d7 8e 89 3e 00 f6 c0 bd 72 b0 37 3e 02 51 37 3e
       0.2686679 -0.09421921 0.17938402 0.17901996
000160 ba 39 0c 3e c6 f3 5c be
       0.13693896 -0.21577367

conv1.bias f4 [10]
000000 f9 fd a3 3e 73 cc a8 be 4b 28 a5 3e f8 15 2e bd
       0.32029703 -0.32968482 0.32257304 -0.04250142
000010 02 42 7d 3e 1d a7 8a 3e 9a 17 a0 be 11 0f 86 3e
       0.24732211 0.27080622 -0.31268007 0.2618337
000020 a0 67 78 3d 0c 01 8c be
       0.0606457 -0.2734455

conv2.weight f4 [20, 10, 3, 3]
000000 02 3e 4b 3d 00 2a fa bb 60 68 a7 bb fc fe bf bd
       0.049619682 -0.0076344013 -0.005108878 -0.09374806
000010 a0 b4 42 3c 9a cb 18 3d 4b ae 57 bd 78 8a 76 bc
       0.011883885 0.037303545 -0.052656453 -0.015047662
000020 d8 c9 53 bd aa ed b5 bd 04 35 cb 3c da 69 0f 3d
       -0.051706165 -0.088832214 0.024805553 0.035013057
000030 58 f0 2e 3c 95 f9 b5 bd 70 d1 f3 bb f0 05 72 bc
       0.01067742 -0.088854946 -0.0074407384 -0.014771923
000040 88 b6 48 3c 93 c2 94 3d 18 62 1d bd bd d5 60 bd
       0.01225055 0.072636746 -0.038423628 -0.054891337
000050 14 db e3 bc 80 d6 8f ba 60 18 4f bb 8d cc 9e 3d
       -0.027814426 -0.001097396 -0.0031600222 0.07753859
000060 f9 4d 88 3d 59 b3 c9 3d 79 94 b3 3d 45 15 67 bd
       0.06655497 0.09848661 0.08768553 -0.05641677
000070 44 ee d7 3c 6c 83 95 bc 50 14 5c bd 0b db 9b 3d
       0.026358731 -0.018251143 -0.05373031 0.076101385
000080 d9 a4 68 bd fd d3 a9 bd d5 88 d3 3d 9e 6e 2f 3d
       -0.056797836 -0.08292387 0.10328833 0.042830102
000090 7f fe b8 3d ad 4e 4c bd d6 74 2c bd 68 e0 2f bd
       0.09032916 -0.04987972 -0.04210361 -0.04293862
0000a0 9a 19 67 3d 97 0f b5 3d 38 e5 a8 bd a7 eb ab 3d
       0.0564209 0.08840864 -0.08246845 0.083945565
0000b0 80 2e 56 bb b2 0d 2d bd e6 58 2b 3d 9e 61 11 3d
       -0.0032681525 -0.04224939 0.041832827 0.035493486
0000c0 05 a1 a5 3d fa e7 00 bd 87 9f c8 3d f3 a0 68 bd
       0.08087353 -0.03147123 0.097960524 -0.056794118
0000d0 c0 43 67 bc 18 e9 5f bc e0 b7 31 bb 17 15 88 3d
       -0.014115274 -0.013666414 -0.0027117655 0.066446476
0000e0 cd 35 d3 3d 21 f5 ce bd 21 86 8f bd e0 cd f5 bc
       0.10312996 -0.101053484 -0.07008005 -0.030005395
0000f0 e0 02 c7 bd 52 45 7f 3d c3 f9 bc bd be 6b 32 3d
       -0.09717345 0.06232197 -0.09227326 0.043559782
000100 a4 da 8d bd 87 a5 95 3d b0 07 13 bc 02 4b 1c bd
       -0.06926468 0.073069625 -0.008974001 -0.03815747
000110 bd a1 93 bd 3c a6 b4 bd 80 7f 78 3b a3 05 9c bd
       -0.072085835 -0.08820769 0.0037917793 -0.076182626
000120 7e 4b 53 3d ef 1c b7 3d fd 1c b7 3d 68 30 b4 bd
       0.051585667 0.089410655 0.08941076 -0.08798295
000130 b5 d3 cb 3d b0 7d a4 bc fd 44 92 3d f6 03 7c 3d
       0.09952489 -0.020079464 0.07142065 0.061527215
000140 f2 04 c5 bd 41 c4 7a bd ab 56 ac 3d 99 3a 9d bd
       -0.09620084 -0.06122232 0.08414968 -0.07677192
000150 c4 83 f6 3c e8 e8 69 bc 67 a8 bb 3d 31 24 9c bd
       0.030092128 -0.014276721 0.091629796 -0.076240905
000160 b4 13 db bc fb 42 be 3d d6 59 d2 bd 61 01 b5 3d
       -0.026742794 0.09290119 -0.10271041 0.08838154
000170 ed ad 9c 3d 36 97 23 3d c4 be d8 3c 14 5a cd 3c
       0.07650361 0.039939128 0.026458152 0.025067367
000180 7d f4 c0 3d c5 e8 93 3d 3b 4f 9a 3d 55 7f cf 3d
       0.094216324 0.07222132 0.07534643 0.101317085
000190 6a ea 51 3d d5 1a ae 3d d1 38 8d 3d de 81 ba bd
       0.051248945 0.085012116 0.068956025 -0.091068015
0001a0 4e f1 2b 3d 90 72 bc bd f0 d4 22 bd b6 9c 08 3d
       0.041978173 -0.092015386 -0.039753854 0.033352576
0001b0 c2 98 2c 3d ee 86 92 bd b2 9f 64 3d ac c2 bd bd
       0.04213787 -0.07154642 0.05581636 -0.09265646
0001c0 8f 2b a7 3d 00 e8 51 3c 5f d9 d3 3d ed ae 89 3d
       0.08162605 0.012811661 0.103441946 0.067228176
0001d0 27 9e 51 bd 85 89 8b 3d 92 dc 56 3d 6f 92 c4 3d
       -0.051176216 0.06813339 0.052456446 0.095982425
0001e0 00 3e 26 b9 fb 49 c6 bd c4 9a ca 3c c0 e4 57 3c
       -0.0001585409 -0.096820794 0.024732001 0.013177097
0001f0 85 51 ac 3d e3 1d b6 3d bb dd 89 3d 2d 60 a3 3d
       0.08413986 0.08892419 0.06731745 0.079773284
000200 38 8a 12 bd 86 b7 12 3d 9a 8c 56 3d cf 40 81 bd
       -0.035776347 0.035819553 0.05238018 -0.063111894
000210 f1 dc 9d bd 5c 45 f1 3c 79 44 96 3d 28 5e 5b 3c
       -0.07708157 0.029452018 0.07337279 0.013389148
000220 e3 28 b5 3d 9d 6e ce 3d fc 55 aa bc 95 7b 81 3d
       0.08845689 0.100796916 -0.020792954 0.063223995
000230 72 f3 9a bd d4 ef bf 3c 9f 92 c2 3d 1c 67 c1 bd
       -0.07565965 0.023429789 0.09500622 -0.09443495
000240 7a 35 0f 3d 0e aa 0c bd 6d 59 b7 bd d7 cb c2 3d
       0.03496311 -0.034341864 -0.089526035 0.095115356
000250 09 d8 a5 bd 22 ca 66 3d b8 f1 3d 3c 04 4e f7 3c
       -0.08097846 0.056345113 0.011593275 0.030188568
000260 80 1a ec 3a e4 4f b9 3c 8c 73 42 bd 4c f0 29 bd
       0.0018013269 0.022621103 -0.047473475 -0.04148893
000270 53 c3 af bd cc 97 dd 3c 30 1d ea 3b f0 ba 43 bc
       -0.08582177 0.027049921 0.0071445927 -0.011946425
000280 c4 4d aa 3c 73 e4 c4 3d 19 46 cc bd 4c ac d1 bc
       0.020789035 0.09613886 -0.099743076 -0.025594853
000290 00 30 58 ba 59 c3 3a bd 21 30 76 bd 60 cd c8 bd
       -0.00082468987 -0.045596454 -0.060104493 -0.09804797
0002a0 62 8e b4 bd 30 78 a1 bc 00 95 ee bc c3 a4 78 bd
       -0.0881622 -0.01971063 -0.029123783 -0.060704004
0002b0 9a 21 33 3d ef bd 92 3d c9 83 ce 3d 26 8a 61 3d
       0.043733217 0.07165133 0.1008373 0.05506339
0002c0 fa 91 5c 3d 30 4e 54 bc db dc c9 bd d8 35 09 3c
       0.05385015 -0.0129580945 -0.09856578 0.008374654
0002d0 49 15 d0 3d 7f 9a 96 3d 60 e0 21 bb d0 46 0c bd
       0.1016031 0.073536865 -0.0024700388 -0.03424722
0002e0 42 fc 13 bd 0c c1 ca bd 67 8b b3 3d 42 c8 6b 3d
       -0.036129244 -0.09900102 0.08766823 0.057564028
0002f0 1f 5b b1 3d 9e aa 6d bd 40 34 d2 3b 40 eb 17 bd
       0.08659958 -0.05802404 0.00641492 -0.037089586
000300 90 46 0c bc d0 9e 81 3c fc e1 72 bd 56 81 15 bd
       -0.008561745 0.015822798 -0.059297547 -0.036500297
000310 bc 6e ff bc 35 61 7a bd 5c de e6 bc 63 a1 d7 bd
       -0.031180732 -0.06112786 -0.028182201 -0.10528829
000320 de 70 d3 bd ae f9 1b 3d b0 92 a2 bc 9e a0 42 3d
       -0.10324262 0.03807991 -0.019845337 0.047516458
000330 84 0e 8f bd 41 e3 84 3d a0 bd 5d 3c 20 c3 c0 bb
       -0.069851905 0.06488658 0.01353398 -0.0058826357
000340 1a f9 d3 bd 5e fa 47 3d 77 ff 90 3d 47 e8 c4 3d
       -0.10350247 0.048822753 0.07079976 0.09614616
000350 80 d6 5d bb 1d aa b8 bd e8 32 80 3c e4 bb a9 bd
       -0.0033849776 -0.090168215 0.015649274 -0.082877904
000360 b7 ca c3 bd be bb 17 bd 94 d1 8b bc f5 5a 9a 3d
       -0.09560149 -0.03704428 -0.017067708 0.0753688
000370 aa e4 40 3d 70 be 86 bc e0 64 ac bb b8 f4 b3 bd
       0.04709307 -0.01644823 -0.0052610487 -0.08786911
000380 c1 68 b7 3d 5d 16 4a bd 81 f0 d2 3d 2b 15 bb 3d
       0.08955527 -0.049337734 0.10299779 0.09134897
000390 f0 fa bb bc a6 66 61 bd 8d 50 ae 3d 68 d4 0e 3c
       -0.022946805 -0.055029534 0.085114576 0.008717634
0003a0 62 5d 89 bd da 6e 0c 3d d3 b0 6f bd e0 03 6b 3c
       -0.067072645 0.034285404 -0.058518242 0.014344186
0003b0 33 64 a0 3d 5e 35 29 bd 6a bd cf bd 11 1b 68 bd
       0.078316115 -0.04131066 -0.1014355 -0.056666438
0003c0 6c fd 45 bd a5 7c 91 3d 1d fd a2 bd 72 6c 2d 3d
       -0.048337385 0.07103852 -0.07958434 0.04233975
0003d0 e0 d0 30 bb 19 ef b1 3d da 9d 5a 3d cb b7 b9 bd
       -0.0026979968 0.086881824 0.053373195 -0.09068259
0003e0 c0 e2 b5 bb ff 5d c5 bd 90 dc 13 3c 11 54 9d 3d
       -0.0055507123 -0.09637069 0.009024754 0.0768205
0003f0 e7 8f 84 3d 76 98 58 3d fc 9a f7 3c a0 0f 4c 3b
       0.0647276 0.052879773 0.03022527 0.0031137243

conv2.bias f4 [20]
000000 eb a5 c9 3d 82 64 51 3d 1a 27 90 bd 4c 0f 54 bd
       0.098460995 0.051121242 -0.07038708 -0.0517724
000010 00 5c 4c b9 7a a8 1a 3d f0 83 73 bc 00 23 8e b9
       -0.00019489229 0.037758328 -0.014862999 -0.00027110428
000020 4a 2e 0e bd a4 37 c7 bd ec de a2 bd 96 d7 45 3d
       -0.034712113 -0.097274095 -0.07952675 0.048301302
000030 fa d8 89 bd f0 03 c1 bc 7e aa 72 3d 50 2c 53 bc
       -0.06730838 -0.023561448 0.059244625 -0.012888983
000040 b0 5b cc bd 8b 4a ba 3d 60 1b a6 3b e4 82 35 bd
       -0.099784255 0.09096249 0.0050691813 -0.04431428

fc1.weight f4 [50, 320]
000000 5c 77 bb bc 51 82 d3 bc 80 b2 8c 39 38 82 17 3c
       -0.022884063 -0.025818976 0.00026835874 0.009247355
000010 88 a3 e6 bb 01 c0 e3 bc 38 02 2a 3d 80 59 de bb
       -0.0070385374 -0.027801516 0.041506022 -0.0067855716
000020 00 5b 25 3c cb df 04 bd 03 72 11 bd 2e 0a 4a bd
       0.010092497 -0.032439988 -0.03550912 -0.049326114
000030 64 69 4f 3d 6e 3e 27 3d ec 1b 44 bc c0 1e 0e bb
       0.050637618 0.040831022 -0.011969548 -0.002168581
000040 70 b1 40 3d 14 77 3c bd f0 a5 12 bd 48 7a 91 bb
       0.047044218 -0.046012 -0.03580278 -0.004439626
000050 f0 79 37 3b d8 83 0c bd 86 02 46 bd f0 b0 c0 3c
       0.0027996264 -0.034305423 -0.04834225 0.02352187
000060 7e c9 12 bd 74 ee 46 3d 00 8f 12 ba f0 2a 39 bd
       -0.03583669 0.04856725 -0.00055907667 -0.045206964
000070 ed 3b 52 bd e4 5b 1b bd e5 5d d9 bc b0 2c 13 3c
       -0.05132668 -0.03792943 -0.02653403 0.008982822
000080 d1 ff fa bc 00 13 dd 3c ac 69 a1 3c 22 cd 06 3d
       -0.03063956 0.026986599 0.019703709 0.032910474
000090 b6 0e e9 bc 50 30 e0 3c b8 02 95 bc 30 e1 56 bd
       -0.028449398 0.027366787 -0.018189773 -0.05246085
0000a0 43 b5 3c bd 96 d1 9f bc 8c 1b 1c bd ef be 38 bd
       -0.046071302 -0.019509118 -0.03811221 -0.045103963
0000b0 f0 8e 3c 3c 08 f7 44 3c 18 21 ca 3c 54 3d 45 bc
       0.011508688 0.012021787 0.024673983 -0.012038548
0000c0 a0 d3 7b bb 4e 09 b0 bc a4 92 13 bc 86 92 13 3d
       -0.00384257 -0.021488812 -0.00900713 0.036028408
0000d0 90 5a 07 3c ca e7 0f 3d 68 89 3a 3d d9 f1 1a bd
       0.008261338 0.03513316 0.045541197 -0.0378283
0000e0 d8 35 2f bd 76 68 5a bd 1c 16 1e 3d 5c 1b b5 bc
       -0.04277596 -0.053322278 0.038595304 -0.022107773
0000f0 4a 0b 82 bc 2e a4 26 bd 82 98 32 3d 20 31 7d bb
       -0.015874524 -0.040683918 0.043602474 -0.0038634017
000100 84 63 29 3d 04 d1 85 3c db 5c 49 bd 27 0d 56 bd
       0.04135467 0.016335018 -0.04916082 -0.052258637
000110 90 03 30 3d 5c ce 89 3c 62 39 04 3d 00 2f e3 3b
       0.042972147 0.016822033 0.032281287 0.006933093
000120 4e 8c 29 3d 90 cf b3 3c 49 a0 e5 bc 70 a9 68 3c
       0.04139357 0.02194956 -0.028030531 0.014200553
000130 88 25 52 bd a0 b0 60 3c 4e c2 12 3d 84 94 19 3d
       -0.051305324 0.013713986 0.035829835 0.03749515
000140 40 06 4f bc 5c 8a 26 bc bc 84 13 bd 10 56 5c 3b
       -0.012635767 -0.010164823 -0.036015257 0.0033620633
000150 b0 a5 2a 3d d2 07 00 bd 20 96 60 3c a0 e0 81 bc
       0.04166192 -0.031257458 0.013707668 -0.01585418
000160 14 f1 06 3d e8 16 1f 3d 18 15 88 bb d0 ed 38 3b
       0.032944754 0.038840204 -0.004152905 0.002821792
000170 40 83 ca 3c 0c c2 07 3d fd ea 3b bd e0 d7 e1 bb
       0.024720788 0.033144042 -0.0458784 -0.0068921894
000180 30 4a 20 bb 30 ce 22 3c d5 e2 39 bd 66 93 93 bc
       -0.0024458282 0.009936854 -0.04538234 -0.018014621
000190 50 54 c3 3c 52 37 2e 3d 9a a6 4b 3d 6e 7a 4c 3d
       0.023843914 0.042533226 0.04971943 0.049921446
0001a0 b0 7f 49 bc 90 53 98 bb e0 91 43 bd 4a 32 58 3d
       -0.0122985095 -0.0046486333 -0.04774654 0.052782334
0001b0 10 87 22 3b 38 49 06 3d d4 37 5e bc 46 f5 52 3d
       0.0024799742 0.03278467 -0.013563115 0.051503442
0001c0 4c f7 45 3d 62 7c 01 3d b4 fe 5a bd ec ce 2f 3d
       0.048331544 0.03161276 -0.05346556 0.042921945
0001d0 20 c9 51 bc 7e 2e 60 3d cf ca 0c bd 84 59 f5 3c
       -0.0128043 0.05473184 -0.0343731 0.029949911
0001e0 e8 80 e3 bb 18 cb 26 bd 6e b2 33 3d 58 d1 4d bd
       -0.006942857 -0.04072103 0.043871336 -0.050248474
0001f0 34 05 b9 3c 68 ea f5 3c 7c 9f d3 3c ac d8 36 bd
       0.022585489 0.030019 0.025832884 -0.04464023
000200 f8 48 e3 3c 4e 11 bb bc d0 d8 ec bb 74 6f fc 3c
       0.027744755 -0.0228354 -0.0072279945 0.030814864
000210 e0 12 b2 3b 60 b2 fd bb c0 56 fb bb c0 af 56 3c
       0.005434379 -0.007742211 -0.0076702535 0.0131034255
000220 0e a6 5e 3d 58 9c 9b 3c 54 ab 4b 3d 34 9c 1c 3d
       0.05435758 0.018995449 0.049723938 0.038234904
000230 28 dc 64 3d 04 dc ff 3c d0 8f 0d bd a8 0f 2d bd
       0.05587402 0.031232841 -0.03456098 -0.04225126
000240 bc 77 c2 bc b0 82 01 3c 70 ae 55 bc 28 9e e1 3c
       -0.023738734 0.0079046935 -0.013042077 0.027541235
000250 05 f6 ea bc 46 e8 b9 bc 3c 8e b3 bc b0 22 5d 3c
       -0.028681764 -0.022693764 -0.021918409 0.01349704
000260 44 98 5b bd 70 cf 38 3c 72 8a 10 bd 12 fc 32 bd
       -0.05361201 0.011279926 -0.03528828 -0.043697424
000270 70 a7 21 3c 30 dc 73 bc 5c 57 37 3d cb 03 42 bd
       0.00986658 -0.01488404 0.044761047 -0.0473669
000280 f8 5c f5 3c f4 c8 07 3d 9d 8c f1 bc 28 26 82 3c
       0.029951558 0.03315063 -0.029485995 0.015887335
000290 c8 6f 11 3c 15 b7 e0 bc de 0a 19 bd 40 0e ce bb
       0.008876748 -0.02743105 -0.03736388 -0.00628832
0002a0 74 c3 c8 3c e9 21 61 bd 6c cf 54 bc 70 a4 6b 3c
       0.024507262 -0.05496398 -0.012988906 0.014382467
0002b0 6f fe 45 bd 1a 52 2b 3d 30 7e e1 3c d8 8d 15 3c
       -0.04833835 0.041826345 0.027525991 0.0091280565
0002c0 a4 61 93 3c 0a b4 c5 bc ed dd 45 bd 9c ec 17 bd
       0.017990895 -0.0241337 -0.048307348 -0.037090883
0002d0 aa 5d 03 3d e8 02 da 3c 4a 2b 10 bd 9e 0c 07 bd
       0.032071747 0.026612714 -0.035197534 -0.032971017
0002e0 f2 29 95 bc f0 61 13 bd 57 c0 5c bd 9d 83 4f bd
       -0.018208478 -0.035982072 -0.053894367 -0.050662626
0002f0 40 12 ea bb f2 ef 04 3d 5c 2a 62 3d 86 36 1f bd
       -0.007143289 0.032455392 0.05521618 -0.038870357
000300 a8 bf c9 3c d2 d5 54 bd 80 50 96 ba 20 12 dc 3a
       0.024627522 -0.051961727 -0.0011468083 0.001679007
000310 3c 17 93 bc 43 38 0f bd 8a 87 0a bd 78 69 48 3c
       -0.017955415 -0.034965765 -0.033820666 0.012232177
000320 e0 19 95 3c 97 fd 4d bd 58 f3 da bb b0 55 a5 bb
       0.018200815 -0.05029067 -0.006681841 -0.005045615
000330 1e e9 15 bd 20 e8 0c 3c 6c 5f 3c 3d 9c 6f c0 3c
       -0.03659927 0.008600265 0.04598944 0.02349072
000340 a0 7d 12 3d a0 0b f3 3c b4 f3 fc 3c 70 05 50 bb
       0.035764337 0.02966863 0.030877925 -0.0031741522
000350 fa 91 0a bd 21 98 61 bd 23 0f 4c bd 94 ee ea 3c
       -0.03383062 -0.055076722 -0.049819123 0.028678216
000360 14 80 e7 3c e5 cc 40 bd 58 f2 86 bb 40 d3 31 ba
       0.028259315 -0.047070403 -0.004118245 -0.0006783493
000370 c2 0e b6 bc 3c 73 40 bd c0 94 3f 3c d4 84 f3 3c
       -0.022223834 -0.046984896 0.01169318 0.029726423
000380 56 ed 8d bc 68 a5 c1 bb 80 aa b6 bc cc da 10 3d
       -0.017325085 -0.0059096105 -0.022298098 0.03536491
000390 12 de 28 3d 88 b8 19 bd 3d 78 e1 bc c0 28 c3 bb
       0.041227408 -0.0375295 -0.027523154 -0.0059557855
0003a0 98 ae 62 3c 30 66 7d 3c 68 ae 36 bc 0c f4 a5 bc
       0.013835572 0.015466258 -0.01114998 -0.020257972
0003b0 c2 21 3e bd d4 88 4b bd 3e 75 ba bc 50 2d dd 3b
       -0.046418913 -0.049691036 -0.022760984 0.0067497864
0003c0 1a 6b 19 3d c8 34 b1 bb 38 0a ed 3c 88 92 1f 3c
       0.037455656 -0.0054079033 0.028935537 0.009739526
0003d0 56 b6 4d bd 2a 52 51 3d aa 97 16 bd 60 7c 76 3b
       -0.050222717 0.05110375 -0.036765732 0.0037610754
0003e0 2e 9c b9 bc 4c f0 9a 3c 2e c9 14 3d 46 dd 4e bd
       -0.02265748 0.01891341 0.036324672 -0.05050399
0003f0 e1 84 5b bd 10 28 f4 3c 40 27 6e ba a8 9f 92 bb
       -0.05359352 0.02980426 -0.0009084828 -0.004474599

fc1.bias f4 [50]
000000 84 c5 42 3d 68 ad 2e 3c 7f 36 ef bc 5a 69 21 3d
       0.047551647 0.01066146 -0.02920079 0.03940711
000010 98 35 2c bd 2a 02 4e bd c6 b3 b2 bc 20 b5 30 bb
       -0.0420433 -0.050295033 -0.021814238 -0.0026963428
000020 00 0b 31 3d e8 99 ad bc 36 d0 55 3d 50 ec 27 3b
       0.04322338 -0.021191552 0.05220052 0.002562303
000030 ee b1 4e 3d 02 25 3b 3d b0 9b 57 3d d0 ba 7c bc
       0.050462656 0.04568959 0.05263871 -0.015425399
000040 be 56 55 3d 10 9a d9 3b d2 98 90 bc 5b 03 5e bd
       0.052084677 0.00664068 -0.017650995 -0.05420242
000050 67 33 0e bd 30 66 4e 3c 14 71 fc 3c ac 12 98 bc
       -0.03471699 0.012597606 0.030815639 -0.018563591
000060 aa da 5f bd 04 eb 29 3d 93 48 24 bd 54 ac 83 3c
       -0.054651894 0.041483894 -0.040108275 0.016073383
000070 98 bd 50 3d 50 e9 c4 3c 0e c0 0d bd fc 24 53 3d
       0.05096206 0.024037033 -0.034606986 0.051548943
000080 b0 bc 17 bc b0 28 40 bc e4 66 c5 3c 5c 42 08 bd
       -0.009261295 -0.011728451 0.024096914 -0.03326641
000090 94 b3 38 bc a8 5b f0 bb 10 31 e8 3c 80 29 e2 bb
       -0.0112732835 -0.007335145 0.028343707 -0.00690192
0000a0 84 9b 35 3d 08 ff 98 3b 6c 74 21 3d 28 b1 36 bc
       0.044337764 0.004669074 0.03941767 -0.011150636
0000b0 c8 e0 07 bc a5 b6 51 bd 08 29 d8 3c d0 80 ec 3c
       -0.008293338 -0.051199574 0.026386753 0.028870016
0000c0 a0 37 0f bc b0 c6 58 3d
       -0.008741289 0.05292386

fc2.weight f4 [10, 50]
000000 fc a9 9e bd 66 6b e2 3d 28 51 a8 3d 00 f9 6a bc
       -0.07747266 0.11055641 0.08218604 -0.014341593
000010 c6 9f be bd 7c 9e c4 3d f0 b4 f1 3c 0c f2 9c bd
       -0.09307818 0.09600541 0.029505223 -0.07663354
000020 70 f9 ea bd a0 e6 35 bd 08 d5 12 3d 39 5b 03 3e
       -0.11473358 -0.044409394 0.035847694 0.12827767
000030 a4 71 da bd 00 8e de bd 52 14 5d bd ee ed eb 3d
       -0.106662065 -0.10866928 -0.053974457 0.11519991
000040 28 e3 0f 3d af bd 0c 3e 0f 9b 09 be d1 52 f3 bd
       0.035128742 0.13744234 -0.13438056 -0.1188103
000050 32 6b 39 bd 65 2d 03 3e de 88 d9 3d 2a db 90 bd
       -0.045268245 0.12810285 0.106218085 -0.07073052
000060 d6 20 fd 3d a8 e2 46 3d 02 bb be bd 00 56 51 ba
       0.123597786 0.048556 -0.09313013 -0.0007985532
000070 38 99 88 3d 9b 85 9c bd f0 87 9d 3d 45 86 0d 3e
       0.06669849 -0.07642671 0.07691944 0.13820751
000080 7a 2e f2 3d e0 36 b0 3d c0 90 06 bb 6c e6 c1 bd
       0.11825271 0.086042166 -0.0020533055 -0.094677776
000090 c6 c2 33 bd c8 78 12 3d 27 c2 0d be 06 c8 f3 3d
       -0.043886922 0.035759717 -0.13843594 0.11903386
0000a0 b8 f6 a5 bd 16 e1 27 bd 52 a9 86 3d bc c7 25 3d
       -0.081036985 -0.040986143 0.06575264 0.040473685
0000b0 f0 a3 7a 3c 2e 77 7f bd 16 34 45 bd c6 ef 0c bd
       0.015297875 -0.062369518 -0.048145376 -0.034408353
0000c0 a8 59 90 bc 6f 77 e9 bd 40 41 aa bb f5 09 be bd
       -0.017620876 -0.11399733 -0.0051957667 -0.09279243
0000d0 d2 35 ad bd 78 7e 63 3d fa 70 f8 3d d4 33 6f 3d
       -0.08457531 0.055540532 0.121309236 0.058399037
0000e0 f6 b4 11 bd c4 1b 22 bd 9e 35 0d bd d0 f9 76 3d
       -0.03557297 -0.03957726 -0.03447496 0.060296834
0000f0 a8 9c 2c 3d 68 99 8f bd b4 13 da bc 00 cc c6 3b
       0.042141587 -0.07011682 -0.026620723 0.006066799
000100 a0 4c b1 3c f8 f6 80 bc ac bc 7b 3d 88 5e 1f 3d
       0.021642983 -0.015742764 0.06145923 0.03890851
000110 a8 16 8e 3d 74 f9 ac 3d 3a 3e fb 3d d0 b6 34 3d
       0.06937915 0.08446017 0.12267728 0.044119656
000120 e8 df d0 3c c8 40 11 bd 90 42 47 3c e8 16 0d bd
       0.025497392 -0.03546217 0.012161866 -0.034445673
000130 38 32 ef bc 2c 16 75 3d 11 6f 90 bd 80 8e 6d bc
       -0.02919875 0.059835598 -0.07052434 -0.014499307
000140 a0 29 5b 3c a4 33 77 3d b3 46 db bd a0 6c 55 3d
       0.013376623 0.060351983 -0.10706844 0.052105546
000150 80 b9 3a 3b b8 7d 3d 3d 5f 82 08 3e d6 3a 86 3d
       0.0028491914 0.046262473 0.13330983 0.06554191
000160 4c f3 a8 3d 00 c5 75 ba f6 cd 8e 3d 7c 00 d8 3d
       0.0824953 -0.00093753636 0.06972878 0.105469674
000170 58 82 e4 bc b0 b1 6c 3c f0 2e 57 3c c4 f0 70 bd
       -0.027894184 0.014446661 0.013133749 -0.058823362
000180 20 52 b4 3d 52 8f cd 3d ff 48 0d be 70 87 80 3c
       0.088047266 0.10037102 -0.13797377 0.015689582
000190 12 d6 89 bd 78 39 85 3c ea ff 96 3d 68 a2 d6 bc
       -0.06730284 0.016262755 0.073730305 -0.026200488
0001a0 43 d9 0a 3e 8c 45 33 3d 82 84 a5 3d e8 b7 00 3d
       0.13559441 0.043767497 0.080819145 0.031425387
0001b0 f6 4c f5 bd ca dc e4 3d d8 33 cd 3d f8 03 53 3d
       -0.1197757 0.11174925 0.10019654 0.051517457
0001c0 e7 89 05 3e 24 c8 7a bd 68 3f b3 bd 06 a1 f3 3d
       0.13040887 -0.061226025 -0.08752328 0.11895947
0001d0 c6 e4 ed 3d 66 62 f4 bd 82 6d 15 bd ae cc f8 3d
       0.11615901 -0.119328305 -0.036481388 0.121484146
0001e0 30 06 34 bc 2a 65 ec 3d d4 23 a0 bc dc 68 41 3d
       -0.010987803 0.11542733 -0.019548334 0.047219142
0001f0 20 93 0c bc a0 08 80 3b 1e 4f 34 bd a8 fa ac 3d
       -0.008579999 0.003907278 -0.044020765 0.084462464
000200 cc f5 a9 bc a6 c1 a5 bd 08 80 15 3d 90 6d bc 3d
       -0.020747088 -0.08093576 0.036499053 0.09200585
000210 00 27 7d 3a 00 80 b8 ba 48 ab eb 3c 00 f4 ab 3b
       0.00096569955 -0.0014076233 0.028768197 0.005247593
000220 df b7 e7 bd ac b0 32 3d b0 ec f4 bc 40 ac 1f 3b
       -0.113143675 0.04362552 -0.029898018 0.0024364144
000230 e8 a2 58 3d 16 c8 e6 3d 98 a3 40 3d 3c 57 d7 3d
       0.052889735 0.11268632 0.047031015 0.105146855
000240 62 c5 ca bd e0 74 11 3c 54 53 8d bc 00 20 eb 39
       -0.09900929 0.008877963 -0.017251648 0.00044846535
000250 82 3c f4 bd 08 99 f6 bd 1c c9 07 be 38 fa 82 bd
       -0.119256034 -0.12040907 -0.13260311 -0.06395382
000260 ec 17 bc bc db 7b 8f bd 50 19 06 be 5f 99 10 3e
       -0.022960626 -0.070060454 -0.13095593 0.14121006
000270 3c a0 40 3d 24 0f d1 3d 62 65 06 be d6 82 c9 3d
       0.04702781 0.10207966 -0.13124612 0.09839408
000280 bf 7f 84 bd c0 62 ad 3c 0c bc fb bd 3d a7 8d bd
       -0.06469678 0.021165252 -0.122917265 -0.06916664
000290 c0 2c a1 3d b7 84 9a bd 42 36 04 be 89 30 0a 3e
       0.078698635 -0.075448446 -0.12911323 0.13495077
0002a0 7e ba d6 bd da 7f c5 bd 56 f2 04 be 65 ef b3 bd
       -0.10484789 -0.096435264 -0.12983069 -0.08785895
0002b0 10 5b 1e 3c e6 3c a6 3d 3a 18 af 3d c2 44 a9 3d
       0.009665266 0.08117084 0.08549543 0.08265068
0002c0 62 b1 e5 3d 57 a5 b7 bd 30 33 ec 3c 04 23 13 3d
       0.11215474 -0.08967083 0.028833002 0.035922065
0002d0 4c 1f a4 bd a9 27 ac bd 4c 99 cb bc 78 c5 d2 3c
       -0.08013782 -0.08406002 -0.024853371 0.025728926
0002e0 34 3b 0d 3d b0 ec 10 3d d6 b4 27 bd d0 41 c9 3c
       0.03448029 0.035381973 -0.040943943 0.024567515
0002f0 18 fe b0 3c 5a f0 af bd a4 f0 ba bc 10 ef 8c 3d
       0.021605536 -0.08590765 -0.022819825 0.06881535
000300 48 f0 8f 3c 40 b4 8b bd 81 2f 89 bd 04 6c 37 3d
       0.01757063 -0.06821489 -0.06698514 0.044780746
000310 08 b6 42 3d 54 a1 9f bc 6e fd fc 3d 50 83 05 bd
       0.04753688 -0.019486107 0.123530254 -0.032595932
000320 02 b2 f6 3d 50 96 09 3d 98 35 3b bd c8 43 62 3d
       0.12045671 0.033590615 -0.045705408 0.055240422
000330 02 2e b2 3d 6e 54 44 bd 10 d3 4c bc ee f0 d6 3d
       0.087001815 -0.04793208 -0.012501493 0.104951724
000340 6f fb 02 3e c0 30 0b bc 3b 5c 0e 3e 53 fb 02 3e
       0.12791227 -0.00849551 0.1390237 0.12791185
000350 8a 2a db 3d e4 6e b6 3d 4c 17 35 3d 28 e0 87 3d
       0.10701473 0.089078695 0.04421167 0.06634551
000360 90 d6 9d 3c b0 22 8d 3c 58 80 fc bc 80 e4 c5 3b
       0.01926735 0.017228454 -0.030822918 0.006039202
000370 a0 1b fb bb c5 5a ff bd af aa bc bd e8 7c fc 3c
       -0.0076632053 -0.12468485 -0.09212243 0.030821279
000380 36 3c 46 bd 54 36 c9 3d e8 6b c6 bc 68 61 0d bd
       -0.048397265 0.098248154 -0.024221376 -0.034516722
000390 d6 9e e4 3d b0 77 10 3d 6d 3b 0a 3e 48 84 d1 3d
       0.11163108 0.035270393 0.13499232 0.10230309
0003a0 10 bd 47 bc da 0d ea 3d b8 b7 0a be 72 55 cd bd
       -0.012191072 0.11428423 -0.13546646 -0.10026063
0003b0 a8 f9 92 bc 60 b1 b9 3c fe ae 2a bd 20 8c b4 bb
       -0.017941311 0.022667587 -0.04167079 -0.0055098683
0003c0 e0 58 bd 3b 7e 02 ad 3d 10 bb 49 bc 92 f0 f7 bd
       0.005778417 0.08447741 -0.012312666 -0.12106432
0003d0 23 a5 02 3e 39 d8 ef bd 18 3a c5 3d 5c 49 6e bd
       0.12758307 -0.11711163 0.09630221 -0.05817543
0003e0 b8 e3 02 3d 66 b0 ff 3d cc 7d 49 3d 40 eb ac bc
       0.03195545 0.12484817 0.049192235 -0.02110827
0003f0 c3 93 03 be 08 7d 1a 3d 49 e2 04 3e 45 a6 88 bd
       -0.12849335 0.037716895 0.12976946 -0.066723384

fc2.bias f4 [10]
000000 18 86 bf 3c cb c4 06 3e 2e c5 07 bd 23 e0 09 3e
       0.02337937 0.13161008 -0.03314703 0.13464408
000010 70 6f b9 bc b2 64 f4 3d 00 a8 3b b9 8a 0d be bd
       -0.022636145 0.119332686 -0.00017896295 -0.09279926
000020 12 f1 5c bd 76 16 82 3d
       -0.05394084 0.0635194
