New folder/Models/Client_1/Global models/Initial_5_4_2021_3_40_1.pth (torch, 76655 bytes, 8 tensors)

conv1.weight f4 [10, 1, 3, 3]
000000 30 18 97 3c bc 2e 8b bd 40 35 71 3d 00 44 0d bc
       0.01844415 -0.06796023 0.058888674 -0.0086221695
000010 00 80 6c b8 c0 1d c5 bb 72 56 73 3e 1f 77 a2 be
       -5.6385994e-05 -0.0060155094 0.23763445 -0.31731507
000020 cd 2b 8b 3e ec ea d0 bd a0 f1 c1 bd b9 b0 88 3e
       0.27181855 -0.10201058 -0.094699144 0.2669733
000030 6e 60 6b be 1c 6d af bd 88 0d 66 3d 6b 48 7e be
       -0.22986004 -0.08565733 0.05616525 -0.24832313
000040 3a ba 86 be 3a 3b 0b 3e 68 0e 79 be da 0e 46 3e
       -0.26313955 0.13596812 -0.24321902 0.19341603
000050 60 df 09 3d ee 4e 72 3e bb 42 9f 3e 86 0b a0 be
       0.033660293 0.23662922 0.311056 -0.31258792
000060 d6 9e 57 be ca 49 6f 3e 46 7d 4a 3e 34 40 9e 3d
       -0.21056685 0.23367992 0.1977435 0.077270895
000070 fb c1 5f be 4b 88 3c be 7c 4d b8 bd 77 5e 82 be
       -0.21851341 -0.18411367 -0.08999154 -0.25462696
000080 0a ff 1d 3e f2 b5 3d 3e 46 a8 80 be 29 ba 96 3e
       0.15429321 0.18526438 -0.25128382 0.29438904
000090 b0 83 c2 bc 3e 60 8a be b3 ff 5e be 96 3b 2c 3e
       -0.023744434 -0.27026552 -0.21777229 0.16819605
0000a0 86 59 07 3e c6 c4 33 be cc 8e f7 3d b0 c8 c3 3d
       0.13217744 -0.17555532 0.12087783 0.095597625
0000b0 c3 6a 7c be bb 35 8a 3e 52 21 95 be 4d c7 8d 3e
       -0.24650101 0.26994118 -0.29126984 0.27691117
0000c0 e8 e1 73 bd 0e 44 9a be 73 38 a7 3e 96 17 5a be
       -0.059541613 -0.30130047 0.32660255 -0.2129806
0000d0 c8 47 74 bd 0d 69 8c 3e 3c a9 a9 bd 70 08 cd 3d
       -0.05963877 0.27423897 -0.08284232 0.10011375
0000e0 2a d7 32 3e 6f 52 9c 3e 86 e2 53 3e 90 c2 69 be
       0.17464891 0.30531642 0.2069188 -0.22828126
0000f0 76 cc 02 be 9f b9 90 be 90 c4 c6 3c 26 45 34 be
       -0.12773308 -0.28266618 0.02426365 -0.17604503
000100 b8 44 5e bd 2c 8b a0 be a6 ca 49 be 00 a0 41 3a
       -0.054264754 -0.3135618 -0.1970621 0.00073862076
000110 78 44 5b be 60 05 e0 3d 0e 66 44 3e 92 c5 38 3e
       -0.21412838 0.10938525 0.19179556 0.18044117
000120 10 cb 8a bc c8 ef 57 be 58 fb 1b bd 68 fe 23 3e
       -0.01694253 -0.21087563 -0.038081497 0.16015017
000130 10 13 26 3e 16 e9 2a be f9 c4 99 3e 3e c0 95 be
       0.1621821 -0.16690478 0.3003309 -0.29248232
000140 16 c6 58 be 47 d6 95 3e 43 d1 92 3e e8 db 94 be
       -0.21169314 0.29265043 0.2867528 -0.29074025
000150 9c 7d fc bd 6a f6 61 3e 60 f9 2f 3d c0 46 c8 bc
       -0.123286456 0.22066656 0.042962432 -0.024447799
000160 50 df 73 be 4e 35 41 3e
       -0.23815656 0.1886799

conv1.bias f4 [10]
000000 ab 40 8b 3e be 59 6c be ce 82 69 3e 79 d3 90 3e
       0.27197775 -0.23081109 0.22803804 0.2828634
000010 f7 aa 94 3e 73 c3 88 be 58 30 6b bd 0e 3d 19 be
       0.29036686 -0.26711616 -0.05741915 -0.14964697
000020 c9 f0 8a 3e 2d 01 87 3e
       0.2713683 0.26368085

conv2.weight f4 [20, 10, 3, 3]
000000 2f be b6 3d 20 3d a4 bd 10 b2 88 bd fc b9 cb bd
       0.089229934 -0.08019471 -0.06674588 -0.09947583
000010 bf 21 95 3d da cc 11 3d e0 f5 29 bd 2d 8f 93 3d
       0.07281827 0.035595752 -0.04149425 0.07205043
000020 dd 06 d7 3d 58 87 d0 bd 51 55 b3 bd 9e d0 6e bd
       0.10499356 -0.10182065 -0.08756507 -0.05830442
000030 c8 81 76 bc 6c 0b c8 bc eb 48 a8 3d 20 fe 04 bb
       -0.015045591 -0.024419509 0.08217033 -0.0020293072
000040 0c d0 a0 bd c0 3c bf bd 66 e0 09 3d 33 d5 74 bd
       -0.07852182 -0.09337759 0.03366127 -0.059773635
000050 b2 dc 23 3d 15 ae b7 3d b9 89 87 3d 50 03 a7 bd
       0.040005393 0.089687504 0.066180654 -0.08154929
000060 5e 51 0a 3d d4 a3 d5 bc 84 90 a4 3c a2 0d 7c 3d
       0.033769004 -0.026079096 0.020088442 0.06153644
000070 68 82 1a 3c b0 13 ad bd c2 8c 9d bd b9 4a a2 bd
       0.009430505 -0.08451021 -0.07692863 -0.079244085
000080 ff d2 c1 bd 3f d3 bc 3d d5 ad d1 bd 0a c7 6e bd
       -0.094640724 0.092199795 -0.10238234 -0.058295287
000090 c5 cb c7 3d 00 94 e8 bc e0 ce 6b 3c 44 c1 d6 3c
       0.09755663 -0.028390884 0.014392585 0.026215203
0000a0 a0 a5 6d bb 38 f4 15 3c 66 2f 0e 3d 2a b1 01 3d
       -0.003626205 0.009152465 0.03471317 0.031663097
0000b0 e1 53 a0 3d 8e 2d 22 bd a0 91 8d 3c d7 f5 a9 3d
       0.07828499 -0.039594226 0.017281353 0.08298843
0000c0 9d c3 b4 3d ac c1 3f bd 81 de c5 bd e0 70 71 3c
       0.08826373 -0.04681556 -0.0966158 0.014736384
0000d0 cd c2 d4 bd e7 8e bd bd a7 07 93 3d bc ad a5 bc
       -0.10388718 -0.09255772 0.07179194 -0.020224445
0000e0 ed 22 c3 3d e4 39 af bd b4 4c 80 bc 81 d7 cb 3d
       0.09528146 -0.08555964 -0.015661575 0.099532135
0000f0 fa 1a a7 bd b4 e0 a3 3c 9e 25 4e bd 1f b4 cc bd
       -0.08159442 0.020004608 -0.050328843 -0.09995293
000100 eb 51 99 3d 6d 10 ca bd 40 93 7b bd 5b 74 d4 3d
       0.07486328 -0.09866414 -0.061419725 0.103737555
000110 ae 3e 57 3d 70 a7 43 bc cd b6 c0 bd d6 2b 32 3d
       0.05255001 -0.011941776 -0.094098665 0.043498836
000120 fa 19 62 3d 5a 49 a8 bd 68 39 9e bc c4 29 8c bd
       0.055200554 -0.08217116 -0.019314483 -0.06843904
000130 f1 29 d5 3d 26 1b 0e bd e0 df 12 bd c4 fd df bc
       0.1040839 -0.03469386 -0.035858035 -0.027342685
000140 ec 40 f5 3c a5 eb ad bd 26 2b 3c 3d 52 97 2d 3d
       0.029938184 -0.08492211 0.045939587 0.04238064
000150 44 25 9b 3c f0 02 88 3c c8 92 a7 bd 18 c1 77 bd
       0.018938668 0.016602963 -0.08182293 -0.060486883
000160 a8 ee c6 bd 39 ad c3 3d 02 c7 5b 3d 12 49 80 bd
       -0.09713489 0.09554524 0.053656586 -0.06263937
000170 f6 b2 69 3d 4d fb d0 3d 7a 60 5e 3d 72 09 b2 bd
       0.057055436 0.10204182 0.054291226 -0.08693208
000180 02 1c 11 3d da 1f 21 3d b0 1a b0 bb 90 7c 7c bd
       0.0354271 0.039337017 -0.005374275 -0.06164223
000190 3e c3 0a 3d b8 e7 7e bc 2e 9a 44 bd 2b 71 95 3d
       0.033877604 -0.015558176 -0.0479986 0.07296976
0001a0 ca 6a 5b bd 82 d4 13 bd dd ac 7d bd db c2 93 bd
       -0.05356864 -0.036091335 -0.061932433 -0.072149
0001b0 7d 9f a8 bd b4 cf d8 3c 98 4d 8b bd 02 49 33 bd
       -0.08233545 0.026466228 -0.06801909 -0.043770798
0001c0 1c 28 a4 bd 69 d7 87 3d 1f 60 bf 3d c0 cb 5a bc
       -0.08015463 0.06632883 0.093445055 -0.013354242
0001d0 83 c6 8f 3d 12 b1 06 bd 98 3a 1d bd 68 c2 0c 3c
       0.07020285 -0.03288371 -0.038385957 0.008591272
0001e0 75 bc ba 3d 60 9c 39 3c 2c 81 94 bd 72 bf 20 3d
       0.091179766 0.011328787 -0.072512 0.039245076
0001f0 17 cd 4b bd 00 d4 46 ba 2a fb 72 3d 94 98 a0 3c
       -0.049756136 -0.0007584691 0.05932156 0.019604005
000200 0a ed 05 3d de 0c 51 3d 01 21 8b 3d 86 1f 6a 3d
       0.03269676 0.05103766 0.06793404 0.05715897
000210 2f 5a ca 3d b0 4d 8f bd 77 d9 95 3d 00 94 0e bd
       0.098804824 -0.069972396 0.07316869 -0.034809113
000220 00 17 2b 3b 7c 9f ec 3c b0 86 d7 bb 24 24 e8 3c
       0.0026106238 0.028884642 -0.0065773353 0.028337546
000230 4a 3d c5 bd fe 3e 7f 3d 94 92 83 3c f9 9c b3 3d
       -0.096308306 0.062315933 0.016061105 0.087701745
000240 2c e0 ee bc b2 d0 33 3d 60 e4 9a bd ac d1 1d bd
       -0.029159628 0.0439002 -0.0756309 -0.038530037
000250 2b 75 5d bd ce 61 1e bd c3 7a c2 3d 10 94 c7 bd
       -0.05406682 -0.038667493 0.09496071 -0.097450376
000260 36 d3 7e 3d 2a ff 08 bd 88 43 26 bc 69 de 93 3d
       0.062213145 -0.03344647 -0.010147937 0.07220156
000270 40 27 be bb a7 c0 cf 3d 7e 4c c3 bd 27 26 d6 3d
       -0.005803019 0.101441674 -0.09536074 0.10456496
000280 58 fa 9c bd c8 92 a3 bd da 54 c5 bd c2 90 a7 bd
       -0.07664937 -0.07986981 -0.09635325 -0.08181907
000290 e8 88 8c bd c2 97 1a 3d ca 96 77 3d f9 fb ad 3d
       -0.0686205 0.037742384 0.060446538 0.084953256
0002a0 fc 4a af bc b8 49 c1 bd ca 18 04 bd d3 86 c2 bd
       -0.02139806 -0.09437889 -0.032250203 -0.09498372
0002b0 50 5f 03 bc 82 cc 18 bd 3a d4 71 3d e9 22 b8 3d
       -0.00801833 -0.03730441 0.059040286 0.089910336
0002c0 64 d2 3e bd 32 77 c8 bd a9 6f 44 bd b8 46 9d bc
       -0.046587363 -0.0978836 -0.04795805 -0.01919876
0002d0 73 dd 9c bd 1c 42 b3 bd bf 37 70 bd 27 b4 81 bd
       -0.076594256 -0.08752844 -0.058646914 -0.063331895
0002e0 80 1b 91 bd 55 b2 b2 3d 89 3c ae 3d a2 f1 ab bd
       -0.07085323 0.087254204 0.0850764 -0.08395697
0002f0 70 08 84 bb a8 76 d7 bc a3 81 a6 3d e4 66 e5 3c
       -0.004029326 -0.026301697 0.08130195 0.028003164
000300 11 bf b9 3d c4 7d b3 3c b0 54 88 3c 61 d6 a9 bd
       0.09069646 0.021910556 0.016641945 -0.08292843
000310 38 c6 be bc 7e 84 22 3d 5a 2e 1c 3d ea 0b 1f 3d
       -0.023287877 0.039677136 0.03813014 0.03882972
000320 61 e3 aa 3d 9f 72 d4 3d 47 1e b8 3d d0 b2 e1 3b
       0.0834415 0.10373425 0.0899015 0.006887771
000330 86 44 44 3d 70 17 e9 3b e0 a6 c1 bd de 8e 3a bd
       0.04791691 0.0071133897 -0.09455657 -0.045546405
000340 5c 7a e4 bc f0 68 9e bc 0a ca 2b 3d d0 49 73 bc
       -0.027890377 -0.019337147 0.041940726 -0.014849141
000350 bf 7c 5c bd 7f 0d a8 bd b0 15 85 bd fb 3b bd 3d
       -0.053829905 -0.08205699 -0.06498277 0.09239956
000360 56 14 1a 3d 4f 2f c7 3d ce 7e 3c 3d 21 a5 cf 3d
       0.03761705 0.0972582 0.046019368 0.10138918
000370 a0 c0 e7 bb 18 bf 96 bd 0d 4d 8c 3d 80 a6 12 ba
       -0.0070725232 -0.07360667 0.06850634 -0.00055942684
000380 1e 2a 7b bd 29 1b d7 3d cc af a0 bd bc d6 f8 3c
       -0.061319463 0.10503227 -0.078460306 0.03037583
000390 8d 09 51 bd 66 00 06 3d 91 72 bb 3d 8e f6 8b bd
       -0.0510345 0.032715224 0.09152711 -0.06834136
0003a0 90 67 39 bc e5 9b d6 3d 6a cc 7f 3d 44 98 93 bd
       -0.011316195 0.10478953 0.062450804 -0.07206777
0003b0 9c 69 b8 3c ce db c1 bd 38 92 06 3c 18 12 2d bd
       0.022511296 -0.094657525 0.008213572 -0.042253584
0003c0 0c 44 fd bc 00 10 24 38 a8 1b 18 bd 28 a4 86 bd
       -0.030916236 3.9115548e-05 -0.03713575 -0.06574279
0003d0 48 0e 36 3c 80 b1 36 3b c0 1b 7f 3b d2 a7 1a 3d
       0.011111803 0.0027876794 0.0038926452 0.037757702
0003e0 ea 09 2f 3d c1 fc b6 3d 17 c2 9a 3d 0c 85 b1 3c
       0.042734064 0.08934928 0.07556551 0.021669887
0003f0 90 12 78 bc e7 84 7b bd a3 b7 d5 3d 9d f6 a1 bd
       -0.015141144 -0.061406042 0.104354165 -0.07908366

conv2.bias f4 [20]
000000 86 cf 05 3d b4 29 d8 bc 9e 73 27 3d ae 71 b9 bd
       0.032668613 -0.026387073 0.040881746 -0.09054886
000010 3d 7b 66 bd 25 e1 66 bd bd 04 cb bd 28 a9 62 bc
       -0.056269873 -0.05636706 -0.09913013 -0.013834275
000020 10 29 bc bb fb cb d0 bd c0 30 3b 3c 00 a3 0c 3b
       -0.0057421997 -0.10195156 0.011425197 0.002145946
000030 ce c9 a7 bd 68 c3 d7 bd 9d fb ba 3d 72 38 50 3d
       -0.08192788 -0.10535318 0.09130023 0.05083508
000040 b4 c8 83 bd 40 35 d0 3b 0a c5 1b 3d 14 cd 07 bd
       -0.064347655 0.006354004 0.038029708 -0.033154562

fc1.weight f4 [50, 320]
000000 c8 e6 00 3d 30 12 01 3c 44 23 df 3c d8 fc da 3c
       0.03147009 0.007877871 0.027238496 0.026731893
000010 d1 a8 11 bd d0 0c ef bb de 57 01 3d b4 06 50 3d
       -0.035561386 -0.0072952285 0.031577937 0.050787643
000020 f8 13 15 3c f9 11 0d bd f8 7a 1c bc 46 b8 5a bd
       0.009098999 -0.03444097 -0.009550802 -0.053398393
000030 f8 96 c8 3c f8 fb d6 3c 00 17 c0 bb 78 c8 8b 3c
       0.02448605 0.026243195 -0.005862117 0.017063364
000040 8c 51 2e 3d d2 4b 01 bd 00 89 2e 3d 56 f2 03 bd
       0.042558238 -0.03156645 0.042611122 -0.03221353
000050 56 67 b8 bc 6c e4 2f bc 4d 44 4f bd d4 ac 3f 3d
       -0.022510212 -0.010735612 -0.050602246 0.04679568
000060 a8 f2 71 3c ea 9a 27 bd 30 f5 9c bc f4 f9 93 bc
       0.014767326 -0.040919222 -0.019159883 -0.018063523
000070 48 ba 6d 3c 78 77 12 3d 60 ad 4f 3c 60 28 14 3c
       0.014509745 0.035758466 0.012675613 0.009042829
000080 b0 f3 9e 3b 04 9f e4 3c e0 81 6d bc 95 22 46 bd
       0.004850827 0.027907856 -0.014496297 -0.048372824
000090 c0 e3 aa ba ac 7a 30 bd 04 61 24 bd 46 09 04 3d
       -0.0013037845 -0.04308574 -0.040131584 0.032235406
0000a0 1a 4a 0b bd cd da e6 bc 80 c7 18 bd c0 8b 9d 3a
       -0.034006216 -0.028180504 -0.037299633 0.0012019798
0000b0 b0 0b 22 3d 70 2e 33 bd 00 56 d6 3c 7c 00 37 3d
       0.039561927 -0.043745458 0.026164055 0.044678196
0000c0 6b 4b cb bc 18 84 4e 3c 44 d3 04 bc 88 9e 5e bc
       -0.024816236 0.012604736 -0.00810701 -0.0135876015
0000d0 45 f5 d6 bc b0 02 60 3c 4e 33 b8 bc 28 8a 3d 3c
       -0.02624 0.013672516 -0.022485401 0.011568584
0000e0 cd 0e 37 bd b6 74 84 bc e4 5f 29 3d cc f4 2b bd
       -0.04469185 -0.016168933 0.041351214 -0.041981503
0000f0 6a e5 11 3d c4 ec a9 3c 50 c0 90 bc c6 1b 84 bc
       0.035619177 0.020742781 -0.017669827 -0.016126525
000100 80 20 8a 3b a3 6f 52 bd c0 ee 56 bd 06 c4 a3 bc
       0.0042153 -0.051375996 -0.052473783 -0.019990932
000110 10 ec 7e 3c af aa d7 bc 04 cc 4b 3d 64 ad 6c bc
       0.015559211 -0.026326505 0.04975511 -0.014445636
000120 00 06 62 3c 58 73 50 bd 98 75 33 3c 88 62 7f 3c
       0.013795376 -0.05089125 0.0109533295 0.0155874565
000130 f6 90 5a 3d a8 e8 e0 3c 50 31 48 bb a0 43 24 bb
       0.0533609 0.02745469 -0.003054697 -0.0025064722
000140 00 22 e4 b8 24 1c 17 3d d1 96 34 bd 5c 61 d6 3c
       -0.0001087822 0.03689207 -0.044089142 0.026169471
000150 c7 64 30 bd 58 82 df 3c 20 83 a5 bc 3e a2 b1 bc
       -0.04306486 0.027283832 -0.020204127 -0.021683808
000160 e3 e7 da bc dc 4d e5 3c d0 00 95 3b 05 2c 08 bd
       -0.0267219 0.027991228 0.004547216 -0.033245105
000170 c4 4b 52 bd 72 fb 59 3d 76 20 05 bd 69 22 ee bc
       -0.051341787 0.053218313 -0.03250166 -0.029069142
000180 60 fc de ba b0 c6 de bb 90 7d 2c 3b 59 52 50 bd
       -0.001701247 -0.0067985877 0.0026319958 -0.050859783
000190 0e b4 19 3d 20 56 5f bd ab 55 45 bd ac 78 7a bc
       0.03752523 -0.054525495 -0.048177402 -0.0152875595
0001a0 cd a0 28 bd 80 01 39 bb 10 7a 42 bb 18 39 43 3d
       -0.041168977 -0.0028229654 -0.0029674806 0.04766187
0001b0 b6 4f 56 bd c8 8e a1 3c 0c 45 f0 3c c2 09 54 bd
       -0.052322112 0.019721404 0.0293298 -0.05176712
0001c0 d4 11 ba 3c a6 b2 4f 3d 46 38 31 bd 64 9a 2c 3d
       0.02271358 0.05070748 -0.043266557 0.042139426
0001d0 5e bf 82 bc 9c a1 c4 bc 38 a6 57 3d 1c 3a 33 3d
       -0.015960392 -0.024002843 0.052648753 0.04375659
0001e0 bc 59 c6 3c 5c 95 e0 bc 34 fa 34 3d e0 40 4e 3c
       0.02421271 -0.02741497 0.044183925 0.01258871
0001f0 6a 64 58 3d e8 37 be 3b 24 66 ad 3c 78 25 b5 3c
       0.052830137 0.0058050044 0.021166869 0.022112593
000200 4c 6d 34 3d 4c bd c8 3c 20 00 0e bc 80 ba e8 b9
       0.044049546 0.024504326 -0.008667022 -0.00044389442
000210 8a a2 d0 bc 3a 3c 95 bc d5 5c 3c bd 44 14 44 3d
       -0.02546813 -0.018217195 -0.04598697 0.04787089
000220 e8 6d 16 3c 4c 5b 0c bc b8 de d2 3c 6c db 39 3d
       0.009181477 -0.008566689 0.025740966 0.045375273
000230 af 09 61 bd 86 db 0e 3d 70 8d 56 bd 38 fb a6 bc
       -0.054940876 0.034877323 -0.05238098 -0.020383462
000240 c0 2b 9d 3c 9e 52 3a 3d 0c c9 35 bd dc 2c d5 bc
       0.0191859 0.045488946 -0.044381186 -0.026022367
000250 71 0f 37 bd ea c9 d5 bc aa e7 1a bd 56 37 e1 bc
       -0.04469246 -0.026097257 -0.03781859 -0.027492207
000260 58 0b e5 bb c8 37 26 bd 62 2e 29 3d c8 68 a0 bb
       -0.0069898777 -0.04058054 0.041304 -0.0048953034
000270 38 cd d1 3b d0 26 02 3d 7e 4c 8b bc d0 13 03 3d
       0.006402638 0.031775296 -0.017004248 0.032001317
000280 f4 05 33 3d 10 32 5f 3c 68 f8 df bb f8 52 cb 3b
       0.04370685 0.013622776 -0.0068350323 0.006204959
000290 4d 3d 2a bd c0 f4 31 3a e2 18 0b 3d a1 c2 3c bd
       -0.041562367 0.0006788485 0.033959277 -0.04608405
0002a0 80 ea 39 3d f4 b8 58 bc 98 df 6e 3c 98 ec 84 3b
       0.045389652 -0.01322769 0.014579676 0.0040565245
0002b0 88 b7 42 3d 15 36 cc bc 90 4f 46 bb 4c e1 4b bc
       0.04753831 -0.024928132 -0.0030259825 -0.012443852
0002c0 30 be 5b 3b d3 92 14 bd cc 5e 33 3d f8 4c d5 3c
       0.0033530109 -0.036272835 0.043791577 0.026037678
0002d0 48 73 2f bc e8 72 cf bb 40 16 97 3c 50 a6 d8 bb
       -0.010708638 -0.0063308366 0.018443227 -0.006611623
0002e0 16 89 17 bd 96 a0 14 3d 28 e4 18 bc bc c6 f2 3c
       -0.03699597 0.03628596 -0.00933174 0.02963578
0002f0 d8 06 50 bd 9e a5 33 3d 30 e4 98 bc 7c 5a c2 3c
       -0.050787777 0.043859117 -0.018663496 0.023724787
000300 a1 78 cb bc 90 bb c2 3c c9 c2 03 bd 64 3d 58 bd
       -0.024837794 0.023771077 -0.032168183 -0.05279292
000310 3c 28 99 3c b4 45 1e bd 80 55 ea 3c f0 9a f6 3b
       0.018695943 -0.038640693 0.028605223 0.007525794
000320 00 e5 b6 3a f0 b8 82 bb 60 6d 86 3c 04 56 42 3d
       0.0013953745 -0.0039893314 0.016409576 0.047445312
000330 56 0d 3a 3d 16 c6 43 bd a4 e7 ff 3c 80 2d 47 3d
       0.045422874 -0.04779633 0.031238385 0.048627377
000340 f0 76 d9 bc 87 87 3c bd 17 3f 61 bd e0 f8 e3 ba
       -0.026545972 -0.046027686 -0.054991808 -0.0017392896
000350 cc 83 bc bc b8 ab ea 3c 51 84 41 bd a4 dc 07 bd
       -0.023012064 0.028646335 -0.047245327 -0.033169404
000360 82 c7 37 bd 90 88 6c 3c 78 6d d1 3b b8 cb 9c 3b
       -0.044868 0.014436856 0.0063912235 0.0047850274
000370 0d 83 41 bd 0e e7 e5 bc 32 d4 b5 bc 6c ea 8c 3c
       -0.04724412 -0.028064277 -0.02219591 0.017201625
000380 50 1b 0d 3c 7c c8 e8 3c 9d 14 2b bd ce df 64 3d
       0.008612469 0.02841591 -0.041767705 0.0558775
000390 80 40 26 3c 2c 0a 0f bd 80 1d 37 3c c8 41 30 3d
       0.010147214 -0.03492181 0.011176467 0.043031484
0003a0 d7 10 3e bd 22 ca 0e 3d 8c 0a 15 3d 6d 7c 63 bd
       -0.04640278 0.034860738 0.03638701 -0.055538584
0003b0 b4 f3 55 bd c0 b2 0b 3a 7e 37 88 bc f7 04 17 bd
       -0.052234367 0.0005329065 -0.016628023 -0.03686997
0003c0 b0 0f 42 3c c0 6c d8 3c 3c 8e 06 bc 56 b2 59 3d
       0.0118445605 0.026419044 -0.008212622 0.05314859
0003d0 b8 a9 0a bd 43 8c e8 bc 2c e1 dd bc 9c bb db 3c
       -0.033853263 -0.028387194 -0.02708491 0.026822858
0003e0 1e 0e 01 3d 7b c7 e3 bc 62 7d 18 3d c0 cf cc 3a
       0.031507604 -0.02780508 0.03722895 0.0015625879
0003f0 90 41 08 3c 32 79 c7 bc ec b1 63 3d d2 5c b4 bc
       0.008316413 -0.024349783 0.0555896 -0.022016916

fc1.bias f4 [50]
000000 b4 e1 5a 3d c8 77 29 3d 90 6e 1d 3d 78 68 05 3d
       0.053437904 0.041373998 0.03843552 0.032570332
000010 9c 16 20 bd e0 77 0f 3c eb 6e 2d bd de 8e 5c 3d
       -0.039084062 0.008756608 -0.042342108 0.053847186
000020 1c b0 a5 3c 08 a5 43 3c 5e 18 ca bc 2c 15 14 3d
       0.020225577 0.011941202 -0.024669822 0.036153004
000030 98 0f 8d bb be e2 38 3d b0 6b c2 bc 8e 15 00 3d
       -0.0043048374 0.045138113 -0.02373299 0.031270556
000040 88 86 ac 3b 80 c0 08 bc f8 9a 86 bc 10 a6 76 bb
       0.005265061 -0.008346677 -0.016431317 -0.0037635602
000050 99 51 4b bd 40 ec d1 bb b8 ce 0a 3d 90 5f 31 3c
       -0.049638364 -0.006406337 0.03388855 0.0108260065
000060 d8 08 2d bc 90 a3 52 3c 52 b5 1e bd b6 5a 36 3d
       -0.010561191 0.012856379 -0.03874714 0.044520102
000070 e0 b4 4a bb 1a 08 9f bc e0 e0 b5 bb 90 ad 40 3d
       -0.0030930564 -0.019413043 -0.005550489 0.047040522
000080 fc a3 ec 3c dc 67 c6 3c 45 3a 61 bd 7e 38 18 3d
       0.028886788 0.024219446 -0.05498721 0.03716325
000090 1c 40 3e bc 48 38 45 bd 80 b6 0c 3d 72 d9 27 3d
       -0.011611965 -0.048149377 0.034353733 0.040978856
0000a0 f0 a8 7b bb b5 05 3a bd 60 7f 81 3c 6e f7 26 bd
       -0.0038400255 -0.0454156 0.015807807 -0.04076331
0000b0 06 00 f3 bc 20 cf b5 bc 8c 1c be 3c d8 e0 0e bc
       -0.029663097 -0.022193491 0.023206972 -0.008720599
0000c0 b6 b2 10 bd e0 2d 6d 3c
       -0.035326682 0.0144762695

fc2.weight f4 [10, 50]
000000 02 02 b9 bd 12 cc e9 3d d7 d7 03 3e ea b8 26 bd
       -0.09033586 0.114158764 0.12875305 -0.04070369
000010 b0 87 4a 3d cc ee 10 3d c0 12 ed 3b 29 fe 06 3e
       0.049445808 0.035383984 0.007234901 0.13182892
000020 00 1c 83 bd 66 d9 fa 3d f1 ae b3 bd a0 52 bc 3b
       -0.06401825 0.12248497 -0.08773602 0.0057471544
000030 90 ed e2 bd 47 e1 b6 bd 80 cd 1d bc c1 49 01 3e
       -0.11080468 -0.08929687 -0.009631515 0.12625791
000040 ab ee 0c 3e fe d2 45 bd 4c 40 c2 bd da 5c 82 3d
       0.1376292 -0.04829692 -0.0948492 0.06365366
000050 76 26 fb 3d fc 00 9d 3d 44 bc 75 3d b9 5f 06 3e
       0.12263195 0.076662034 0.059993997 0.13122453
000060 00 11 0c 3b 06 3f e4 3d 84 4a 07 bd ee a2 e3 3d
       0.0021372437 0.11144833 -0.033030048 0.11115061
000070 5e 15 e7 3d 31 4c c2 bd 02 9a d6 bd 42 35 b1 3d
       0.11283372 -0.094871886 -0.104785934 0.08652736
000080 cc a3 88 bd 20 05 95 3b 4c a9 b3 bc bb a4 ee bd
       -0.06671867 0.00454773 -0.021931313 -0.116525136
000090 f4 bc 9e bd f3 e5 fb bd 19 ef 03 be 12 d3 0b bd
       -0.07750884 -0.12299719 -0.12884177 -0.03413684
0000a0 20 66 ab 3b 14 96 ed bc d4 d5 31 3d 42 07 4a bd
       0.00523068 -0.029002227 0.043416813 -0.049323328
0000b0 a2 81 fd 3d 12 aa e2 bd 00 ec c6 b9 c4 77 aa 3d
       0.12378241 -0.110675946 -0.00037941337 0.08323625
0000c0 d2 2d 00 bd 00 b9 81 bb 90 e5 49 3c 78 4d 6f bd
       -0.031293698 -0.0039588213 0.012322798 -0.05842349
0000d0 d4 ba 38 bd 7a 27 a6 3d 1f ac b5 bd e4 eb a3 3d
       -0.04510005 0.08112998 -0.0887072 0.08003977
0000e0 92 9c b7 bd c8 7c c8 bd c0 43 60 bb 50 3a 24 3d
       -0.0896541 -0.09789425 -0.003422007 0.040094674
0000f0 40 b4 3b bb 88 88 75 bd db 06 fc bd bc d0 19 3d
       -0.0028641373 -0.05994466 -0.12305995 0.03755258
000100 b6 e2 b0 3d de cd de bd ea 3b 33 bd 6c 61 c7 3d
       0.08636992 -0.1087911 -0.04375831 0.097353786
000110 39 1b 01 3e ba 8f 9b bd 20 4e 0a 3d b2 ff bf bd
       0.12608041 -0.07595773 0.033765912 -0.09374942
000120 53 b9 80 bd c0 db e9 3b 60 ac 44 3d ec 72 ad 3d
       -0.06285348 0.007136792 0.048015952 0.08469185
000130 c0 9e ee 3c a0 a6 84 3d 96 49 97 3d 33 c8 0b 3e
       0.029128432 0.06477094 0.07387082 0.13650589
000140 26 fb ba 3d 56 27 ce 3d f5 99 8a bd ca 9f bf bd
       0.09129934 0.100660965 -0.06767646 -0.09356649
000150 ac be d8 3d 6a 74 6a bd 37 81 0a 3e dc 92 d9 bd
       0.10583243 -0.057239927 0.13525854 -0.10623714
000160 d8 5e 9b 3c 7e 0b 02 be 72 84 97 3d c8 0e 0d 3d
       0.018966123 -0.12699696 0.07398309 0.034437925
000170 16 b3 e9 3d 92 93 aa 3d 2a f2 de 3d f4 c4 8b bc
       0.11411111 0.08328928 0.10886033 -0.017061688
000180 90 69 b6 3d cf cb 00 3e 91 4e bb bd 92 6b e0 3d
       0.08906853 0.12577747 -0.09145845 0.109580174
000190 2f d1 02 3e a3 52 0f be 10 90 0e bc 30 5a 1a bc
       0.1277511 -0.13996367 -0.008701339 -0.009420916
0001a0 46 98 86 bd 00 93 57 bc 58 5b e9 3c d6 dd e6 bd
       -0.065720126 -0.013157606 0.028485939 -0.112727806
0001b0 81 d0 09 3e 38 29 d3 3c 08 a1 bf 3c 5f 61 80 bd
       0.13458444 0.02577649 0.023392215 -0.06268572
0001c0 12 61 eb bd 70 95 74 bc c8 48 e2 3c bc 5f 8e 3d
       -0.11493124 -0.014928207 0.027622595 0.06951854
0001d0 b8 8b 52 3d cc 7a 26 3d 7f a5 9c bd 28 5f 6d 3d
       0.051402777 0.040644452 -0.076487534 0.057952076
0001e0 f0 45 ee bc ca 93 bb 3d ec c8 ae 3d 3c e5 d1 3d
       -0.029086083 0.09159048 0.085344166 0.10248801
0001f0 f2 4b ec bd d4 8a 8f bc c4 87 b3 3d 70 b0 3f 3c
       -0.11537923 -0.017522253 0.087661296 0.011699781
000200 90 65 ad 3c c2 c5 97 3d ee 04 c5 3d 70 9f 00 bc
       0.021166593 0.07410766 0.09620081 -0.007850513
000210 00 b5 ce 3b 47 e3 01 3e 02 2e 8e 3d cc 1c ce 3d
       0.006308198 0.12684356 0.06942369 0.10064086
000220 78 eb da 3d 76 0d 45 bd f8 db 8f bd a8 0a bc 3c
       0.10689443 -0.04810854 -0.070243776 0.0229543
000230 40 b1 90 bb 07 0d 01 3e 20 58 de bb 80 8f ab bc
       -0.004415661 0.12602626 -0.0067854077 -0.02094245
000240 26 6c 53 bd d8 f6 b3 3c c0 03 32 3c aa c3 fa bd
       -0.05161681 0.02196829 0.010865152 -0.12244351
000250 24 26 65 3d b4 df df bd 5c 8a ab 3d 90 37 09 3c
       0.055944577 -0.1093134 0.08375999 0.008375064
000260 60 9b 2e 3c a4 6e c9 3d c8 2a da 3c e6 86 fc 3d
       0.0106571615 0.09835556 0.026631728 0.12330417
000270 1e ce 48 bd b4 67 c7 bd 42 6b ac bd 24 9d 9f 3d
       -0.049024694 -0.09736577 -0.08418895 0.07793644
000280 76 7c 71 bd 50 eb 20 3c d0 eb ac 3d 63 23 05 3e
       -0.058956586 0.009821728 0.08443415 0.1300178
000290 7a 51 ad 3d 94 c3 e4 bc 60 bb 88 3c 4a ad 15 bd
       0.08462806 -0.02792529 0.01669091 -0.036542214
0002a0 1d 76 06 3e 40 a8 39 3c 80 b9 00 3c 9e 6e c6 3d
       0.13130994 0.011331618 0.007856727 0.09689067
0002b0 e8 bd 6b 3d 4e a3 e6 3d b8 18 6f bd 62 d4 b3 bd
       0.057554156 0.11261617 -0.058373183 -0.08780743
0002c0 48 08 4a 3d 12 66 81 bd 7d 27 02 3e b0 54 97 3c
       0.049324304 -0.063182965 0.12710376 0.018473
0002d0 2a c8 db bd 2e 93 41 bd 8b f0 00 3e 90 2c 18 3c
       -0.10731538 -0.047259502 0.1259176 0.009287968
0002e0 d2 50 d7 3d c0 3a 82 3c 71 90 fc bd 54 2c 07 3d
       0.10513462 0.015897155 -0.123322375 0.03300126
0002f0 5a 5a 10 be 5c 70 c5 3d 10 da a1 3d 08 2c 55 bd
       -0.14096966 0.096405715 0.0790292 -0.052043945
000300 24 8c 68 3d cd fe f6 bd a0 3e 82 bc 04 54 a5 bc
       0.056774274 -0.12060318 -0.015899003 -0.020181663
000310 66 22 b3 3d 20 dd 93 3c 68 6c 3c bd 60 c4 d1 bb
       0.08746795 0.018049777 -0.04600182 -0.0064015836
000320 b8 68 dd bd 50 b2 b3 bd 84 ef a8 3d 56 de f3 3d
       -0.10810989 -0.08774245 0.08248809 0.119076416
000330 f4 1c bc bd 40 96 40 3b 19 d2 e4 bd d8 b0 85 bc
       -0.0918521 0.002938643 -0.111728854 -0.016319677
000340 ee a1 ae 3d 4c 51 39 3d a7 5c a0 bd 00 9a 11 bc
       0.085269794 0.045243546 -0.07830172 -0.008886814
000350 29 ae a2 bd 92 e3 95 3d e4 32 4f 3d f8 19 81 3d
       -0.07943375 0.07318796 0.050585642 0.06303781
000360 cb 1c 92 bd ec 09 21 3d e6 74 ff bd bc 52 27 3d
       -0.07134398 0.039316103 -0.124734685 0.040850386
000370 4f e4 95 bd 32 05 29 bd b2 40 fd bd 84 c1 b9 3d
       -0.07318937 -0.04126472 -0.12365855 0.09070113
000380 ba f0 95 3d 10 b7 db 3c 39 67 08 3e 2e 69 be bd
       0.073213056 0.02682069 0.13320626 -0.09297405
000390 24 78 ba bc c0 d8 dd 3b c0 38 e7 bb 2c 16 ee bc
       -0.022762366 0.0067702234 -0.0070563257 -0.029063307
0003a0 f2 3f 0a be e2 c6 ad 3d f2 d5 f5 bd 82 a2 6e bd
       -0.13500956 0.084851995 -0.120036975 -0.05826045
0003b0 fa fa 0c be 5c d3 88 bd 98 93 5a 3d 8e c0 fa 3d
       -0.13767615 -0.066809386 0.053363413 0.12243758
0003c0 00 cd ff bb c1 0b 00 be 00 18 4a ba 53 90 07 3e
       -0.0078064203 -0.12504484 -0.0007709265 0.13238649
0003d0 d0 8d 4d 3c e8 28 df 3c 5a 3b ec 3d d2 3d 8b 3d
       0.012546018 0.027241185 0.11534758 0.06798901
0003e0 0a 7b e2 3d a2 2e ba bd 80 9f 44 3b f4 7a c9 bd
       0.11058624 -0.09090926 0.0030002296 -0.098379046
0003f0 ba e9 bf 3d 70 1f 49 3d 6d be c1 bd e3 a0 10 be
       0.09370752 0.049102247 -0.09460149 -0.14123873

fc2.bias f4 [10]
000000 60 82 00 bc 1e 79 97 bd fe 3e a6 3d 39 2a 0f 3e
       -0.007843584 -0.07396148 0.081174836 0.1398095
000010 65 af e9 bd 60 44 48 3c f8 c3 fe bd bb 18 c3 bd
       -0.11410407 0.012223333 -0.12439722 -0.09526201
000020 de 78 d2 3d a4 23 e5 bc
       0.1027696 -0.027971096
