MNIST/Models/Client_1/Global models/Server_8_5_2021_10_48_41.pth (torch, 90095 bytes, 8 tensors)

conv1.weight f4 [10, 1, 5, 5]
000000 b0 56 0c be 8c 32 8e 3d 07 90 af 3d bf 31 bb bc
       -0.13704944 0.06943235 0.08572393 -0.02285087
000010 cc e1 b3 bd 5e d4 0c 3e d0 30 85 bd 04 48 5d bd
       -0.08783302 0.13752887 -0.06503451 -0.054023758
000020 ce f7 fd 3c 3c d8 4e 3c 95 c3 85 3d b5 89 d6 bd
       0.031001952 0.0126247965 0.06531445 -0.10475484
000030 9a ec a5 bd e6 56 38 3d 00 30 9f bd 42 44 c2 bd
       -0.08101769 0.045004748 -0.07772827 -0.094856754
000040 08 4c 2d 3e 1b 02 7d 3c 2c 41 5b ba 3c bd f7 3d
       0.16923535 0.0154423965 -0.00083638984 0.120966405
000050 72 8b f2 bd 3c 62 27 be d8 6b e0 3d 08 ff cb bd
       -0.11843003 -0.16346067 0.109580696 -0.09960753
000060 a0 2c 17 be 3a 0f 68 be 6c e8 2b be 1a b0 9e 3c
       -0.14763117 -0.22662058 -0.1678788 0.019371081
000070 0c 3b 4d be 20 50 c4 3d 8e 71 31 bd d8 5b 36 bc
       -0.20042056 0.09585595 -0.043321185 -0.011130296
000080 75 e7 92 bd 48 18 64 bd 49 1e 3e 3d 69 1d 5a be
       -0.07173053 -0.05568722 0.0464156 -0.21300282
000090 5c b8 02 3d 95 b7 93 3d 3a 2d 18 bc 76 49 06 3e
       0.0319141 0.0721275 -0.009288127 0.1311396
0000a0 05 62 b1 bc 84 8b c2 3d 13 5a 08 be 17 32 80 3b
       -0.021653185 0.09499267 -0.1331561 0.003912221
0000b0 1a 69 6d 3e 48 92 35 3e 85 2c 79 3e c6 13 7f 3e
       0.23184624 0.17731583 0.24333389 0.24909887
0000c0 6b 3a 76 3e d6 52 49 3e a4 88 42 bd 18 48 21 3e
       0.24045722 0.19660506 -0.047493592 0.15750158
0000d0 10 3b 45 3e 96 43 a2 3e 7e 76 90 3e b7 5a 2a 3c
       0.19260812 0.3169219 0.28215402 0.010397605
0000e0 50 7f bb 3d 12 d2 88 bd a8 b6 d0 bd 18 e2 76 3d
       0.09155142 -0.06680693 -0.10191089 0.060274214
0000f0 31 b5 41 3d f1 8b f6 3d 78 94 c5 bb 30 fe cd 3d
       0.04729194 0.120384105 -0.0060296617 0.10058248
000100 dc d5 3c be 0a 2b 0a be a1 7e 1f be 2e 8c 4d be
       -0.18440956 -0.1349298 -0.15575649 -0.20073006
000110 fd 22 29 be 58 0c 24 be 8a 4c 69 be ff 4f 3b be
       -0.16517253 -0.16020334 -0.22783104 -0.18292235
000120 a4 3b 97 bd f6 40 96 bd c8 71 db 3d c4 68 1f 3c
       -0.073844224 -0.07336609 0.107150614 0.009729568
000130 60 b7 cd 3d 0a 9a 44 3d fa 88 15 3e 6e cb 3b 3e
       0.10044742 0.047998466 0.14603034 0.18339321
000140 34 f0 4f be be ee 1d be 46 a4 82 3b 76 a3 56 3e
       -0.20306474 -0.15423104 0.003986868 0.20960793
000150 34 5a 0b be 3d 22 a9 bd f9 de 21 3e cc 23 09 3e
       -0.13608629 -0.082584836 0.15807714 0.13392562
000160 ba ee e1 3d 78 18 c5 bc 92 4e 08 3d 87 96 68 bc
       0.110318616 -0.02405952 0.033278055 -0.014196045
000170 6c f7 54 3e d0 a1 12 be 0f 35 95 bd 44 c9 ba 39
       0.20797509 -0.14319539 -0.07285511 0.0003562664
000180 f3 27 89 3d 9e 00 bb 3b 3c 0b da 3d 8e 2b 6e be
       0.06697073 0.0057068607 0.10646674 -0.23258802
000190 a7 46 18 bd e4 f7 4b be 17 d4 38 3d f8 a5 3c 3e
       -0.037176754 -0.19918782 0.04512414 0.18422687
0001a0 fe 31 2b 3e f2 51 16 be 13 b9 66 be bc 9d fe bd
       0.1671829 -0.14679697 -0.22531538 -0.12432429
0001b0 e0 38 79 bd 1c 30 05 3e 9a 9e 80 be 90 71 5b be
       -0.060845256 0.13006634 -0.25121003 -0.2143004
0001c0 dc 9e b2 bd 32 3b e8 3d 8e 06 68 3e 3c c5 8c 3c
       -0.08721706 0.113394156 0.2265875 0.017183892
0001d0 e6 aa 7f 3d ee dc b8 bd cc c3 93 bd b8 7e 33 3e
       0.06241884 -0.09026514 -0.0721508 0.17528808
0001e0 d2 21 52 be f2 b6 a2 be 98 67 45 3d 85 d6 3c 3e
       -0.20520714 -0.317802 0.048194498 0.18441208
0001f0 6c 8c 82 3e 37 fc 5b bd 46 9a d1 bd 5a 36 1a 3e
       0.25497758 -0.053707328 -0.102345034 0.15059796
000200 f2 18 a7 bd 84 b1 6c 3e 8e 28 f6 bc 40 1b 85 3e
       -0.08159055 0.23114592 -0.030048635 0.25997353
000210 db ef 53 3e e4 55 8d 3e 36 53 c1 bc 60 22 f4 3d
       0.20696966 0.27604592 -0.023599248 0.11920619
000220 42 6b 0e be 6d d6 39 3e f6 62 90 3d 9c 29 92 3d
       -0.13908103 0.18148203 0.07050125 0.071368426
000230 25 ae 43 bd 16 6c 2f be 1b 27 45 be b1 05 55 bd
       -0.0477735 -0.17131075 -0.19253199 -0.05200738
000240 b4 5c 48 3e 60 9a e5 bd 20 66 6c be 4c 05 3d be
       0.19566613 -0.11211085 -0.23085833 -0.18459052
000250 22 95 7c be 0d 57 b3 bd d8 6f 9b 3c 59 0f 0a be
       -0.24666265 -0.08756838 0.01897423 -0.13482417
000260 82 cf f4 3d 56 fc e8 bc de 89 49 be a9 83 3d be
       0.119536415 -0.028440636 -0.19681498 -0.18507256
000270 c8 6b 4e be a8 29 e6 bd 8c e5 34 3e 3f 7c a8 3d
       -0.20158303 -0.11238414 0.1766569 0.08226823
000280 cf 76 4e 3e 7a 06 81 3e d8 65 39 3c 3e 13 12 3d
       0.2016251 0.25200254 0.011315785 0.035662882
000290 12 53 4f 3e f0 03 2a 3e b5 9e 06 3e 3c 55 26 3e
       0.20246533 0.16603065 0.1314648 0.16243452
0002a0 8a 4e 04 3e c9 b9 e5 bd 4a ed 9a bd dc ed 28 be
       0.12920585 -0.11217076 -0.075647905 -0.16496986
0002b0 07 66 50 bc 64 7f cd 3d d2 72 d1 bd a6 52 20 3e
       -0.012719638 0.100340635 -0.10226978 0.15656528
0002c0 bc d1 e7 bd b8 95 8c bd ea ca bb bd 31 0b 2d be
       -0.113193005 -0.06864494 -0.09169562 -0.168988
0002d0 f8 f8 ba bd 44 5e d9 3d 29 c6 c1 bc 58 23 70 be
       -0.09129518 0.10613683 -0.02365406 -0.23450983
0002e0 a6 f6 02 be 67 ca 7e 3e 9e a9 45 3e cc 32 c0 bd
       -0.12789401 0.24881898 0.19302985 -0.09384689
0002f0 c8 9d b0 bc be 6e 27 3e fe db e6 3b 78 f8 7e 3d
       -0.021559611 0.16350839 0.007045268 0.062248677
000300 11 c5 4e 3e 8c 0e 5b 3e 38 41 fb bd 02 8a 19 3e
       0.20192362 0.21392268 -0.12268299 0.14994052
000310 b0 75 43 3e bc eb 51 3e 52 50 24 be f7 1b e0 bd
       0.19087863 0.20500082 -0.16046265 -0.10942834
000320 f8 af 6b 3d 02 e5 20 3e b4 29 9c 3d fb 53 c3 3d
       0.057540864 0.1571236 0.07625142 0.095375024
000330 56 93 d3 3d 06 47 3f be 0d 15 b8 3d 8e 8a 3a 3e
       0.103308365 -0.18679437 0.0898839 0.18216917
000340 00 58 e1 bc e2 9e 69 bd 32 01 1e 3d 91 57 63 be
       -0.027507782 -0.057036288 0.03857536 -0.22201373
000350 4f fb 19 bd ca 62 16 3e 40 a6 9d 3d a4 70 2e be
       -0.037593182 0.14686123 0.07697725 -0.17035156
000360 3c 1d 0e be ee 66 48 be 12 dc e3 bd 8a cc 98 3d
       -0.1387834 -0.19570515 -0.111259595 0.07460888
000370 6c 9d f7 bd b4 32 d0 3d 73 53 eb bd 62 cd f0 bd
       -0.12090573 0.10165921 -0.11490526 -0.11757924
000380 60 47 4f 3d b2 b4 e6 3c 4e d0 49 3e 84 82 86 bd
       0.050605178 0.028162334 0.19708368 -0.06567863
000390 da a5 3e 3e 2a ff fd 3d c6 3d 6b be 3f d4 4b be
       0.18617955 0.12402184 -0.22972783 -0.19905184
0003a0 b8 6b fb 3d 58 b6 d4 3d d0 4d 80 3e 56 12 fe bc
       0.12276405 0.10386342 0.25059366 -0.031014603
0003b0 82 d5 4c be 19 36 30 be c0 b5 22 bd 0c 56 17 be
       -0.20003322 -0.17208137 -0.03972411 -0.14778918
0003c0 94 66 ff 3d 38 16 eb bd 82 20 d5 bd ba 31 f1 bd
       0.12470737 -0.11478847 -0.10406591 -0.11777063
0003d0 56 0d 34 be c4 27 e8 3d 2e 08 a7 3d 4e 1b 09 3c
       -0.17583212 0.1133571 0.08155857 0.008368326
0003e0 94 79 f8 bd dc a7 cd bd
       -0.12132564 -0.10041782

conv1.bias f4 [10]
000000 91 f3 ff bd 84 32 0c 3e 71 15 d1 3c a4 f7 54 be
       -0.124976285 0.13691145 0.02552292 -0.20797592
000010 6e d0 09 bd 03 3d 88 3d 06 f6 b2 bd 60 9f 02 be
       -0.03364604 0.06652262 -0.087383315 -0.12756109
000020 cc b7 26 3e 38 4e 8c 3d
       0.1628105 0.068508565

conv2.weight f4 [20, 10, 5, 5]
000000 34 90 4d bd 60 b6 7c bb 70 57 1c 3d d4 28 77 bd
       -0.05018635 -0.0038560852 0.038169324 -0.06034167
000010 24 ca 82 3d d5 56 77 bc 5a f9 07 bd 66 37 7d 3d
       0.063862115 -0.015096386 -0.033196785 0.06182041
000020 32 e0 15 3d c2 ca 5f 3d 8a d9 6f bd ef a5 20 bd
       0.036590762 0.054636724 -0.05855707 -0.039220747
000030 94 24 e2 3c d5 03 d6 bc b0 e8 81 3d f0 23 2f 3d
       0.027605332 -0.026124874 0.0634321 0.042758882
000040 61 02 7d bc 19 41 59 3d 1a 59 13 3b 3e 46 37 3d
       -0.015442462 0.053040598 0.0022483529 0.044744723
000050 37 53 66 3d 49 1b 20 3b b6 1e 87 bd e9 29 41 bd
       0.056231704 0.0024430326 -0.065976545 -0.04715911
000060 6c 23 7f bd 64 43 d3 bc f4 0a 90 bd b0 c8 05 bc
       -0.06228964 -0.02578897 -0.07033339 -0.008165523
000070 32 4c a0 bd 73 d7 aa bc f2 4e c7 bd b8 34 d8 bb
       -0.07827033 -0.020854687 -0.097318545 -0.0065980814
000080 f8 3c 91 bc 2c 9a a8 3c b2 8c 83 bd b2 82 aa bc
       -0.017729267 0.020581327 -0.0642332 -0.020814274
000090 a4 73 40 bd 63 e7 95 bd da f3 72 3c b8 7f b1 bd
       -0.046985283 -0.07319524 0.014828647 -0.086669385
0000a0 96 5e 90 3d 74 c4 54 bb 18 5e 51 3d c0 35 94 bd
       0.07049291 -0.0032465728 0.051115125 -0.072368145
0000b0 46 71 aa bd 9e e6 ae 3d 7c ad b9 3d 60 ba 57 bd
       -0.083223864 0.085400805 0.09066293 -0.052667975
0000c0 53 09 0a 3d 80 dd 25 3d 16 9c 04 bd 66 08 76 3d
       0.0337003 0.040494442 -0.032375418 0.060066603
0000d0 dc e8 af 3d f0 f8 7b 3d a0 8c 60 3c ce e2 46 3d
       0.08589336 0.061516702 0.013705403 0.04855614
0000e0 80 2c b8 bc d5 81 7a bc 6e b2 a1 3c fe c1 8e bb
       -0.022482157 -0.015289743 0.019738402 -0.0043566218
0000f0 9c d6 c6 bc 40 8e a5 bc 3a 28 c4 bc 75 ec 0e 3d
       -0.024272256 -0.020209432 -0.023944963 0.03489347
000100 98 9a 42 3d 05 22 4c bd 9a e3 d0 3c ad 73 88 bd
       0.047510713 -0.04983713 0.025499154 -0.066626884
000110 a6 a0 fb bb dd b4 8c bd 12 d3 df bc 61 fe 2e bd
       -0.007679063 -0.068704344 -0.027322326 -0.042723063
000120 e4 8b 7b bd f3 47 68 bd 9f a9 06 bd 3e d8 00 bc
       -0.061412707 -0.05670924 -0.032876607 -0.007864056
000130 c6 b6 4e bd 13 d9 0a 3d 48 2a e1 3c 84 7e dd 3c
       -0.050467275 0.033898424 0.027485982 0.027037866
000140 08 bd 58 bd 17 27 c9 3c 1d 95 89 3c 0d 83 cb bc
       -0.05291465 0.024554772 0.016794736 -0.024842763
000150 8e 53 50 3d 90 fb 83 bd 86 dd bc bd 55 c4 44 bb
       0.050860934 -0.06444466 -0.0922194 -0.003002425
000160 c0 7c a0 3c 38 30 98 bc f4 a6 6a 3a 0b eb 7b 3d
       0.019590735 -0.01857768 0.00089512696 0.06150345
000170 22 1e 9e 3c e1 63 85 3b ac 1d 9d bd 73 6c 2d 3c
       0.019301478 0.0040707444 -0.07671675 0.010584938
000180 a6 2e 3f 3b 16 54 95 3c 8d 7b 44 bc 5c 25 31 bd
       0.0029172092 0.018228572 -0.011992347 -0.04324852
000190 57 f5 bb 3c 80 e0 b4 3d 0a 55 12 3c 0f 25 2b 3d
       0.022944136 0.088318825 0.008931408 0.04178339
0001a0 98 4a 47 bd 36 41 82 bd 0a cd 88 3d ac 4a 01 3d
       -0.048655123 -0.06360094 0.06679733 0.031565353
0001b0 b4 6b c4 3c 22 8c 2b 3d ab a5 18 bd ec e7 78 3c
       0.023977138 0.041881688 -0.03726737 0.015192013
0001c0 13 18 1b bd f8 e2 2f bc 44 6c 04 bd 3e 7c 49 3d
       -0.037864756 -0.010735266 -0.032329813 0.049190752
0001d0 26 e8 d7 3d 75 3a 4d bd 4a e5 8f 3c 4e 68 04 bd
       0.10542326 -0.050104577 0.017565388 -0.032326035
0001e0 a8 86 44 3d 5e f2 d0 3d 0a 6f b7 bd b4 60 97 bd
       0.04797998 0.10202478 -0.08956726 -0.073914915
0001f0 02 99 7a bd 24 22 e8 3b 6b 33 2f 3d 4b 7d dc 3c
       -0.061181076 0.007084148 0.042773645 0.026915213
000200 0e e9 f4 3c 03 a2 31 3c e8 f8 88 3c bb 4b 98 bd
       0.029896285 0.010841849 0.01672025 -0.074363194
000210 e9 82 1d bd 76 0b b7 bc 25 81 e2 3a 98 a9 e2 bc
       -0.038454924 -0.022344332 0.001728092 -0.02766876
000220 c3 8d 98 bd 2e 56 70 bd 4e 1d 0f bd 70 e5 4b 3c
       -0.07448914 -0.058675937 -0.034940057 0.012444839
000230 f9 ce 96 3c ca 3d 49 3c aa 93 05 bc e1 46 7b bd
       0.01840924 0.012282798 -0.008152882 -0.061346892
000240 35 e8 4d bc 5b 62 ab bd d8 f6 f6 3c 2c 74 b6 bd
       -0.0125675695 -0.08368369 0.030147001 -0.08908877
000250 6a 60 3e bd 70 7a 56 bc 13 ac a4 bd 62 56 6f bd
       -0.046478666 -0.013090715 -0.08040633 -0.05843199
000260 5c 14 07 3b ec ac 50 3d a8 56 64 bb 20 93 0e 3c
       0.00206115 0.05094616 -0.003484169 0.0087020695
000270 d3 4d d2 bc 16 4b 5e bd 23 fa a9 3c a3 64 8b bd
       -0.025671875 -0.054270826 0.020749157 -0.06806304
000280 fa 8f 73 bd 0a 41 41 3c 0a 91 a8 bc 9e cf 26 bd
       -0.05946348 0.011795292 -0.020576973 -0.040725343
000290 b0 81 09 bd 5a 52 72 bd 66 b4 4f 3d 0e 18 a9 bb
       -0.033570945 -0.059160568 0.05070915 -0.0051603382
0002a0 d4 22 f4 bb 09 8a 7b bd 4e ff 80 3d a5 a9 51 bc
       -0.007450441 -0.061410937 0.062986955 -0.012796794
0002b0 a7 ba 8d 3c dc fd 2f 3d ec 36 65 3c 68 54 a7 bd
       0.017300917 0.04296671 0.013990145 -0.08170396
0002c0 54 c0 8a bc fc b9 09 bd 55 71 71 bd 02 a7 45 bd
       -0.016937412 -0.033624634 -0.058945972 -0.048254974
0002d0 26 62 78 bd be 85 3e bc 38 84 5e bd 61 8d 0c bd
       -0.060640477 -0.011628566 -0.054325312 -0.034314517
0002e0 b9 19 a1 bc cf 54 06 3d 22 9b 93 bd 29 96 fd bc
       -0.019665586 0.032795724 -0.072073236 -0.030955391
0002f0 ce 71 76 bd fd 8f 50 bd b4 f8 54 3c 58 9e d8 3c
       -0.060167126 -0.050918568 0.012998749 0.026442692
000300 14 b2 76 bc 5c 44 d2 3c ca 0a 54 3c da d7 2c 3d
       -0.015057106 0.025667362 0.012942025 0.04219804
000310 74 ca 28 bc b2 10 56 3b ae 18 02 3d 08 90 68 3b
       -0.010302175 0.003266376 0.031761818 0.003548624
000320 f4 d3 2d 3c 9e 4b 55 3d 20 48 97 3d ac b1 a2 3c
       0.010609616 0.052074067 0.073868036 0.019860111
000330 8c a2 1f 3d ba f4 60 bd 7e 12 a0 bb 54 30 07 3d
       0.038973376 -0.05492089 -0.004885017 0.033005074
000340 7c 01 3e bd 5f fd 4c bd 78 e5 7b 3d fd 74 cf 3c
       -0.046388134 -0.05004632 0.061498135 0.025324339
000350 38 05 87 bd 6a 8c be 3c 44 6d 0e 3d 85 d1 31 3d
       -0.06592792 0.023260314 0.034772173 0.043412704
000360 61 31 67 bd 76 0d af bd 00 65 4b bd 20 11 60 bb
       -0.056443576 -0.08547489 -0.049656868 -0.0034189895
000370 80 c9 b8 ba 3f c2 b5 bd b5 5e cf 3b 2a a0 82 3b
       -0.0014098138 -0.0887494 0.0063284286 0.003986378
000380 14 0a 98 bd 6c b1 4b bd 29 8b 69 3d 3c 57 99 3d
       -0.07423797 -0.04972975 0.05701748 0.07487342
000390 35 cd 6c 3c a8 6f e6 bb 41 b4 39 3d ec 6c bc bc
       0.014453222 -0.0070323534 0.04533792 -0.023001157
0003a0 74 f6 30 3d d6 54 d1 3c 7c 6a 1d 3d 24 f7 13 bd
       0.043203786 0.025553148 0.03843163 -0.036124364
0003b0 48 e7 9c bc 38 4f 3a 3d 50 56 a9 3b c3 ac 73 bd
       -0.019153252 0.045485705 0.00516776 -0.05949093
0003c0 76 ab 84 bd be 8c bc bd cc f8 1b 3d 52 08 31 3d
       -0.06478016 -0.09206532 0.038079068 0.043220825
0003d0 be dd 15 bc 8e e5 a1 bc 82 7c 20 bd 2a bb 8c 3c
       -0.009147106 -0.01976278 -0.03918124 0.01717909
0003e0 ee 58 23 3d 48 2a 0a bc 88 e3 75 3c 4b bf 27 bd
       0.03987973 -0.008432932 0.015007861 -0.040953916
0003f0 16 3a 80 bb b3 a3 a4 3c 94 c3 5b bc c4 6b 28 bd
       -0.0039131744 0.02009759 -0.013413329 -0.0411184

conv2.bias f4 [20]
000000 cf 19 77 bd 04 88 4d bd 4e c4 78 bd e3 c9 32 bd
       -0.060327347 -0.050178543 -0.060734086 -0.043649565
000010 dc 2c 8c 3b b0 b1 52 3c a6 b0 fb bc 28 38 ec bb
       0.0042778086 0.012859747 -0.030723881 -0.007208843
000020 c7 63 1b 3d df 94 c7 3c dc 1f a4 bb 77 07 54 3c
       0.037936952 0.02436298 -0.0050086807 0.012941233
000030 64 e0 6a bb c4 e6 cd 3c 9c 2f 12 3d 6f 75 45 bd
       -0.0035839314 0.025134452 0.035689935 -0.048207697
000040 1d 1b 3f 3c 16 36 12 3d 69 75 06 3d 5c b2 1e bd
       0.011664179 0.03569611 0.032826815 -0.038744316

fc1.weight f4 [50, 320]
000000 79 8a ff bb 64 5f 11 3d 22 e4 87 3c ba 2c 48 bd
       -0.0077984896 0.035491362 0.016588274 -0.04887078
000010 64 a9 10 bc 5e 11 92 bb 4c 89 35 bd fd 3c 4d b8
       -0.008829448 -0.0044576367 -0.04432039 -4.893261e-05
000020 16 4d 30 3c 0a b9 1c bc 5b 3c 07 bd 24 50 19 3d
       0.010760566 -0.009565601 -0.033016544 0.037429944
000030 60 83 fb bc 6f d7 18 bd ea e6 ec bc 8c c9 d6 3b
       -0.030702293 -0.03731483 -0.028918702 0.006554788
000040 f2 50 f9 3c 5d 4f 8c bc f3 6a ed bc c0 e1 48 3c
       0.030434106 -0.017127687 -0.028981661 0.012260854
000050 e4 77 2e bd b8 96 a2 3c a5 2d 2e 3d 6c 9f ac bb
       -0.042594805 0.019847259 0.042524 -0.005268028
000060 9a bb 73 bc a0 59 5b bd 4d bc ea bc 84 81 52 3d
       -0.014876271 -0.05355227 -0.028654242 0.051393047
000070 e6 68 c4 bb 6c 4f a2 bb b5 22 01 3c d9 0b 3f bd
       -0.00599395 -0.0049533155 0.00788181 -0.04664216
000080 3f e1 10 3c 9d 13 61 bd a0 15 08 bd f0 64 29 3d
       0.008842765 -0.054950345 -0.03322375 0.041356027
000090 9c ba 70 bc 7a f5 10 bd 26 78 ff 3b f0 9f cf 3c
       -0.014692929 -0.035390355 0.007796305 0.025344819
0000a0 bc c7 c3 3c 64 44 80 bc 35 76 0c bd 86 f5 eb bc
       0.023898952 -0.015657611 -0.03429242 -0.028803598
0000b0 1e 10 2c bd c4 3d 0d 3d c0 cc 09 bb f4 1e 13 bd
       -0.042007558 0.034482732 -0.0021026582 -0.03591819
0000c0 6d e7 46 bd 19 70 74 bd 3a f1 14 bd 0e 3f 55 bc
       -0.04856055 -0.059677217 -0.036362864 -0.013015522
0000d0 42 99 b3 bb 19 03 dc 3c f4 e4 52 3a 2c 1e 4f bc
       -0.0054809162 0.026856946 0.0008044981 -0.012641471
0000e0 fc c2 32 3d 4c 80 d6 3c 36 9c 30 bd 5c 25 68 3d
       0.043642983 0.026184224 -0.043117724 0.056676254
0000f0 68 1f 59 bc 78 93 60 bb e0 7d 93 3c 1d ab ca 3c
       -0.013252117 -0.0034267586 0.018004358 0.024739796
000100 e4 50 fe 3c 93 5f 21 bd 32 21 14 bd 96 9e 8b ba
       0.031044431 -0.039397787 -0.03616447 -0.0010652121
000110 b6 7c 9a bc 10 0f 41 bd 44 70 1f bd a2 00 1b 3a
       -0.018858295 -0.047133505 -0.038925424 0.0005912875
000120 f2 db 52 bd a9 89 33 bd 51 89 36 3d c7 35 38 3d
       -0.051479287 -0.043832455 0.04456455 0.04497316
000130 1c 29 00 3d 00 10 4a bd b2 be 1e bd aa d3 0e bd
       0.031289205 -0.049331665 -0.03875608 -0.034869827
000140 7b 4f 65 3c ce b0 08 bd d6 f8 62 bd 76 c3 0c bc
       0.013996 -0.03337174 -0.05541309 -0.008591523
000150 48 4e de bc 74 ec 19 3d 19 51 c3 3c 93 74 92 bc
       -0.027136937 0.037579015 0.023842381 -0.017877853
000160 5c 3d 3b 3d 5a a1 cc 3c 70 a7 c0 bc 9a 49 4c bd
       0.045712814 0.024979282 -0.02351734 -0.04987488
000170 14 da 50 bc 8d 57 66 bb 58 ad a5 3c ee 3e a9 3c
       -0.012747306 -0.00351474 0.020224258 0.02065989
000180 1f 7f 26 bb fa e8 bf bc cc f6 54 bd d3 77 82 3c
       -0.002540536 -0.023426522 -0.051993176 0.015926277
000190 ea 73 34 bd 74 30 5d bb 5e 92 5e bb 2e 7c 88 3c
       -0.044055857 -0.0033750804 -0.0033961753 0.016660776
0001a0 c3 51 69 3c 33 c5 50 bc 54 6c c0 bc a6 e2 50 3d
       0.014240685 -0.012742328 -0.023489155 0.0509974
0001b0 fc 21 0f bd de 31 e4 b9 62 26 6d 39 b4 92 4c bd
       -0.03494452 -0.00043524703 0.0002261638 -0.049944595
0001c0 70 37 de bc 3a ce 24 bd 30 97 3b 3d a2 73 5a 3d
       -0.027126044 -0.040235735 0.04579848 0.053332932
0001d0 4c 3e b3 3c 60 0a ba 3b f4 d4 89 bc da 1d 20 3d
       0.021880291 0.0056775063 -0.016825177 0.03909097
0001e0 b9 b7 4c bc d0 06 15 3c d2 b0 5a bc 08 94 42 bd
       -0.012494975 0.0090958625 -0.013347821 -0.047504455
0001f0 7c 5d 07 bc 0e e3 12 bd e6 a3 b6 3b c9 16 ea bb
       -0.0082620345 -0.035861067 0.0055737374 -0.0071438295
000200 a0 5d 5e bd 7e 31 a1 bc b2 8e 4c 3b ff c6 ec bb
       -0.054288507 -0.01967692 0.0031212983 -0.0072258706
000210 a6 6d 1b 3d ea 05 e5 bb 23 a0 eb 3b 5e 29 0d 3c
       0.037946366 -0.0069892304 0.0071907206 0.00861582
000220 98 30 61 bd de a0 e4 3c 64 ac 28 bd 41 5b 13 3d
       -0.054977983 0.027908739 -0.04118003 0.0359757
000230 44 6d 19 3d 4c 0b 02 3d e8 6a 1c 3d 33 e3 16 3c
       0.03745772 0.031749055 0.03818789 0.009209442
000240 cc 7f 39 3d 84 12 9d 3c d4 cb ac 3c fa 8b 27 bd
       0.045287892 0.019173868 0.021093287 -0.040904976
000250 3c f3 40 bb 5e d1 49 bd 93 e8 ff bb f6 b5 18 3c
       -0.0029441854 -0.049271934 -0.0078097074 0.009320727
000260 45 64 54 bd a7 3b 90 3b 0a ea 17 bd 46 19 56 bc
       -0.051853437 0.0044016424 -0.03708843 -0.013067549
000270 6a ee 04 3b db 7a 91 bc d4 c2 d2 3c b2 5b db 3c
       0.0020283707 -0.017758777 0.025727667 0.026777122
000280 e1 d9 8c 3d 66 d7 66 3d 0a 2e 17 bd 8c 41 74 3c
       0.068774946 0.056357764 -0.03690914 0.014908206
000290 93 38 cf 3a 8f 84 50 bd 91 98 2a bd 5d d6 88 bc
       0.0015809707 -0.050907668 -0.041649405 -0.016703779
0002a0 86 e4 0e bc 78 21 69 3d 34 cd 21 3d 27 c3 dc 3c
       -0.008721476 0.056916684 0.039502338 0.026948525
0002b0 0e 2d 6a 3c c8 d0 55 bd 28 3a 4f bd e0 d6 e3 3b
       0.014292968 -0.052201062 -0.05059257 0.0069531053
0002c0 fb 7d 25 bc d1 d8 ec bb 42 44 d8 3c 88 b2 87 bc
       -0.010100837 -0.007227995 0.026399735 -0.016564623
0002d0 9b 14 f7 bc 84 e6 50 bb 26 87 42 bd 48 c4 04 3d
       -0.030161193 -0.003187568 -0.04749217 0.03241375
0002e0 df 95 57 bd 64 20 05 bb 40 fd 03 bd 05 76 37 bd
       -0.052633163 -0.0020313496 -0.03222394 -0.044790287
0002f0 2d 3a 84 bc 08 0b a1 bc 08 d0 f5 3c 3e d8 cc bc
       -0.016141022 -0.01965858 0.030006424 -0.025005456
000300 6e 87 35 3d d4 d7 2e bc 3e f5 67 bd bc 0f 52 bc
       0.04431861 -0.010671575 -0.056630366 -0.012821134
000310 4b 9f e6 3c 02 91 db 3b 70 ca d4 3b c4 bf ab 3b
       0.028152129 0.006700636 0.006493859 0.005241366
000320 8e 08 36 bd e4 cf 13 bd ce 16 bd 3c 9a 42 1e 3d
       -0.044441752 -0.03608693 0.023082163 0.038637735
000330 64 3c 00 bd 3a 03 08 3c 5a e8 12 3d a0 14 d2 3a
       -0.031307593 0.0083015505 0.03586612 0.0016027875
000340 20 90 00 3d fe ff ed 3b 28 76 ce bc b8 fc 14 bd
       0.03138745 0.0072631827 -0.025202826 -0.036373824
000350 da 4b 88 3b 68 02 ed bc da a8 14 3d 7d 7d da bc
       0.004159433 -0.028931811 0.036293842 -0.026671166
000360 0e 08 11 bd 38 7e d2 3c b4 a0 06 bd 6c ca a3 3b
       -0.035408072 0.025694951 -0.032868102 0.004998496
000370 78 ae 23 3c 64 b1 25 3d 51 7a 07 bd 24 1c 1d bd
       0.009990327 0.040452376 -0.033075634 -0.038356915
000380 64 68 4f bd cd a6 11 bc 57 c7 01 3d 57 c1 62 3d
       -0.050636664 -0.008889866 0.031684246 0.055360164
000390 22 83 d0 bc e2 f6 ef bb 2a 92 c1 3c a0 42 66 bd
       -0.025453154 -0.007323132 0.023629267 -0.056215882
0003a0 d2 fb 4d 3d 5c 99 36 bd 74 71 ed 3c e0 10 67 bd
       0.050288983 -0.04457985 0.028984763 -0.056412578
0003b0 e5 bb 33 bb af 1c 46 3d 9e a2 10 bd 0c f7 5c bd
       -0.0027425226 0.0483672 -0.035311334 -0.05394654
0003c0 2a 51 4a 3d 60 1a 3c 3c 89 19 46 3b 92 50 15 3d
       0.04939381 0.011480898 0.0030227622 0.03645379
0003d0 98 6e ad 3c 06 ed 33 3d 82 db d2 bc 5c 1f 06 bd
       0.0211709 0.043927215 -0.025739435 -0.03274475
0003e0 1c 3a 45 bd 64 99 bd bc f0 47 58 bc 04 33 17 3d
       -0.04815112 -0.023144431 -0.013200745 0.036913887
0003f0 22 ef b6 3b 99 3f c5 3b f4 db cc 3b 0f 96 ee bc
       0.005582706 0.0060195443 0.0062518064 -0.029124288

fc1.bias f4 [50]
000000 f2 7d cd bb e4 9f 0f bc 73 6a 5a bc 74 60 81 bd
       -0.0062711174 -0.008766148 -0.0133310435 -0.06317225
000010 e8 fb d4 3b 94 d2 1a 3b 54 37 2f 3d c8 4f 03 3d
       0.006499756 0.002362405 0.042777374 0.032058507
000020 fa 12 d8 bc 94 41 9e 3c 21 0d 48 bd a4 7e 95 bb
       -0.026376236 0.01931838 -0.048840646 -0.004562216
000030 48 a3 8f 3b e2 47 39 3c c0 bd 1d 3d 84 b5 8d bc
       0.0043834783 0.011308642 0.038511038 -0.017298467
000040 58 74 d7 bc b2 ac 39 3d 50 22 06 3d ef 22 91 3b
       -0.026300594 0.04533071 0.032747567 0.0044292132
000050 55 4c cf bc 92 08 17 39 95 b7 a7 bc a8 2e a0 3d
       -0.025304953 0.00014403675 -0.02047328 0.07821399
000060 d0 b5 7e 3d f4 26 2a 3c 69 1c 27 3d b5 3e 1c bd
       0.06218511 0.010385264 0.04079858 -0.03814574
000070 a3 35 72 bd da 6f 60 3d 53 a5 0b bd e5 a9 a4 bb
       -0.059133183 0.05479417 -0.034093212 -0.005025136
000080 d7 5b 4a b9 f6 82 00 bd c0 a7 3f bd 86 ad 63 3d
       -0.00019298434 -0.031374894 -0.04679084 0.055585407
000090 8e 91 2b bd 9e 6d 54 bd 94 ea 31 3d 2e a6 37 bb
       -0.04188686 -0.05186235 0.0434366 -0.0028022635
0000a0 6d 9a 4e bd 02 b0 62 bd 80 e3 45 3c a2 c3 da 3c
       -0.05044024 -0.055343635 0.012078166 0.026704613
0000b0 62 13 1c 3d 62 eb af 3c 84 a2 1c bc 52 99 11 3c
       0.038104422 0.021474544 -0.009560231 0.008886652
0000c0 e5 e0 3d bc 32 5e 85 3d
       -0.011589264 0.06512107

fc2.weight f4 [10, 50]
000000 19 6a fb bd 22 75 49 bb 62 5a 0c be 6b 13 bd 3d
       -0.12276096 -0.0030739983 -0.13706353 0.09232219
000010 27 6f 03 bd cc 76 95 bd 92 3e b4 bd ec 0c 78 bd
       -0.032088425 -0.07298049 -0.08800997 -0.0605592
000020 15 19 eb bd 92 56 fd bd 68 2f 57 3e 0e 3e 9b bd
       -0.114793934 -0.123700276 0.21014178 -0.07580195
000030 27 3c 7a 3e 12 2e 0f be 60 33 03 be a6 d2 e1 bd
       0.24437009 -0.13982418 -0.12812567 -0.11026506
000040 9e fd 83 3c d8 43 b5 bd 24 bb d8 bd e3 df 33 bc
       0.016112145 -0.08850831 -0.10582569 -0.010978672
000050 ae 5b 1e be 60 5b 00 3e f0 3b 8d 3d 7f cf 92 3d
       -0.1546466 0.12534857 0.06896198 0.07168483
000060 3e 44 27 be 94 a2 ec bd d0 a7 e6 bd 6f 00 ee bd
       -0.16334626 -0.11554447 -0.112624764 -0.116211765
000070 a6 6e da 3d 28 f7 87 be dc 16 67 be 3c 91 ad 3d
       0.10665636 -0.26555753 -0.22567314 0.08474967
000080 b0 85 a2 3e ee 9d 98 bd d2 05 a0 bd 98 a0 6f 3b
       0.3174262 -0.07451998 -0.0781361 0.0036564227
000090 8f 82 6c 3e 6e a0 6e 3d 6a 30 f5 3d ca 51 cb 3c
       0.23096679 0.058258466 0.11972125 0.024819274
0000a0 f4 64 b7 bd 0f 5e e8 3c 7a 2e 07 be d1 98 16 be
       -0.08954802 0.028365163 -0.13201323 -0.14706732
0000b0 b9 25 8a 3e b8 97 7e bd 92 f1 8e be 98 e4 33 be
       0.26981905 -0.06215641 -0.2791868 -0.1756767
0000c0 b1 6b 9d 3e 32 38 48 3e da 95 d2 3c 7e 42 9e 3e
       0.30746225 0.19552687 0.02570622 0.30910105
0000d0 90 93 5a bd 84 64 b4 bd 1c 4f 40 3d 07 5e e9 bd
       -0.053363383 -0.08808234 0.046950445 -0.113948874
0000e0 54 4e 28 be 6d 64 32 bd b6 97 b8 bd d8 7d 19 3e
       -0.1643613 -0.043552805 -0.090133116 0.14989412
0000f0 3c 10 31 be 18 a9 1a be 7c a4 63 be 20 2d 43 bd
       -0.17291349 -0.15103567 -0.22230715 -0.047650456
000100 1e cc 06 3e 43 86 64 3e ba 8e 15 be 40 1d cc 3c
       0.13163802 0.22316842 -0.14605227 0.024916291
000110 54 5d 8e 3e c1 4e 59 bd e8 e7 c3 3d 71 bd 04 3e
       0.2780558 -0.05305362 0.09565717 0.12962891
000120 f2 b6 53 be 6a 52 00 3e f5 07 a1 bd 22 0e 26 be
       -0.20675257 0.12531438 -0.07862846 -0.16216329
000130 a4 0f ef 3d 72 2c bd bc a6 b6 0d be a0 51 1b 3e
       0.11672905 -0.023092482 -0.13839206 0.15167856
000140 ce 53 4d 3b a6 c8 eb 3b 15 50 68 3c 0a 94 b7 bd
       0.003133047 0.00719555 0.014179249 -0.08963783
000150 81 d2 d7 bd 38 8c 0f bb b3 a5 9a bc b2 02 24 bd
       -0.10538197 -0.0021903645 -0.01887784 -0.040041633
000160 ea 8f 6c be 1e 89 49 3c f9 1a d0 bd c9 15 23 bd
       -0.23101774 0.012300758 -0.101613946 -0.039815698
000170 f6 a6 3b be ff d2 fd bd 8c d0 53 be 72 47 79 bd
       -0.1832541 -0.1239376 -0.20685023 -0.06085915
000180 92 f9 cc bd c0 dd c7 3d 53 cd 44 3b 01 fe bc bd
       -0.10008539 0.09759092 0.003002961 -0.09228135
000190 a0 2d a5 3d fe 00 00 3d 34 b3 d4 bd 50 a1 d6 ba
       0.08065343 0.031250946 -0.10385743 -0.0016374979
0001a0 c0 34 8e 3e 46 16 c1 bd 42 04 81 bc f2 62 cf 3d
       0.2777462 -0.094280764 -0.0157491 0.10126294
0001b0 b0 69 27 bd c6 d9 25 3e 30 51 23 3e 3a 33 58 bd
       -0.040872276 0.16196355 0.1594894 -0.05278323
0001c0 5a 6e 51 3e 7e 84 c9 bd fa d4 d3 bd a5 74 31 3e
       0.20452252 -0.09839724 -0.103433564 0.17329653
0001d0 20 f6 b0 3d 58 8f 00 bd be 23 11 bd 40 23 4d 3d
       0.086406946 -0.031386703 -0.035434477 0.050082445
0001e0 f0 69 24 3c a9 9c 35 bd 4a d7 40 3d 83 ff 36 be
       0.010035023 -0.044338856 0.047080316 -0.17870907
0001f0 c7 50 09 be 20 ad dd bb f5 9f 86 bc dc 0f f2 bd
       -0.1340972 -0.006765023 -0.016433695 -0.11819431
000200 4c 96 84 ba a2 f0 0f 3e cb 47 ea 3d c6 45 1b bb
       -0.0010115593 0.14056638 0.11439475 -0.0023692711
000210 a5 ff 04 3e c6 de 09 be 36 a9 d5 bc 10 c1 65 3e
       0.12988146 -0.13463888 -0.026081663 0.22436929
000220 5a e9 b0 bd 25 0c c3 bc f1 a6 0e be 2a 82 26 3e
       -0.08638258 -0.023809502 -0.1393087 0.16260591
000230 ca a9 d7 bd 7e c3 81 bd 8e 81 b1 bd ee 41 15 3e
       -0.105304316 -0.06336115 -0.08667289 0.14575931
000240 60 63 1a 3d 42 c0 db bd 6e 68 ef bc 36 21 c0 bd
       0.037692428 -0.1073003 -0.0292246 -0.093813345
000250 d6 b2 3c bd 06 08 87 3d b0 69 e3 3d f8 a1 cb bd
       -0.04606899 0.06593327 0.11104143 -0.099430025
000260 73 f5 57 bd da 74 7a 3d f7 c9 f9 3d f8 d3 d6 3d
       -0.052724313 0.061146595 0.12196725 0.104896486
000270 78 25 b8 3d 14 c2 1d 3e 6b 55 85 3d 08 44 22 bc
       0.089915216 0.15406066 0.06510433 -0.009903915
000280 27 af 8c bc 3e b2 09 3e 5a 09 ee 3a 16 eb b4 bd
       -0.017173363 0.134469 0.0018160746 -0.088339016
000290 88 f4 30 be 36 64 8b bd 22 bc aa bc a8 6a 04 be
       -0.17280781 -0.06806223 -0.020841662 -0.12931311
0002a0 ba ff e6 bc 64 0b 3a 3e 32 68 96 3d 3a 53 83 3d
       -0.028198112 0.18168408 0.073440924 0.064123586
0002b0 50 77 3a be 1f 8a b0 bd da b6 ab bd 91 f6 5b be
       -0.18209577 -0.086200945 -0.083844855 -0.21480776
0002c0 b0 93 12 3e 7e b1 8f bd 35 28 2a bd 1a 3c 93 3e
       0.14314151 -0.07016276 -0.04154225 0.2875679
0002d0 cf 44 af bd 47 2a 30 3e 0c 7e 0b be db 2e 3c be
       -0.08558046 0.17203628 -0.13622302 -0.18377249
0002e0 63 9a 22 bd fd c8 2c 3d b4 5c 74 be f0 00 05 3e
       -0.039698016 0.042183865 -0.23863488 0.12988639
0002f0 7c 31 3f bd 04 dd 3c 3e 8c 8f 9c bd c2 90 0b bd
       -0.04667805 0.18443686 -0.07644567 -0.0340736
000300 26 a5 11 bd f6 45 dd bc 63 4a 3e 3d 84 3a f2 bd
       -0.03555789 -0.027010899 0.04645766 -0.11827567
000310 36 9d e6 3d 33 7d 41 3e c6 1b 1b be 18 0e f3 b9
       0.11260454 0.18895416 -0.15147313 -0.00046359072
000320 13 31 15 3d 20 60 f4 bd 9c 84 52 bd 63 09 9a bc
       0.036423754 -0.11932397 -0.051395997 -0.018803304
000330 fe 68 42 bb 2c dd 5a 3d a0 aa 38 be 22 37 86 bd
       -0.002966463 0.053433582 -0.18033838 -0.065534845
000340 d6 4a 31 3e e5 24 0e be f1 ec c1 3d f3 b9 84 3c
       0.17313704 -0.13881262 0.09469021 0.016201949
000350 1f ac ca bd 34 18 a1 bc 5a 60 44 3e df c1 d0 3c
       -0.09896111 -0.019664861 0.1917738 0.02548307
000360 55 ab db 3c 1e ec 9e bd b5 0f 7a bd b1 87 e8 3c
       0.026815096 -0.077598795 -0.061050136 0.028385015
000370 d4 54 b2 bd 6e ee 4a 3b ec 6e ea 3b 8c 53 ac bd
       -0.08707586 0.003096487 0.007154336 -0.08414373
000380 70 64 a0 bd 1a d5 38 3e 86 f0 46 3e 04 48 37 be
       -0.07831657 0.18050042 0.1942769 -0.17898566
000390 12 20 9f 3d 94 64 da bc 35 3f 1c 3e 60 c7 93 bd
       0.07769789 -0.026659288 0.15258487 -0.07215762
0003a0 66 ee cb bd b9 6b fc 3d 74 19 b1 3d 82 16 e7 bc
       -0.0995758 0.12325234 0.08647433 -0.028208975
0003b0 6e a3 c7 3d 47 b8 a9 3b 18 c5 30 be c1 15 3e be
       0.097479686 0.0051794383 -0.17262685 -0.18562986
0003c0 42 64 70 3d 72 88 9d bd 27 b8 6e 3c d6 19 b5 3e
       0.058689363 -0.076920405 0.0145702725 0.35371274
0003d0 c6 0d 61 be 1a 75 22 be 11 8c c9 3d ce 2e 80 3d
       -0.2197791 -0.15864983 0.09841169 0.06258927
0003e0 93 be 44 be be 1f 97 3c 7e b4 73 3d b0 9a c0 bd
       -0.19213323 0.018447753 0.059498303 -0.09404504
0003f0 46 d4 ec bd 51 e7 82 3d 2d ce 11 be b8 9e cc bd
       -0.115639254 0.06391776 -0.14238806 -0.09991211

fc2.bias f4 [10]
000000 44 8d 89 bd 70 62 6e 3e 5c 65 c4 bd ec 9f 37 bd
       -0.067163974 0.23279738 -0.09589645 -0.044830248
000010 24 9a 88 bd c2 78 72 bd 80 a0 91 bd 51 9b d2 bd
       -0.06670025 -0.059197195 -0.07110691 -0.102835305
000020 e2 3a f5 3d 5c 29 33 bd
       0.11974122 -0.043740615
