MNIST/Models/Client_2/Global models/Server_8_5_2021_10_45_37.pth (torch, 90095 bytes, 8 tensors)

conv1.weight f4 [10, 1, 5, 5]
-0.13697276 0.069814116 0.0854936 -0.024218613 -0.09017273 0.13752419 -0.066677436 -0.05418625
0.031847358 0.012777962 0.06541565 -0.105559014 -0.08131288 0.04517527 -0.07787174 -0.09724746
0.16772628 0.014078839 -0.0024167323 0.11950397 -0.1225197 -0.16726562 0.10607258 -0.10258949
-0.15047404 -0.23165776 -0.16014622 0.036365096 -0.18650445 0.10851723 -0.046310447 -0.003487999
-0.059312955 -0.04895616 0.046438992 -0.21413073 0.0343102 0.07577725 -0.01308905 0.12353095
-0.027828082 0.08920279 -0.13930464 -0.007094179 0.22763106 0.16201364 0.23034152 0.23863651
0.23246157 0.2025831 -0.05593527 0.14878955 0.17443489 0.29022032 0.2517952 0.0041355276
0.08612655 -0.080093265 -0.11638105 0.041254416 0.05273149 0.12414465 -0.0070543718 0.10446857
-0.18670166 -0.12160142 -0.14834462 -0.19410208 -0.15506448 -0.15550159 -0.21688491 -0.17674136
-0.06823529 -0.06825067 0.1152994 0.01327214 0.09963076 0.04128839 0.1398724 0.18475732
-0.1984449 -0.15621322 -0.0041430728 0.20234036 -0.13323708 -0.06979138 0.16571678 0.13052395
0.10412665 -0.019658864 0.05084982 -0.0030405093 0.2087633 -0.14700913 -0.068785615 0.014191924
0.07403228 0.008902549 0.112398416 -0.22401983 -0.028445259 -0.19213633 0.058870897 0.19032387
0.15311205 -0.14187089 -0.2192317 -0.10841748 -0.059456382 0.1069801 -0.243285 -0.2052037
-0.06963094 0.10725875 0.20117396 0.02964503 0.07834633 -0.07343024 -0.08254282 0.15308388
-0.19190598 -0.3005402 0.06432888 0.1812684 0.24260855 -0.061038792 -0.1054794 0.15144897
-0.08158715 0.23234396 -0.034705505 0.25514424 0.19768205 0.2632786 -0.039541267 0.12738727
-0.13313963 0.18166448 0.060563117 0.05456739 -0.026620157 -0.15291111 -0.17814264 -0.049385995
0.18848693 -0.081478 -0.20738831 -0.16212954 -0.22753298 -0.07621566 0.025208656 -0.12033723
0.1387123 -0.0126200635 -0.18234462 -0.17767625 -0.19071385 -0.102679014 0.1826572 0.09211438
0.20353809 0.25331596 0.009070001 0.034041636 0.21082872 0.16717863 0.1303668 0.16038075
0.13059063 -0.10346765 -0.05972066 -0.15338916 -0.0030683274 0.10916119 -0.09250656 0.15526721
-0.110723004 -0.05765576 -0.07814686 -0.1568771 -0.09632228 0.108313784 -0.011226546 -0.21966803
-0.11580917 0.24622752 0.19214913 -0.08659457 -0.011397641 0.16629763 0.005146199 0.055554256
0.20238575 0.21781126 -0.12475622 0.1528149 0.1855067 0.20432526 -0.1593218 -0.11085497
0.062003195 0.15516225 0.06761427 0.082307495 0.089915246 -0.17632625 0.09368928 0.17829926
-0.037295364 -0.06948403 0.052935217 -0.21212517 -0.031885512 0.143715 0.06872104 -0.16239175
-0.12939937 -0.18577692 -0.10821937 0.07410614 -0.11591171 0.11120879 -0.10526537 -0.10943318
0.057542097 0.039141975 0.20062882 -0.066966325 0.17942607 0.11147958 -0.21713191 -0.19023383
0.12910435 0.101671346 0.23572996 -0.016812786 -0.18395902 -0.15659294 -0.03273718 -0.15425166
0.13419987 -0.10184151 -0.09082554 -0.109012455 -0.17350328 0.11628388 0.08817778 0.017906033
-0.112761214 -0.09504682
00000000: 9642 0cbe b4fa 8e3d 4517 af3d 1d66 c6bc
00000010: 7bac b8bd 24d3 0c3e 2e8e 88bd 67f2 5dbd
00000020: 6072 023d a85a 513c a4f8 853d 532f d8bd
00000030: 5e87 a6bd b409 393d 387b 9fbd ad29 c7bd
00000040: 70c0 2b3e eeaa 663c 0a62 1ebb 7fbe f43d
00000050: 9ceb fabd ae47 2bbe 953c d93d 701a d2bd
00000060: de15 1abe b137 6dbe 5ffd 23be 91f3 143d
00000070: 06fb 3ebe 483e de3d 06b0 3dbd ea96 64bb
00000080: 24f2 72bd 4186 48bd d036 3e3d 1645 5bbe
00000090: da88 0c3d 1a31 9b3d 7473 56bc cbfd fc3d
000000a0: b8f7 e3bc f4af b63d e0a5 0ebe 4976 e8bb
000000b0: 1e18 693e e7e6 253e a6de 6b3e 215d 743e
000000c0: 680a 6e3e f271 4f3e 621c 65bd 4a5c 183e
000000d0: 0f9f 323e c297 943e 4deb 803e 5283 873b
000000e0: 1e63 b03d f007 a4bd 3059 eebd 64fa 283d
000000f0: fafc 573d 8d3f fe3d 5c28 e7bb 9ef3 d53d
00000100: b82e 3fbe 2a0a f9bd a7e7 17be b2c2 46be
00000110: 39c9 1ebe cf3b 1fbe 1417 5ebe b0fb 34be
00000120: f2be 8bbd 02c7 8bbd 1822 ec3d 6473 593c
00000130: 360b cc3d 041e 293d b63a 0f3e 0631 3d3e
00000140: 2435 4bbe 5cf6 1fbe 9dc2 87bb 5032 4f3e
00000150: 4d6f 08be c8ee 8ebd a9b1 293e 12a8 053e
00000160: 5a40 d53d a00b a1bc e747 503d 4843 47bb
00000170: 0cc6 553e 9089 16be 79df 8cbd 3e85 683c
00000180: 3c9e 973d ffdb 113c 2431 e63d 7465 65be
00000190: 0806 e9bc 63bf 44be 9c22 713d 43e4 423e
000001a0: 68c9 1c3e 9a46 11be 467e 60be fc09 debd
000001b0: 8988 73bd 6218 db3d b41f 79be eb20 52be
000001c0: ab9a 8ebd 7aaa db3d 8c00 4e3e 22da f23c
000001d0: 0a74 a03d 9862 96bd 360c a9bd 05c2 1c3e
000001e0: 0083 44be 68e0 99be dcbe 833d 6c9e 393e
000001f0: 606e 783e d003 7abd 9505 d8bd 7015 1b3e
00000200: 2a17 a7bd 93eb 6d3e 5c27 0ebd 44a2 823e
00000210: 2a6d 4a3e 74cc 863e 06f6 21bd cf71 023e
00000220: c155 08be 4106 3a3e 0811 783d 0e82 5f3d
00000230: 8412 dabc bb94 1cbe 066b 36be f848 4abd
00000240: b802 413e f0dd a6bd 9a5d 54be 4905 26be
00000250: 68fe 68be f516 9cbd 6282 ce3c 5e73 f6bd
00000260: 990a 0e3e 62c4 4ebc 8cb8 3abe c3f0 35be
00000270: 7e4a 43be 6049 d2bd 7d0a 3b3e 77a6 bc3d
00000280: 4a6c 503e a1b2 813e 579a 143c 3e6f 0b3d
00000290: 7ce3 573e e030 2b3e e07e 053e da3a 243e
000002a0: 8db9 053e d9e6 d3bd a79d 74bd 0c12 1dbe
000002b0: fe15 49bb e78f df3d 1474 bdbd 5efe 1e3e
000002c0: bec2 e2bd 7228 6cbd 760b a0bd 64a4 20be
000002d0: 9e44 c5bd 9ed3 dd3d 8cef 37bc a8f0 60be
000002e0: 5c2d edbd 1123 7c3e bec2 443e 7e58 b1bd
000002f0: 2cbd 3abc ed49 2a3e 72a1 a83b dc8c 633d
00000300: 363e 4f3e ea09 5f3e 3080 ffbd 827b 1c3e
00000310: 78f5 3d3e a43a 513e 4125 23be ee07 e3bd
00000320: 10f7 7d3d dae2 1e3e 5a79 8a3d d590 a83d
00000330: 7c25 b83d de8e 34be 2ae0 bf3d 1594 363e
00000340: 06c3 18bd a54d 8ebd 99d2 583d 5737 59be
00000350: 629a 02bd 062a 133e 9ebd 8c3d 064a 26be
00000360: 4581 04be 4e3c 3ebe 1ea2 ddbd f6c4 973d
00000370: 1e63 edbd 6fc1 e33d 5f95 d7bd 811e e0bd
00000380: 43b1 6b3d 5653 203d a471 4d3e a425 89bd
00000390: 78bb 373e 684f e43d d457 5ebe a8cc 42be
000003a0: ee33 043e 1139 d03d 3263 713e f8ba 89bc
000003b0: c15f 3cbe e659 20be 6c17 06bd 26f4 1dbe
000003c0: b16b 093e 4892 d0bd be02 babd ec41 dfbd
000003d0: d8aa 31be 3e26 ee3d 8d96 b43d acaf 923c
000003e0: 5aef e6bd e8a7 c2bd

conv1.bias f4 [10]
-0.1157465 0.13976535 0.036513127 -0.19840686 -0.03007492 0.08145931 -0.08654969 -0.12526792
0.16256757 0.06579236
00000000: 800c edbd a61e 0f3e ca8e 153d 2b2b 4bbe
00000010: ae5f f6bc 24d4 a63d f740 b1bd 3c46 00be
00000020: 1d78 263e 25be 863d

conv2.weight f4 [20, 10, 5, 5]
-0.050146922 -0.003959892 0.03830201 -0.05994456 0.0645211 -0.015027993 -0.033133265 0.062133256
0.03704389 0.055229455 -0.058324777 -0.0389561 0.028164595 -0.025606625 0.06379117 0.04294322
-0.015209409 0.053123347 0.0026031514 0.044409428 0.056916334 0.0028507318 -0.06574761 -0.047364213
-0.062242586 -0.017579898 -0.06103534 0.0028304404 -0.06588703 -0.006917361 -0.09236558 0.005137806
-0.0033420473 0.032898985 -0.050066866 -0.0129965 -0.03296442 -0.062234644 0.02315798 -0.07423076
0.08038462 0.012481692 0.06316699 -0.05796679 -0.06592493 0.093143284 0.107868254 -0.034546893
0.055701256 0.059164613 -0.026210625 0.062788695 0.08558083 0.062118895 0.01699746 0.057938296
-0.016351998 -0.012497607 0.024747381 0.00231278 -0.020059463 -0.016698517 -0.021070458 0.04358744
0.057226397 -0.045939453 0.03096291 -0.06134625 -0.0007232412 -0.062433146 -0.022720367 -0.038433842
-0.05946566 -0.055855934 -0.029602796 -0.0016813776 -0.046296593 0.036548242 0.029306352 0.026827842
-0.04719413 0.03081889 0.024816073 -0.020572076 0.050394453 -0.06161475 -0.08422446 0.0076696547
0.021530733 -0.018884992 0.00022336002 0.06940101 0.026707694 0.002940223 -0.07246922 0.005191056
0.005617518 0.019558392 -0.008657128 -0.035451643 0.026243057 0.08689246 0.005828826 0.039601017
-0.049795453 -0.05504349 0.07708973 0.03428998 0.021108355 0.040535647 -0.02800568 0.028213229
-0.039516784 -0.013876686 -0.030229677 0.057970934 0.120408624 -0.049527206 0.018764634 -0.02661673
0.056325495 0.115744315 -0.08452977 -0.071299955 -0.05801256 0.01841078 0.050382107 0.031499386
0.035706393 0.01773899 0.025980862 -0.06822224 -0.034967784 -0.015520436 0.011154706 -0.02217025
-0.06813057 -0.052200623 -0.021889638 0.026048072 0.024953332 0.022032313 0.00011964678 -0.051993806
-0.0035680556 -0.07316454 0.044264868 -0.077261776 -0.03792987 -0.004483889 -0.07012959 -0.047941018
0.011773515 0.05942657 0.002774361 0.011354798 -0.019458376 -0.04570134 0.03000239 -0.05675365
-0.0581431 0.020649543 -0.009932971 -0.030716129 -0.02258298 -0.056798786 0.05850783 0.0010946606
0.00043868786 -0.050933152 0.066737466 -0.003406224 0.030554619 0.060343593 0.029825117 -0.074278906
-0.007443349 -0.021953683 -0.046636775 -0.03912733 -0.06121108 -0.008304836 -0.042109717 -0.018727168
-0.006238611 0.03294359 -0.07037063 -0.018844148 -0.047274366 -0.04066634 0.014251881 0.026744368
-0.00084569515 0.04181336 0.025970861 0.043999743 -0.006560281 0.02232541 0.054711856 0.02256537
0.01666179 0.055312 0.075219676 0.02168671 0.04171429 -0.046668325 0.0016758118 0.035656013
-0.04386662 -0.04525044 0.06726619 0.030900445 -0.06373583 0.027740125 0.042088784 0.04841648
-0.04886073 -0.0809634 -0.043751772 0.0030665295 0.0052823876 -0.07941002 0.012653628 0.0070075993
-0.07158147 -0.0469063 0.05807614 0.077678 0.018966632 -0.0032462836 0.050263096 -0.02058097
0.046291415 0.029937994 0.0423319 -0.032239925 -0.017233249 0.04903388 0.009420254 -0.054848
-0.060485244 -0.08815525 0.041976195 0.048750255 -0.002340661 -0.016401777 -0.035230197 0.019494895
0.043980382 -0.003164182 0.0144272465 -0.041089386 -0.0042371172 0.019754134 -0.013284568 -0.041711695
00000000: dc66 4dbd fbc1 81bb 92e2 1c3d 6d88 75bd
00000010: a323 843d f937 76bc bfb6 07bd 717f 7e3d
00000020: 56bb 173d 4838 623d f6e5 6ebd 6e90 1fbd
00000030: 70b9 e63c fcc4 d1bc f2a4 823d 3be5 2f3d
00000040: e330 79bc de97 593d a299 2a3b a9e6 353d
00000050: 1a21 693d 58d3 3a3b afa6 86bd fa00 42bd
00000060: 15f2 7ebd b803 90bc 3100 7abd e97e 393b
00000070: c7ef 86bd 08ab e2bb 2a2a bdbd 0a5b a83b
00000080: 4006 5bbb 16c1 063d ea12 4dbd 46ef 54bc
00000090: b305 07bd c1e9 7ebd ceb5 bd3c 4c06 98bd
000000a0: b1a0 a43d 0380 4c3c b25d 813d 966e 6dbd
000000b0: a603 87bd e8c1 be3d 08ea dc3d 0b81 0dbd
000000c0: 0027 643d 9856 723d aab7 d6bc 5c97 803d
000000d0: 0145 af3d 6270 7e3d 423e 8b3c b550 6d3d
000000e0: a0f4 85bc c3c2 4cbc 05bb ca3c 0292 173b
000000f0: be53 a4bc 54cb 88bc f49b acbc be88 323d
00000100: 3a66 6a3d 022b 3cbd eea5 fd3c 3546 7bbd
00000110: e597 3dba e6b9 7fbd 1020 babc ce6c 1dbd
00000120: 4492 73bd 31c9 64bd 9081 f2bc ac61 dcba
00000130: 7fa1 3dbd 9cb3 153d e013 f03c 10c6 db3c
00000140: a24e 41bd e677 fc3c 144b cb3c c586 a8bc
00000150: 6a6a 4e3d c05f 7cbd e07d acbd ba51 fb3b
00000160: 3861 b03c b3b4 9abc c035 6a39 1e22 8e3d
00000170: 18ca da3c c2b0 403b be6a 94bd bc19 aa3b
00000180: 2813 b83b ec38 a03c a0d6 0dbc be35 11bd
00000190: aefb d63c adf4 b13d bdff be3b ad34 223d
000001a0: 51f6 4bbd 4875 61bd 38e1 9d3d a673 0c3d
000001b0: 6eeb ac3c b508 263d 2b6c e5bc 6e1f e73c
000001c0: 5adc 21bd 0a5b 63bc 3aa4 f7bc ee72 6d3d
000001d0: cc98 f63d 0add 4abd 4ab8 993c 540b dabc
000001e0: 90b5 663d 5b0b ed3d f21d adbd b605 92bd
000001f0: 949e 6dbd 34d2 963c 785d 4e3d 8005 013d
00000200: de40 123d 5c51 913c d1d5 d43c 1ab8 8bbd
00000210: 613a 0fbd 6d49 7ebc 3ac2 363c 629e b5bc
00000220: 0a88 8bbd 52d0 55bd e651 b3bc c462 d53c
00000230: ee6a cc3c 1c7d b43c e0ea fa38 75f7 54bd
00000240: 0ad6 69bb 4ad7 95bd 144f 353d 6c3b 9ebd
00000250: 5a5c 1bbd 96ed 92bb 1aa0 8fbd cd5d 44bd
00000260: b3e5 403c 4669 733d 0ed2 353b 7a09 3a3c
00000270: 2c67 9fbc 5431 3bbd 92c7 f53c 8476 68bd
00000280: 7627 6ebd 3b29 a93c e6bd 22bc 64a0 fbbc
00000290: f1ff b8bc d8a5 68bd e8a5 6f3d b77a 8f3a
000002a0: b0ff e539 489f 50bd a7ad 883d f53a 5fbb
000002b0: ae4d fa3c d82a 773d ce53 f43c 8a1f 98bd
000002c0: 56e7 f3bb 36d8 b3bc 3406 3fbd fb43 20bd
000002d0: 78b8 7abd 0211 08bc 3d7b 2cbd b869 99bc
000002e0: 436d ccbb dcef 063d 7a1e 90bd 0b5f 9abc
000002f0: c4a2 41bd c091 26bd b980 693c 0117 db3c
00000300: a4b1 5dba 7c44 2b3d d8c0 d43c 1339 343d
00000310: a0f7 d6bb c7e3 b63c 8a19 603d 03db b83c
00000320: 4e7e 883c d68e 623d c60c 9a3d 54a8 b13c
00000330: 9adc 2a3d 4927 3fbd eaa6 db3a 0a0c 123d
00000340: 7cad 33bd 8658 39bd dbc2 893d ee22 fd3c
00000350: ee87 82bd 423f e33c 4a65 2c3d 5c50 463d
00000360: 3022 48bd 24d0 a5bd 0f35 33bd d4f7 483b
00000370: e117 ad3b b8a1 a2bd 2a51 4f3c 01a0 e53b
00000380: 4e99 92bd d220 40bd 3fe1 6d3d a515 9f3d
00000390: e95f 9b3c 9abf 54bb ade0 4d3d 6c99 a8bc
000003a0: 119c 3d3d 8640 f53c 3764 2d3d 030e 04bd
000003b0: be2c 8dbc c0d7 483d 6957 1a3c 4ca8 60bd
000003c0: 60bf 77bd bd8a b4bd 3bef 2b3d 59ae 473d
000003d0: c665 19bb 055d 86bc 8a4d 10bd c2b3 9f3c
000003e0: c624 343d 2a5e 4fbb 4260 6c3c 584d 28bd
000003f0: 84d7 8abb 6cd3 a13c 84a7 59bc e2d9 2abd

conv2.bias f4 [20]
-0.05466681 -0.057412107 -0.06708981 -0.042247772 0.008959942 0.0032100317 -0.022098765 -0.008296637
0.04322189 0.016721215 0.0037766201 0.018028596 -0.0027161648 0.015095808 0.033417284 -0.040529005
0.01721171 0.031883135 0.040078916 -0.04309055
00000000: 4eea 5fbd f528 6bbd 6266 89bd 000c 2dbd
00000010: b8cc 123c 655f 523b 7808 b5bc 9eee 07bc
00000020: 7009 313d eefa 883c 2c81 773b b5b0 933c
00000030: af01 32bb 6854 773c 90e0 083d be01 26bd
00000040: 92ff 8c3c e497 023d ca29 243d b77f 30bd

fc1.weight f4 [50, 320]
-0.007661346 0.0358757 0.015288994 -0.049519166 -0.008745732 -0.005004041 -0.04513535 0.00015518421
0.010098001 -0.010621955 -0.033649154 0.036740366 -0.031977635 -0.039176166 -0.030453647 0.0057930476
0.030971605 -0.01691132 -0.02901803 0.012601469 -0.041635722 0.020212367 0.042433474 -0.0045442525
-0.013577491 -0.05328872 -0.028710626 0.052021734 -0.0051496765 -0.0047585703 0.007819464 -0.046475925
0.007668413 -0.05461462 -0.032311667 0.041842937 -0.014888904 -0.035885766 0.008418515 0.025983244
0.022922426 -0.016044686 -0.033854805 -0.028552163 -0.04158498 0.035103206 -0.0014868036 -0.03566865
-0.04834558 -0.05920843 -0.036497064 -0.013454733 -0.0053667217 0.027239244 0.0012469455 -0.012830624
0.04333193 0.026730612 -0.0427128 0.056189492 -0.013998769 -0.0031906306 0.018927673 0.025041047
0.031877592 -0.03925044 -0.0362593 -0.0010371861 -0.018008191 -0.048162367 -0.03902719 0.001131204
-0.050972737 -0.0442471 0.04489754 0.04576774 0.033244036 -0.049551412 -0.03949649 -0.034694873
0.014299326 -0.03201232 -0.05506449 -0.008223023 -0.026844103 0.03949517 0.02518942 -0.017374806
0.046282165 0.02717487 -0.022395665 -0.049697425 -0.012488718 -0.0026786902 0.021153983 0.021642419
-0.0032833368 -0.024120077 -0.05181711 0.016104639 -0.04457449 -0.004674753 -0.0049343496 0.016981922
0.013945296 -0.013694205 -0.02414121 0.05158704 -0.03512912 -0.00052820187 -0.0003064102 -0.050934777
-0.027337337 -0.040382575 0.046232272 0.053567275 0.022184653 0.0063350713 -0.015730202 0.039530598
-0.012800643 0.008536506 -0.013023138 -0.046999305 -0.008624907 -0.036110777 0.0058671553 -0.0068215313
-0.05403169 -0.01700988 0.0036362745 -0.0073249484 0.039450064 -0.0039123846 0.007575172 0.01036422
-0.052957565 0.03136886 -0.040725745 0.037025817 0.03839665 0.032435503 0.038341217 0.009735359
0.045484707 0.019495826 0.021137774 -0.04061377 -0.0025779055 -0.048578456 -0.007404134 0.009610074
-0.051400933 0.0054751593 -0.03706679 -0.012939084 0.0021469037 -0.017379044 0.025589224 0.02705924
0.06145376 0.04892485 -0.03759738 0.017412197 0.001722398 -0.05158338 -0.043312944 -0.01618759
-0.013092395 0.047940716 0.033811368 0.028498417 0.014365972 -0.051990777 -0.050579824 0.0064077196
-0.010250675 -0.0067896806 0.026205014 -0.017332662 -0.030344028 -0.002313022 -0.047383957 0.03196502
-0.053327538 -0.0021856823 -0.032081954 -0.045159645 -0.016677456 -0.019679192 0.030403312 -0.025086738
0.04447984 -0.011123316 -0.056680292 -0.012748236 0.02831627 0.0065029664 0.0065748114 0.005318255
-0.044049636 -0.036746044 0.022248533 0.038456094 -0.03128035 0.0078121102 0.035392337 0.0016996796
0.030464927 0.0070969854 -0.024246383 -0.035872452 0.0052377097 -0.027869964 0.037341565 -0.025761046
-0.036321804 0.024228776 -0.0331335 0.0060563935 0.010042864 0.040264815 -0.03288485 -0.037754934
-0.05044464 -0.008010367 0.032409333 0.05582659 -0.02515034 -0.0063333167 0.024241667 -0.05570304
0.050824974 -0.043017548 0.030144587 -0.05610375 -0.002614454 0.049802743 -0.034877453 -0.054388776
0.04792887 0.0107037 0.0042632087 0.037791274 0.021463715 0.043938324 -0.026077133 -0.032253914
-0.048550956 -0.024570514 -0.014192209 0.037630863 0.0061668293 0.0063094767 0.0067704627 -0.028661925
00000000: 070c fbbb 66f2 123d b07e 7a3c 9cd4 4abd
00000010: 424a 0fbc f0f8 a3bb d8df 38bd f2b8 2239
00000020: 1672 253c b507 2ebc b2d3 09bd 117d 163d
00000030: fbfa 02bd 3077 20bd ed79 f9bc 9bd3 bd3b
00000040: 2ab8 fd3c 9c89 8abc 38b7 edbc 6476 4e3c
00000050: 388a 2abd 6894 a53c b9ce 2d3d f4e7 94bb
00000060: 2074 5ebc 4645 5abd 8c32 ebbc be14 553d
00000070: 9ebe a8bb c8ed 9bbb 361d 003c 8a5d 3ebd
00000080: 5047 fb3b 94b3 5fbd 3d59 04bd 8063 2b3d
00000090: 97f0 73bc f4fc 12bd d0ed 093c d0da d43c
000000a0: d0c7 bb3c 2570 83bc 56ab 0abd 3ae6 e9bc
000000b0: 0355 2abd 61c8 0f3d dae0 c2ba 4a19 12bd
000000c0: 0406 46bd 8a84 72bd f27d 15bd 3e71 5cbc
000000d0: 53db afbb d624 df3c 8c70 a33a 8a37 52bc
000000e0: d27c 313d 28fa da3c 9ef3 2ebd f426 663d
000000f0: 185b 65bc e619 51bb 350e 9b3c e222 cd3c
00000100: 1492 023d 12c5 20bd a284 14bd 31f2 87ba
00000110: ea85 93bc e745 45bd fada 1fbd e844 943a
00000120: cac8 50bd 723c 35bd 7ce6 373d f476 3b3d
00000130: e62a 083d 6cf6 4abd 12c7 21bd 361c 0ebd
00000140: b847 6a3c 5a1f 03bd 4d8b 61bd dcb9 06bc
00000150: 2ae8 dbbc b0c5 213d 0b5a ce3c 9c55 8ebc
00000160: 5e92 3d3d d59d de3c 1d77 b7bc 878f 4bbd
00000170: 7b9d 4cbc f78c 2fbb 1e4b ad3c 714b b13c
00000180: 402d 57bb 7897 c5bc 2e3e 54bd e0ed 833c
00000190: be93 36bd ac2e 99bb 53b0 a1bb ac1d 8b3c
000001a0: d07a 643c a95d 60bc c9c3 c5bc ef4c 533d
000001b0: 8de3 0fbd 0777 0aba aea5 a0b9 fca0 50bd
000001c0: 8df2 dfbc 3368 25bd 0d5e 3d3d 5c69 5b3d
000001d0: 97bc b53c 6e96 cf3b a0dc 80bc d6ea 213d
000001e0: cab9 51bc b4dc 0b3c 005f 55bc 5882 40bd
000001f0: 7b4f 0dbc e5e8 13bd 4441 c03b 2787 dfbb
00000200: 5550 5dbd 4e58 8bbc 904e 6e3b 1f06 f0bb
00000210: 6496 213d 7633 80bb 2639 f83b b0ce 293c
00000220: 08ea 58bd a27c 003d 0ad0 26bd 62a8 173d
00000230: ce45 1d3d 17db 043d ae0b 1d3d 0e81 1f3c
00000240: 2c4e 3a3d b6b5 9f3c 2029 ad3c a05a 26bd
00000250: 14f2 28bb 34fa 46bd 619e f2bb 9273 1d3c
00000260: c989 52bd f768 b33b 59d3 17bd 74fe 53bc
00000270: 11b3 0c3b 7f5e 8ebc 7ea0 d13c 57ab dd3c
00000280: f0b6 7b3d 6c65 483d b6ff 19bd 06a4 8e3c
00000290: 16c2 e13a 1849 53bd ea68 31bd d69b 84bc
000002a0: 7c81 56bc 7c5d 443d ca7d 0a3d 8375 e93c
000002b0: 415f 6b3c 48f4 54bd ca2c 4fbd d9f7 d13b
000002c0: 72f2 27bc f87b debb e6ab d63c 3afd 8dbc
000002d0: 0a94 f8bc 1296 17bb ae15 42bd c1ed 023d
000002e0: fa6d 5abd aa3d 0fbb 5e68 03bd 52f9 38bd
000002f0: 299f 88bc 4236 a1bc 5e10 f93c b482 cdbc
00000300: 7e30 363d 923e 36bc 9829 68bd fadd 50bc
00000310: 86f7 e73c d616 d53b 8471 d73b c244 ae3b
00000320: 646d 34bd 0583 16bd 8e42 b63c 2384 1d3d
00000330: d31f 00bd bbfc ff3b 8ef7 103d c9c7 de3a
00000340: 9591 f93c d48d e83b 5aa0 c6bc feee 12bd
00000350: 18a1 ab3b 8d4f e4bc 78f3 183d d408 d3bc
00000360: 2cc6 14bd 6d7b c63c feb6 07bd b674 c63b
00000370: d38a 243c b8ec 243d 44b2 06bd eba4 1abd
00000380: 0a9f 4ebd ea3d 03bc a6bf 043d 6caa 643d
00000390: 1608 cebc b687 cfbb 7696 c63c df28 64bd
000003a0: d92d 503d 2b33 30bd c8f1 f63c 0ccd 65bd
000003b0: 4257 2bbb f6fd 4b3d a9db 0ebd c4c6 5ebd
000003c0: 1051 443d 925e 2f3c 63b2 8b3b 06cb 1a3d
000003d0: acd4 af3c acf8 333d b69f d5bc ae1c 04bd
000003e0: 5edd 46bd 1a48 c9bc 7086 68bc d222 1a3d
000003f0: 1d13 ca3b babf ce3b c2da dd3b 6acc eabc

fc1.bias f4 [50]
-0.005684954 -0.01281645 -0.02266419 -0.06372373 0.008744386 0.00012087556 0.0334963 0.031852752
-0.029331993 0.01683183 -0.051933303 -0.0050053075 0.0025196804 0.02237759 0.038100008 -0.019392986
-0.02747156 0.031284004 0.029188735 0.0021350349 -0.027838811 -0.0012923732 -0.01902911 0.08274405
0.054781154 0.011680527 0.041147172 -0.040473834 -0.05899968 0.051509246 -0.033707343 -0.003925033
-0.002569261 -0.032081697 -0.0447904 0.05692582 -0.044043288 -0.049846523 0.047962345 -0.0021797456
-0.050166193 -0.055144183 0.006621916 0.030871583 0.032807503 0.019583398 -0.0054759774 0.009908635
-0.015719581 0.06702002
00000000: da48 babb 16fc 51bc 40aa b9bc 9681 82bd
00000010: 9d44 0f3c 927e fd38 6b33 093d 0878 023d
00000020: a649 f0bc e8e2 893c 04b8 54bd 9003 a4bb
00000030: 3921 253b 3551 b73c c10e 1c3d 0ade 9ebc
00000040: 090c e1bc a823 003d 371d ef3c f1eb 0b3b
00000050: 380e e4bc d964 a9ba f0e2 9bbc b675 a93d
00000060: 3462 603d ae5f 3f3c f089 283d e4c7 25bd
00000070: a6a9 71bd 5cfb 523d b610 0abd 909d 80bb
00000080: 0c61 28bb 1968 03bd 2376 37bd 0c2b 693d
00000090: bc66 34bd de2b 4cbd 2a74 443d 10da 0ebb
000000a0: 117b 4dbd dede 61bd a8fc d83b 67e6 fc3c
000000b0: 2961 063d 5d6d a03c d46f b3bb d457 223c
000000c0: 5ac6 80bc cb41 893d

fc2.weight f4 [10, 50]
-0.122779354 0.0044988 -0.1362521 0.06147977 -0.017714055 -0.0655866 -0.10604771 -0.05352442
-0.10015924 -0.10868199 0.22116444 -0.07498028 0.22513671 -0.15383835 -0.112731874 -0.093978666
-0.02545014 -0.1450121 -0.09539896 0.0042756633 -0.13884929 0.11899303 0.035445236 0.022375455
-0.17159513 -0.0991019 -0.088837035 -0.11411542 0.08076669 -0.2446445 -0.19912423 0.09128319
0.31190863 -0.073012814 -0.085789055 0.024631467 0.24096861 0.071431115 0.09560216 0.04248765
-0.09210703 0.02818736 -0.091937035 -0.1314216 0.17269967 -0.05923041 -0.26311737 -0.15227844
0.28960264 0.21233624 0.027385332 0.26731494 -0.060672704 -0.0837611 0.05416447 -0.10379329
-0.15605012 -0.03820122 -0.07225303 0.12259754 -0.15797251 -0.1489794 -0.21417916 -0.07385893
0.10972211 0.21405265 -0.142508 -0.036945052 0.240323 -0.037350573 0.090186924 0.10402298
-0.20170829 0.041193664 -0.06957148 -0.14895728 0.12139343 -0.013880517 -0.12173871 0.1472533
0.0031860247 0.029697837 0.019423835 -0.07914427 -0.10072647 0.009206516 -0.012385603 -0.017576324
-0.2156499 0.029251479 -0.10035795 -0.042873636 -0.16108423 -0.1089223 -0.21869257 -0.054308675
-0.082045086 0.11227013 0.008705869 -0.0788815 0.08298817 0.02073843 -0.09971622 -0.004313598
0.26619872 -0.081390664 -0.010774266 0.08213517 -0.025376163 0.1313053 0.109835245 -0.052909426
0.16387962 -0.10836679 -0.10292468 0.16038081 0.093000636 -0.031455163 -0.052569743 0.047971718
0.0078594955 -0.052075673 0.04251598 -0.19656102 -0.11638413 -0.0014621337 0.024293905 -0.106065035
-0.030640634 0.13213474 0.119871035 0.032545373 0.123464905 -0.12240613 -0.019826714 0.1990819
-0.085499436 0.008670644 -0.11006321 0.17280781 -0.10801449 -0.06285764 -0.039113857 0.1470742
-0.019317642 -0.104172364 -0.008131026 -0.057049114 -0.049460087 0.07223539 0.09918651 -0.09126213
-0.017815785 0.07147178 0.10861304 0.09551683 0.08605595 0.08528206 0.072096005 -0.020846775
-0.04726904 0.07730468 -0.027060445 -0.098598346 -0.15454796 -0.06996687 -0.025644511 -0.101506725
-0.024857488 0.17462815 0.04757853 0.03917989 -0.17204213 -0.084670596 -0.058857262 -0.1943267
0.1592063 -0.060185313 -0.021574255 0.29644153 -0.067183256 0.15268072 -0.13722993 -0.17688206
-0.030921143 0.028123619 -0.239861 0.14091429 -0.010410011 0.16510624 -0.07484193 -0.033587255
0.007622404 -0.025433678 0.045007646 -0.10684216 0.1228034 0.1946357 -0.14461103 0.005284707
0.03780906 -0.12100461 -0.018866943 0.00408677 -0.008519662 0.0134510035 -0.16330464 -0.1028658
0.19597003 -0.13334371 0.06201142 -0.01389491 -0.079448976 -0.028106026 0.13996907 0.03353177
0.018058024 -0.046150353 -0.056905843 0.036390863 -0.08428307 -0.011090618 0.012877733 -0.08744147
-0.041483648 0.1456705 0.19119343 -0.16508132 0.076690674 -0.04178699 0.14584562 -0.047772884
-0.096517265 0.096772105 0.094704315 -0.043999378 0.032617863 0.038851313 -0.11848488 -0.19782107
0.055850163 -0.07632995 0.064291805 0.3131713 -0.2048349 -0.13713744 0.13858397 0.080290735
-0.18335718 0.04305528 0.06374563 -0.09377446 -0.08446059 0.09300791 -0.12541725 -0.12181351
00000000: be73 fbbd ab6a 933b ac85 0bbe 36d2 7b3d
00000010: 111d 91bc 4452 86bd 8b2f d9bd 6c3c 5bbd
00000020: 4a20 cdbd aa94 debd ee78 623e 438f 99bd
00000030: 3d8a 663e cd87 1dbe f8df e6bd e377 c0bd
00000040: d07c d0bc 0d7e 14be 8860 c3bd dd1a 8c3b
00000050: 822e 0ebe 9eb2 f33d 062f 113d bb4c b73c
00000060: a2b6 2fbe f0f5 cabd 31f0 b5bd 58b5 e9bd
00000070: 0269 a53d 1684 7abe 39e7 4bbe aef2 ba3d
00000080: 7db2 9f3e be87 95bd 2cb2 afbd eec7 c93c
00000090: 7ac0 763e 7a4a 923d 11cb c33d 8807 2e3d
000000a0: 9ca2 bcbd 2ee9 e63c 7c49 bcbd 6293 06be
000000b0: 2fd8 303e 969b 72bd 52b7 86be e1ee 1bbe
000000c0: cc46 943e ac6e 593e 3457 e03c 81dd 883e
000000d0: f183 78bd f18a abbd 90db 5d3d 9491 d4bd
000000e0: 9acb 1fbe e278 1cbd 66f9 93bd 6b14 fb3d
000000f0: 8cc3 21be 0e8e 18be c851 5bbe 5a43 97bd
00000100: fcb5 e03d 9e30 5b3e 9eed 11be b253 17bd
00000110: 3c17 763e eafc 18bd ecb3 b83d 000a d53d
00000120: 9e8c 4ebe b0ba 283d 7e7b 8ebd 4288 18be
00000130: 1e9d f83d 1c6b 63bc 2552 f9bd 92c9 163e
00000140: a0cc 503b e148 f33c bc1e 9f3c 6416 a2bd
00000150: ae49 cebd edd6 163c fcec 4abc 39fc 8fbc
00000160: 54d3 5cbe cca0 ef3c 7888 cdbd 449c 2fbd
00000170: 44f3 24be a812 dfbd f2f0 5fbe c672 5ebd
00000180: 4107 a8bd e2ed e53d 10a3 0e3c a08c a1bd
00000190: b4f5 a93d a4e3 a93c 0438 ccbd 1559 8dbb
000001a0: 334b 883e 26b0 a6bd 8c86 30bc 7c36 a83d
000001b0: ace1 cfbc e674 063e 4df1 e03d 8eb7 58bd
000001c0: 0fd0 273e 68ef ddbd 2dca d2bd de3a 243e
000001d0: 1e77 be3d 21d7 00bd 5f53 57bd fe7d 443d
000001e0: 1dc5 003c 4d4d 55bd 3c25 2e3d 4b47 49be
000001f0: ce5a eebd 11a5 bfba 0304 c73c a038 d9bd
00000200: 1102 fbbc 544e 073e f27e f53d 4c4e 053d
00000210: 2bdb fc3d 11b0 fabd a26b a2bc 20dc 4b3e
00000220: 541a afbd 510f 0e3c d268 e1bd 88f4 303e
00000230: b336 ddbd 82bb 80bd da35 20bd 9e9a 163e
00000240: 0840 9ebc 5258 d5bd ff37 05bc 55ac 69bd
00000250: a996 4abd 26f0 933d 4c22 cb3d a4e7 babd
00000260: 69f2 91bc cc5f 923d 8370 de3d 549e c33d
00000270: 1a3e b03d 5ca8 ae3d 12a7 933d dbc6 aabc
00000280: 2e9d 41bd eb51 9e3d dead ddbc eeed c9bd
00000290: d241 1ebe ca4a 8fbd 7014 d2bc c2e2 cfbd
000002a0: eea1 cbbc b9d1 323e b4e1 423d 187b 203d
000002b0: d02b 30be c767 adbd 5014 71bd 94fd 46be
000002c0: fa06 233e e084 76bd 7ebc b0bc 2fc7 973e
000002d0: 6097 89bd 5658 1c3e 0186 0cbe 9220 35be
000002e0: 564e fdbc 8163 e63c 1f9e 75be d64b 103e
000002f0: c08e 2abc 9c11 293e ba46 99bd ca92 09bd
00000300: 5cc5 f93b 4a5a d0bc f059 383d 10d0 dabd
00000310: 5980 fb3d 954e 473e ea14 14be 562b ad3b
00000320: acdd 1a3d 44d1 f7bd d98e 9abc 50ea 853b
00000330: 0d96 0bbc 9961 5c3c 5539 27be 4eab d2bd
00000340: 5eac 483e 418b 08be b0ff 7d3d 7aa7 63bc
00000350: 25b6 a2bd 9c3e e6bc 0d54 0f3e 9c58 093d
00000360: 6cee 933c 2708 3dbd 1a16 69bd 960e 153d
00000370: 9a9c acbd 6cb5 35bc 21fd 523c 8314 b3bd
00000380: c2ea 29bd a62a 153e 36c8 433e 140b 29be
00000390: 0010 9d3d d628 2bbd 8e58 153e 80ad 43bd
000003a0: d8aa c5bd 7430 c63d 56f4 c13d b138 34bd
000003b0: 4f9a 053d 8e22 1f3d 33a8 f2bd 9b91 4abe
000003c0: 24c3 643d e052 9cbd 6cab 833d fd57 a03e
000003d0: 3dc0 51be c26d 0cbe f5e8 0d3e 786f a43d
000003e0: fcc1 3bbe bc5a 303d 128d 823d d30c c0bd
000003f0: acf9 acbd ee7a be3d 616d 00be 5d79 f9bd

fc2.bias f4 [10]
-0.06624001 0.2223433 -0.08428579 -0.053077415 -0.05111039 -0.044335183 -0.052215107 -0.07902302
0.053344443 -0.04433331
00000000: d8a8 87bd f6ad 633e 079e acbd b467 59bd
00000010: 2159 51bd cf98 35bd 82df 55bd d2d6 a1bd
00000020: b47f 5a3d d896 35bd
