MNIST/Models/Client_2/Global models/Server_8_5_2021_10_42_4.pth (torch, 90095 bytes, 8 tensors)

conv1.weight f4 [10, 1, 5, 5]
-0.1416099 0.067528166 0.08528243 -0.02436823 -0.09138596 0.13156468 -0.06980263 -0.052950293
0.035089463 0.015115175 0.060779102 -0.10615574 -0.08172329 0.045438144 -0.0763344 -0.10040898
0.16655195 0.010766281 -0.00588846 0.11965239 -0.12540603 -0.17061892 0.100166254 -0.10622896
-0.15091768 -0.2205476 -0.1363284 0.063498735 -0.17276123 0.10943694 -0.03717415 0.014565649
-0.042849325 -0.048909128 0.025508808 -0.20780572 0.038699977 0.07739356 -0.027325377 0.094161436
-0.03464307 0.07846916 -0.15359387 -0.037171446 0.19651727 0.14297122 0.21263482 0.21792479
0.20253322 0.17860734 -0.08588733 0.11887588 0.13058218 0.23614565 0.19627777 -0.0071664485
0.07660191 -0.10471585 -0.14595816 0.010970678 0.064485334 0.13126096 -0.01244538 0.10563043
-0.18381391 -0.09701887 -0.13536972 -0.18731299 -0.13988686 -0.13486882 -0.19944966 -0.16961601
-0.06288628 -0.055895224 0.14633507 0.028264556 0.100902505 0.023973875 0.119929954 0.18300256
-0.1902979 -0.1675175 -0.033763126 0.17844805 -0.1256618 -0.057515457 0.15693042 0.10209359
0.08441168 -0.005915504 0.064775236 -0.011097798 0.18804468 -0.15768343 -0.0545277 0.019232865
0.06042218 -0.0068195616 0.1174297 -0.20674635 -0.00030010345 -0.17159674 0.086627096 0.19265348
0.11417903 -0.12176372 -0.19999634 -0.0795968 -0.072493844 0.048761927 -0.22016326 -0.17874321
-0.039405487 0.08065176 0.14269798 0.063054964 0.1195511 -0.045127533 -0.11383477 0.10191618
-0.1635916 -0.2646615 0.0795069 0.15304708 0.20495176 -0.09309892 -0.12910253 0.13762127
-0.09319267 0.22061107 -0.062089838 0.23187175 0.17166641 0.23323704 -0.07896925 0.12991253
-0.13297707 0.1721505 0.035161808 0.021400431 0.010714485 -0.12185521 -0.15523109 -0.046911582
0.18737599 -0.027420666 -0.16784048 -0.12650491 -0.19388364 -0.042338267 0.022729896 -0.10913393
0.15365711 -0.0016071494 -0.17064628 -0.18822768 -0.1932249 -0.10742982 0.17422533 0.0910439
0.18129697 0.22990274 -0.021893427 0.0050826543 0.19511619 0.15521657 0.10659035 0.12736401
0.10256277 -0.12126528 -0.035229973 -0.14730766 -0.009596935 0.097968414 -0.10156524 0.13275754
-0.13122241 -0.062040076 -0.06702897 -0.141626 -0.12764521 0.0837774 -0.010953184 -0.20399547
-0.10434276 0.21174383 0.16087905 -0.09695792 -0.011946369 0.15606377 -0.028628001 0.015060993
0.17716369 0.2034645 -0.14418273 0.12823889 0.1489644 0.18076065 -0.17101654 -0.12582931
0.03659305 0.12585706 0.034544524 0.046995714 0.057210106 -0.17914611 0.08509107 0.160328
-0.0627493 -0.0945701 0.06562299 -0.20291483 -0.02942624 0.13640848 0.05683976 -0.15454113
-0.11743623 -0.17490304 -0.103062615 0.07710612 -0.10817362 0.12731172 -0.090493836 -0.09750685
0.06959157 0.04120537 0.19470906 -0.07553337 0.17753604 0.10784191 -0.21045718 -0.1853993
0.13671868 0.110150665 0.23399408 -0.0065450617 -0.1703307 -0.1395024 -0.018878642 -0.15377212
0.14153469 -0.09388378 -0.08091861 -0.10014461 -0.17007583 0.11990233 0.093424365 0.02838053
-0.09988865 -0.084595814
00000000: 3002 11be 354c 8a3d 8ea8 ae3d e29f c7bc
00000010: 9028 bbbd e4b8 063e aef4 8ebd 68e2 58bd
00000020: f8b9 0f3d a4a5 773c 82f3 783d 2e68 d9bd
00000030: 8a5e a7bd 591d 3a3d 3655 9cbd 39a3 cdbd
00000040: 988c 2a3e 0e65 303c fcf3 c0bb 500c f53d
00000050: 706a 00be bab6 2ebe f723 cd3d 928e d9bd
00000060: 2a8a 1abe 3bd7 61be ac99 0bbe a00b 823d
00000070: 52e8 30be 7920 e03d ec43 18bd c3a4 6e3c
00000080: c682 2fbd f054 48bd d9f7 d03c 06cb 54be
00000090: de83 1e3d 8480 9e3d 78d9 dfbc b6d7 c03d
000000a0: e4e5 0dbd 70b4 a03d b647 1dbe 1641 18bd
000000b0: d33b 493e 0c67 123e f1bc 593e ad27 5f3e
000000c0: de64 4f3e d8e4 363e b2e5 afbd 3375 f33d
000000d0: 56b7 053e 2ad0 713e 0afd 483e 87d4 eabb
000000e0: 76e1 9c3d 4375 d6bd 0e76 15be 5cbe 333c
000000f0: e310 843d 4669 063e b5e7 4bbc c454 d83d
00000100: b739 3cbe d4b1 c6bd 5c9e 0abe face 3fbe
00000110: 803e 0fbe 0d1b 0abe 883c 4cbe d2af 2dbe
00000120: 86ca 80bd 64f2 64bd dcd8 153e 128b e73c
00000130: f9a5 ce3d dc64 c43c d69d f53d 0665 3b3e
00000140: 74dd 42be b589 2bbe 344b 0abd 16bb 363e
00000150: 7dad 00be 5495 6bbd 5eb2 203e 7216 d13d
00000160: 08e0 ac3d d8d6 c1bb e1a8 843d 8ad3 35bc
00000170: c98e 403e c477 21be 7058 5fbd 3e8e 9d3c
00000180: 3f7d 773d a176 dfbb fc7e f03d 51b5 53be
00000190: 3457 9db9 0eb7 2fbe 8c69 b13d f446 453e
000001a0: b2d6 e93d 425f f9bd d7cb 4cbe a603 a3bd
000001b0: a777 94bd 96ba 473d 7a72 61be 7608 37be
000001c0: a667 21bd c02c a53d 6b1f 123e f622 813d
000001d0: 35d7 f43d a6d7 38bd 3422 e9bd 6eb9 d03d
000001e0: 8e84 27be b681 87be 83d4 a23d 60b8 1c3e
000001f0: e0de 513e a6aa bebd 7433 04be 97ec 0c3e
00000200: ccdb bebd dee7 613e ea51 7ebd ca6f 6d3e
00000210: 52c9 2f3e b1d5 6e3e a1ba a1bd ca07 053e
00000220: 242b 08be 3848 303e d405 103d f54f af3c
00000230: cf8b 2f3c 398f f9bd e6f4 1ebe 5c26 40bd
00000240: 7edf 3f3e 4ea1 e0bc 60de 2bbe 818a 01be
00000250: 6f89 46be e46a 2dbd 0c34 ba3c 9c81 dfbd
00000260: 4a58 1d3e fca6 d2ba e6bd 2ebe c2be 40be
00000270: c0dc 45be 2a04 dcbd 2068 323e 3975 ba3d
00000280: eaa5 393e a06b 6b3e d859 b3bc 658c a63b
00000290: 8acc 473e 18f1 1e3e 0b4c da3d b66b 023e
000002a0: 6e0c d23d ee59 f8bd 4e4d 10bd d2d7 16be
000002b0: 763c 1dbc aaa3 c83d 7001 d0bd 98f1 073e
000002c0: 2b5f 06be bc1d 7ebd 7c46 89bd 6806 11be
000002d0: 6db5 02be 7c93 ab3d fc74 33bc 30e4 50be
000002e0: a8b1 d5bd 60d3 583e 7abd 243e e091 c6bd
000002f0: b4ba 43bc 2ecf 1f3e 4585 eabc 62c2 763c
00000300: 666a 353e ff58 503e a3a4 13be 0e51 033e
00000310: 208a 183e 5219 393e f61e 2fbe 66d9 00be
00000320: 98e2 153d ace0 003e 8f7e 0d3d 947e 403d
00000330: 2555 6a3d 1472 37be 3a44 ae3d 062d 243e
00000340: b482 80bd f8ad c1bd 5965 863d e8c8 4fbe
00000350: 4c0f f1bc aaae 0b3e cfd0 683d 0840 1ebe
00000360: 6882 f0bd c819 33be 7e12 d3bd d0e9 9d3d
00000370: 228a ddbd 015e 023e d554 b9bd acb1 c7bd
00000380: 0686 8e3d f6c6 283d d061 473e 3db1 9abd
00000390: 02cc 353e 38dc dc3d 1682 57be 50d9 3dbe
000003a0: fbff 0b3e ac96 e13d 259c 6f3e f577 d6bb
000003b0: 2c6b 2ebe b8d9 0ebe 62a7 9abc 7076 1dbe
000003c0: 78ee 103e 2446 c0bd a8b8 a5bd 9e18 cdbd
000003d0: 5c28 2ebe 5a8f f53d 4655 bf3d 497e e83c
000003e0: 6c92 ccbd 9240 adbd

conv1.bias f4 [10]
-0.11058089 0.14086168 0.050440904 -0.19376186 -0.011203451 0.11848596 -0.09072158 -0.13738397
0.16812968 0.10113615
00000000: 3c78 e2bd 0b3e 103e 1f9b 4e3d 8269 46be
00000010: ae8e 37bc c4a8 f23d 3ccc b9bd 62ae 0cbe
00000020: 302a 2c3e 7820 cf3d

conv2.weight f4 [20, 10, 5, 5]
-0.051321104 -0.005428503 0.036949135 -0.06071122 0.06361784 -0.01637758 -0.033735245 0.061840087
0.0371107 0.053866323 -0.05939525 -0.039055157 0.028288223 -0.025770616 0.06144224 0.04266266
-0.015024735 0.053540252 0.0018086651 0.042871207 0.05723537 0.003155163 -0.06512664 -0.047647975
-0.062285177 -0.00995109 -0.058605142 -0.0006306806 -0.07303658 -0.012607694 -0.08601856 -0.00039887513
-0.01327192 0.026572026 -0.046594918 -0.012443143 -0.04871049 -0.07258664 0.031168908 -0.048355483
0.0669336 -0.006596161 0.06491405 -0.03728176 -0.042563066 0.06988928 0.091809586 -0.03038169
0.05929555 0.052524593 -0.03264629 0.051744625 0.07626042 0.058154188 0.014132029 0.053123385
-0.020836 -0.011714763 0.027827734 0.0013085726 -0.024992283 -0.014056726 -0.0138088185 0.042959332
0.048719876 -0.049612403 0.036530435 -0.05624784 -0.0043063536 -0.06803148 -0.018069487 -0.03037026
-0.052435637 -0.04868888 -0.020536276 -0.0027266287 -0.04509797 0.034791835 0.024314903 0.01831308
-0.04420226 0.03501097 0.019327378 -0.03038345 0.04139011 -0.056280706 -0.08318552 -0.007815896
0.0109361205 -0.022853024 0.0047092354 0.05726946 0.0042390293 0.0023270715 -0.06732817 0.002607873
-0.015787445 0.008549599 -0.00034304982 -0.030667562 0.024533315 0.07545998 -0.008301476 0.036624886
-0.051327653 -0.054945715 0.061479557 0.020404812 0.021745525 0.046525277 -0.03939551 0.0018140194
-0.04666297 -0.0046299524 -0.017837912 0.025924414 0.08541797 -0.04700838 0.027701689 -0.021095688
0.017404735 0.08278815 -0.081849635 -0.069562644 -0.05715918 0.013651409 0.040470257 0.024833465
0.036400825 0.019217307 0.024530884 -0.068540215 -0.030415885 -0.011166125 0.009414101 -0.025287997
-0.06618135 -0.046791308 -0.025445431 0.017644035 0.024454564 0.02494809 0.003349106 -0.05334451
-0.00071555725 -0.06916298 0.042897485 -0.06950013 -0.020169105 0.014398528 -0.06954467 -0.048561856
0.008135784 0.055211917 -0.002679922 0.013395039 -0.019230671 -0.049243376 0.02534832 -0.06217119
-0.054821037 0.015787903 -0.01916898 -0.036273126 -0.02266984 -0.052481107 0.04846376 -0.008271834
0.0056066755 -0.03743708 0.06571956 -0.015145565 0.02966404 0.067633025 0.03458619 -0.074532256
-0.006603025 -0.01870476 -0.047518283 -0.043661855 -0.06036818 -0.0072867917 -0.04251272 -0.022795284
-0.008824848 0.039270416 -0.06979667 -0.030874664 -0.052928895 -0.035049357 0.025019363 0.024495825
-0.01928935 0.03671964 0.0345948 0.051940866 -0.010022866 0.0005261875 0.0401818 0.013357192
0.0128518045 0.04723633 0.06767949 0.01972978 0.04328374 -0.04992286 -0.0026814747 0.03472919
-0.040795937 -0.04252054 0.060846083 0.027722936 -0.05948454 0.031586334 0.0400496 0.041807633
-0.049474377 -0.075503044 -0.04315278 -0.00082065444 0.0044751014 -0.077220485 0.018787747 0.011969517
-0.06689951 -0.05353395 0.050491393 0.07516356 0.019833293 -0.0010313302 0.047290474 -0.023103118
0.04418521 0.029134983 0.04419539 -0.032415505 -0.01432416 0.045263935 0.0047334014 -0.057549514
-0.057329 -0.08546751 0.037453465 0.04334505 -0.005404264 -0.011236249 -0.031992353 0.026134022
0.04615597 -0.0035844527 0.013874572 -0.04120798 -0.0041242274 0.020061057 -0.012702743 -0.042462856
00000000: 1436 52bd 95e1 b1bb fa57 173d 54ac 78bd
00000010: 124a 823d 462a 86bc f82d 0abd 084c 7d3d
00000020: 6401 183d efa2 5c3d 6f48 73bd 4df8 1fbd
00000030: b4bc e73c e61c d3bc dcaa 7b3d 0bbf 2e3d
00000040: 4e2a 76bc 064d 5b3d bb10 ed3a b899 2f3d
00000050: a36f 6a3d dac6 4e3b 1e61 85bd 862a 43bd
00000060: be1e 7fbd e609 23bc f20b 70bd 4254 25ba
00000070: 3494 95bd 8090 4ebc 802a b0bd 1d20 d1b9
00000080: 7872 59bc 94ad d93c 50da 3ebd 53de 4bbc
00000090: a784 47bd 4ea8 94bd f055 ff3c 6610 46bd
000000a0: 7c14 893d 9c24 d8bb a8f1 843d c2b4 18bd
000000b0: 9c56 2ebd 1c22 8f3d aa06 bc3d 06e3 f8bc
000000c0: e4df 723d 0724 573d 1eb8 05bd 2cf2 533d
000000d0: 6c2e 9c3d 1633 6e3d 078a 673c e897 593d
000000e0: 42b0 aabc 47ef 3fbc fdf6 e33c 6984 ab3a
000000f0: 9ebc ccbc 2f4e 66bc 623e 62bc 20f6 2f3d
00000100: 7e8e 473d 6036 4bbd f0a0 153d 2364 66bd
00000110: 501c 8dbb 1754 8bbd 7606 94bc 0dcb f8bc
00000120: c0c6 56bd fe6d 47bd b13b a8bc 3db1 32bb
00000130: a6b8 38bd e281 0e3d 0c30 c73c 5005 963c
00000140: 6e0d 35bd aa67 0f3d 7354 9e3c b7e6 f8bc
00000150: ad88 293d 9986 66bd 2b5d aabd 3e0e 00bc
00000160: 6a2d 333c 4436 bbbc ee4f 9a3b 6293 6a3d
00000170: 8ee7 8a3b c881 183b 5ae3 89bd d9e8 2a3b
00000180: ac54 81bc 9e13 0c3c 5edb b3b9 8a3a fbbc
00000190: 17fa c83c c38a 9a3d ea02 08bc fa03 163d
000001a0: f23c 52bd c20e 61bd fdd1 7b3d fe27 a73c
000001b0: ac23 b23c 4a91 3e3d 305d 21bd 64c4 ed3a
000001c0: ac21 3fbd dbb6 97bb d020 92bc 705f d43c
000001d0: 9eef ae3d dc8b 40bd a7ee e23c ddd0 acbc
000001e0: 6094 8e3c d58c a93d c8a0 a7bd dc76 8ebd
000001f0: bf1f 6abd 29aa 5f3c 24c4 253d 8d6f cb3c
00000200: 0819 153d 9d6d 9d3c fef4 c83c d05e 8cbd
00000210: bc2a f9bc 1ff2 36bc 9a3d 1a3c c628 cfbc
00000220: 168a 87bd 3ea8 3fbd f072 d0bc 398a 903c
00000230: f054 c83c f05f cc3c ad7c 5b3b c67f 5abd
00000240: 3c94 3bba 52a5 8dbd 46b5 2f3d 1656 8ebd
00000250: ae39 a5bc cee7 6b3c 706d 8ebd cce8 46bd
00000260: f44b 053c e425 623d a1a1 2fbb de76 5b3c
00000270: a489 9dbc 6cb3 49bd 48a7 cf3c 38a7 7ebd
00000280: 068c 60bd a255 813c 4408 9dbc 2193 14bd
00000290: 1ab6 b9bc 6ef6 56bd f081 463d 9686 07bc
000002a0: 34b8 b73b a057 19bd fa97 863d 1b25 78bc
000002b0: 0002 f33c 2f83 8a3d 40aa 0d3d 5ea4 98bd
000002c0: 305e d8bb ba3a 99bc 88a2 42bd c6d6 32bd
000002d0: a044 77bd 0ac6 eebb d121 2ebd 2dbd babc
000002e0: 1896 10bc 04da 203d 8ef1 8ebd ddec fcbc
000002f0: f8cb 58bd ea8f 0fbd 68f5 cc3c 78ab c83c
00000300: b304 9ebc 5567 163d 47b3 0d3d f2bf 543d
00000310: f236 24bc d8ef 093a ac95 243d 20d8 5a3c
00000320: 6090 523c e27a 413d 8b9b 8a3d 59a0 a13c
00000330: 4a4a 313d ea7b 4cbd aebb 2fbb 3240 0e3d
00000340: a419 27bd 052a 2ebd be39 793d 361b e33c
00000350: 10a6 73bd ac60 013d 0d0b 243d 7b3e 2b3d
00000360: a5a5 4abd 57a1 9abd f8c0 30bd 3021 57ba
00000370: dfa3 923b c625 9ebd c3e8 993c cb1b 443c
00000380: 9c02 89bd 6a46 5bbd 10d0 4e3d 5aef 993d
00000390: 6e79 a23c b32d 87ba a8b3 413d c042 bdbc
000003a0: 8dfb 343d 7dac ee3c 3a06 353d 1fc6 04bd
000003b0: e2af 6abc ad66 393d a61a 9b3b 0ab9 6bbd
000003c0: d0d1 6abd 9709 afbd ce68 193d 948a 313d
000003d0: 4116 b1bb 3e18 38bc 6a0a 03bd 0417 d63c
000003e0: 0b0e 3d3d 23e9 6abb 2c52 633c b3c9 28bd
000003f0: 8724 87bb 1657 a43c 2a1f 50bc 88ed 2dbd

conv2.bias f4 [20]
-0.060296766 -0.059723854 -0.054593433 -0.032995883 0.00015969815 0.01637978 -0.025966493 -0.011389319
0.034769006 0.027638402 0.020834196 0.004993584 0.0033474716 0.042826347 0.051461954 -0.044068277
0.008636102 0.049802005 0.031924695 -0.022759404
00000000: bef9 76bd 00a1 74bd 5d9d 5fbd b126 07bd
00000010: a574 2739 e32e 863c afb7 d4bc 449a 3abc
00000020: f269 0e3d ee69 e23c 7aac aa3c 38a1 a33b
00000030: 4161 5b3b ae6a 2f3d c5c9 523d f080 34bd
00000040: 707e 0d3c 30fd 4b3d 78c3 023d ee71 babc

fc1.weight f4 [50, 320]
-0.0067161815 0.038933244 0.016692966 -0.04799454 -0.007354524 -0.0021239072 -0.043726336 0.001646868
0.011335938 -0.008646194 -0.032236166 0.03826394 -0.032381784 -0.039728917 -0.03013876 0.0065080617
0.03098584 -0.016891573 -0.029490901 0.012882069 -0.040440857 0.020704348 0.041877523 -0.0043624006
-0.011255166 -0.05204027 -0.029135957 0.051450618 -0.004409477 -0.003876143 0.0070636026 -0.04739023
0.0063462732 -0.05461842 -0.031971335 0.041467518 -0.015428351 -0.037295945 0.00841252 0.026477681
0.02096846 -0.017031144 -0.03343939 -0.028180849 -0.040947095 0.035548717 -0.0013842108 -0.035991203
-0.047942303 -0.05866228 -0.036396667 -0.012766741 -0.005450424 0.027413968 0.0019801257 -0.012530174
0.043307617 0.028161675 -0.041474722 0.056043036 -0.014785461 -0.0028033953 0.020704426 0.025896788
0.03432814 -0.037945375 -0.035718136 -0.0007972726 -0.015015306 -0.048112445 -0.03841345 0.0015860621
-0.04780061 -0.044219766 0.04592819 0.04653576 0.03841173 -0.049297664 -0.039318614 -0.034368142
0.014158644 -0.031649143 -0.056220084 -0.008954228 -0.026710652 0.04048366 0.025375195 -0.017337393
0.045852672 0.028025981 -0.021879204 -0.050496608 -0.013104726 -0.003005738 0.021632522 0.020768462
-0.0035420833 -0.024204247 -0.051035374 0.016535703 -0.04515075 -0.0058285524 -0.00575714 0.018055953
0.013976267 -0.014074966 -0.023562007 0.053007305 -0.034614652 0.0014120657 2.5221969e-05 -0.0515784
-0.026487876 -0.040585745 0.047011625 0.054419767 0.023731697 0.007052824 -0.014547425 0.040028792
-0.012048271 0.008047527 -0.012542743 -0.04618239 -0.008938646 -0.03650734 0.006482554 -0.006093091
-0.05375532 -0.009788599 0.009642087 -0.0030002184 0.040910676 0.0048011406 0.013846032 0.015752997
-0.05174432 0.042473346 -0.035432223 0.03995885 0.040205516 0.038867075 0.040663924 0.009973476
0.045621477 0.019681772 0.020093542 -0.04127489 -0.002269153 -0.04753711 -0.007925177 0.009241541
-0.05144461 0.005100052 -0.038230605 -0.01446747 0.0019683372 -0.017479956 0.02495443 0.02555226
0.052454684 0.04037151 -0.03839973 0.019915923 0.0022385519 -0.052534603 -0.045634594 -0.014194526
-0.020219777 0.03561496 0.028509924 0.033927914 0.016248312 -0.04970155 -0.049512677 0.0058105066
-0.010165218 -0.0043001804 0.028378064 -0.016465522 -0.02979357 0.0019033798 -0.045319803 0.03282713
-0.053494528 0.00077973114 -0.030428942 -0.044508882 -0.016711548 -0.01782621 0.031816848 -0.02460845
0.044263724 -0.012034126 -0.056811437 -0.012710579 0.027967274 0.0057898005 0.006820497 0.0055065965
-0.04401366 -0.038067497 0.021028737 0.038383022 -0.03152091 0.0069890697 0.034540903 0.0016230708
0.027647264 0.00381075 -0.024571251 -0.03526829 0.0047058063 -0.028406551 0.037610274 -0.02544288
-0.038988546 0.019520994 -0.03547652 0.0065313843 0.009064179 0.039443433 -0.03271222 -0.037089534
-0.050608072 -0.0078005283 0.032271378 0.055051833 -0.024941996 -0.0057488354 0.023113381 -0.05654552
0.050969154 -0.042892918 0.0299622 -0.05647748 -0.0030435307 0.04954069 -0.0355724 -0.055933416
0.047643464 0.011019001 0.007045524 0.039469786 0.022803437 0.044482466 -0.025839314 -0.030318629
-0.048880897 -0.025151486 -0.012471618 0.040460974 0.007665909 0.008295184 0.00863699 -0.026989914
00000000: 6a13 dcbb 7778 1f3d b0bf 883c ec95 44bd
00000010: 38fe f0bb 4031 0bbb 631a 33bd b8db d73a
00000020: 5fba 393c c4a8 0dbc 120a 04bd a6ba 1c3d
00000030: c3a2 04bd caba 22bd 90e5 f6bc 9441 d53b
00000040: 04d6 fd3c 3260 8abc e796 f1bc 500f 533c
00000050: 50a5 25bd 2a9c a93c c487 2b3d 78f2 8ebb
00000060: 9667 38bc 2e28 55bd 88ae eebc e2bd 523d
00000070: 607d 90bb e306 7ebb cb75 e73b 421c 42bd
00000080: 66f4 cf3b 90b7 5fbd 60f4 02bd d8d9 293d
00000090: 32c7 7cbc a2c3 18bd abd4 093c b9e7 d83c
000000a0: 0cc6 ab3c e684 8bbc bef7 08bd 86db e6bc
000000b0: 24b8 27bd 889b 113d 686e b5ba 836b 13bd
000000c0: 265f 44bd dc47 70bd ac14 15bd 982b 51bc
000000d0: 7899 b2bb 4293 e03c ffc4 013b 5c4b 4dbc
000000e0: 5463 313d 50b3 e63c 66e1 29bd 628d 653d
000000f0: b83e 72bc 2bb9 37bb 549c a93c 8025 d43c
00000100: aa9b 0c3d 9c6c 1bbd 2e4d 12bd 0f00 51ba
00000110: c202 76bc 8e11 45bd 6c57 1dbd 6ae3 cf3a
00000120: 93ca 43bd c91f 35bd 331f 3c3d 489c 3e3d
00000130: 9e55 1d3d 59ec 49bd 8e0c 21bd 9cc5 0cbd
00000140: a8f9 673c 88a2 01bd 0847 66bd c1b4 12bc
00000150: 4cd0 dabc 32d2 253d a4df cf3c 2607 8ebc
00000160: 03d0 3b3d be96 e53c 043c b3bc 88d5 4ebd
00000170: 34b5 56bc eafb 44bb b036 b13c 9f22 aa3c
00000180: 4c22 68bb fc47 c6bc 780a 51bd e275 873c
00000190: feef 38bd 71fd bebb 64a6 bcbb 14ea 933c
000001a0: b6fc 643c b09a 66bc 1c05 c1bc 301e 593d
000001b0: 18c8 0dbd 1015 b93a c493 d337 df43 53bd
000001c0: 1afd d8bc 3d3d 26bd 438f 403d 43e7 5e3d
000001d0: fa68 c23c 601b e73b 5358 6ebc 3bf5 233d
000001e0: 1c66 45bc c6d9 033c 1480 4dbc bf29 3dbd
000001f0: 6673 12bc b888 15bd 9b6b d43b 8da8 c7bb
00000200: 8a2e 5cbd 5c60 20bc d8f9 1d3c 509f 44bb
00000210: f491 273d e352 9d3b 78da 623c 6e0c 813c
00000220: daf1 53bd 88f8 2d3d 6121 11bd e4ab 233d
00000230: 8aae 243d 1533 1f3d 378f 263d ca67 233c
00000240: 96dd 3a3d ab3b a13c 369b a43c dc0f 29bd
00000250: 12b6 14bb 46b6 42bd 9ad8 01bc d569 173c
00000260: 95b7 52bd 561e a73b b297 1cbd f808 6dbc
00000270: 38ff 003b 2032 8fbc 3c6d cc3c f952 d13c
00000280: b9da 563d 995c 253d 0949 1dbd b826 a33c
00000290: abb4 123b 862e 57bd 57eb 3abd 2890 68bc
000002a0: f2a3 a5bc fee0 113d a58d e93c fff7 0a3d
000002b0: 2e1b 853c da93 4bbd cecd 4abd 1066 be3b
000002c0: 048c 26bc 87e8 8cbb 1d79 e83c b4e2 86bc
000002d0: a511 f4bc d47a f93a 42a1 39bd be75 063d
000002e0: 141d 5bbd df66 4c3a 1e46 f9bc f24e 36bd
000002f0: a8e6 88bc 4608 92bc 6252 023d a997 c9bc
00000300: e14d 353d c82a 45bc 1cb3 68bd 0840 50bc
00000310: a01b e53c 5eb8 bd3b 7a7e df3b ae70 b43b
00000320: ab47 34bd aaec 1bbd 7544 ac3c 8437 1d3d
00000330: 121c 01bd 9104 e53b c37a 0d3d 38bd d43a
00000340: 847c e23c c7bd 793b a649 c9bc 7c75 10bd
00000350: 2a33 9a3b dbb4 e8bc 3b0d 1a3d 966d d0bc
00000360: 74b2 1fbd 7eea 9f3c d44f 11bd 3905 d63b
00000370: ec81 143c 708f 213d 40fd 05bd 32eb 17bd
00000380: 694a 4fbd 939b ffbb fe2e 043d 087e 613d
00000390: 2853 ccbc ba60 bcbb 4658 bd3c 469c 67bd
000003a0: 08c5 503d 7cb0 2fbd 4a73 f53c ee54 67bd
000003b0: f975 47bb 2eeb 4a3d 5db4 11bd 701a 65bd
000003c0: cb25 433d 0a89 343c 24de e63b 12ab 213d
000003d0: 46ce ba3c 3f33 363d f8ac d3bc c65e f8bc
000003e0: 5637 48bd 7d0a cebc c255 4cbc 68ba 253d
000003f0: 4e32 fb3b 86e8 073c 2982 0d3c f419 ddbc

fc1.bias f4 [50]
-0.0038265814 -0.022089858 -0.028858643 -0.06365733 0.007566507 0.00015150828 0.025751645 0.026609654
-0.029238844 0.013324166 -0.04715714 -0.0021220846 -0.0011869813 0.019416545 0.03169966 -0.026393672
-0.028078586 0.021627871 0.017184656 0.00043743217 -0.031801414 -0.006659819 -0.018535005 0.07332459
0.055993613 0.011425674 0.03477191 -0.042548694 -0.060260367 0.047492772 -0.032351807 -0.004815013
0.0055427547 -0.033393495 -0.04118137 0.057576086 -0.038739182 -0.050346747 0.047775228 -0.0071532456
-0.048526857 -0.05479691 0.0019406347 0.03787584 0.0222658 0.019945523 -0.0042405007 0.002709579
-0.017612088 0.06497097
00000000: 62c7 7abb caf5 b4bc f668 ecbc c65e 82bd
00000010: 76f0 f73b 32de 1e39 1df5 d23c 7dfc d93c
00000020: 4d86 efbc 9a4d 5a3c d827 41bd ac12 0bbb
00000030: 7c94 9bba 720f 9f3c 81d7 013d 8b37 d8bc
00000040: 1005 e6bc ef2c b13c d6c6 8c3c 2757 e539
00000050: 3342 02bd 9c3a dabb b9d6 97bc 342b 963d
00000060: 8f59 653d c032 3b3c fe6c 0e3d 8a47 2ebd
00000070: 93d3 76bd c887 423d 5483 04bd 42c7 9dbb
00000080: ff9f b53b 9ec7 08bd ccad 28bd e7d4 6b3d
00000090: faac 1ebd 6438 4ebd f5af 433d c665 eabb
000000a0: 19c4 46bd ba72 60bd e55c fe3a b223 1b3d
000000b0: c466 b63c cb64 a33c e6f3 8abb 3193 313b
000000c0: 3a47 90bc 800f 853d

fc2.weight f4 [10, 50]
-0.12046005 0.036815844 -0.11132723 0.055273987 0.026825774 -0.06417245 -0.118187375 -0.042429827
-0.05505412 -0.0898426 0.16527814 -0.111390874 0.178828 -0.23903929 -0.08122059 -0.0406292
-0.017314171 -0.16245732 -0.06815907 0.026735269 -0.12682512 0.07104934 0.041874483 -0.08232847
-0.14105253 -0.06490273 -0.029219817 -0.10800835 0.07024665 -0.1891758 -0.1434766 0.10133768
0.22211209 -0.029267628 -0.08106564 0.07063774 0.1544341 0.09567548 0.084879324 0.08998061
-0.09209519 0.027916137 -0.08701619 -0.075459234 0.028839473 -0.05748763 -0.2187931 -0.09220193
0.27158004 0.21522292 0.03311246 0.17489073 -0.045122493 -0.077068605 0.08153024 -0.10037699
-0.13878277 -0.028281555 -0.04123955 0.08689362 -0.15087917 -0.14721958 -0.18699719 -0.09610696
0.06439034 0.16978207 -0.13745323 -0.04176245 0.16936466 0.0031852291 0.08242929 0.02679042
-0.18166566 -0.051835544 -0.04429511 -0.11679834 0.11367108 -0.008181393 -0.09437193 0.12357684
0.02994929 0.05015883 -0.029216979 -0.038570546 -0.08824336 0.03418047 -0.06778625 0.016854828
-0.17220049 0.053459838 -0.09798442 -0.044248555 -0.14721088 -0.054285776 -0.19441152 -0.039975356
-0.038190097 0.11052252 0.015229162 -0.048355058 0.092131354 -0.03481026 -0.091560274 -0.0032983245
0.2276742 -0.07715529 0.027872693 0.06570088 0.01918177 0.10480889 0.038627855 -0.042484716
0.085653886 -0.094358675 -0.106020145 0.063493125 0.113690466 0.006663782 -0.094999984 0.054998953
0.007950753 -0.0851993 0.0616715 -0.18702182 -0.06785545 -0.011568529 0.071351275 -0.09845414
-0.06599775 0.089092985 0.09454252 0.07608733 -0.02124075 -0.07416996 -0.018948989 0.13201436
-0.1299243 0.05493742 -0.05174099 0.13226949 -0.111744165 -0.06254349 0.001766345 0.09852643
-0.032475997 -0.1002426 0.08675142 0.021016223 -0.06960981 0.016117662 0.08463915 -0.08672798
0.018641092 0.08953169 0.03150583 0.08694811 0.04415603 0.046158392 0.12479477 -0.052046984
-0.08125104 0.06712679 -0.06638156 -0.0816666 -0.105825916 -0.10563472 -0.009741111 -0.05991668
-0.019686002 0.16558436 0.032542292 0.046395436 -0.124378875 -0.04881823 -0.0030184453 -0.13427293
0.20022678 -0.060735535 0.012077382 0.17131811 -0.057355523 0.14689346 -0.1672638 -0.09974527
4.1418243e-05 -0.046763234 -0.23549813 0.1034247 0.028704736 -0.03444732 -0.07134475 -0.03384223
0.06032003 -0.05886184 0.0979248 -0.09729575 0.16743913 0.1902801 -0.13890576 0.00061227137
0.039099984 -0.11040573 0.04103376 0.030633157 -0.016009923 -0.007513429 -0.1267023 -0.096311405
0.18076462 -0.12311213 0.04982564 -0.022688076 -0.024829477 0.00015271502 0.10123143 0.07514034
0.019684132 0.020345038 -0.038880475 0.0068808105 -0.07549592 -0.008162869 0.040204726 -0.058959015
0.050594725 0.09604682 0.15231964 -0.1502477 0.0832918 -0.058915928 0.1262159 0.009379288
-0.06654117 0.094469085 0.115963474 -0.060183533 0.008045711 0.08009189 -0.004965755 -0.19985309
0.059768885 -0.075644895 0.058997646 0.2160832 -0.124675095 -0.10391122 0.119982384 0.08975583
-0.16741082 0.07687276 0.06209885 -0.08603795 -0.030396895 0.11940648 -0.086804196 -0.12691225
00000000: c2b3 f6bd 36cc 163d 88ff e3bd fa66 623d
00000010: bac1 db3c d86c 83bd 390c f2bd e6ca 2dbd
00000020: 6e80 61bd 66ff b7bd ac3e 293e e620 e4bd
00000030: b01e 373e b7c6 74be fb56 a6bd ce6a 26bd
00000040: 73d6 8dbc 365b 26be fc96 8bbd ec03 db3c
00000050: 72de 01be 5182 913d 9484 2b3d d49b a8bd
00000060: 1370 10be b9eb 84bd 665e efbc 7b33 ddbd
00000070: 7add 8f3d 4db7 41be 88eb 12be 218a cf3d
00000080: 5a71 633e aac2 efbc be05 a6bd 85aa 903d
00000090: f923 1e3e 82f1 c33d 36d5 ad3d c147 b83d
000000a0: 679c bcbd 62b0 e43c 8b35 b2bd 5f8a 9abd
000000b0: c240 ec3c 2678 6bbd 4c0b 60be 5ed4 bcbd
000000c0: 8a0c 8b3e 6663 5c3e eea0 073d 8e16 333e
000000d0: 5dd2 38bd 25d6 9dbd 54f9 a63d 7492 cdbd
000000e0: 121d 0ebe b8ae e7bc cdea 28bd 48f5 b13d
000000f0: 1280 1abe bbc0 16be 317c 3fbe bad3 c4bd
00000100: 15df 833d 5adb 2d3e 8ac0 0cbe 1a0f 2bbd
00000110: ee6d 2d3e 47bf 503b b0d0 a83d 9577 db3c
00000120: 9006 3abe 8251 54bd ca6e 35bd f833 efbd
00000130: 62cc e83d 400b 06bc 1246 c1bd db15 fd3d
00000140: 3758 f53c 5873 4d3d 7258 efbc 26fc 1dbd
00000150: efb8 b4bd d200 0c3d 84d3 8abd 2313 8a3c
00000160: 5355 30be b4f8 5a3d 0eac c8bd f93d 35bd
00000170: 73be 16be c35a 5ebd d013 47be 33bd 23bd
00000180: 386d 1cbd a259 e23d bc83 793c f40f 46bd
00000190: 5daf bc3d 3495 0ebd f483 bbbd b428 58bb
000001a0: 6d23 693e 9803 9ebd 4655 e43c 2f8e 863d
000001b0: 1623 9d3c 0ba6 d63d 3e38 1e3d 7404 2ebd
000001c0: 4e6b af3d 1f3f c1bd 1721 d9bd af08 823d
000001d0: 8cd6 e83d db5b da3b 5a8f c2bd 9546 613d
000001e0: e043 023c f87c aebd 419b 7c3d a682 3fbe
000001f0: ccf7 8abd ed89 3dbc 9e20 923d 53a2 c9bd
00000200: d429 87bd 6276 b63d 829f c13d add3 9b3d
00000210: 1501 aebc 6ce6 97bd e93a 9bbc c62e 073e
00000220: e00a 05be 0f06 613d 5cee 53bd a771 073e
00000230: 20da e4bd cd16 80bd b484 e73a 3ac8 c93d
00000240: 8d05 05bd fe4b cdbd baaa b13d 372a ac3c
00000250: 978f 8ebd 3009 843c 4a57 ad3d 709e b1bd
00000260: 34b5 983c 645c b73d 420c 013d da11 b23d
00000270: f4dc 343d 9510 3d3d 6694 ff3d 382f 55bd
00000280: f266 a6bd c579 893d 0ef3 87bd d240 a7bd
00000290: 42bb d8bd 0457 d8bd 2e99 1fbc 316b 75bd
000002a0: 8a44 a1bc f28e 293e 114b 053d 2409 3e3d
000002b0: 5aba febd a0f5 47bd 1cd1 45bb d87e 09be
000002c0: 4008 4d3e d3c5 78bd 36e0 453c 046e 2f3e
000002d0: a0ed 6abd 3d6b 163e 3447 2bbe 4047 ccbd
000002e0: 80b8 2d38 ce8a 3fbd 6c26 71be 54d0 d33d
000002f0: 3226 eb3c a218 0dbd 321d 92bd 269e 0abd
00000300: 2312 773d 1d19 71bd cc8c c83d ff42 c7bd
00000310: 2a75 2b3e c9d8 423e 503d 0ebe d680 203a
00000320: 4e27 203d 661c e2bd 0413 283d 63f2 fa3c
00000330: 3e27 83bc 3633 f6bb 3fbe 01be ea3e c5bd
00000340: 5c1a 393e 3622 fcbd f815 4c3d 58dc b9bc
00000350: 3067 cbbc 2022 2039 6d52 cf3d 2ee3 993d
00000360: 9e40 a13c a3aa a63c 2241 1fbd 6c78 e13b
00000370: 9b9d 9abd 8ebd 05bc b6ad 243d 027f 71bd
00000380: 6a3c 4f3d 32b4 c43d aef9 1b3e 88da 19be
00000390: e494 aa3d d451 71bd be3e 013e 96ab 193c
000003a0: bd46 88bd 0279 c13d 427e ed3d 0283 76bd
000003b0: 28d2 033c 3807 a43d c6b7 a2bb 4aa6 4cbe
000003c0: 38d0 743d b6eb 9abd 84a7 713d ea44 5d3e
000003d0: a855 ffbd 68cf d4bd 53b9 f53d e8d1 b73d
000003e0: be6d 2bbe 776f 9d3d 5d5b 7e3d aa34 b0bd
000003f0: e902 f9bc 628b f43d 66c6 b1bd 49f5 01be

fc2.bias f4 [10]
-0.06644971 0.17096066 -0.062725246 -0.06255374 -0.015377844 -0.05232016 -0.01739544 -0.039872535
-0.026191473 -0.027006924
00000000: c916 88bd 5010 2f3e 1876 80bd 2d1c 80bd
00000010: 5af3 7bbc aa4d 56bd e280 8ebc 6251 23bd
00000020: 808f d6bc a03d ddbc
