MNIST/Models/Client_2/Global models/Server_8_5_2021_10_40_2.pth (torch, 90095 bytes, 8 tensors)

conv1.weight f4 [10, 1, 5, 5]
0	0xbe09f572	-0.13472536
1	0x3d9ba868	0.0760048
2	0x3dba0e18	0.090847194
3	0xbcb907ac	-0.022586666
4	0xbdba9e32	-0.091122046
5	0x3e12ff16	0.1435512
6	0xbd7ba9f6	-0.061441384
7	0xbd4427ec	-0.047889635
8	0x3d21c69a	0.03949604
9	0x3c9c5538	0.019083604
10	0x3d8dea2b	0.069294296
11	0xbdd2d840	-0.10295153
12	0xbda50dcc	-0.08059272
13	0x3d40c39c	0.047061548
14	0xbd97ee82	-0.07418539
15	0xbdcd19b6	-0.100146696
16	0x3e2a11d8	0.1660837
17	0x3c0ef4e5	0.00872538
18	0xbc013af4	-0.007887591
19	0x3df42ee6	0.11923008
20	0xbe05122d	-0.12995215
21	0xbe3413f3	-0.17585735
22	0x3dc19fe9	0.094543286
23	0xbde2d8f0	-0.11076534
24	0xbe1e091c	-0.15433162
25	0xbe4b1d7e	-0.19835469
26	0xbdde8237	-0.1086468
27	0x3db88eff	0.09011649
28	0xbe1ace68	-0.151178
29	0x3e0425a7	0.12904988
30	0xbca5e15a	-0.020249058
31	0x3d085cbd	0.033291567
32	0xbce7902e	-0.028266992
33	0xbd20e832	-0.03928394
34	0x3cef3075	0.02919791
35	0xbe4b96cb	-0.19881742
36	0x3d2e3f74	0.042540982
37	0x3d9dfab7	0.07713836
38	0xbd049f7f	-0.03237867
39	0x3db08ab7	0.08620208
40	0xbd34afa8	-0.04411283
41	0x3d7a014a	0.061036386
42	0xbe327498	-0.1742729
43	0xbd83a911	-0.06428731
44	0x3e2eb3f5	0.17060836
45	0x3deeb9aa	0.11656506
46	0x3e398a6e	0.18119213
47	0x3e3b2768	0.18276751
48	0x3e2856c2	0.16439345
49	0x3e12d710	0.14339852
50	0xbddb6aa1	-0.10713697
51	0x3dc87032	0.097870246
52	0x3dcbbc52	0.099480286
53	0x3e49fec7	0.19726096
54	0x3e23a6bf	0.15981577
55	0xbbc52aea	-0.0060170786
56	0x3da1c598	0.07899016
57	0xbde4f96b	-0.11180385
58	0xbe203fd2	-0.15649346
59	0x3b15a90b	0.0022836353
60	0x3da4a40f	0.08039104
61	0x3e10425e	0.14087817
62	0xbc54a5ee	-0.012979014
63	0x3ddc5b3c	0.10759589
64	0xbe3531c8	-0.17694771
65	0xbda4cfc6	-0.08047442
66	0xbe07e386	-0.13270387
67	0xbe423ee8	-0.1896931
68	0xbe0c8431	-0.13722302
69	0xbdfb789e	-0.12278865
70	0xbe4454c8	-0.19172966
71	0xbe2fa395	-0.17152245
72	0xbd84131b	-0.064489566
73	0xbd4b142a	-0.049579777
74	0x3e2bd1e4	0.16779286
75	0x3d41e85c	0.047340736
76	0x3ddfa597	0.10920256
77	0x3ca1e737	0.019763572
78	0x3dec90de	0.11551069
79	0x3e41484f	0.1887524
80	0xbe34c45c	-0.1765303
81	0xbe2b47a8	-0.16726553
82	0xbd38baa8	-0.045099884
83	0x3e2ee92e	0.17081138
84	0xbdf072de	-0.11740659
85	0xbd246090	-0.04013115
86	0x3e2357a7	0.15951405
87	0x3dc01a2e	0.093799934
88	0x3da79917	0.081834964
89	0x3c031c01	0.008002282
90	0x3da48cd4	0.08034673
91	0xbc3f9718	-0.011693738
92	0x3e39758c	0.18111247
93	0xbe1edf7a	-0.15514937
94	0xbd1c2f3a	-0.038130976
95	0x3cd34d35	0.025793651
96	0x3d553cd6	0.05205997
97	0xbc895150	-0.016762406
98	0x3df9bda2	0.12194373
99	0xbe45c661	-0.19313957
100	0x3c971304	0.018441685
101	0xbe1cfe91	-0.15331484
102	0x3ddc69b6	0.1076235
103	0x3e4afc6e	0.19822857
104	0x3dcb4e3a	0.0992703
105	0xbddcf37c	-0.107886285
106	0xbe3b4278	-0.18287075
107	0xbd6e6d73	-0.058209848
108	0xbd9b9c3a	-0.07598157
109	0x3ccc3b44	0.024930604
110	0xbe4f7e52	-0.20263031
111	0xbe1cebe6	-0.15324363
112	0xbc7bfa88	-0.0153795555
113	0x3d928440	0.07154131
114	0x3df32b2c	0.11873469
115	0x3dc01684	0.093792945
116	0x3e229899	0.15878524
117	0xbcae1718	-0.021251246
118	0xbe007c48	-0.1254741
119	0x3da794b3	0.08182659
120	0xbe080fda	-0.13287297
121	0xbe6a8900	-0.22903824
122	0x3dc19646	0.094524905
123	0x3e122bc8	0.14274514
124	0x3e4452ac	0.19172162
125	0xbdfce0bc	-0.12347552
126	0xbe1ca2a8	-0.15296423
127	0x3dfa5040	0.12222338
128	0xbde1d7ea	-0.110275105
129	0x3e4b22e8	0.19837534
130	0xbdb8d2e4	-0.09024599
131	0x3e55fe1c	0.20897716
132	0x3e16d231	0.14728619
133	0x3e4da9c2	0.20084289
134	0xbdf66f5a	-0.120329574
135	0x3dff40b2	0.124635115
136	0xbe0d56c0	-0.13802624
137	0x3e222b43	0.15836816
138	0x3bb96d81	0.005658806
139	0xbc58fd01	-0.013243915
140	0x3d0c79a0	0.03429568
141	0xbdd5ca32	-0.10438956
142	0xbe180fe3	-0.1484981
143	0xbd689200	-0.05677986
144	0x3e353bf6	0.17698655
145	0x3c079ec7	0.008277602
146	0xbe17efaf	-0.14837526
147	0xbdf1e420	-0.118110895
148	0xbe425398	-0.18977201
149	0xbd09006c	-0.033447668
150	0x3cb02966	0.021504115
151	0xbdd16d46	-0.102259204
152	0x3e2bc83c	0.16775602
153	0x3c37e04a	0.011222908
154	0xbe23b2d8	-0.15986192
155	0xbe4b4f12	-0.19854382
156	0xbe495420	-0.19660997
157	0xbde29730	-0.11063993
158	0x3e2af21a	0.16693917
159	0x3daa6b5c	0.083212584
160	0x3e234127	0.15942822
161	0x3e53d236	0.20685658
162	0xbd489d2e	-0.048978023
163	0xbcace95e	-0.021107372
164	0x3e2d75ea	0.16939512
165	0x3e12e21a	0.14344063
166	0x3dac3661	0.084088095
167	0x3dcba019	0.099426456
168	0x3d9fe944	0.07808164
169	0xbe14e8fc	-0.14542001
170	0xbc9a6d63	-0.018850988
171	0xbe1606c9	-0.14651026
172	0xbc7cbdf6	-0.01542615
173	0x3db65382	0.089026466
174	0xbde708b0	-0.11280954
175	0x3e01e407	0.12684642
176	0xbe0c9bf4	-0.13731366
177	0xbd647114	-0.055771902
178	0xbd4cb942	-0.049981363
179	0xbdfad832	-0.12248267
180	0xbe0fec3e	-0.14054963
181	0x3d9fab07	0.07796293
182	0xbacf47d5	-0.0015814254
183	0xbe3e5d96	-0.18590388
184	0xbdb38d2c	-0.08767161
185	0x3e49a21c	0.19690746
186	0x3e1bc3c6	0.152114
187	0xbdbcd78f	-0.09220802
188	0x39aba9bc	0.00032742124
189	0x3e2696e1	0.16268493
190	0xbd3986cd	-0.04529457
191	0x3aa22e10	0.0012373347
192	0x3e328b0e	0.17435858
193	0x3e532fd6	0.20623717
194	0xbe191f5c	-0.14953369
195	0x3deeb9e4	0.116565496
196	0x3e0b91d4	0.13629848
197	0x3e324085	0.17407425
198	0xbe347e80	-0.17626381
199	0xbe0b4cdc	-0.13603538
200	0x3cb52bcc	0.02211561
201	0x3dd6b791	0.10484231
202	0x3c117a10	0.0088792
203	0x3c9b64e3	0.018969005
204	0x3d01ef3e	0.0317223
205	0xbe328bd0	-0.17436147
206	0x3da735f0	0.08164585
207	0x3e17577a	0.14779463
208	0xbd9cf3b6	-0.07663672
209	0xbdd96c14	-0.106163174
210	0x3d9c0864	0.07618788
211	0xbe49d878	-0.19711483
212	0xbceada03	-0.02866841
213	0x3e08d473	0.13362293
214	0x3d595f5a	0.05306945
215	0xbe195ed2	-0.14977577
216	0xbde7b6ed	-0.11314187
217	0xbe2fd8e2	-0.17172578
218	0xbdcf5fa2	-0.101256624
219	0x3da1ab6a	0.07894023
220	0xbdcdbbac	-0.10045561
221	0x3e0bcfe0	0.13653517
222	0xbda90714	-0.08253303
223	0xbdbd2fa8	-0.09237605
224	0x3d94d0a6	0.07266359
225	0x3d1be068	0.038055807
226	0x3e3a4536	0.18190464
227	0xbdc1cea0	-0.09463239
228	0x3e1bcd14	0.1521495
229	0x3d990ac2	0.07472755
230	0xbe55eb9e	-0.20890662
231	0xbe3ff358	-0.18745172
232	0x3e0303f9	0.12794484
233	0x3dbca8a6	0.09211855
234	0x3e51a576	0.20473275
235	0xba834799	-0.0010015845
236	0xbe279288	-0.16364491
237	0xbe08779d	-0.13326879
238	0xbc9ec76a	-0.019382197
239	0xbe2824b1	-0.16420247
240	0x3e1662d6	0.1468614
241	0xbdb2bc50	-0.08727324
242	0xbd95889c	-0.07301447
243	0xbdc2e0e8	-0.09515554
244	0xbe2e58a0	-0.17025995
245	0x3dfc53af	0.12320649
246	0x3dc5cdca	0.09658392
247	0x3d0791da	0.03309808
248	0xbdc53a68	-0.09630281
249	0xbdac089a	-0.08400078

conv1.bias f4 [10]
0	0xbdc9dfa2	-0.09857108
1	0x3e10d2ec	0.1414296
2	0x3d8b5c1c	0.06804678
3	0xbe43e475	-0.19130118
4	0xbbafa0fe	-0.005359768
5	0x3e18db6d	0.14927454
6	0xbdbcc56e	-0.09217344
7	0xbe0ca42e	-0.13734505
8	0x3e276cf9	0.16350164
9	0x3ddf91b1	0.1091646

conv2.weight f4 [20, 10, 5, 5]
0	0xbd58d1e5	-0.052934546
1	0xbbf61d46	-0.007510814
2	0x3d0f1c0e	0.034938864
3	0xbd7edb08	-0.062220603
4	0x3d7d3072	0.06181378
5	0xbc9549d8	-0.018223688
6	0xbd0ed198	-0.034867853
7	0x3d798be0	0.06092441
8	0x3d151fb0	0.036407173
9	0x3d54ad14	0.051922873
10	0xbd77bae6	-0.060480975
11	0xbd215d06	-0.039395355
12	0x3ce67942	0.028133992
13	0xbcd3585e	-0.025798973
14	0x3d747f78	0.059691876
15	0x3d2f9ef9	0.042876218
16	0xbc702392	-0.014656918
17	0x3d5e5308	0.054278404
18	0x3b07276e	0.0020622867
19	0x3d2bd58b	0.041951697
20	0x3d692ea8	0.05692926
21	0x3b3d1428	0.0028851125
22	0xbd85aace	-0.06526719
23	0xbd464170	-0.04840225
24	0xbd813cd0	-0.06310427
25	0x3c149920	0.009069711
26	0xbd45ee90	-0.048323214
27	0x3bea692f	0.007153652
28	0xbd7ed921	-0.06221879
29	0x3b1a4a9e	0.002354301
30	0xbd8e45a6	-0.06946878
31	0x3bff58ff	0.0077925916
32	0xbb3e5f5d	-0.002904854
33	0x3d1c24e0	0.038121104
34	0xbcf8541a	-0.03031354
35	0xbc093f9a	-0.00837698
36	0xbd501227	-0.05079856
37	0xbd931834	-0.07182351
38	0x3d1cabe4	0.038249865
39	0xbd11d2f0	-0.035601556
40	0x3d2bce9e	0.041945092
41	0xbd09c84c	-0.033638284
42	0x3d3ae156	0.045625053
43	0xbd29ad82	-0.041425236
44	0xbd287122	-0.041123517
45	0x3d03cab8	0.03217575
46	0x3d6c1e2a	0.057645954
47	0xbd4dd20a	-0.050249137
48	0x3d45581b	0.048179727
49	0x3d21e173	0.039521646
50	0xbd1fe3d9	-0.03903565
51	0x3d1ef8ed	0.038811613
52	0x3d81dc12	0.06340803
53	0x3d4126da	0.047156192
54	0x3bb103de	0.0054020723
55	0x3d544c9a	0.051830865
56	0xbcc794aa	-0.02436288
57	0xbc887110	-0.016655475
58	0x3cae539c	0.021280102
59	0xbb81acdf	-0.0039573754
60	0xbcc7b2f0	-0.024377316
61	0xbc2948e4	-0.01033232
62	0xbc2ebbbe	-0.010664878
63	0x3d3ac8c0	0.045601606
64	0x3d50247b	0.05081604
65	0xbd3f87c4	-0.046760336
66	0x3d35cf78	0.04438731
67	0xbd41dac0	-0.047327757
68	0x3b24d328	0.0025150273
69	0xbd84d5d2	-0.064860955
70	0xbc32f668	-0.010923006
71	0xbcb49f18	-0.022048518
72	0xbd3e8996	-0.04651793
73	0xbd3ccebe	-0.046095602
74	0xbca9cf90	-0.020728856
75	0xb950b19c	-0.0001990259
76	0xbd37a90e	-0.044838957
77	0x3ce92839	0.028461562
78	0x3c8b78c2	0.017025355
79	0x3c72c45e	0.014817325
80	0xbd1082d4	-0.035281017
81	0x3d2e92db	0.04262052
82	0x3c8ea63a	0.017413247
83	0xbcfd2968	-0.030903533
84	0x3d2e3c1f	0.042537805
85	0xbd3bb9d0	-0.0458315
86	0xbd9bd519	-0.076090045
87	0xbc08cf2c	-0.008350175
88	0x3c6dd11f	0.01451519
89	0xbca87350	-0.020562798
90	0x3c5f73f4	0.013638485
91	0x3d60d05e	0.054886214
92	0xbaaca26d	-0.0013170965
93	0x3bc02870	0.0058641955
94	0xbd81dcde	-0.06340955
95	0x373b4240	1.1161494e-05
96	0xbcf71aa5	-0.030164072
97	0xbabe9309	-0.001453967
98	0xb9843d93	-0.00025222878
99	0xbce50dab	-0.027960619
100	0x3cd00ed5	0.025397697
101	0x3d78bb07	0.06072524
102	0xbcc94f1e	-0.024573859
103	0x3d00e366	0.031466864
104	0xbd59d0d6	-0.053177677
105	0xbd57f438	-0.05272314
106	0x3d532d83	0.051557075
107	0x3c3ec9b4	0.011644769
108	0x3c96359e	0.018336114
109	0x3d3041ca	0.04303149
110	0xbd3c927c	-0.046038136
111	0xbc3df412	-0.011593835
112	0xbd51a5ed	-0.05118363
113	0xbbd274f4	-0.0064226333
114	0xbc95f47a	-0.018305052
115	0x3bef06aa	0.0072944956
116	0x3d877ce4	0.06615618
117	0xbd3d3859	-0.046196315
118	0x3cef3d79	0.029204117
119	0xbc8f1046	-0.017463814
120	0xbb84796e	-0.004042796
121	0x3d87e138	0.06634754
122	0xbd9c2256	-0.076237366
123	0xbd87f8b4	-0.06639233
124	0xbd5f6e43	-0.054548513
125	0x3c5fbec4	0.013656322
126	0x3d0e58ab	0.03475253
127	0x3c8e0ab4	0.017339088
128	0x3cea6da8	0.028616741
129	0x3c5525a8	0.013009466
130	0x3cf88e43	0.030341273
131	0xbd82bdaf	-0.063838355
132	0xbcde84b8	-0.027162895
133	0xbc4466c6	-0.011987394
134	0x3c2e98bf	0.010656535
135	0xbc93a192	-0.018021379
136	0xbd668838	-0.056282252
137	0xbd1798ae	-0.03701084
138	0xbc8cc7c4	-0.0171851
139	0x3cd7d3a1	0.02634603
140	0x3d055abc	0.032557234
141	0x3d1cd53c	0.038289294
142	0x3c7ded00	0.0154984
143	0xbd3b4e7d	-0.04572915
144	0x3bc0a360	0.005878851
145	0xbd8cde6f	-0.06878363
146	0x3d2fbd56	0.042905174
147	0xbd84fb10	-0.06493199
148	0xbc8d2816	-0.017231029
149	0x3c826ea8	0.015921906
150	0xbd7fc867	-0.062446978
151	0xbd2d744e	-0.042347245
152	0x3c2b37e4	0.010450337
153	0x3d6524ca	0.055943288
154	0xbabe062a	-0.0014497687
155	0x3cba1b9a	0.02271824
156	0xbc43059c	-0.011903193
157	0xbd3bec52	-0.04587967
158	0x3cf002fa	0.029298294
159	0xbd632c2f	-0.05546206
160	0xbd3f4ab2	-0.046702094
161	0x3cb1d5fe	0.021708485
162	0xbc73599a	-0.014852906
163	0xbcf6cfcf	-0.030128388
164	0xbc758aa0	-0.014986664
165	0xbd3f0466	-0.046635054
166	0x3d3fc744	0.046820894
167	0xbc42320a	-0.011852751
168	0x3bf97a53	0.007613459
169	0xbd05c7bc	-0.032661185
170	0x3d5f7512	0.054555006
171	0xbd0b3634	-0.03398724
172	0x3c80e389	0.015733497
173	0x3d729b14	0.059229925
174	0x3ced6e1a	0.028983165
175	0xbd88a9ba	-0.06672998
176	0x3b4128de	0.0029473822
177	0xbc2bbc38	-0.010481887
178	0xbd3bf4d2	-0.045887776
179	0xbd3a4b42	-0.045481928
180	0xbd59f60a	-0.053213157
181	0x39d71d92	0.00041030027
182	0xbd1a46e4	-0.037665263
183	0xbc9e1b75	-0.019300202
184	0xbb66f85d	-0.003524325
185	0x3d3d6979	0.046243165
186	0xbd84b28e	-0.06479369
187	0xbd0ed1aa	-0.03486792
188	0xbd598f60	-0.05311525
189	0xbcf08312	-0.029359374
190	0x3cc57839	0.024105178
191	0x3c82c6b5	0.015963892
192	0xbd21bb49	-0.03948525
193	0x3cdbbe9c	0.026824288
194	0x3d0e8422	0.03479398
195	0x3d17bb1c	0.037043676
196	0xbcf9d998	-0.030499265
197	0xbceae9cb	-0.028675934
198	0x3ca17406	0.019708645
199	0x3a02a0de	0.00049830775
200	0x3c191d10	0.009345308
201	0x3d1ee8d5	0.038796265
202	0x3d6fe4fc	0.058567986
203	0x3c478038	0.012176566
204	0x3d16e3ac	0.03683822
205	0xbd556dfe	-0.05210685
206	0xbbd236fc	-0.006415246
207	0x3d05e669	0.03269044
208	0xbd392444	-0.0452006
209	0xbd434eb8	-0.047682494
210	0x3d6ed11a	0.058304884
211	0x3ce046ca	0.027377505
212	0xbd6b3431	-0.05742282
213	0x3d05e8b9	0.032692645
214	0x3d24a1c6	0.04019334
215	0x3d207e18	0.039182752
216	0xbd3a312c	-0.04545705
217	0xbd8f9581	-0.070109375
218	0xbd229cca	-0.039700307
219	0x3a20654b	0.00061186095
220	0x3b981b8c	0.0046419557
221	0xbd92ae4c	-0.07162151
222	0x3cdae860	0.026722133
223	0x3c84fea7	0.016234709
224	0xbd871330	-0.065954566
225	0xbd6efad8	-0.058344692
226	0x3d2f2da0	0.04276812
227	0x3d8932e8	0.06699163
228	0x3c5a4d8c	0.013324153
229	0xbb9b813a	-0.0047456296
230	0x3d4a169c	0.04933797
231	0xbcb551dc	-0.02213376
232	0x3d24f2d1	0.04027063
233	0x3cd1579d	0.025554473
234	0x3d31fc8b	0.043453734
235	0xbcda26da	-0.026629854
236	0xbbff5417	-0.0077920067
237	0x3d4742ee	0.048647813
238	0x3be692b5	0.007036532
239	0xbd62429f	-0.055239316
240	0xbd4fa402	-0.05069352
241	0xbda162fa	-0.078802064
242	0x3d23c3ce	0.039981656
243	0x3d35308c	0.04423575
244	0xbb6931aa	-0.003558258
245	0xbb972255	-0.004612247
246	0xbcccbb70	-0.02499172
247	0x3d043222	0.032274373
248	0x3d3c045a	0.045902587
249	0xbb827f29	-0.003982444
250	0x3c6ceab0	0.014460251
251	0xbd2620c2	-0.040558584
252	0xbb5f6726	-0.003408858
253	0x3cad1014	0.02112583
254	0xbc3d4619	-0.011552357
255	0xbd2bc358	-0.04193434

conv2.bias f4 [20]
0	0xbd880ba8	-0.06642848
1	0xbd43216c	-0.047639295
2	0xbd7c625c	-0.06161724
3	0xbd18e608	-0.03732875
4	0x3c466573	0.012109148
5	0x3c83a5ce	0.016070273
6	0xbbd6e8b4	-0.006558502
7	0xbc805c0c	-0.015668891
8	0x3d3ce0a8	0.046112686
9	0x3cdb89ee	0.026799168
10	0x3d2be0c8	0.041962415
11	0x3c265004	0.010150913
12	0x3c23e753	0.010003882
13	0x3cf0dc30	0.029401869
14	0x3d339bf0	0.043849885
15	0xbd17c437	-0.03705236
16	0x3c0e256d	0.008675915
17	0x3d16edfc	0.036848053
18	0x3d1ad35a	0.037799217
19	0xbd1a910e	-0.03773599

fc1.weight f4 [50, 320]
0	0xbbdcc0ca	-0.0067368494
1	0x3d20f6b6	0.039297782
2	0x3c88e1e3	0.016709274
3	0xbd44719e	-0.047959916
4	0xbbe8ca5f	-0.0071042026
5	0xbaf1d88c	-0.0018451377
6	0xbd33b37b	-0.043872338
7	0x3acbeb76	0.0015557844
8	0x3c3f7d94	0.011687655
9	0xbc0bc707	-0.008531339
10	0xbd03eaf6	-0.032206498
11	0x3d1d39d6	0.038385235
12	0xbd061ebe	-0.03274416
13	0xbd24d074	-0.04023786
14	0xbcf99bf8	-0.03046988
15	0x3bd49cf2	0.006488436
16	0x3d0161f4	0.031587556
17	0xbc878877	-0.016544564
18	0xbcee3b60	-0.029081047
19	0x3c5fee48	0.0136676505
20	0xbd2258b6	-0.039635383
21	0x3cab614e	0.020920422
22	0x3d2b59fe	0.04183387
23	0xbb6d6664	-0.003622436
24	0xbc26c5b8	-0.010178976
25	0xbd544013	-0.05181892
26	0xbceeec40	-0.029165387
27	0x3d559e66	0.052153014
28	0xbb7269e0	-0.0036989376
29	0xbb6dc558	-0.0036280956
30	0x3be82746	0.00708476
31	0xbd40de56	-0.047087036
32	0x3bcd460c	0.0062644538
33	0xbd5ec0dc	-0.054383144
34	0xbd022fc0	-0.03178382
35	0x3d29c4a4	0.041447297
36	0xbc7aeb5e	-0.015314905
37	0xbd18f010	-0.037338316
38	0x3c0cb62e	0.008588357
39	0x3cd9cc4c	0.026586674
40	0x3caa4ec8	0.020789519
41	0xbc8b9f8a	-0.017043848
42	0xbd089548	-0.03334549
43	0xbce6abde	-0.028158125
44	0xbd271106	-0.04078772
45	0x3d12723f	0.035753485
46	0xba8dc5c3	-0.0010816384
47	0xbd132676	-0.03592535
48	0xbd4482a1	-0.04797614
49	0xbd6ff57f	-0.058583733
50	0xbd1490a6	-0.03627076
51	0xbc4ea880	-0.012613416
52	0xbbb55b12	-0.005534538
53	0x3ce13814	0.02749256
54	0x3b2062f6	0.0024473048
55	0xbc4d92b6	-0.012547186
56	0x3d30e61d	0.043188203
57	0x3ce9c0fc	0.028534405
58	0xbd287730	-0.04112929
59	0x3d64fc49	0.05590466
60	0xbc7643f4	-0.01503085
61	0xbb2eb440	-0.002665773
62	0x3cae22ae	0.021256771
63	0x3cd4ed11	0.025991948
64	0x3d0e7f96	0.034789644
65	0xbd19f6be	-0.037588827
66	0xbd111c54	-0.035427406
67	0xba22ee77	-0.00062153436
68	0xbc6a5a8d	-0.014303816
69	0xbd45198f	-0.048120078
70	0xbd1d616c	-0.038422987
71	0x3af40034	0.0018615783
72	0xbd420346	-0.047366403
73	0xbd35a292	-0.044344492
74	0x3d3e4274	0.046450093
75	0x3d41231c	0.047152624
76	0x3d210eef	0.039320882
77	0xbd496faa	-0.049178757
78	0xbd1ed93a	-0.038781382
79	0xbd0b8dc0	-0.03407073
80	0x3c6dfb3b	0.01452523
81	0xbcf8cbb1	-0.030370565
82	0xbd637808	-0.055534393
83	0xbc0e7746	-0.008695429
84	0xbcd4776a	-0.025935847
85	0x3d2e0002	0.042480476
86	0x3cd4c171	0.025971146
87	0xbc8bea16	-0.017079394
88	0x3d3f625a	0.046724655
89	0x3cf30900	0.029667377
90	0xbcaeaaab	-0.021321615
91	0xbd4d62dd	-0.05014311
92	0xbc4df2b2	-0.01257007
93	0xbaf8298a	-0.0018933278
94	0x3cb8b842	0.022548798
95	0x3cad824a	0.02118029
96	0xbb78d05c	-0.0037965989
97	0xbcc910a2	-0.024544064
98	0xbd50f357	-0.051013317
99	0x3c8645aa	0.01639064
100	0xbd39ce9e	-0.04536306
101	0xbbc8c1ba	-0.0061266096
102	0xbbc75488	-0.006083075
103	0x3c93074e	0.01794782
104	0x3c62e21c	0.013847854
105	0xbc6c8f39	-0.014438444
106	0xbcc4b190	-0.02401045
107	0x3d595c3a	0.05306647
108	0xbd0dad35	-0.03458901
109	0x3aa7da38	0.0012806123
110	0xb98b3591	-0.00026552056
111	0xbd53f882	-0.051750667
112	0xbcd9e196	-0.026596826
113	0xbd27df42	-0.0409844
114	0x3d403ff8	0.046936005
115	0x3d5ef7fd	0.05443572
116	0x3cbf03a8	0.023317173
117	0x3bd90e0e	0.00662399
118	0xbc6a9626	-0.014318025
119	0x3d239980	0.03994131
120	0xbc471ccc	-0.012152862
121	0x3bfeefd0	0.0077800527
122	0xbc5248f2	-0.012834774
123	0xbd3db8f9	-0.04631898
124	0xbc17b376	-0.009259095
125	0xbd166cac	-0.03672473
126	0x3bd0474c	0.0063561555
127	0xbbca95d5	-0.006182412
128	0xbd5feaca	-0.05466727
129	0xbc13913a	-0.009006793
130	0x3c10340f	0.008801474
131	0xbbb64b10	-0.0055631474
132	0x3d2a4a26	0.04157462
133	0x3bdf7d54	0.00682036
134	0x3c42631a	0.011864448
135	0x3c6e2318	0.014534734
136	0xbd515308	-0.051104575
137	0x3d2dda99	0.0424448
138	0xbd1b6664	-0.037939444
139	0x3d236ff3	0.039901685
140	0x3d21dbbe	0.039516203
141	0x3d18baba	0.03728745
142	0x3d207c92	0.0391813
143	0x3c1c0f98	0.009525202
144	0x3d3b8925	0.045785088
145	0x3ca55c4c	0.020185612
146	0x3ca545e8	0.020174935
147	0xbd28ea8a	-0.0412393
148	0xbaf19ec9	-0.0018434162
149	0xbd3f923e	-0.046770327
150	0xbbfe732f	-0.007765196
151	0x3c1c4f7a	0.009540433
152	0xbd4fc97a	-0.050729252
153	0x3bbe298d	0.005803293
154	0xbd1c932b	-0.038226288
155	0xbc645d8a	-0.013938317
156	0x3b0c95a8	0.0021451507
157	0xbc8f2c52	-0.017477188
158	0x3ccbe827	0.024890972
159	0x3cd30998	0.02576141
160	0x3d51d9fc	0.051233277
161	0x3d2080e4	0.03918542
162	0xbd1ae8e8	-0.037819773
163	0x3cac2353	0.021012938
164	0x3b326f66	0.0027227043
165	0xbd563a84	-0.0523019
166	0xbd3a7bd2	-0.04552824
167	0xbc58f9c4	-0.0132431425
168	0xbcaff7b6	-0.021480422
169	0x3d0a0398	0.033694834
170	0x3ce34d30	0.027746767
171	0x3d0f45a2	0.034978516
172	0x3c8afa74	0.016965128
173	0xbd49e150	-0.04928714
174	0xbd4b2966	-0.049600028
175	0x3baddb74	0.005305702
176	0xbc28bcb8	-0.0102989
177	0xbb87cc63	-0.004144238
178	0x3ce5f538	0.028071031
179	0xbc874a4c	-0.01651492
180	0xbcf3bdc6	-0.029753577
181	0x3b2f9a0e	0.0026794705
182	0xbd3a365a	-0.04546199
183	0x3d0685c8	0.032842427
184	0xbd5ab8eb	-0.053399008
185	0x3aa36a76	0.0012467641
186	0xbcf9828a	-0.030457754
187	0xbd361ca7	-0.04446092
188	0xbc8aad42	-0.016928319
189	0xbc934c4d	-0.017980719
190	0x3d025814	0.03182228
191	0xbcca6dcc	-0.024710558
192	0x3d3775b3	0.04478998
193	0xbc45c41e	-0.012070684
194	0xbd67e374	-0.0566134
195	0xbc4f15fa	-0.012639517
196	0x3ce7a37b	0.028276196
197	0x3bbb6160	0.005718395
198	0x3c020134	0.007934857
199	0x3bcc837a	0.006241259
200	0xbd33cdf0	-0.04389757
201	0xbd1c3bae	-0.038142852
202	0x3cb123d1	0.021623524
203	0x3d1eb560	0.03874719
204	0xbcff51ea	-0.03116699
205	0x3be12cfb	0.006871817
206	0x3d0d88ce	0.034554295
207	0x3ad5e995	0.0016320223
208	0x3ce33374	0.027734496
209	0x3b7b7248	0.0038367677
210	0xbcc566d8	-0.024096891
211	0xbd0f6cc2	-0.03501583
212	0x3b9b0596	0.0047308905
213	0xbce5e9dc	-0.028065614
214	0x3d1d7f2a	0.03845135
215	0xbccaf11e	-0.024773177
216	0xbd20b901	-0.039238933
217	0x3c9e63fe	0.01933479
218	0xbd0f8d62	-0.035046943
219	0x3be595d6	0.007006387
220	0x3c154cfe	0.009112595
221	0x3d21c9b5	0.039499003
222	0xbd04eee0	-0.03245437
223	0xbd15d3b6	-0.036578856
224	0xbd4e8558	-0.050420135
225	0xbbeeca22	-0.0072872797
226	0x3d055df8	0.03256032
227	0x3d6247d9	0.0552443
228	0xbcc82f70	-0.024436682
229	0xbba11790	-0.004916139
230	0x3cbf0ba8	0.023320988
231	0xbd669e6a	-0.05630342
232	0x3d54b1cb	0.05192737
233	0xbd2a8e8e	-0.041639857
234	0x3cf863b1	0.030320974
235	0xbd65ac62	-0.0560726
236	0xbb303cc1	-0.002689168
237	0x3d4cfe20	0.05004704
238	0xbd113194	-0.035447672
239	0xbd63d92c	-0.055627033
240	0x3d418467	0.04724541
241	0x3c31a075	0.010841479
242	0x3bf4f81c	0.007475866
243	0x3d2255e1	0.03963268
244	0x3cbb5533	0.022867775
245	0x3d38fb76	0.045161687
246	0xbcd1802b	-0.02557381
247	0xbcfa3180	-0.030541182
248	0xbd47718c	-0.04869227
249	0xbccd3c1a	-0.025053073
250	0xbc5363d7	-0.012902222
251	0x3d2615a0	0.040547967
252	0x3bf75990	0.0075485185
253	0x3c03088c	0.007997643
254	0x3c115282	0.008869769
255	0xbcd6c878	-0.026218638

fc1.bias f4 [50]
0	0xbb375ccc	-0.0027978895
1	0xbcb83349	-0.022485392
2	0xbd05f91c	-0.032708272
3	0xbd81a855	-0.06330935
4	0x3a3d3a06	0.0007218424
5	0x3a9b8f5c	0.0011868286
6	0x3ca95ca7	0.020674063
7	0x3cc07df0	0.023497552
8	0xbcf90733	-0.03039894
9	0x3c1192cb	0.008885096
10	0xbd326277	-0.043550935
11	0xbc096f2e	-0.008388324
12	0xbc2284f5	-0.009919395
13	0x3bc87ccc	0.0061183926
14	0x3cd9cb22	0.02658612
15	0xbd0ad4e0	-0.03389442
16	0xbcc507d0	-0.024051577
17	0x3c9df2e6	0.019280862
18	0x3c5eebc1	0.013606013
19	0xbb28220a	-0.0025655054
20	0xbd1494fa	-0.036274888
21	0xbba444b5	-0.0050130733
22	0xbc92ad12	-0.017904792
23	0x3d812535	0.06305925
24	0x3d5a6304	0.053317085
25	0x3c123e0a	0.008925924
26	0x3cdd25a8	0.026995495
27	0xbd267c62	-0.040645964
28	0xbd7a413e	-0.061097376
29	0x3d1a1da2	0.037625916
30	0xbd1adf2f	-0.0378105
31	0xbb95cebe	-0.0045717647
32	0x3b920d92	0.004457184
33	0xbd1ca50e	-0.038243346
34	0xbd3253c8	-0.04353693
35	0x3d54757a	0.051869847
36	0xbd1cabbe	-0.038249724
37	0xbd4bff1a	-0.04980383
38	0x3d3339c2	0.043756254
39	0xbc4f0522	-0.012635501
40	0xbd44c76f	-0.048041757
41	0xbd58ecf6	-0.05296036
42	0x3b3b6b60	0.0028597936
43	0x3d1024fe	0.03519153
44	0x3c2ab696	0.010419508
45	0x3c91d67e	0.017802473
46	0xbbbdf620	-0.0057971627
47	0xbbc73e0c	-0.0060803946
48	0xbbbf7076	-0.005842264
49	0x3d73b1f4	0.05949588

fc2.weight f4 [10, 50]
0	0xbdf745ae	-0.12073837
1	0x3d700694	0.058600023
2	0xbdcd0b28	-0.100118935
3	0x3d29a5c0	0.041417837
4	0x3d8e7c8d	0.0695735
5	0xbd8102b2	-0.06299342
6	0xbdec3f5f	-0.115355246
7	0xbcfa811e	-0.030579146
8	0xbcdf7cb2	-0.027281139
9	0xbdad31f6	-0.08456795
10	0x3d9f1be2	0.0776899
11	0xbde9bf3a	-0.11413427
12	0x3e0c29ca	0.13687816
13	0xbe72478e	-0.23660108
14	0xbd8a167c	-0.0674257
15	0x3a1c3a7f	0.00059596443
16	0xbd07bc53	-0.033138584
17	0xbdfa6e01	-0.12228013
18	0xbd4da88e	-0.050209574
19	0x3d6002e3	0.054690253
20	0xbdf2a7ed	-0.118484356
21	0x3c8aba06	0.016934406
22	0x3da11956	0.078661606
23	0xbdd72323	-0.10504749
24	0xbdaab3a0	-0.08335042
25	0xbd349cd4	-0.044094875
26	0x3d20c650	0.039251626
27	0xbddca0ec	-0.10772881
28	0x3d3d6f54	0.04624875
29	0xbdff352f	-0.12461316
30	0xbdd097ba	-0.101851895
31	0x3e083550	0.13301587
32	0x3da28efb	0.079374276
33	0xbca60fd0	-0.020271212
34	0xbd6923c7	-0.056918886
35	0x3d97f322	0.07419421
36	0x3ce69cd7	0.028150959
37	0x3df0499c	0.1173279
38	0x3df33a72	0.11876382
39	0x3dcace22	0.09902598
40	0xbdbcf235	-0.09225885
41	0x3cea0004	0.02856446
42	0xbdb2be9b	-0.08727761
43	0xbdac4a29	-0.084125824
44	0x3c02fb0c	0.007994425
45	0xbd81642c	-0.063179344
46	0xbe269a68	-0.16269839
47	0xbc62a447	-0.013833112
48	0x3e22ccb4	0.158984
49	0x3e3903a6	0.18067798
50	0x3d0a50f0	0.033768594
51	0x3d8eb55b	0.069681846
52	0xbd2e5316	-0.042559706
53	0xbd9a7d31	-0.075434096
54	0x3dd53884	0.1041117
55	0xbdcdb5e4	-0.100444585
56	0xbe08e584	-0.13368803
57	0xbcbdf654	-0.023188747
58	0xbc169293	-0.009190219
59	0x3d964b85	0.07338623
60	0xbe24c4b0	-0.16090655
61	0xbe0cddec	-0.13756531
62	0xbe228f04	-0.15874869
63	0xbd9c1e8f	-0.07623016
64	0x3d3fead2	0.0468548
65	0x3df05054	0.117340714
66	0xbe0db68c	-0.13839167
67	0xbc44fd68	-0.012023307
68	0x3dbfc916	0.09364526
69	0x3c6f2f2a	0.014598647
70	0x3da2164d	0.0791441
71	0xbca9c345	-0.020722995
72	0xbe1d9c6a	-0.15391698
73	0xbd1abfed	-0.03778069
74	0xbd0ca8ee	-0.03434079
75	0xbdcfeae4	-0.10152224
76	0x3debca1e	0.1151316
77	0xbbf240fc	-0.0073930006
78	0xbda1d51b	-0.07901975
79	0x3ddcbe8a	0.1077853
80	0x3ceef603	0.029170042
81	0x3d9f6b57	0.07784145
82	0xbda5e71a	-0.0810072
83	0xbc95e6dc	-0.018298559
84	0xbd82c8d8	-0.06385964
85	0x3d2ef8c4	0.04271771
86	0xbde8945c	-0.11356422
87	0x3d2f2a8c	0.042765185
88	0xbdf70bae	-0.120627746
89	0x3caf3c17	0.021390958
90	0xbdc3b9ce	-0.09556924
91	0xbd497eee	-0.049193315
92	0xbe16876b	-0.14700095
93	0xbcd37169	-0.025810914
94	0xbe23d309	-0.15998472
95	0xbd0c060a	-0.034185447
96	0x3c5e15cf	0.013555004
97	0x3dc69af4	0.09697524
98	0xbd2f9944	-0.042870775
99	0xbce41c12	-0.027845416
100	0x3dc05304	0.09390834
101	0xbde9213d	-0.11383293
102	0xbdb85492	-0.090005055
103	0xbbd937c1	-0.006628961
104	0x3e052c2e	0.13005134
105	0xbd995ce8	-0.074884236
106	0x3d182a3c	0.037149653
107	0x3d566be4	0.052348986
108	0x3d9fe8c9	0.07808072
109	0x3dd0be16	0.10192506
110	0x3d1f39eb	0.038873594
111	0xbce74827	-0.028232647
112	0x3da5a5df	0.08088278
113	0xbd859bce	-0.06523858
114	0xbde9ec3c	-0.11422011
115	0xbd1a3a40	-0.037653208
116	0x3df12cf2	0.11776151
117	0x3d83f845	0.06443838
118	0xbe13c3c3	-0.14430146
119	0x3d45a1b1	0.048249904
120	0x3bd2bf06	0.006431463
121	0xbdb5e718	-0.08881968
122	0x3db6caf9	0.08925433
123	0xbe27047d	-0.16310306
124	0x3add2d90	0.0016874541
125	0xbc049910	-0.008093134
126	0x3db71b2a	0.08940728
127	0xbdcca17e	-0.0999174
128	0xbda62ac8	-0.081136286
129	0x3d037c5e	0.032101028
130	0x3d2c713c	0.042100176
131	0x3dbe4e96	0.09292333
132	0xbd3a4cb4	-0.045483306
133	0xbd80071c	-0.06251356
134	0x3c843cc1	0.016142251
135	0x3db76064	0.08953932
136	0xbde28870	-0.1106118
137	0x3d88d83c	0.066818684
138	0x3c1b622d	0.009483856
139	0xbbd0fc8c	-0.006377762
140	0xbde751bb	-0.11294886
141	0xbd7e1916	-0.062035643
142	0x3bb85b66	0.00562613
143	0x3db1862a	0.08668168
144	0x3b7ba969	0.0038400537
145	0xbdbf352e	-0.09336315
146	0x3de2ddb6	0.11077444
147	0x3c88c462	0.016695205
148	0xbe005846	-0.12533674
149	0xbcf8e230	-0.030381292
150	0x3da60c80	0.08107853
151	0xbd9d7cec	-0.076898426
152	0x3cc538b4	0.02407489
153	0x3dbd1e51	0.09234298
154	0xbda63290	-0.08115113
155	0x3db266aa	0.08710988
156	0x3d56c290	0.052431643
157	0x3c327cb0	0.010893986
158	0x3e0f6716	0.14004168
159	0xbd7702c3	-0.06030537
160	0xbd978b29	-0.073995896
161	0x3da9d510	0.082925916
162	0xbda8accb	-0.08236083
163	0xbd214ff2	-0.039382882
164	0xbdc0b1e8	-0.09408933
165	0xbde8b4cc	-0.11362609
166	0xbb867bcd	-0.0041041137
167	0x3bb4c736	0.005516912
168	0xbbd52967	-0.0065051797
169	0x3dc3f303	0.09567835
170	0x3cf8e9d4	0.030384935
171	0x3d7e9f96	0.06216391
172	0xbdbf1e4a	-0.09331949
173	0xbc62a6f7	-0.013833753
174	0x3d9469fb	0.07246777
175	0xbdbcdcbe	-0.09221791
176	0x3e271388	0.16316044
177	0xbd7ad722	-0.061240323
178	0x3d1198b1	0.03554601
179	0x3db0337a	0.086035684
180	0xbd9ade6c	-0.07561955
181	0x3ddd322e	0.10800587
182	0xbe1222a2	-0.14271024
183	0xbd6df68d	-0.058096457
184	0x3d8e3299	0.069432445
185	0xbd932c18	-0.071861446
186	0xbe4f0f79	-0.20220746
187	0x3dd57950	0.10423529
188	0x3cb569ea	0.02214523
189	0xbe02e5ae	-0.12782928
190	0xbd8f68b2	-0.07002391
191	0xbd09ff5a	-0.033690788
192	0x3d8580a0	0.06518674
193	0xbd1bf6f3	-0.038077306
194	0x3dfbef58	0.123015106
195	0xbdbd3dfc	-0.09240338
196	0x3dc14032	0.094360724
197	0x3e3aaa9c	0.18229145
198	0xbe033a88	-0.12815297
199	0x3bdd357b	0.00675076
200	0x3d1d8e33	0.03846569
201	0xbdb979a3	-0.090564035
202	0x3d59cd51	0.05317432
203	0x3d17e4d6	0.03708347
204	0x391b91d8	0.00014836283
205	0xbc6574a8	-0.014004864
206	0xbde64d2c	-0.11245188
207	0xbddf94df	-0.10917067
208	0x3d8d9512	0.069131985
209	0xbdf2b6da	-0.118512824
210	0x3d85c937	0.06532519
211	0xbb7aa4c8	-0.003824519
212	0x3c895d00	0.016767979
213	0x3d354812	0.044258185
214	0x3db7bdcf	0.0897175
215	0x3dd92b39	0.10603947
216	0x3ca90055	0.020630041
217	0x3da238c4	0.079209834
218	0xbc9343fc	-0.017976753
219	0xbd56fff0	-0.052490175
220	0xbd94adaf	-0.0725969
221	0x3c05c054	0.00816353
222	0x3d92ba09	0.0716439
223	0xbc89f618	-0.01684098
224	0x3dc192d4	0.09451833
225	0x3d55518e	0.05207973
226	0x3d787cfa	0.060666062
227	0xbe182e96	-0.14861521
228	0x3da27e91	0.07934297
229	0xbdab6006	-0.083679244
230	0x3de21e06	0.11040883
231	0xbc4ef073	-0.01263057
232	0xbc880bda	-0.016607214
233	0x3dbeaffa	0.093109086
234	0x3e05384d	0.13009758
235	0xbd621e3f	-0.055204626
236	0x3b02947d	0.0019924932
237	0x3dce43a9	0.10071499
238	0x3c59a668	0.013284303
239	0xbe208156	-0.15674338
240	0x3d784408	0.060611755
241	0xbd99913c	-0.074984044
242	0x3d72656a	0.059178747
243	0x3e28bee2	0.16479066
244	0xbdb83a4e	-0.08995496
245	0xbdba2c36	-0.09090464
246	0x3ba7cef8	0.005121108
247	0x3d7e82e4	0.062136546
248	0xbe1e316e	-0.15448543
249	0x3d84ea49	0.06489999
250	0x3d7d504b	0.06184415
251	0xbd8d9dcc	-0.06914863
252	0xbc761ec5	-0.015021984
253	0x3e06ad4d	0.13152047
254	0xbd71b9ae	-0.05901497
255	0xbe01e2cc	-0.12684172

fc2.bias f4 [10]
0	0xbd937dee	-0.072017536
1	0x3df57184	0.11984542
2	0xbd631132	-0.05543632
3	0xbd59ca38	-0.053171366
4	0xbbaa5ca7	-0.0051990333
5	0xbd37843a	-0.044803835
6	0xbbda01d4	-0.00665305
7	0xbd408d77	-0.04700991
8	0xbd20d66b	-0.039266985
9	0x3b9ca3f6	0.004780288
