MNIST/Models/Client_2/Global models/Server_8_5_2021_10_46_19.pth (torch, 90095 bytes, 8 tensors)

conv1.weight f4 [10, 1, 5, 5]
0	0xbe0bb589	-0.13643469
1	0x3d907283	0.070530914
2	0x3db11698	0.086468875
3	0xbcbea7c7	-0.023273362
4	0xbdb6ab9a	-0.08919449
5	0x3e0e1da4	0.13878495
6	0xbd85a624	-0.065258294
7	0xbd5b5560	-0.053548217
8	0x3d031a6e	0.032007627
9	0x3c570e9d	0.013126043
10	0x3d8851e9	0.06656248
11	0xbdd63c5f	-0.104607336
12	0xbda51114	-0.08059898
13	0x3d3b7484	0.045765415
14	0xbd9e82be	-0.07739781
15	0xbdc5149f	-0.09623074
16	0x3e2cdb7f	0.16880606
17	0x3c7da7b0	0.015481874
18	0xba8177d6	-0.0009877633
19	0x3df69166	0.12039451
20	0xbdf8839c	-0.121344775
21	0xbe29cc04	-0.16581732
22	0x3ddd65c0	0.10810423
23	0xbdceddbf	-0.101008885
24	0xbe1920c6	-0.14953908
25	0xbe6d1b29	-0.23154892
26	0xbe272ef4	-0.16326505
27	0x3d015fd3	0.031585526
28	0xbe413ac6	-0.18870077
29	0x3dddf1c0	0.10837126
30	0xbd3fe049	-0.046844754
31	0xbbe8d38f	-0.007105298
32	0xbd81e6c0	-0.0634284
33	0xbd4b4ff1	-0.049636785
34	0x3d49e7aa	0.049293198
35	0xbe5bea64	-0.21476132
36	0x3d042f7c	0.032271847
37	0x3d979648	0.07401711
38	0xbc3cf616	-0.011533281
39	0x3e024324	0.12720925
40	0xbcd60b64	-0.026128478
41	0x3db7c8d6	0.08973853
42	0xbe0dcb40	-0.13847065
43	0xbb802d44	-0.003911646
44	0x3e6b1de2	0.22960618
45	0x3e2ab646	0.16671094
46	0x3e6f2f08	0.23357785
47	0x3e7712d9	0.24128284
48	0x3e70caea	0.23514906
49	0x3e4f24d6	0.20228896
50	0xbd56097d	-0.052255142
51	0x3e1c5e22	0.15270284
52	0x3e395214	0.18097717
53	0x3e98d450	0.29849482
54	0x3e8570cc	0.2606262
55	0x3bdb1517	0.0066858637
56	0x3db5cabe	0.08876561
57	0xbd999e20	-0.07500863
58	0xbde42839	-0.11140484
59	0x3d3f91d9	0.04676995
60	0x3d543d88	0.051816493
61	0x3dfdc62e	0.123913154
62	0xbbbc0148	-0.0057374574
63	0x3dd4fc3b	0.10399672
64	0xbe3edf4d	-0.1863987
65	0xbdff479e	-0.12464832
66	0xbe19643c	-0.14979643
67	0xbe47e085	-0.19519241
68	0xbe219afd	-0.1578178
69	0xbe21dc57	-0.15806709
70	0xbe607b04	-0.21921927
71	0xbe35ebac	-0.17765683
72	0xbd8d37b6	-0.06895392
73	0xbd8ee4e8	-0.06977254
74	0x3de38936	0.11110155
75	0x3c4b27dc	0.01239964
76	0x3dcfab80	0.10140133
77	0x3d3e77f8	0.04650113
78	0x3e14944c	0.14509696
79	0x3e3ea04d	0.18615837
80	0xbe4b4438	-0.19850242
81	0xbe1c7910	-0.15280557
82	0x3b2c5557	0.0026295984
83	0x3e556a8e	0.20841429
84	0xbe08273a	-0.13296214
85	0xbd917671	-0.07102669
86	0x3e2be013	0.16784696
87	0x3e0c3b6e	0.13694546
88	0x3de0bf02	0.10973932
89	0xbca2b870	-0.019863337
90	0x3d46a29d	0.048494924
91	0xbaeb70b4	-0.0017962665
92	0x3e5a9773	0.21346836
93	0xbe125120	-0.14288759
94	0xbd8ddf5e	-0.069273695
95	0x3c4c455d	0.012467709
96	0x3d9a6b7e	0.07540034
97	0x3c3df8ba	0.011594946
98	0x3de792e0	0.11307311
99	0xbe675ea9	-0.22594704
100	0xbd039aee	-0.032130174
101	0xbe476a0c	-0.19474047
102	0x3d64371f	0.05571663
103	0x3e452d10	0.19255471
104	0x3e289736	0.16463932
105	0xbe1403d6	-0.14454588
106	0xbe636474	-0.22206289
107	0xbde6c7cc	-0.11268577
108	0xbd6299be	-0.0553224
109	0x3df9c8ad	0.12196479
110	0xbe7c442c	-0.2463538
111	0xbe5597b2	-0.20858648
112	0xbd976db4	-0.07393971
113	0x3deb9d98	0.11504668
114	0x3e5e8db8	0.21733749
115	0x3cd5c536	0.026095014
116	0x3d96fec8	0.073728144
117	0xbd9c75b6	-0.07639639
118	0xbd94756c	-0.07248959
119	0x3e2cb024	0.16864067
120	0xbe486c6e	-0.19572613
121	0xbe9c8b08	-0.30574822
122	0x3d805c4c	0.06267604
123	0x3e42444b	0.18971364
124	0x3e828303	0.2549058
125	0xbd74e43c	-0.059787974
126	0xbdda4d90	-0.10659325
127	0x3e176182	0.1478329
128	0xbdaefde8	-0.085445225
129	0x3e69e77c	0.2284221
130	0xbd0fdc53	-0.035122227
131	0x3e81d17e	0.25355142
132	0x3e48e8bc	0.19620031
133	0x3e862cd2	0.2620607
134	0xbd2069ce	-0.039163403
135	0x3dfbcaff	0.12294578
136	0xbe0c807f	-0.13720892
137	0x3e36d44e	0.17854425
138	0x3d73606c	0.059418127
139	0x3d634eb0	0.055494964
140	0xbd0b06dd	-0.033942092
141	0xbe234ea2	-0.15947965
142	0xbe3c6528	-0.18397963
143	0xbd570489	-0.05249456
144	0x3e3fc71e	0.18728301
145	0xbdb9d519	-0.09073848
146	0xbe5befe6	-0.21478233
147	0xbe2e0812	-0.16995266
148	0xbe708951	-0.23489882
149	0xbda90b28	-0.08254081
150	0x3cb143f8	0.021638855
151	0xbe02172e	-0.12704155
152	0x3e048edc	0.12945122
153	0xbcaaa99e	-0.020832833
154	0xbe4232f2	-0.18964747
155	0xbe3a735b	-0.18208067
156	0xbe49a2f7	-0.19691072
157	0xbde016a4	-0.10941818
158	0x3e34a316	0.17640337
159	0x3dadb49e	0.084817156
160	0x3e4cdb38	0.200055
161	0x3e7e9a07	0.24863444
162	0x3badd35e	0.005304738
163	0x3cf370bb	0.02971684
164	0x3e50d920	0.20395327
165	0x3e2755f0	0.16341376
166	0x3e015d8e	0.12633345
167	0x3e1ff8cb	0.1562225
168	0x3e006823	0.12539725
169	0xbddf9199	-0.109164424
170	0xbd8a4fe9	-0.06753523
171	0xbe23e928	-0.16006911
172	0xbc2290cc	-0.009922218
173	0x3dd25d41	0.10271693
174	0xbdc81762	-0.09770085
175	0x3e1f2c64	0.15544277
176	0xbde4a1f6	-0.11163704
177	0xbd7ace70	-0.06123203
178	0xbda91348	-0.08255631
179	0xbe24adc8	-0.16081917
180	0xbdc515cc	-0.09623298
181	0x3dd88629	0.10572464
182	0xbc892f4e	-0.01674619
183	0xbe670650	-0.22561002
184	0xbdf715a4	-0.120646745
185	0x3e79ced3	0.24395303
186	0x3e40f076	0.18841729
187	0xbdbd273e	-0.092360005
188	0xbc9137a8	-0.017726734
189	0x3e267f68	0.16259539
190	0x3ad638c4	0.0016343822
191	0x3d569d76	0.05239626
192	0x3e4a1362	0.19733956
193	0x3e597c73	0.2123888
194	0xbe0239f3	-0.12717418
195	0x3e177e82	0.14794353
196	0x3e3acd3b	0.18242352
197	0x3e4cf41c	0.20014995
198	0xbe26a732	-0.16274717
199	0xbde63a6e	-0.11241613
200	0x3d7da46e	0.06192439
201	0x3e1fc7bc	0.15603536
202	0x3d8e6bfc	0.0695419
203	0x3dad6d3a	0.08468099
204	0x3dbc65d7	0.09199112
205	0xbe36f629	-0.1786734
206	0x3dbe09c0	0.092792034
207	0x3e376111	0.17908122
208	0xbd10773a	-0.035269953
209	0xbd89e901	-0.06733895
210	0x3d4a59e4	0.049402133
211	0xbe5b8802	-0.21438602
212	0xbd0774c4	-0.03307034
213	0x3e13ad12	0.1442149
214	0x3d8ec982	0.06972028
215	0xbe27fefc	-0.16405863
216	0xbe06c076	-0.13159356
217	0xbe409bbe	-0.18809411
218	0xbde0001e	-0.10937522
219	0x3d951cdc	0.07280895
220	0xbdef783a	-0.11692853
221	0x3ddee6d0	0.10883868
222	0xbddcc484	-0.1077967
223	0xbde63592	-0.112406865
224	0x3d5e0cd0	0.054211438
225	0x3d111dbb	0.035428744
226	0x3e4ba0b6	0.19885525
227	0xbd8ac0ea	-0.06775077
228	0x3e378a70	0.17923903
229	0x3de5ea16	0.11226289
230	0xbe627406	-0.22114572
231	0xbe45ec50	-0.19328427
232	0x3e0153c1	0.12629606
233	0x3dcdc6fe	0.100477204
234	0x3e73224a	0.23743549
235	0xbcaabef1	-0.020843001
236	0xbe411858	-0.18856943
237	0xbe24c116	-0.16089281
238	0xbd0e9de7	-0.034818556
239	0xbe1cc8ed	-0.15311022
240	0x3e067f7e	0.13134572
241	0xbdd7a3ca	-0.10529287
242	0xbdc0c60e	-0.09412776
243	0xbde2e9e2	-0.11079766
244	0xbe3206b6	-0.17385373
245	0x3deaee14	0.11471191
246	0x3daf7842	0.08567859
247	0x3c75848f	0.014985218
248	0xbdeb695e	-0.114947066
249	0xbdc5ca32	-0.09657706

conv1.bias f4 [10]
0	0xbdf1bb82	-0.118033424
1	0x3e0ee0a7	0.13952886
2	0x3d04438a	0.032290973
3	0xbe4bddcf	-0.19908832
4	0xbcdd22be	-0.026994105
5	0x3d991684	0.07474998
6	0xbdb91fac	-0.09039244
7	0xbe03e360	-0.12879705
8	0x3e2591b4	0.16168863
9	0x3d823134	0.06357041

conv2.weight f4 [20, 10, 5, 5]
0	0xbd4df902	-0.0502863
1	0xbb85a304	-0.004078271
2	0x3d1c295b	0.038125377
3	0xbd76a46e	-0.060215406
4	0x3d835fb8	0.06414741
5	0xbc78b2b2	-0.015179323
6	0xbd08619d	-0.033296216
7	0x3d7d72ea	0.06187717
8	0x3d169027	0.03675857
9	0x3d611c12	0.05495841
10	0xbd6fda26	-0.058557652
11	0xbd208998	-0.03919372
12	0x3ce40d82	0.027838472
13	0xbcd3dcda	-0.025862146
14	0x3d8231e4	0.06357172
15	0x3d2ef97a	0.04271839
16	0xbc7c9695	-0.015416761
17	0x3d58ce20	0.05293095
18	0x3b1d3cf4	0.002399263
19	0x3d35bcf2	0.044369645
20	0x3d6773e7	0.056507017
21	0x3b219511	0.00246555
22	0xbd87600c	-0.06610116
23	0xbd42f547	-0.047597196
24	0xbd7fc9da	-0.06244836
25	0xbcbb0658	-0.022830173
26	0xbd88ee2c	-0.06686053
27	0xbb6a7547	-0.003577547
28	0xbd93245a	-0.07184668
29	0xbc4e4bcc	-0.012591314
30	0xbdc5ce66	-0.09658508
31	0xbad4d9b2	-0.0016239195
32	0xbc33ab12	-0.010966079
33	0x3cd8d63c	0.026469342
34	0xbd6506c9	-0.055914674
35	0xbc987330	-0.018609613
36	0xbd287a28	-0.041132122
37	0xbd8d6ef8	-0.06905931
38	0x3c93738c	0.017999433
39	0xbda4dd9c	-0.08050081
40	0x3d959d8e	0.07305442
41	0x3b3c969a	0.002877629
42	0x3d623768	0.05522862
43	0xbd8755ae	-0.06608139
44	0xbd9a2403	-0.075264
45	0x3db1ed9a	0.08687897
46	0x3dcae59a	0.09907074
47	0xbd2f9f9e	-0.042876832
48	0x3d3e1062	0.046402343
49	0x3d4f3a81	0.050592903
50	0xbceecebf	-0.029151319
51	0x3d76d5d7	0.060262527
52	0x3daab3b0	0.08335054
53	0x3d741b18	0.05959615
54	0x3c68ab4d	0.014200998
55	0x3d59b95d	0.05315529
56	0xbca95f97	-0.020675464
57	0xbc8405b2	-0.016115997
58	0x3cabccef	0.020971743
59	0xba8e9ced	-0.0010880508
60	0xbcc00ece	-0.02344456
61	0xbca156ce	-0.019694712
62	0xbcc2fab2	-0.023801181
63	0x3d20c158	0.039246887
64	0x3d59deb7	0.053190913
65	0xbd48dea0	-0.049040437
66	0x3ce40028	0.027832106
67	0xbd8404ce	-0.06446229
68	0xbb8f692f	-0.0043765525
69	0xbd856a1b	-0.06514379
70	0xbcd845f4	-0.026400544
71	0xbd2c4e74	-0.042067006
72	0xbd7fd908	-0.062462837
73	0xbd6f21c6	-0.05838182
74	0xbd04fa88	-0.032465488
75	0xbba68c67	-0.005082655
76	0xbd498584	-0.049199596
77	0x3d0a2859	0.033729885
78	0x3cdae8ee	0.026722398
79	0x3cd19320	0.02558285
80	0xbd4da684	-0.05020763
81	0x3ce14822	0.027500216
82	0x3ca6b7ea	0.020351369
83	0xbcc3ddc6	-0.02390946
84	0x3d484da0	0.048902154
85	0xbd81dd29	-0.06341011
86	0xbdb43430	-0.087990165
87	0x3b04944a	0.0020229989
88	0x3c9a9cd0	0.018873602
89	0xbca56eeb	-0.020194491
90	0xba87e8aa	-0.0010369022
91	0x3d841416	0.064491436
92	0x3cb2a5ec	0.021807633
93	0x3ae2aad4	0.0017293342
94	0xbd99e064	-0.07513502
95	0x3b9319d0	0.004489161
96	0x3ac3a60a	0.0014926803
97	0x3c88bfec	0.016693078
98	0xbc324aa8	-0.010882057
99	0xbd2250c3	-0.0396278
100	0x3cbf7a8b	0.023373863
101	0x3dadcafc	0.08485982
102	0x3b80bac4	0.003928514
103	0x3d1c7706	0.038199447
104	0xbd501a01	-0.05080605
105	0xbd731016	-0.059341513
106	0x3d921ae8	0.07134038
107	0x3cf98554	0.030459084
108	0x3c9d07e6	0.019168805
109	0x3d1ecc89	0.03876928
110	0xbd08a349	-0.033358846
111	0x3cae8877	0.021305306
112	0xbd2a9c04	-0.041652694
113	0xbc7cf386	-0.01543892
114	0xbd082db3	-0.033246707
115	0x3d531147	0.05153015
116	0x3de62dfd	0.1123924
117	0xbd53106b	-0.05152933
118	0x3c86e21b	0.016465237
119	0xbcf91bb6	-0.030408721
120	0x3d4b1346	0.049578927
121	0x3ddeef4a	0.108854845
122	0xbdb14b96	-0.08656995
123	0xbd96c100	-0.073610306
124	0xbd781ea6	-0.060576104
125	0x3c5e7592	0.013577836
126	0x3d3b6fdc	0.045760974
127	0x3cdf4e24	0.02725894
128	0x3d0051c0	0.031327963
129	0x3c6437ee	0.01392935
130	0x3caf20f1	0.021378012
131	0xbd946830	-0.07246435
132	0xbd1ec0ea	-0.038758196
133	0xbca273e2	-0.019830648
134	0x3bed0c4c	0.007234132
135	0xbcd1ea0e	-0.025624301
136	0xbd92c901	-0.07167245
137	0xbd648f05	-0.055800457
138	0xbcdfb45a	-0.027307678
139	0x3cab9cce	0.020948794
140	0x3cab8b9a	0.02094059
141	0x3c8ec9b6	0.017430168
142	0xbb78216f	-0.0037861725
143	0xbd655f50	-0.0559991
144	0xbbedb2da	-0.007253987
145	0xbda1735a	-0.0788333
146	0x3d1a76de	0.037711017
147	0xbdaa247b	-0.08307739
148	0xbd30f3ce	-0.04320126
149	0xbc1fc56a	-0.009751657
150	0xbd98b58c	-0.07456502
151	0xbd57ec24	-0.052715436
152	0x3be40d1e	0.0069595715
153	0x3d618f06	0.05506804
154	0xb9c4b850	-0.00037521357
155	0x3c137ee6	0.009002423
156	0xbcbb2f27	-0.022849632
157	0xbd4c621c	-0.049898252
158	0x3cd34507	0.02578975
159	0xbd79f222	-0.06102193
160	0xbd763515	-0.060109217
161	0x3c84d6f8	0.016215786
162	0xbc735a1c	-0.014853027
163	0xbd0f05f8	-0.0349178
164	0xbcda49e8	-0.02664657
165	0xbd72fdd8	-0.059324116
166	0x3d5d6e92	0.054060526
167	0xbb29d57a	-0.0025914595
168	0xbb4439fb	-0.0029941786
169	0xbd64024d	-0.055666257
170	0x3d825b6c	0.063650936
171	0xbc0a9fef	-0.008460983
172	0x3cc81b42	0.02442706
173	0x3d585660	0.05281675
174	0x3cb62768	0.022235587
175	0xbd9eb856	-0.07750003
176	0xbc3c4c11	-0.011492745
177	0xbcdd1136	-0.026985746
178	0xbd569436	-0.05238744
179	0xbd347240	-0.04405427
180	0xbd806dee	-0.062709674
181	0xbc3051b0	-0.010761663
182	0xbd420e72	-0.047377057
183	0xbccfca05	-0.025364885
184	0xbc4545ea	-0.012040595
185	0x3d003726	0.031302594
186	0xbd953ada	-0.07286616
187	0xbcca1570	-0.024668425
188	0xbd591571	-0.052998964
189	0xbd3789cc	-0.044809148
190	0x3c4b48ea	0.012407521
191	0x3cc9691c	0.024586253
192	0xbbf41a2e	-0.00744941
193	0x3d0fa95a	0.035073616
194	0x3ca729f4	0.020405747
195	0x3d2d5834	0.042320445
196	0xbc1a081f	-0.00940135
197	0x3c702185	0.014656429
198	0x3d3ced5f	0.046124812
199	0x3c7b2edc	0.015330996
200	0x3c609d36	0.013709357
201	0x3d583425	0.052784104
202	0x3d95836e	0.07300459
203	0x3c9e78da	0.019344736
204	0x3d20ef7a	0.039290883
205	0xbd4ec903	-0.05048467
206	0xbb10b4a4	-0.0022080326
207	0x3d05753a	0.0325825
208	0xbd3fd30d	-0.046832133
209	0xbd45d758	-0.04830107
210	0x3d82faf4	0.06395522
211	0x3ce37574	0.027765967
212	0xbd86fcd4	-0.06591192
213	0x3cca89b1	0.02472386
214	0x3d1d96fe	0.038474075
215	0x3d38f0dd	0.04515158
216	0xbd5699b4	-0.052392676
217	0xbdaaee0e	-0.083461866
218	0xbd3fac60	-0.04679525
219	0xb8b9ef60	-8.8660745e-05
220	0x3abe90cf	0.0014539006
221	0xbdabf22a	-0.083957985
222	0x3c15bd49	0.009139367
223	0x3b8de305	0.0043300414
224	0xbd97575a	-0.07389708
225	0xbd48d35a	-0.049029686
226	0x3d665930	0.0562374
227	0x3d9a1948	0.07524353
228	0x3c83fd1e	0.016111907
229	0xbbc24550	-0.005928673
230	0x3d40f69c	0.047110185
231	0xbcc0e3e9	-0.023546176
232	0x3d2fdab4	0.04293318
233	0x3cda53f8	0.026651368
234	0x3d230a4a	0.039804734
235	0xbd0ddd28	-0.03463474
236	0xbc9e414e	-0.01931825
237	0x3d3c713c	0.046006426
238	0x3bd21320	0.0064109713
239	0xbd6a375a	-0.057181694
240	0xbd8131d9	-0.06308336
241	0xbdba04e6	-0.090829656
242	0x3d206f9c	0.03916894
243	0x3d3be316	0.045870863
244	0xbbadfe87	-0.005309883
245	0xbc9c9dc8	-0.019118205
246	0xbd1c8d9c	-0.038220987
247	0x3c8d3c6a	0.017240722
248	0x3d2a87a2	0.041633256
249	0xbbc4f586	-0.006010714
250	0x3c72f8a6	0.01482979
251	0xbd2785ee	-0.04089921
252	0xbb84d281	-0.0040534143
253	0x3ca2c73a	0.01987039
254	0xbc5837ce	-0.013196899
255	0xbd296d5b	-0.041364055

conv2.bias f4 [20]
0	0xbd718bae	-0.0589711
1	0xbd5702ce	-0.05249291
2	0xbd865068	-0.06558305
3	0xbd36941c	-0.04457484
4	0x3bead78a	0.0071668075
5	0x3bad3263	0.0052855476
6	0xbcea4328	-0.028596476
7	0xbbfb6eee	-0.007673136
8	0x3d3f26cd	0.046667863
9	0x3c975d4d	0.018477106
10	0x3a292280	0.0006451979
11	0x3c963a0e	0.01833823
12	0xbb602bc4	-0.0034205774
13	0x3c81d970	0.015850753
14	0x3d07a4dc	0.033116207
15	0xbd133b3f	-0.035945173
16	0x3c852fac	0.016258083
17	0x3cf635c0	0.030054927
18	0x3d17f0c0	0.03709483
19	0xbd30ee23	-0.043195855

fc1.weight f4 [50, 320]
0	0xbbfec678	-0.007775124
1	0x3d11e2a8	0.035616547
2	0x3c7f72de	0.015591351
3	0xbd4a61ed	-0.049409796
4	0xbc14543a	-0.009053284
5	0xbba696f1	-0.0050839116
6	0xbd3813ec	-0.044940874
7	0xb86e1a45	-5.6768087e-05
8	0x3c22d8a6	0.009939348
9	0xbc2c56e2	-0.010518761
10	0xbd0a39fe	-0.033746712
11	0x3d160b23	0.036631715
12	0xbd01be5c	-0.03167568
13	0xbd1e7d5b	-0.038693767
14	0xbcf74f63	-0.030189222
15	0x3bc1a820	0.0059099346
16	0x3cfcc5aa	0.030855972
17	0xbc8b32d6	-0.016992014
18	0xbcedec56	-0.029043358
19	0x3c4dce94	0.012561459
20	0xbd2b8e24	-0.041883603
21	0x3ca42c79	0.020040737
22	0x3d2dc8f4	0.042427972
23	0xbb981950	-0.0046416894
24	0xbc6542ba	-0.01399296
25	0xbd5ad329	-0.053424034
26	0xbceb7dbc	-0.028746478
27	0x3d5489f7	0.051889386
28	0xbbb3213a	-0.0054666074
29	0xbb9ef990	-0.0048515275
30	0x3bfffe9a	0.0078123333
31	0xbd3e9306	-0.04652693
32	0x3bffe18e	0.0078088706
33	0xbd605e5c	-0.054777488
34	0xbd05859a	-0.032598116
35	0x3d2aa493	0.041660856
36	0xbc73afe0	-0.014873475
37	0xbd12a652	-0.035803147
38	0x3c0624e8	0.00818751
39	0x3cd2d40c	0.025735877
40	0x3cbe5301	0.023232939
41	0xbc82d947	-0.015972747
42	0xbd0b8b0c	-0.034068152
43	0xbceab03a	-0.028648484
44	0xbd2b14a4	-0.04176773
45	0x3d0ec561	0.034856204
46	0xbae636a2	-0.0017563889
47	0xbd12a609	-0.035802875
48	0xbd461986	-0.048364185
49	0xbd726f8a	-0.059188403
50	0xbd144ffe	-0.0362091
51	0xbc581fdc	-0.01319119
52	0xbbac7df6	-0.005264039
53	0x3ce0efbc	0.027458064
54	0x3ac954c9	0.0015360351
55	0xbc4ed752	-0.012624579
56	0x3d320368	0.04346028
57	0x3cd9afbb	0.026573053
58	0xbd2f1ca8	-0.042751938
59	0x3d671238	0.05641386
60	0xbc60cf56	-0.013721308
61	0xbb52efa4	-0.0032186294
62	0x3c9a76ac	0.018855415
63	0x3cce692e	0.025196638
64	0x3d009953	0.03139622
65	0xbd2179f8	-0.03942296
66	0xbd14cb08	-0.03632644
67	0xba8d9acf	-0.0010803583
68	0xbc9836c6	-0.018580806
69	0xbd4502ee	-0.048098497
70	0xbd202bc7	-0.03910425
71	0x3a694224	0.00088981004
72	0xbd5251d0	-0.051347554
73	0xbd3513ac	-0.044208214
74	0x3d369844	0.044578806
75	0x3d39cbee	0.045360498
76	0x3d04e49b	0.032444578
77	0xbd4b32a6	-0.04960885
78	0xbd225a36	-0.039636813
79	0xbd0ed3c2	-0.034869917
80	0x3c69857c	0.014253017
81	0xbd04b0ac	-0.03239505
82	0xbd6284a6	-0.055302285
83	0xbc0b7a0a	-0.008512983
84	0xbcdc7590	-0.026911527
85	0x3d1f7299	0.03892765
86	0x3ccacdd4	0.02475635
87	0xbc9030b9	-0.017601358
88	0x3d3d1e62	0.046171553
89	0x3cd973fa	0.02654456
90	0xbcba3668	-0.022731021
91	0xbd4ccf88	-0.050002605
92	0xbc4d7ec8	-0.012542434
93	0xbb40db37	-0.0029427537
94	0x3caab91e	0.020840224
95	0x3cae693d	0.021290416
96	0xbb4bfb12	-0.0031124991
97	0xbcc3e210	-0.023911506
98	0xbd542b94	-0.05179937
99	0x3c8402de	0.016114648
100	0xbd35e606	-0.04440882
101	0xbb8f181e	-0.0043668887
102	0xbb9520e7	-0.0045510414
103	0x3c8ae652	0.016955528
104	0x3c65ee9a	0.014033938
105	0xbc5ceb3c	-0.013483819
106	0xbcc480a8	-0.02398713
107	0x3d52a3c6	0.051425718
108	0xbd0f9982	-0.035058506
109	0xba065a51	-0.00051251525
110	0xb93feba8	-0.00018302968
111	0xbd4fb104	-0.050705925
112	0xbce092e6	-0.027413797
113	0xbd258d03	-0.040417682
114	0x3d3cc47a	0.046085812
115	0x3d5b2341	0.053500418
116	0x3cb3f966	0.021969508
117	0x3bc81144	0.006105574
118	0xbc84674a	-0.016162533
119	0x3d21623d	0.039400328
120	0xbc50d53b	-0.012746151
121	0x3c0ae932	0.00847845
122	0xbc5a32a0	-0.013317734
123	0xbd410ad6	-0.047129475
124	0xbc0bfcea	-0.008544186
125	0xbd13c31a	-0.036074735
126	0x3bbcfd29	0.0057674837
127	0xbbe26273	-0.0069087087
128	0xbd5dd652	-0.05415947
129	0xbc91bb40	-0.017789483
130	0x3b54844e	0.0032427493
131	0xbbf800d1	-0.0075684567
132	0x3d2016ee	0.039084367
133	0xbb9f6f52	-0.0048655653
134	0x3beb89d8	0.007188063
135	0x3c2248df	0.009905069
136	0xbd5b379e	-0.053519838
137	0x3cf437ff	0.029811857
138	0xbd2734ba	-0.04082177
139	0x3d14f8c2	0.036370046
140	0x3d1c11ba	0.038102843
141	0x3d038208	0.03210643
142	0x3d1d55a5	0.038411755
143	0x3c16ae58	0.00919684
144	0x3d39c608	0.045354873
145	0x3c9e2134	0.019302942
146	0x3cab9031	0.02094278
147	0xbd2709a4	-0.04078068
148	0xbb37927c	-0.0028010895
149	0xbd4841c2	-0.048890837
150	0xbbfbfea5	-0.007690268
151	0x3c1bcc01	0.009509088
152	0xbd531ff0	-0.05154413
153	0x3ba47fef	0.0050201337
154	0xbd183860	-0.03716314
155	0xbc56033c	-0.013062295
156	0x3b07a0f6	0.0020695305
157	0xbc904d42	-0.017614964
158	0x3cd1bc6e	0.025602546
159	0x3cdc5e80	0.02690053
160	0x3d80daa0	0.062916994
161	0x3d4e2bac	0.050334617
162	0xbd1ab504	-0.037770286
163	0x3c897c3c	0.016782872
164	0x3ad6e138	0.0016394025
165	0xbd535848	-0.051597863
166	0xbd308e46	-0.043104433
167	0xbc870976	-0.016484004
168	0xbc41ef51	-0.011836843
169	0x3d4d82c8	0.05017355
170	0x3d0e965a	0.034811355
171	0x3ce5263a	0.02797233
172	0x3c6988bc	0.014253791
173	0xbd552360	-0.05203569
174	0xbd4f5129	-0.05061451
175	0x3bd27b6d	0.006423405
176	0xbc28228c	-0.010262143
177	0xbbe3f0f0	-0.006956212
178	0x3cd5e043	0.026107913
179	0xbc8db6af	-0.017299024
180	0xbcf964ae	-0.030443516
181	0xbb33736e	-0.0027382034
182	0xbd42a800	-0.0475235
183	0x3d02d479	0.03194091
184	0xbd5a9eb4	-0.053374007
185	0xbb28f414	-0.0025780248
186	0xbd037a5f	-0.032099124
187	0xbd392f5f	-0.045211192
188	0xbc883868	-0.01662846
189	0xbca1af4e	-0.019736912
190	0x3cf8aa58	0.030354664
191	0xbcce60f7	-0.02519272
192	0x3d35eb37	0.04441377
193	0xbc34cddd	-0.01103541
194	0xbd6812b4	-0.05665846
195	0xbc50ffcf	-0.012756302
196	0x3ce7c128	0.028290346
197	0x3bd6e8dd	0.006558521
198	0x3bd5007f	0.0065003033
199	0x3bacc952	0.0052730227
200	0xbd34a261	-0.04410017
201	0xbd15eb23	-0.036601197
202	0x3cb7abf0	0.022420853
203	0x3d1daab6	0.03849288
204	0xbd001a3d	-0.031275023
205	0x3c01ce45	0.007922714
206	0x3d11836e	0.03552573
207	0x3addc539	0.0016919739
208	0x3cfaad28	0.030600145
209	0x3be8e9f4	0.0071079675
210	0xbcc909ce	-0.024540808
211	0xbd13aac1	-0.036051515
212	0x3b9ffff5	0.0048828074
213	0xbce734cd	-0.02822342
214	0x3d178512	0.03699214
215	0xbcd53ca6	-0.026029896
216	0xbd13d0d6	-0.036087833
217	0x3cc8fc71	0.024534436
218	0xbd0817ac	-0.0332257
219	0x3bb9717f	0.0056592817
220	0x3c245bfe	0.010031698
221	0x3d25004e	0.040283494
222	0xbd075c72	-0.033047147
223	0xbd1bb610	-0.038015425
224	0xbd4e98e6	-0.050438784
225	0xbc048786	-0.008088952
226	0x3d04ba00	0.032403946
227	0x3d64dd3d	0.05587505
228	0xbcce9c94	-0.025221147
229	0xbbd441d2	-0.006477573
230	0x3cc7509c	0.02433043
231	0xbd63f360	-0.055652022
232	0x3d4fc4b1	0.05072469
233	0xbd30af27	-0.04313579
234	0x3cf5f073	0.030021882
235	0xbd65db84	-0.05611755
236	0xbb2691c6	-0.0025416478
237	0x3d4ba44b	0.04971723
238	0xbd0eed15	-0.034894068
239	0xbd5dc5c6	-0.05414369
240	0x3d43ea42	0.047830828
241	0x3c290760	0.0103167
242	0x3b674936	0.003529144
243	0x3d187bf6	0.037227593
244	0x3cadd584	0.021219976
245	0x3d332eca	0.043745793
246	0xbcd7bc14	-0.0263348
247	0xbd05e27a	-0.032686688
248	0xbd465f0c	-0.048430488
249	0xbcc9291e	-0.024555739
250	0xbc6c02f4	-0.014405001
251	0x3d18a0a1	0.037262563
252	0x3bc09470	0.00587707
253	0x3bc7789c	0.006087376
254	0x3bd31587	0.0064417752
255	0xbcef455f	-0.029207883

fc1.bias f4 [50]
0	0xbbc486aa	-0.0059974985
1	0xbc3c87f4	-0.011507023
2	0xbca9ca46	-0.020726334
3	0xbd816d16	-0.063196346
4	0x3c010a26	0.007875955
5	0x38fd6d0a	0.0001208429
6	0x3d0fea5a	0.035135604
7	0x3cffba08	0.031216636
8	0xbce8d618	-0.0284224
9	0x3c8d30fa	0.017235268
10	0xbd523eb1	-0.05132932
11	0xbba5aa3e	-0.005055695
12	0x3b63de6a	0.003477002
13	0x3ca1bb1c	0.019742541
14	0x3d1de368	0.03854695
15	0xbc9a6f46	-0.018851887
16	0xbcd9a25f	-0.026566682
17	0x3d0e9efa	0.03481958
18	0x3cfc16f4	0.030772664
19	0x3b283658	0.0025667157
20	0xbcdf308a	-0.027244825
21	0xbac65ef7	-0.0015134503
22	0xbc9ee7e8	-0.01939769
23	0x3da9422e	0.08264576
24	0x3d675dac	0.056485817
25	0x3c43cb2a	0.011950294
26	0x3d2a767c	0.0416169
27	0xbd2443d0	-0.040103734
28	0xbd6eb974	-0.05828233
29	0x3d5170c2	0.051132925
30	0xbd0b5f7a	-0.0340266
31	0xbb83c25a	-0.0040209712
32	0xbb295c7c	-0.0025842478
33	0xbcfd84e0	-0.030947149
34	0xbd3599a6	-0.044335984
35	0x3d65021a	0.055910207
36	0xbd38c271	-0.04510731
37	0xbd4b511e	-0.049637906
38	0x3d40a650	0.047033608
39	0xbb58ebef	-0.0033099612
40	0xbd4d5758	-0.050132126
41	0xbd61e568	-0.05515042
42	0x3bfda23a	0.007740286
43	0x3cea7331	0.02861938
44	0x3d0c12e4	0.034197703
45	0x3ca4c212	0.020112071
46	0xbbce4cac	-0.006295761
47	0x3c23ab32	0.009989547
48	0xbc6f9da5	-0.014624988
49	0x3d88831e	0.066656336

fc2.weight f4 [10, 50]
0	0xbdfaf5fb	-0.12253948
1	0x3ab6962c	0.0013930253
2	0xbe0d559f	-0.13802193
3	0x3d8bd814	0.06828323
4	0xbcabdb68	-0.020978644
5	0xbd8b8af8	-0.068136156
6	0xbdcc702e	-0.09982334
7	0xbd608e8e	-0.05482345
8	0xbdd8b240	-0.105808735
9	0xbde8644d	-0.11347256
10	0x3e60338e	0.21894667
11	0xbd9c3e38	-0.07629055
12	0x3e6ad8e8	0.22934306
13	0xbe176c42	-0.14787391
14	0xbdefee8a	-0.117154196
15	0xbdcaf5ae	-0.09910141
16	0xbcc55baa	-0.02409156
17	0xbe071682	-0.1319218
18	0xbdcb29da	-0.09920092
19	0x3a244252	0.0006265986
20	0xbe1116e4	-0.14168888
21	0x3dfac5d2	0.122447625
22	0x3d2f44a8	0.042790085
23	0x3d125c5c	0.035732612
24	0xbe300f6e	-0.17193386
25	0xbdd5a913	-0.10432639
26	0xbdc6719a	-0.096896365
27	0xbdec49ea	-0.115375355
28	0x3daebcc4	0.08532098
29	0xbe811667	-0.25212404
30	0xbe549dba	-0.20763293
31	0x3dbe207e	0.09283541
32	0x3e9f56bf	0.3112087
33	0xbd9e6b65	-0.07735328
34	0xbdad9b6c	-0.0847691
35	0x3ca19726	0.019725394
36	0x3e7564a0	0.23964167
37	0x3d8fef2a	0.07028039
38	0x3dd2255b	0.10261031
39	0x3d2626e8	0.040564448
40	0xbdba5892	-0.09098925
41	0x3ce70ed6	0.028205317
42	0xbdd126fd	-0.102125145
43	0xbe0c3ce2	-0.136951
44	0x3e517312	0.20454052
45	0xbd73ad8e	-0.059491687
46	0xbe89135b	-0.2677258
47	0xbe23e045	-0.16003521
48	0x3e94f5aa	0.29093677
49	0x3e503082	0.20331004
50	0x3cdc712e	0.026909437
51	0x3e90548f	0.28189513
52	0xbd750600	-0.059820175
53	0xbdadf4f1	-0.084939845
54	0x3d584754	0.0528024
55	0xbddc20c9	-0.10748441
56	0xbe223ff5	-0.1584471
57	0xbd18b504	-0.037282005
58	0xbda07434	-0.07834664
59	0x3e056f8e	0.13030836
60	0xbe25e7ac	-0.16201657
61	0xbe17fcf7	-0.14842592
62	0xbe5f9a34	-0.21836168
63	0xbd7ead34	-0.062176898
64	0x3def0569	0.11670954
65	0x3e5ffe2f	0.21874307
66	0xbe14c731	-0.1452911
67	0xbcb925db	-0.022601059
68	0x3e80b5cd	0.25138703
69	0xbd2b8e7e	-0.041883938
70	0x3dc15200	0.094394684
71	0x3ded7deb	0.115962826
72	0xbe507eca	-0.20360866
73	0x3d862284	0.06549552
74	0xbd959e38	-0.073055685
75	0xbe1cfeb2	-0.15331534
76	0x3df8c2b0	0.12146509
77	0xbc840621	-0.016116204
78	0xbe022d8b	-0.12712686
79	0x3e1ca09b	0.15295641
80	0x3b09cc2f	0.0021026244
81	0x3cb661c2	0.022263411
82	0x3c8dfc66	0.017332267
83	0xbdb00340	-0.0859437
84	0xbdd22909	-0.10261733
85	0x3bcf6e8e	0.006330318
86	0xbc624e24	-0.0138125755
87	0xbcc4c00c	-0.024017356
88	0xbe623b70	-0.22092986
89	0x3cd09f26	0.025466513
90	0xbdce193f	-0.10063409
91	0xbd2e1532	-0.042500682
92	0xbe2b3a81	-0.16721536
93	0xbdea9e80	-0.11456013
94	0xbe5e1dbf	-0.21691035
95	0xbd687ffe	-0.056762688
96	0xbdb4579e	-0.08805774
97	0x3dd623d8	0.104560554
98	0x3be34c0c	0.0069365557
99	0xbdab06c2	-0.08350898
100	0x3da8e41e	0.08246635
101	0x3cbd1c10	0.02308467
102	0xbdcf26fc	-0.101148576
103	0xbbc193d8	-0.005907517
104	0x3e899513	0.26871547
105	0xbdae3176	-0.08505528
106	0xbc28d730	-0.010305211
107	0x3db0673e	0.08613442
108	0xbcfb5122	-0.030678336
109	0x3e0e41da	0.13892308
110	0x3df658e0	0.1202867
111	0xbd58298a	-0.05277399
112	0x3e34ec56	0.1766828
113	0xbddc4650	-0.107555985
114	0xbdcea806	-0.10090642
115	0x3e28f8b2	0.1650112
116	0x3db3f007	0.08786016
117	0xbd199a28	-0.03750053
118	0xbd456ac0	-0.048197508
119	0x3d583c10	0.052791655
120	0x3c22d444	0.009938303
121	0xbd3a79fc	-0.04552649
122	0x3d2777c8	0.040885717
123	0xbe45d9d4	-0.19321376
124	0xbdf96e90	-0.12179291
125	0xbb704688	-0.0036663134
126	0x3c3474bb	0.011014159
127	0xbdde5bf8	-0.108573854
128	0xbccaa870	-0.02473852
129	0x3e0c31c0	0.13690853
130	0x3df07b5c	0.11742279
131	0x3cb187c7	0.021671189
132	0x3e0450f8	0.12921512
133	0xbe039f06	-0.12853631
134	0xbcb706fa	-0.022342194
135	0x3e4ee55a	0.20204678
136	0xbda396ae	-0.07987724
137	0xb7801000	-1.526624e-05
138	0xbdf78b06	-0.120870635
139	0x3e2a5893	0.16635351
140	0xbddb841c	-0.10718557
141	0xbd80efe2	-0.06295754
142	0xbd5980b6	-0.053101264
143	0x3e150638	0.14553154
144	0xbbff47ac	-0.0077905264
145	0xbdda034a	-0.106451586
146	0xbc583dc4	-0.01319832
147	0xbd8ce0ed	-0.06878839
148	0xbd4b4b7a	-0.049632527
149	0x3d9330e9	0.07187063
150	0x3dd04f12	0.101713315
151	0xbdc15923	-0.094408296
152	0xbcdd2ba2	-0.026998345
153	0x3d8ccfb8	0.06875557
154	0x3dee0ce2	0.11623551
155	0x3dc43a1e	0.095813975
156	0x3db13b85	0.086539306
157	0x3dddb10c	0.10824785
158	0x3d8d51b4	0.06900349
159	0xbc7942fa	-0.015213722
160	0xbd2a5f29	-0.041594658
161	0x3db7c36e	0.08972822
162	0xbc9487df	-0.018131195
163	0xbdc8fecd	-0.098142244
164	0xbe269a59	-0.16269816
165	0xbd8fcdc4	-0.070216686
166	0xbcd57a40	-0.02605927
167	0xbdde538d	-0.1085578
168	0xbcdacc76	-0.026708823
169	0x3e32cf8c	0.17461985
170	0x3d60de6f	0.05489963
171	0x3d3c40a6	0.04596009
172	0xbe33d042	-0.17559913
173	0xbdb658e3	-0.089036725
174	0xbd858d68	-0.06521112
175	0xbe4dff99	-0.20117034
176	0x3e181964	0.14853436
177	0xbd809b54	-0.062796265
178	0xbcfbc8ec	-0.030735455
179	0x3e9807c2	0.2969342
180	0xbd90840f	-0.07056438
181	0x3e24b4e6	0.16084632
182	0xbe07f33c	-0.1327638
183	0xbe3a282e	-0.1817939
184	0xbd0ac04d	-0.0338748
185	0x3d0d58b1	0.03450841
186	0xbe72bb13	-0.23704176
187	0x3e0f54c4	0.1399718
188	0xbcbfa3ca	-0.02339353
189	0x3e38e690	0.18056703
190	0xbd9a60a2	-0.075379625
191	0xbd09e4a0	-0.0336653
192	0xbbe65907	-0.007029656
193	0xbcc232e2	-0.023705903
194	0x3d114381	0.035464767
195	0xbddfea9e	-0.109334216
196	0x3df3619c	0.11883852
197	0x3e427be8	0.18992579
198	0xbe15e21e	-0.14637038
199	0x3ba33bf8	0.004981514
200	0x3d193ff8	0.03741452
201	0xbdf74011	-0.120727666
202	0xbcec7b58	-0.028867409
203	0xbb4556b8	-0.0030111503
204	0xbbd744ae	-0.0065694666
205	0x3cece70a	0.028918762
206	0xbe2d6c50	-0.16935849
207	0xbdbe9818	-0.09306353
208	0x3e463162	0.19354776
209	0xbe09be2e	-0.13451454
210	0x3d8f29b0	0.06990373
211	0xbc04af30	-0.008098409
212	0xbdb2a4fa	-0.08722873
213	0xbce0d3b8	-0.027444705
214	0x3e1c7f49	0.1528293
215	0x3cf955b3	0.030436372
216	0x3cb166fa	0.021655548
217	0xbd60cbe4	-0.054881945
218	0xbd7497dc	-0.059715137
219	0x3d0955b6	0.033529006
220	0xbdab905a	-0.08377142
221	0xbbc44f44	-0.0059908945
222	0x3c1fc034	0.009750415
223	0xbdb4ac7b	-0.088219605
224	0xbd523152	-0.051316567
225	0x3e20b276	0.15693077
226	0x3e44e4d2	0.19227913
227	0xbe2d1092	-0.16900852
228	0x3d9af5fc	0.07566449
229	0xbd02fdd9	-0.03198037
230	0x3e1956e6	0.14974555
231	0xbd60cc87	-0.054882552
232	0xbdc79d5b	-0.0974681
233	0x3dde41aa	0.10852368
234	0x3dbd968a	0.09257229
235	0xbd1ed204	-0.038774505
236	0x3d4b13ec	0.049579546
237	0x3d11e7d8	0.035621494
238	0xbe0e664b	-0.13906209
239	0xbe41718c	-0.18890971
240	0x3d663946	0.056206964
241	0xbd9cba92	-0.07652773
242	0x3d732f58	0.059371322
243	0x3eaa3650	0.33244562
244	0xbe57a274	-0.21058065
245	0xbe12cfc6	-0.14337072
246	0x3e01df2f	0.12682794
247	0x3da2e025	0.079529084
248	0xbe3f0378	-0.18653667
249	0x3d101a23	0.035181176
250	0x3d808eaa	0.06277211
251	0xbdc03262	-0.0938461
252	0xbdc09d2b	-0.094049774
253	0x3db019d1	0.08598674
254	0xbe05731c	-0.13032192
255	0xbde76b75	-0.11299793

fc2.bias f4 [10]
0	0xbd8740fa	-0.0660419
1	0x3e68cf72	0.22735384
2	0xbdb98e69	-0.09060366
3	0xbd556c12	-0.052105017
4	0xbd60ad00	-0.054852486
5	0xbd3d9210	-0.046281874
6	0xbd59fe17	-0.053220835
7	0xbdb3aad6	-0.08772819
8	0x3d8f116b	0.06985744
9	0xbd3996bf	-0.04530978
