MNIST/Models/Client_1/Trained local models/Trained_8_5_2021_10_50_21.pth (torch, 90095 bytes, 8 tensors)

conv1.weight f4 [10, 1, 5, 5]
000000 d3 f8 0b be 96 af 90 3d 11 01 b5 3d ca 4a a3 bc
       -0.13669138 0.0706474 0.08838094 -0.019933123
000010 b0 30 af bd e3 32 0d 3e f9 60 7f bd ee 4e 4d bd
       -0.08554208 0.13788943 -0.06234834 -0.0501241
000020 73 0e 0d 3d 2b 5f 78 3c 94 17 88 3d 7f 13 cf bd
       0.034437608 0.015159409 0.06645122 -0.101111405
000030 d8 09 9d bd 27 a0 4b 3d 06 da 96 bd d2 2c bc bd
       -0.07667893 0.04971328 -0.073658034 -0.09188236
000040 94 cb 30 3e 34 5e 9f 3c d1 18 72 3b 83 74 00 3e
       0.17265159 0.0194541 0.0036941061 0.12544446
000050 f1 57 ee bd c3 5e 25 be 32 03 e5 3d f3 21 c8 bd
       -0.11637867 -0.1614943 0.1118225 -0.097721
000060 1f 7c 15 be 18 77 60 be cb ae 2d be 86 f4 2e 3c
       -0.1459813 -0.2192043 -0.1696121 0.010678416
000070 86 9b 56 be 64 48 b4 3d 16 42 18 bd 0b 0a 4e bc
       -0.20957765 0.0880287 -0.0371724 -0.012575637
000080 56 6b 9d bd 98 d1 6f bd 97 e0 4c 3d 03 ec 53 be
       -0.07686488 -0.058549494 0.050018873 -0.206955
000090 00 31 13 3d 4a 24 9a 3d a4 68 84 ba 78 c7 14 3e
       0.035935402 0.07526453 -0.0010101986 0.14529216
0000a0 97 9c 74 bc 00 c1 d0 3d 2b b4 ff bd 8d 17 94 3c
       -0.014929912 0.10193062 -0.12485536 0.018077636
0000b0 17 c5 7a 3e 4f 9b 3b 3e 47 44 7e 3e 83 a2 82 3e
       0.24489246 0.18320964 0.24830733 0.25514612
0000c0 f3 0f 7f 3e 8d 79 4d 3e be f6 45 bd 1a 58 1d 3e
       0.24908428 0.20065899 -0.048331015 0.1536564
0000d0 4c 16 46 3e b8 4d a6 3e c5 b6 97 3e 30 86 f3 3b
       0.19344443 0.3248117 0.2963163 0.007431768
0000e0 98 bf b1 3d 5b 66 87 bd 81 7e c4 bd 04 63 96 3d
       0.08679122 -0.0661132 -0.09594441 0.073431045
0000f0 98 eb 20 3d 0a e7 e9 3d 9a e0 f8 bb 46 b4 ca 3d
       0.03928718 0.1142102 -0.007595134 0.09897666
000100 00 5d 37 be 13 c1 15 be 00 1a 26 be 0e cd 51 be
       -0.1790657 -0.14624433 -0.16220856 -0.20488378
000110 f4 01 2d be 14 47 22 be e2 19 74 be df f1 41 be
       -0.16895276 -0.15847427 -0.23837999 -0.18939923
000120 cb cf 9f bd 49 5a 99 bd e2 e8 d4 3d 96 a7 3d 3c
       -0.07803305 -0.07487924 0.10395981 0.0115756
000130 67 78 d5 3d 3b 78 65 3d b2 e4 1f 3e 2b 10 44 3e
       0.104233555 0.056022864 0.15614584 0.19146793
000140 da c0 4f be 46 0e 19 be be 43 65 3c 36 b3 61 3e
       -0.20288411 -0.14946851 0.013993202 0.2204102
000150 89 aa 07 be 76 84 ae bd 94 69 23 3e 5a 1b 12 3e
       -0.13248648 -0.08521359 0.15958244 0.14268246
000160 55 6c f6 3d a1 6a c2 bc 58 eb fa 3c e0 53 4c bc
       0.120323814 -0.023732485 0.030629799 -0.012471169
000170 1d e6 5c 3e 6c c8 0a be b6 04 98 bd c4 18 5d 3a
       0.21572156 -0.13553017 -0.074227735 0.00084341713
000180 2b 97 92 3d 2e 48 45 3c 1d c3 dd 3d fd a3 73 be
       0.07157739 0.012041135 0.108282305 -0.23793025
000190 04 95 28 bd 6d f3 4e be f2 05 12 3d eb d9 2c 3e
       -0.041157737 -0.20210047 0.0356502 0.16880004
0001a0 ab ed 1a 3e 78 dd 17 be 8f 50 67 be aa 91 08 be
       0.15129726 -0.14830577 -0.22589324 -0.13336816
0001b0 1e 97 99 bd 23 f1 f1 3d 58 54 82 be b9 d4 5d be
       -0.074995264 0.11813571 -0.25454974 -0.21663179
0001c0 24 d5 c8 bd 6b 68 cd 3d 94 4c 5c 3e 7f ef 30 3c
       -0.09806278 0.10029682 0.21513587 0.010799288
0001d0 de fa 64 3d 80 4e d1 bd 00 c0 a9 bd e8 3b 27 3e
       0.055903308 -0.10220051 -0.08288574 0.16331446
0001e0 be dc 55 be f9 1e a4 be ed 26 1a 3d b5 bd 2e 3e
       -0.20884988 -0.3205488 0.03763478 0.17064555
0001f0 7e 27 76 3e dc 58 33 bd e2 b7 bd bd a4 d1 24 3e
       0.24038503 -0.043785915 -0.092635885 0.16095597
000200 e8 7f 91 bd 7a ec 74 3e f3 7d b2 bc 72 70 8b 3e
       -0.07104474 0.23918334 -0.021788573 0.27234226
000210 0f 7b 66 3e c7 e2 97 3e 53 5a 82 bb f5 01 f3 3d
       0.2250788 0.29665205 -0.0039780526 0.11865608
000220 58 c4 0c be 31 0d 40 3e 2b 24 af 3d 71 7d b9 3d
       -0.13746774 0.18755032 0.0855182 0.09057129
000230 e1 db 6e bd b4 09 39 be 37 b2 4a be 10 90 44 bd
       -0.05831516 -0.18070108 -0.19794546 -0.04798895
000240 17 86 54 3e f5 c9 04 be 54 5c 7a be 33 aa 49 be
       0.20754276 -0.12967665 -0.24449283 -0.19693832
000250 a4 5f 82 be 22 19 b3 bd 11 02 c6 3c 3d da 0b be
       -0.25463593 -0.08745028 0.024170907 -0.1365747
000260 99 32 ed 3d 9c 08 04 bd 89 4d 4c be d8 7b 38 be
       0.11581916 -0.032234773 -0.19951452 -0.18015993
000270 5a de 4d be 71 f3 e5 bd ae cc 38 3e 27 03 b1 3d
       -0.20104352 -0.112280734 0.18046829 0.086431794
000280 b5 c6 59 3e d9 9d 86 3e 8c 35 b0 3c b9 ea 3d 3d
       0.21267207 0.26292303 0.021509908 0.046366427
000290 34 e3 55 3e 90 97 32 3e 68 9d 12 3e 4b 8b 32 3e
       0.20887452 0.17440629 0.14317858 0.17435949
0002a0 2d 6a 0e 3e 9f 1a de bd c2 b0 a2 bd 4c 15 29 be
       0.1390769 -0.10844921 -0.0794387 -0.1651203
0002b0 a1 82 11 bc d5 45 da 3d ba c6 ca bd 8d 9b 27 3e
       -0.008881242 0.10657851 -0.09901185 0.16367932
0002c0 08 f2 e3 bd e3 1d 99 bd b6 09 ce bd 2d 70 34 be
       -0.11130148 -0.074764036 -0.10060446 -0.17620917
0002d0 9c 2a a2 bd a4 04 e5 3d 38 37 f2 bc e7 07 79 be
       -0.07918283 0.11182526 -0.029567346 -0.24319421
0002e0 64 e0 07 be eb d4 86 3e 81 1f 53 3e 2d 4e b7 bd
       -0.13269192 0.2633432 0.20617487 -0.08950458
0002f0 5b 6e 9f bc 3d a0 2d 3e f5 90 b1 3c 38 d1 a9 3d
       -0.019461801 0.16955657 0.021675566 0.082918584
000300 81 2e 60 3e 7b 28 66 3e 0a 3b ea bd e7 a8 23 3e
       0.2189274 0.2247638 -0.11437042 0.159824
000310 1c d1 54 3e 7a aa 60 3e 25 c8 1b be 84 70 d6 bd
       0.20782894 0.21940032 -0.15213068 -0.104706794
000320 42 f7 69 3d 19 d3 27 3e 57 3b b7 3d 90 12 e2 3d
       0.05712057 0.16389121 0.08946865 0.11038697
000330 a9 d9 ed 3d d3 48 44 be 94 69 ba 3d b3 82 43 3e
       0.11613781 -0.19168405 0.09102169 0.19092827
000340 23 af 62 bc 72 86 2e bd 6c 1f f4 3c 6c 3b 68 be
       -0.013835701 -0.042608686 0.02980014 -0.22678918
000350 e3 d5 19 bd 74 a5 1e 3e c6 2a b8 3d 30 a4 34 be
       -0.037557494 0.15492803 0.089925334 -0.17640758
000360 95 4f 14 be b3 1c 4d be 10 ec df bd 59 0c aa 3d
       -0.14483483 -0.20030479 -0.10933697 0.083031364
000370 4c c0 00 be 83 11 c3 3d b7 ef f4 bd 6b 7e f1 bd
       -0.12573355 0.095248245 -0.119597845 -0.117916904
000380 01 63 66 3d 76 2b d4 3c fe 72 4b 3e 86 fc 76 bd
       0.05624676 0.02589963 0.19868085 -0.06029942
000390 09 06 48 3e 57 fe 09 3e f4 c4 6f be f7 6f 4f be
       0.19533552 0.13475929 -0.23414975 -0.20257555
0003a0 3b 24 f7 3d cf 51 db 3d d5 58 85 3e 88 2c 1b bd
       0.12067457 0.10708963 0.26044336 -0.037884265
0003b0 28 8a 55 be 1c 71 38 be 30 24 32 bd 2c 7c 13 be
       -0.20853484 -0.18011898 -0.043491542 -0.14402837
0003c0 de d6 fa 3d 13 bc f4 bd 3f e9 de bd e7 3d f6 bd
       0.12248014 -0.11949935 -0.10884332 -0.12023526
0003d0 da 95 33 be 69 51 ef 3d a7 22 ac 3d b6 a5 16 3c
       -0.17537633 0.1168545 0.08405047 0.009194782
0003e0 91 f1 f8 bd f7 da cb bd
       -0.1215545 -0.099538736

conv1.bias f4 [10]
000000 87 65 04 be 0c 41 0d 3e 69 32 58 3c 49 52 56 be
       -0.12929355 0.13794345 0.0131956125 -0.20929827
000010 77 9f 42 bd dd d3 8a 3d 43 df a1 bd 2b 3f f0 bd
       -0.04751536 0.06778691 -0.07903912 -0.11730798
000020 3b 3e 2a 3e 9f c6 8b 3d
       0.16625302 0.06824993

conv2.weight f4 [20, 10, 5, 5]
000000 0a a8 4c bd dc 82 62 bb f1 2c 1e 3d 3c 53 76 bd
       -0.049964942 -0.0034562862 0.03861708 -0.060137972
000010 d5 0d 83 3d b2 1b 74 bc 89 5e 06 bd 1a 3a 7e 3d
       0.063991226 -0.014899181 -0.032805 0.06206713
000020 42 6b 16 3d b4 67 60 3d d8 5e 6e bd 31 4f 20 bd
       0.036723383 0.0547864 -0.05819592 -0.039138023
000030 c9 5d e2 3c af d8 d6 bc e6 47 82 3d 82 6e 30 3d
       0.02763261 -0.02622637 0.0636137 0.04307414
000040 50 5a 7b bc b7 01 5a 3d a6 54 12 3b 3c 44 39 3d
       -0.015341356 0.05322429 0.0022328286 0.04523109
000050 3e 02 67 3d d3 aa 2b 3b ac 75 86 bd 40 84 3f bd
       0.056398623 0.0026194348 -0.06565413 -0.046756983
000060 74 18 7e bd 29 f5 ff bc 42 c1 96 bd 83 92 14 bc
       -0.06203504 -0.031244831 -0.0736108 -0.009068134
000070 43 96 a0 bd 54 b8 b9 bc d7 0b cc bd 85 89 05 bc
       -0.0784116 -0.022670902 -0.09963196 -0.008150463
000080 ae 10 8a bc 14 00 b2 3c cf f2 86 bd a2 6d 99 bc
       -0.016853657 0.021728553 -0.06589281 -0.018729035
000090 74 04 2f bd 83 d9 8b bd 63 3f 8b 3c 09 db b4 bd
       -0.042728856 -0.068285964 0.016997999 -0.0883084
0000a0 0d 1c a1 3d 9b 04 ff 3b 90 9a 7f 3d e3 74 87 bd
       0.078666784 0.0077825314 0.06240326 -0.06614091
0000b0 d8 24 a4 bd 50 4f c3 3d f6 5f cd 3d b8 1e 3a bd
       -0.0801484 0.09536612 0.10028069 -0.045439452
0000c0 d2 ac 1b 3d 6b ac 37 3d 4f ac 00 bd 6f bc 85 3d
       0.03800661 0.044842165 -0.031414326 0.065300815
0000d0 4e ca c0 3d 95 a6 8c 3d 2f df 8e 3c 7b 35 39 3d
       0.094135866 0.068677105 0.017440407 0.04521702
0000e0 46 03 ae bc dd 40 2d bc 67 cb b4 3c ff 63 87 bb
       -0.021241795 -0.010574547 0.022069646 -0.0041317935
0000f0 14 74 d8 bc 95 8f a8 bc e0 91 b3 bc 6a d1 0f 3d
       -0.026422538 -0.020576278 -0.021920145 0.035111822
000100 57 ae 41 3d 16 9a 4e bd 11 95 ba 3c 8c 55 8b bd
       0.047285404 -0.050439917 0.022776159 -0.06803426
000110 7d a1 00 bc 07 27 8e bd 13 f2 d1 bc b7 c9 32 bd
       -0.007851002 -0.069410376 -0.025628125 -0.0436494
000120 a6 db 7a bd 82 7b 63 bd 65 9b 08 bd 08 ad 05 bc
       -0.06124463 -0.055537708 -0.03335132 -0.00815893
000130 a1 7c 4f bd f9 3f 14 3d 30 8b f6 3c b0 bd f4 3c
       -0.050655965 0.03619382 0.030095667 0.029875606
000140 c5 22 5e bd b0 c3 b3 3c 89 4f 82 3c 75 8b b9 bc
       -0.054232378 0.021943897 0.015907066 -0.022649506
000150 2a ec 5d 3d 80 c8 86 bd 43 68 c3 bd f0 f3 66 bb
       0.0541803 -0.06581211 -0.09541371 -0.0035240613
000160 eb 7b ba 3c a0 e0 84 bc 8c 0a dc 3a fc 16 7a 3d
       0.022764167 -0.01622039 0.0016787811 0.061057076
000170 79 a6 b2 3c 22 6b ea 3b 6f 56 9c bd 65 d6 82 3c
       0.021807896 0.0071538845 -0.076336734 0.015971372
000180 f6 ef 1d 3c f5 ba cd 3c 63 77 2f bc 59 2b 2b bd
       0.009639731 0.025113562 -0.010709616 -0.041789386
000190 be d3 cb 3c 3e cf c6 3d 55 02 9e 3c 53 26 45 3d
       0.02488124 0.09707497 0.019288221 0.048132252
0001a0 ff 74 38 bd 8d 3c 83 bd e9 53 92 3d fd 5f 26 3d
       -0.04503345 -0.064080335 0.07144911 0.040618885
0001b0 85 42 01 3d 4b a8 3d 3d e6 1d 0e bd 26 ee ab 3c
       0.03155758 0.046303075 -0.034696482 0.020987581
0001c0 5c b0 e7 bc a0 2b b0 bb 0d 38 f3 bc d6 95 70 3d
       -0.028282337 -0.0053762943 -0.029689813 0.058736645
0001d0 c5 dc e9 3d 1c 08 37 bd c8 aa a8 3c ee 9e fc bc
       0.114190616 -0.044685468 0.020589247 -0.030837502
0001e0 19 ed 81 3d 13 08 e6 3d bc 25 b5 bd 6d 0f 92 bd
       0.06344051 0.11232009 -0.08845088 -0.071318485
0001f0 16 a8 73 bd 4d 08 59 3b 01 5f 35 3d 51 90 00 3d
       -0.05948647 0.003311652 0.044280056 0.03138763
000200 c8 bb 07 3d d8 b9 43 3c 20 68 30 3c 5f e0 9a bd
       0.033138067 0.011946164 0.010767013 -0.07562327
000210 94 b8 11 bd 15 de b5 bc 06 03 12 b9 df 13 04 bd
       -0.035576418 -0.022200624 -0.00013924771 -0.032245513
000220 bc a2 9e bd 2d 0c 71 bd a2 9f 15 bd 0f b3 2e 3c
       -0.07745883 -0.058849502 -0.03652919 0.010662808
000230 a8 ed 8d 3c f3 13 03 3c 73 8e 39 bc 96 65 81 bd
       0.017325237 0.008000362 -0.011325466 -0.06318204
000240 7f 62 71 bc ca 00 a9 bd bf 81 e9 3c 12 06 bb bd
       -0.014732956 -0.082521036 0.02850425 -0.09132017
000250 93 5e 3c bd ca 3b 53 bc 1e 80 b0 bd 57 2d 82 bd
       -0.04598863 -0.012892673 -0.086181864 -0.06356304
000260 69 c3 4d ba df 57 48 3d 8f de ad bb 8a 5d ba 3b
       -0.0007849248 0.048911925 -0.005306072 0.0056874203
000270 db ed f2 bc 4a 2c 66 bd 31 26 a2 3c 97 97 8f bd
       -0.029654434 -0.05619458 0.019793602 -0.07011335
000280 e6 48 77 bd f2 69 11 3c 04 2b ba bc 17 ff 30 bd
       -0.060372256 0.008875357 -0.02272559 -0.043212023
000290 57 2d 15 bd b6 16 6d bd 1f 5d 56 3d 46 19 3c bb
       -0.036420193 -0.057882987 0.0523349 -0.0028701588
0002a0 4a 5e 05 bc c1 42 81 bd 3d fb 85 3d de 40 10 bc
       -0.008140156 -0.063115604 0.065420605 -0.008804528
0002b0 9c 1b a9 3c 63 4f 35 3d 59 b7 84 3c d1 6b b1 bd
       0.020643048 0.044265162 0.016200708 -0.086631425
0002c0 85 a6 c4 bc 71 10 23 bd 32 23 7c bd 0c 0d 47 bd
       -0.024005184 -0.0398106 -0.061557002 -0.048596427
0002d0 df 5a 75 bd e6 0d 6f bc d3 97 75 bd d9 ea 16 bd
       -0.059901115 -0.014590716 -0.059959244 -0.036845062
0002e0 1d 1e a9 bc 88 ed 13 3d 2b 5c 91 bd 97 db 09 bd
       -0.020644242 0.0361152 -0.07097658 -0.033656683
0002f0 d4 23 7b bd f9 ce 55 bd a5 08 88 3c 6b b6 06 3d
       -0.061313465 -0.052199338 0.016605685 0.03288881
000300 42 82 47 bc b2 e5 da 3c 9a 5c 62 3c ba 9a 32 3d
       -0.012177052 0.026720855 0.013816023 0.04360459
000310 7b b1 96 bb 22 07 0a 3c 29 13 13 3d 3d f0 dd 3b
       -0.004598794 0.008424552 0.035906944 0.0067730234
000320 ea 35 2f 3c d6 60 64 3d 65 86 a2 3d 0c 1b c7 3c
       0.010694006 0.055756412 0.0793579 0.02430489
000330 91 11 2c 3d 81 5e 6b bd 4e 3d 88 bb c4 e6 17 3d
       0.04200894 -0.057463173 -0.0041576987 0.03708531
000340 d3 41 31 bd 3a fc 49 bd db db 74 3d fd 02 c9 3c
       -0.043275665 -0.049312808 0.059779983 0.024537558
000350 78 7e 82 bd 65 c0 cb 3c b4 a9 0e 3d 78 1d 35 3d
       -0.06371778 0.024872014 0.03482981 0.044217557
000360 21 72 6f bd 6e b0 b0 bd 64 73 4b bd 11 1a 72 bb
       -0.05845845 -0.08627401 -0.049670592 -0.0036941806
000370 00 d9 a6 3a cb 65 b6 bd cd cb 9d 3b 09 3c 94 3b
       0.0012729466 -0.08906134 0.0048155547 0.0045237583
000380 db c2 97 bd 22 8c 3b bd ee 67 7d 3d 05 fd a0 3d
       -0.074102126 -0.045787938 0.061866693 0.0786076
000390 0f d5 8e 3c 0b 68 7f bb 39 89 41 3d 1a 71 99 bc
       0.017435579 -0.0038971927 0.047250006 -0.018730689
0003a0 4b f9 42 3d 54 93 e8 3c 33 38 25 3d 46 d3 11 bd
       0.047601026 0.028390564 0.0403368 -0.035601877
0003b0 f7 28 7f bc 35 bc 4f 3d 30 91 16 3c 46 0f 6f bd
       -0.015573732 0.050716598 0.009189889 -0.058364175
0003c0 ef ca 83 bd c6 d4 ba bd 2a cf 2b 3d 60 99 3b 3d
       -0.06435191 -0.091226146 0.041945614 0.045800567
0003d0 2d dc 0a bc fb d2 95 bc 2c 00 1e bd 08 cd 95 3c
       -0.008475346 -0.01828908 -0.038574383 0.018286243
0003e0 f5 c1 25 3d c7 8c f4 bb 40 f8 71 3c 4b 5c 29 bd
       0.040468175 -0.007463071 0.01476866 -0.041347783
0003f0 9f ac 8c bb b7 96 a0 3c 58 3b 6a bc 10 1b 29 bd
       -0.004293039 0.019603116 -0.014296375 -0.041285574

conv2.bias f4 [20]
000000 9b 6e 64 bd 60 d1 6e bd fa dd 97 bd a7 37 0f bd
       -0.055769544 -0.058305144 -0.074153855 -0.034965184
000010 84 a1 0b 3b a8 24 24 3c c0 0b a4 bc 28 bb 10 bc
       0.0021305988 0.010018505 -0.020025134 -0.008833684
000020 44 01 03 3d bc 64 a2 3c 54 4c fe bb f4 d8 1e 3c
       0.03198363 0.019823425 -0.007760564 0.00969528
000030 4e 9c ea ba bc a2 82 3c 97 ba 2e 3d dc 9b 74 bd
       -0.0017899366 0.015946738 0.042658415 -0.05971895
000040 ca e9 7e 3c d1 47 34 3d 6f b4 0c 3d 3c 30 ed bc
       0.015558669 0.044013802 0.034351762 -0.028953664

fc1.weight f4 [50, 320]
000000 2e a1 05 bc cf d5 0b 3d 6e 35 82 3c 73 01 4a bd
       -0.008156104 0.03413945 0.015894618 -0.04931779
000010 48 67 11 bc 4b 0f b0 bb 5b e4 38 bd da 70 1b ba
       -0.008874722 -0.005372917 -0.04513965 -0.0005929597
000020 3c d7 36 3c 56 e2 26 bc bc c8 06 bd f2 aa 19 3d
       0.011159714 -0.010185799 -0.03290628 0.03751654
000030 7d eb f7 bc 53 7c 17 bd 64 0b ed bc 86 64 c9 3b
       -0.030263657 -0.0369838 -0.028936096 0.0061460165
000040 0b b2 fb 3c 97 42 83 bc d5 e5 e4 bc ff a4 49 3c
       0.030724546 -0.016022963 -0.027941624 0.012307405
000050 8f b8 2c bd b1 8a ab 3c 49 d2 32 3d 30 5d ab bb
       -0.042168196 0.020940157 0.043657575 -0.0052296147
000060 1a dc 6b bc c1 97 59 bd aa 65 de bc dd 02 55 3d
       -0.014395738 -0.05312324 -0.027148087 0.052004684
000070 e4 89 a2 bb 90 51 99 bb 13 49 0f 3c 4f 4b 3d bd
       -0.0049602855 -0.0046789125 0.00874545 -0.046214398
000080 cf 09 34 3c db 51 5c bd 09 97 06 bd 29 4a 2b 3d
       0.010988667 -0.053789 -0.032858882 0.04181877
000090 2e 6b 64 bc f1 cb 0a bd 79 2a 0e 3c b8 a8 d0 3c
       -0.013941569 -0.0338859 0.008677118 0.025471076
0000a0 e9 b3 d3 3c ff 7f 63 bc 5c 1c 0b bd e0 c1 ec bc
       0.025842624 -0.013885497 -0.033962592 -0.02890104
0000b0 ce 22 29 bd 2b 2c 12 3d ab 4c 06 ba 6b ab 0e bd
       -0.041292958 0.035686653 -0.0005123119 -0.034831446
0000c0 21 b9 47 bd 38 ad 75 bd 73 a1 15 bd 56 ff 57 bc
       -0.048760537 -0.059979647 -0.036530923 -0.013183435
0000d0 44 f7 bc bb 51 4b d7 3c 7a 96 d2 b8 c9 8a 50 bc
       -0.005766781 0.02628103 -0.00010041609 -0.012728401
0000e0 2f 8c 32 3d 04 d8 d3 3c 57 2b 32 bd 4a cc 67 3d
       0.04359072 0.02585984 -0.043498363 0.05659131
0000f0 b0 5a 54 bc d6 a2 7e bb 94 47 88 3c 60 2c c4 3c
       -0.012961075 -0.0038854382 0.016635694 0.02394694
000100 d1 bc fb 3c f4 ea 20 bd 1e a6 13 bd 0f a7 8a ba
       0.030729683 -0.03928657 -0.036047094 -0.0010578352
000110 c5 44 97 bc 7e fe 3a bd cb f2 1d bd 77 78 15 3a
       -0.018465409 -0.04565286 -0.038561624 0.00057018496
000120 fd 13 51 bd 17 ff 31 bd a0 ce 37 3d 78 43 38 3d
       -0.051044453 -0.043456163 0.044874787 0.04498622
000130 42 8d f6 3c ec 9a 48 bd 84 e2 18 bd 9b 8e 0e bd
       0.030096654 -0.04897587 -0.037325397 -0.034803968
000140 7d 5c 62 3c b9 ba 0a bd 8d a6 5f bd 5a f4 f7 bb
       0.013815996 -0.03386948 -0.054602195 -0.007566971
000150 eb 9c e0 bc 48 cb 17 3d ce e7 c1 3c 5d 3f 8f bc
       -0.027418574 0.0370591 0.023670103 -0.017486269
000160 4f 52 3b 3d bc 94 c8 3c b4 19 c0 bc 04 bf 48 bd
       0.045732792 0.024484985 -0.023449756 -0.04901029
000170 e0 a8 4e bc fd f3 65 bb b7 87 a4 3c 33 59 a7 3c
       -0.012613505 -0.0035088055 0.020084245 0.020428276
000180 c6 23 18 bb 87 b9 c0 bc 52 df 55 bd 08 a4 81 3c
       -0.0023214682 -0.023525966 -0.052214928 0.015825287
000190 4a 94 31 bd 25 72 18 bb 69 6b 2c bb c6 45 85 3c
       -0.04335431 -0.0023261395 -0.0026309139 0.016268622
0001a0 5b 28 6b 3c a1 bb 44 bc f9 00 c0 bc 3c 6e 4e 3d
       0.014352883 -0.012007625 -0.023437964 0.050398096
0001b0 8b a0 0c bd d4 8a de b9 28 69 06 3a ba 63 49 bd
       -0.034332793 -0.00042446575 0.0005127364 -0.049167372
0001c0 46 e3 d4 bc 32 c8 22 bd fc 5e 3a 3d dc 10 59 3d
       -0.025987279 -0.039741702 0.04550074 0.052994594
0001d0 d0 3d b5 3c 6d fd aa 3b 88 ad 8c bc 38 8b 1f 3d
       0.022124201 0.005218199 -0.01717259 0.03895113
0001e0 12 2a 44 bc 24 4a 2b 3c 4a ff 53 bc af ed 43 bd
       -0.011972921 0.010454688 -0.012939284 -0.047834095
0001f0 a9 ee 01 bc 7e 94 11 bd 9e 5b af 3b 6f 08 f0 bb
       -0.007930436 -0.035542004 0.005351498 -0.007325224
000200 6e a3 5d bd fb 16 a2 bc 61 92 a3 3b 3e c4 b9 bb
       -0.054110937 -0.019786349 0.004991815 -0.005669146
000210 0e 97 1a 3d 74 13 e2 bb 08 e7 03 3c 0f 05 0d 3c
       0.037741713 -0.0068992916 0.008050688 0.008607163
000220 7e 47 5e bd 12 a1 e8 3c cb 38 28 bd 22 6b 1d 3d
       -0.0542674 0.028397117 -0.041069787 0.038432248
000230 d9 54 1a 3d 98 36 01 3d cc 69 1f 3d fe c9 39 3c
       0.037678573 0.031546205 0.038919255 0.011339663
000240 a5 48 39 3d 1c 50 9c 3c c5 51 b6 3c dc 36 24 bd
       0.045235295 0.019081168 0.022255788 -0.04009138
000250 34 e2 46 bb e1 dd 49 bd d0 55 f3 bb 1f f5 1a 3c
       -0.003034723 -0.049283866 -0.007426001 0.0094578555
000260 09 c5 54 bd 8e 49 98 3b 06 c1 15 bd 7c 05 41 bc
       -0.05194572 0.0046474403 -0.036561035 -0.011781093
000270 5c 92 05 3b 33 5f 91 bc b9 85 d4 3c f5 38 e1 3c
       0.0020381426 -0.01774559 0.02594267 0.02749298
000280 a3 5a 97 3d b6 b4 7d 3d 03 66 13 bd dc 0a 5a 3c
       0.073903345 0.061939918 -0.035985958 0.013308253
000290 74 cc 8a 3a 5f f2 50 bd 5e a6 24 bd d9 75 87 bc
       0.0010589496 -0.051012393 -0.040197723 -0.016535686
0002a0 7f 99 c0 bb 46 50 85 3d 8f 8b 39 3d 0d a5 d6 3c
       -0.005877673 0.065094516 0.04529911 0.02620175
0002b0 ea 3a 6b 3c 9b 94 54 bd 27 f1 4d bd e8 da 01 3c
       0.014357308 -0.051899534 -0.05027881 0.0079257265
0002c0 b2 37 20 bc da fc f9 bb 9e 88 da 3c ee 6c 80 bc
       -0.009778904 -0.007629019 0.026676472 -0.015676942
0002d0 dd 38 f4 bc 03 02 71 bb 81 4e 42 bd f8 e8 06 3d
       -0.02981227 -0.003677488 -0.04743815 0.03293702
0002e0 dc 5a 53 bd 0f 67 69 ba 5a b5 04 bd 3e 15 35 bd
       -0.051600322 -0.00089036016 -0.032399513 -0.04420971
0002f0 71 4b 7a bc 52 c1 9e bc 88 d3 f0 3c f4 f9 c9 bc
       -0.015276776 -0.019379292 0.029397741 -0.02465532
000300 d4 e7 33 3d 66 a9 2b bc 91 2c 68 bd bd c7 55 bc
       0.04392226 -0.010477399 -0.056683127 -0.01304811
000310 d3 27 e0 3c 0f 3d d0 3b 61 1c c8 3b f7 57 a4 3b
       0.02736274 0.006354935 0.0061068987 0.005015369
000320 e0 83 39 bd c5 58 13 bd 39 04 c0 3c 1c 06 1e 3d
       -0.04529178 -0.03597333 0.023439514 0.038580045
000330 81 5f 01 bd ef a8 0a 3c 6c 37 13 3d 84 2f b7 3a
       -0.03158522 0.0084631285 0.035941526 0.0013975953
000340 d6 b4 08 3d aa 6d 0f 3c 65 88 ce bc 20 32 16 bd
       0.033375584 0.008754173 -0.025211522 -0.036668897
000350 38 94 8a 3b ff f1 ed bc 0c 4f 13 3d f6 62 dc bc
       0.004229095 -0.029046057 0.035964057 -0.026902657
000360 9f 4a 09 bd fa a6 eb 3c f7 7a fd bc 4a 8a a4 3b
       -0.03351843 0.028766144 -0.030942423 0.005021368
000370 e5 11 2a 3c fa 1b 28 3d 0c 62 06 bd be 6c 1d bd
       0.010380243 0.041042306 -0.03280835 -0.038433783
000380 92 b8 4f bd 5f 14 1d bc 39 c0 fd 3c e8 1e 60 3d
       -0.05071313 -0.009587376 0.030975448 0.054716974
000390 45 4d d3 bc 88 29 01 bc 84 90 b9 3c 66 39 68 bd
       -0.02579368 -0.007883437 0.022651918 -0.056695364
0003a0 d8 21 4c 3d 2e 55 3e bd ba 94 e2 3c 9c 36 68 bd
       0.049836963 -0.046467952 0.027658809 -0.056692705
0003b0 4d 4f 43 bb 5b 8d 3f 3d 60 68 12 bd bf 6a 5d bd
       -0.0029801906 0.046765666 -0.03574407 -0.05405688
0003c0 1d a6 52 3d a8 d9 5d 3c 67 3f 5d 3b 30 39 15 3d
       0.05142795 0.013540663 0.0033759715 0.03643149
0003d0 37 eb ae 3c 4c 08 39 3d 70 31 c3 bc 69 03 03 bd
       0.021352394 0.04517393 -0.023827285 -0.031985674
0003e0 d1 d2 42 bd 22 88 ac bc bd 13 44 bc 02 4d 16 3d
       -0.04756433 -0.021061007 -0.011967597 0.036694534
0003f0 a9 54 c1 3b 2c e0 d5 3b f0 9f ee 3b 03 41 e4 bc
       0.005899985 0.0065269675 0.0072822496 -0.027863031

fc1.bias f4 [50]
000000 99 85 c9 bb cf f5 cc bb ac cd 15 bc 63 e8 7f bd
       -0.0061499593 -0.0062548886 -0.009143274 -0.06247748
000010 66 67 cb 3b ee b5 9d 3b f4 3c 3b 3d 40 4e 04 3d
       0.0062073944 0.0048129475 0.045712426 0.032301188
000020 f3 59 d7 bc 32 a3 a2 3c 5f 4b 4a bd 27 82 b3 bb
       -0.026288008 0.019853208 -0.049388286 -0.005478162
000030 ff 7f 87 3b 75 6c b5 3b 7b bf 1f 3d f1 f9 82 bc
       0.0041351314 0.0055366107 0.03900097 -0.015988322
000040 e2 05 d5 bc fb 88 50 3d 81 7a 0d 3d 7e a7 ca 3b
       -0.026003782 0.050911885 0.034540657 0.0061845174
000050 4c f3 bb bc 6e 94 6e 39 a5 56 9f bc d4 35 94 3d
       -0.022943161 0.00022752743 -0.019450495 0.072368294
000060 d7 9c 83 3d d8 02 2c 3c ee 47 2d 3d 73 21 08 bd
       0.06426399 0.010498725 0.042304926 -0.033235025
000070 6d 23 73 bd 5c 85 6b 3d ee be 07 bd 8c d4 91 bb
       -0.059359957 0.05750023 -0.03314107 -0.0044503864
000080 bc 05 2c 3a c3 81 0a bd 47 e0 41 bd e9 3a 61 3d
       0.0006562134 -0.033815157 -0.04733303 0.05498782
000090 97 4c 23 bd d7 75 4e bd 4a 37 33 3d 6c e8 ca ba
       -0.039867964 -0.05040535 0.0437539 -0.0015480644
0000a0 8f 35 4b bd 41 1b 63 bd b0 90 92 3c 75 d2 d3 3c
       -0.049611624 -0.055445913 0.017891258 0.02585719
0000b0 2c dc 16 3d 82 87 c4 3c 38 92 fd bb eb 25 53 3c
       0.036831066 0.023990396 -0.007738378 0.012887458
0000c0 59 7d 42 bc c2 a8 86 3d
       -0.0118707055 0.06575157

fc2.weight f4 [10, 50]
000000 a9 e4 fd bd 29 81 d2 bb 61 27 f9 bd cd 48 d3 3d
       -0.12397129 -0.0064240885 -0.12165714 0.1031662
000010 82 54 16 bd 10 04 a6 bd 0d 85 58 bd d3 80 9d bd
       -0.036701687 -0.081062436 -0.052861262 -0.07690587
000020 72 fa f0 bd 26 f4 08 be 47 dc 2f 3e d6 7f ac bd
       -0.11766519 -0.13374385 0.17173873 -0.0842282
000030 3e 66 7a 3e d0 5b 10 be 7b 77 0d be a8 9f f3 bd
       0.24453065 -0.14097524 -0.1381511 -0.118956864
000040 58 66 b6 3c 7b d5 61 bd 58 ee e2 bd 2c 58 b8 bc
       0.022265598 -0.05513523 -0.11080617 -0.022502981
000050 b5 a5 29 be 45 c8 f5 3d 1d 5a be 3d 90 27 8f 3d
       -0.16567118 0.12001089 0.092945315 0.06989968
000060 f9 e1 03 be 4a 68 00 be 8c 1a fe bd 39 51 ee bd
       -0.1287917 -0.12539783 -0.12407407 -0.11636586
000070 69 96 d8 3d 09 92 8d be b7 da 75 be 4d 60 8f 3d
       0.105755635 -0.27650478 -0.24009214 0.0700079
000080 a4 72 ab 3e 98 d3 8f bd fc f3 92 bd 9e 12 75 bc
       0.334859 -0.0702278 -0.071754426 -0.014958052
000090 de 17 5b 3e c7 bd 33 3d c4 7a 1d 3e 29 f0 38 3c
       0.21395823 0.043882158 0.15378863 0.011287727
0000a0 9b 3e b9 bd 31 28 f0 3c fa 87 ff bd 0a 5e 1d be
       -0.09045144 0.02931604 -0.12477107 -0.15367904
0000b0 1b e3 94 3e f9 1d 76 bd cb 0b 95 be 19 99 42 be
       0.29079518 -0.060087178 -0.2911056 -0.19003715
0000c0 6e 43 9e 3e 8c 72 47 3e f6 f5 c3 3c 5c 8e a6 3e
       0.3091082 0.1947729 0.023920994 0.32530487
0000d0 c1 1e 2e bd ae 63 ba bd 0a 35 45 3d e9 6a fd bd
       -0.042509798 -0.09101044 0.048146285 -0.12373907
0000e0 5c 98 27 be 8e e0 5a bd 19 fb c0 bd 61 fa 25 3e
       -0.16366714 -0.05343681 -0.09422893 0.16208793
0000f0 04 df 3d be dd 5d 20 be 64 f6 67 be ef 4e 43 bd
       -0.18542105 -0.15660806 -0.22652584 -0.0476827
000100 0d c2 10 3e fd 68 69 3e 6e 96 18 be 11 cd a2 3d
       0.14136524 0.22793956 -0.14901134 0.079492696
000110 4a 67 93 3e c1 6c 80 bd f9 c1 d0 3d b6 d9 07 3e
       0.2878974 -0.06270743 0.10193247 0.13266644
000120 a0 97 55 be 10 2f 12 3e b6 0f 99 bd 2a 3b 2e be
       -0.20858622 0.14275765 -0.074737 -0.17014757
000130 fe c4 e3 3d 01 94 0a bd 27 f1 15 be 0e cb 1b 3e
       0.11121558 -0.033832554 -0.14642774 0.15214178
000140 09 3d b8 3b 23 0e b9 bb d6 e6 37 3c 9d 1e b8 bd
       0.0056225103 -0.005647437 0.011224469 -0.08990214
000150 45 81 db bd 53 2f c2 ba 4d 7a c8 bc ab a2 5e bd
       -0.107180156 -0.0014815129 -0.02447238 -0.05435435
000160 79 02 72 be ca e3 b5 3a 0c 95 d3 bd 27 7e 19 bd
       -0.23633756 0.001387709 -0.10331163 -0.037473824
000170 84 05 47 be 9b 40 06 be 69 79 4f be b7 a9 84 bd
       -0.19435698 -0.13110583 -0.20261158 -0.06477683
000180 e0 d9 e3 bd 0f 65 ce 3d 5d 3d 19 ba e4 2e cc bd
       -0.11125541 0.10077869 -0.00058456307 -0.09969881
000190 56 a4 9f 3d 8b b7 25 3d 9a 6e cd bd e2 b8 84 bb
       0.077950165 0.040458243 -0.10030861 -0.00405036
0001a0 0c c1 93 3e e0 86 e0 bd 8d 3d 9e bc e0 14 d7 3d
       0.2885822 -0.10963225 -0.01931646 0.105020285
0001b0 4f 6f 17 bd c2 87 3c 3e a0 a7 2d 3e 9a d3 73 bd
       -0.036971387 0.18411162 0.16958475 -0.05952797
0001c0 be 03 6b 3e 68 e8 c7 bd 86 1f e9 bd 4c fa 33 3e
       0.22950646 -0.09761125 -0.11382966 0.1757595
0001d0 68 cc b1 3d c1 b2 2e 3b 73 ea ef bc 8c e5 28 3d
       0.086815655 0.0026656839 -0.029286599 0.041234538
0001e0 fb 6a 38 3a 93 d9 43 bd 1f fc 5a 3d 27 fe 32 be
       0.00070349843 -0.047814917 0.053463098 -0.17479764
0001f0 58 2c 14 be 0f 33 90 bc 86 93 31 bd 01 2d 08 be
       -0.14470041 -0.017602472 -0.04335358 -0.13298418
000200 76 2a b3 3b 55 f6 10 3e cb b4 d3 3d fc 73 be bc
       0.005467708 0.14156468 0.10337218 -0.023248665
000210 3d af 0b 3e e5 07 07 be b3 c9 e5 bc 75 7b 76 3e
       0.13641067 -0.13186605 -0.02805028 0.24070533
000220 69 1e bf bd 8d 1e 41 bd 70 19 17 be df 91 22 3e
       -0.09331972 -0.047148276 -0.14755797 0.15875958
000230 19 66 da bd 7b 1e 82 bd 79 48 e4 bd 81 5c 10 3e
       -0.10664005 -0.0635347 -0.111466356 0.14097787
000240 39 53 a5 3d 86 38 d7 bd 64 bf 47 bd 23 a0 f0 bd
       0.08072514 -0.10508828 -0.04876651 -0.11749294
000250 25 75 24 bd 58 92 71 3d c2 66 f3 3d a1 e9 d0 bd
       -0.04015078 0.058977455 0.11884834 -0.10200811
000260 4f 01 9a bd 80 b2 52 3d b9 34 f3 3d 10 7f e3 3d
       -0.07519781 0.051439762 0.118752904 0.111082196
000270 53 74 d5 3d 82 34 46 3e b7 7b 89 3d 76 e3 47 bb
       0.10422578 0.19355968 0.0671305 -0.0030500568
000280 25 50 1a 3c 07 e7 2b 3e 1e 9b dd 3c f1 07 a6 bd
       0.009418522 0.16787349 0.027051505 -0.081069835
000290 2b 1c 37 be 8c 55 82 bd 15 11 2f 3b 72 fa 0e be
       -0.17881839 -0.06363973 0.0026713063 -0.13962725
0002a0 9e ba 02 bd aa d4 4a 3e 07 6c a7 3d 8a 72 9c 3d
       -0.031916253 0.19807687 0.081749015 0.07639034
0002b0 24 8e 3f be 81 a9 a5 bd 16 e6 d1 bd 0b 98 68 be
       -0.18706566 -0.08088971 -0.102489635 -0.2271425
0002c0 81 e5 05 3e a9 84 ab bd f7 c5 50 bd 5d 2e 91 3e
       0.1307583 -0.08374912 -0.050970044 0.28355685
0002d0 b8 aa dd bd 71 d9 29 3e 2f 84 09 be 1f af 35 be
       -0.10823578 0.16586854 -0.1342933 -0.17742585
0002e0 cf 7c 33 bd 02 e7 4b 3d 41 58 78 be 84 a7 fe 3d
       -0.0438202 0.049780853 -0.24252416 0.12434295
0002f0 58 23 78 bd 3f 05 39 3e 07 eb a4 bd 2f 36 0b bd
       -0.06058058 0.18068407 -0.080526404 -0.03398722
000300 8c 65 75 bd c0 c1 07 bd 7e 56 99 3d 43 59 01 be
       -0.059911296 -0.03314376 0.074872 -0.12631707
000310 43 ef d8 3d 71 24 3c 3e 14 0f 21 be a8 b2 84 bb
       0.105925106 0.18373276 -0.15728408 -0.004049618
000320 59 f1 12 3d 11 dc ee bd 88 50 99 bd fe ea e6 bc
       0.0358747 -0.11663068 -0.07486063 -0.028188225
000330 ee da 5c bb cc a4 bf 3d 32 cb 41 be b3 8c 33 bd
       -0.0033699828 0.093576044 -0.18925169 -0.043835353
000340 e4 bc 25 3e 01 e0 0c be d7 68 0a 3e 9a c4 90 3d
       0.16185337 -0.13757326 0.13516556 0.07068749
000350 06 50 d0 bd da e1 19 bc 74 28 65 3e 38 8b db 3c
       -0.10171513 -0.009392226 0.22378713 0.026799783
000360 fb f7 44 3d 62 d8 cf bd c7 87 68 bd 50 cc fe 3c
       0.048088055 -0.101486936 -0.056770112 0.031103283
000370 04 d4 bc bd 50 83 33 3c 37 6a 7c 3b 93 41 99 bd
       -0.09220126 0.0109566 0.0038515457 -0.074832104
000380 92 48 ce bd 5c f3 48 3e 32 a4 4e 3e 75 6b 4a be
       -0.100724354 0.19624084 0.20179823 -0.19767554
000390 d9 ad b7 3d e7 bc 84 bc 96 34 20 3e b5 00 b3 bd
       0.08968706 -0.016203357 0.1564506 -0.08740369
0003a0 92 e8 cd bd b3 70 13 3e 43 2a 9d 3d 67 d1 c2 bc
       -0.10054125 0.1439846 0.076740764 -0.023781491
0003b0 f6 c8 0c 3e 77 f0 ce bc b4 c1 42 be 11 7f 40 be
       0.13748536 -0.025261147 -0.19019204 -0.18798472
0003c0 38 99 6f 3d 9b 3f 9e bd be 89 f9 bc c5 d5 bc 3e
       0.05849573 -0.077269755 -0.030461188 0.36881843
0003d0 f3 a4 67 be 1d 40 36 be b1 ff b1 3d 69 f0 45 3d
       -0.22621517 -0.17797895 0.086913474 0.048324976
0003e0 f0 82 48 be b9 3f 97 3b ff c0 79 3d e1 b4 b9 bd
       -0.19581199 0.0046157506 0.06097507 -0.09067703
0003f0 27 8b 0c be 30 7c 50 3d 11 9e 1a be 56 6c 9a bd
       -0.13724957 0.050899684 -0.1509936 -0.07540195

fc2.bias f4 [10]
000000 fd ea 95 bd 4f 85 74 3e 84 bc d1 bd 00 ab 2b bd
       -0.07320211 0.23878978 -0.102410346 -0.041911125
000010 5f 54 95 bd 23 70 50 bd ba 6d ac bd d6 83 e8 bd
       -0.07291483 -0.050888192 -0.08419366 -0.11353271
000020 d6 64 15 3e 5e 86 36 bd
       0.14589247 -0.044561736
