MNIST/Models/Client_1/Trained local models/Trained_8_5_2021_10_45_30.pth (torch, 90095 bytes, 8 tensors)

conv1.weight f4 [10, 1, 5, 5]
0	0xbe0c0b0a	-0.13676086
1	0x3d8f5f1d	0.07000563
2	0x3daf6ab9	0.085652776
3	0xbcc6bffc	-0.024261467
4	0xbdb97cad	-0.09056983
5	0x3e0cd506	0.13753137
6	0xbd88d674	-0.06681529
7	0xbd5ea066	-0.054352187
8	0x3d00e7e3	0.031471144
9	0x3c48f207	0.012264735
10	0x3d85d259	0.06534261
11	0xbdd8265f	-0.10554194
12	0xbda6c908	-0.081438124
13	0x3d376ae7	0.044779684
14	0xbda03e7a	-0.078244165
15	0xbdc73452	-0.09726776
16	0x3e2bb4cf	0.16768192
17	0x3c64edb4	0.0139726885
18	0xbb33e69a	-0.0027450682
19	0x3df3f59e	0.11912082
20	0xbdfb9813	-0.12284865
21	0xbe2bb681	-0.16768838
22	0x3dd86b1f	0.10567307
23	0xbdd2b817	-0.102890186
24	0xbe1a8a1a	-0.15091744
25	0xbe6df594	-0.23238212
26	0xbe249fa5	-0.16076525
27	0x3d1530fd	0.036423672
28	0xbe3f0615	-0.18654664
29	0x3ddbd487	0.10733896
30	0xbd3f89ad	-0.046762157
31	0xbb775804	-0.003774167
32	0xbd73dab7	-0.059534755
33	0xbd4ad7ca	-0.0495222
34	0x3d386daa	0.04502646
35	0xbe5b40e1	-0.21411468
36	0x3d0c6351	0.034274403
37	0x3d9b65ec	0.075877994
38	0xbc60c6c1	-0.013719262
39	0x3dfa9dd3	0.12237134
40	0xbce146fc	-0.027499668
41	0x3db6bd5f	0.089228384
42	0xbe0f256c	-0.13979119
43	0xbc02f077	-0.007991902
44	0x3e67e243	0.22644906
45	0x3e25be5b	0.16185896
46	0x3e6afa39	0.22947015
47	0x3e73435a	0.23756161
48	0x3e6d1ee9	0.23156323
49	0x3e4f4563	0.20241313
50	0xbd62797f	-0.05529165
51	0x3e19b64e	0.1501095
52	0x3e340d28	0.17583144
53	0x3e952469	0.2912934
54	0x3e8181c6	0.25294322
55	0x3b942986	0.0045215515
56	0x3db2070c	0.0869275
57	0xbda267df	-0.07929968
58	0xbdecd0e6	-0.11563282
59	0x3d2d47ed	0.042304922
60	0x3d5a19cd	0.05324726
61	0x3dfec915	0.12440697
62	0xbbea6e7c	-0.007154284
63	0x3dd67be2	0.104728475
64	0xbe3e89a1	-0.18607189
65	0xbdf8bf9b	-0.12145921
66	0xbe184b81	-0.14872552
67	0xbe4744fe	-0.19459912
68	0xbe1eea69	-0.15519108
69	0xbe1f24df	-0.15541409
70	0xbe5e7106	-0.21722803
71	0xbe35a348	-0.17738068
72	0xbd8c5bb4	-0.068534285
73	0xbd8ba94a	-0.06819399
74	0x3ded4ed8	0.11587304
75	0x3c5052a3	0.012715015
76	0x3dcb2ca2	0.099206224
77	0x3d253c20	0.040340543
78	0x3e0d1ea4	0.1378122
79	0x3e3b7327	0.18305646
80	0xbe4ba8de	-0.19888636
81	0xbe20838b	-0.1567518
82	0xbbb907d2	-0.005646684
83	0x3e4ce2dd	0.20008416
84	0xbe09c38f	-0.13453506
85	0xbd9003ae	-0.07031952
86	0x3e292758	0.16518915
87	0x3e044e1d	0.12920423
88	0x3dd23301	0.102636345
89	0xbca2552f	-0.01981601
90	0x3d4eb9cc	0.05047016
91	0xbb78b8dc	-0.0037951982
92	0x3e54d0b7	0.20782743
93	0xbe17035f	-0.1474738
94	0xbd8c73b0	-0.06858003
95	0x3c5ea4e0	0.013589114
96	0x3d95fc6d	0.07323537
97	0x3c08a158	0.008339249
98	0x3de62dfd	0.1123924
99	0xbe652419	-0.22377051
100	0xbce676fd	-0.02813291
101	0xbe441335	-0.19147952
102	0x3d723e0a	0.059141196
103	0x3e42420c	0.18970507
104	0x3e1bdbb3	0.15220527
105	0xbe110605	-0.14162453
106	0xbe601fd4	-0.21887141
107	0xbddf2103	-0.10894968
108	0xbd77e9a2	-0.060525544
109	0x3dd66a47	0.104694895
110	0xbe790722	-0.24319127
111	0xbe528c85	-0.20561416
112	0xbd91798e	-0.07103263
113	0x3dd767f9	0.10517878
114	0x3e4b6076	0.19861016
115	0x3ceeb5e9	0.029139476
116	0x3d9ed2b8	0.07755035
117	0xbd9a32a3	-0.075291894
118	0xbdaddad3	-0.08489003
119	0x3e1a9283	0.15094952
120	0xbe44e0ad	-0.19226332
121	0xbe9a5ae1	-0.3014746
122	0x3d7da180	0.061921597
123	0x3e368755	0.17825063
124	0x3e764dad	0.24053068
125	0xbd78dc5f	-0.060757037
126	0xbdd74be3	-0.10512521
127	0x3e1c2dd7	0.15251862
128	0xbda4b698	-0.080426395
129	0x3e6f2fe4	0.23358113
130	0xbd0a6019	-0.033783052
131	0x3e835420	0.2565012
132	0x3e4c68bf	0.19961832
133	0x3e87d69d	0.26530924
134	0xbd1bec83	-0.038067352
135	0x3e02ee42	0.127862
136	0xbe0771ce	-0.13227007
137	0x3e3bc415	0.18336518
138	0x3d7ec42a	0.062198795
139	0x3d648b08	0.055796653
140	0xbcda5a8c	-0.026654504
141	0xbe1c7ab9	-0.1528119
142	0xbe3636a1	-0.17794277
143	0xbd47b5dc	-0.04875742
144	0x3e41de23	0.18932395
145	0xbda71aef	-0.08159434
146	0xbe54910f	-0.2075846
147	0xbe26465b	-0.16237776
148	0xbe689b2c	-0.22715443
149	0xbd9b27dd	-0.07575963
150	0x3cd79b5e	0.026319202
151	0xbdf478de	-0.11937116
152	0x3e0ef2a9	0.13959755
153	0xbc3f41dd	-0.011673418
154	0xbe39a15f	-0.18127964
155	0xbe34d819	-0.1766056
156	0xbe41ff9c	-0.18945163
157	0xbdd06507	-0.101755194
158	0x3e3c8936	0.18411717
159	0x3dbfbb41	0.09361888
160	0x3e51cb51	0.20487715
161	0x3e827e4a	0.25486976
162	0x3c2ca4ae	0.01053731
163	0x3d14486b	0.036201876
164	0x3e5a5a0b	0.21323411
165	0x3e2c9511	0.1685374
166	0x3e077b20	0.13230562
167	0x3e26aa53	0.16275911
168	0x3e08a29b	0.13343279
169	0xbdce92f5	-0.100866236
170	0xbd729ed1	-0.05923349
171	0xbe1b8e4b	-0.15190999
172	0xba48793a	-0.00076474587
173	0x3de48628	0.11158401
174	0xbdb97799	-0.090560146
175	0x3e20e23d	0.15711303
176	0xbddf7f2e	-0.109129295
177	0xbd66c152	-0.05633671
178	0xbd9e5640	-0.07731295
179	0xbe1fbc66	-0.15599212
180	0xbdc198db	-0.09452983
181	0x3de1bc57	0.11022251
182	0xbc233f14	-0.0099637695
183	0xbe5faa66	-0.21842346
184	0xbdeaf79e	-0.114730105
185	0x3e7df0b7	0.24798857
186	0x3e46d933	0.19418792
187	0xbdadcd25	-0.08486394
188	0xbc1f333c	-0.009716805
189	0x3e2b94b8	0.1675595
190	0x3bddeaea	0.0067723887
191	0x3d6d276b	0.05789892
192	0x3e52087a	0.20511046
193	0x3e613bb9	0.21995439
194	0xbdfd2971	-0.1236142
195	0x3e1e3a90	0.15452027
196	0x3e40d662	0.1883178
197	0x3e546176	0.20740303
198	0xbe210109	-0.15723051
199	0xbde0b71b	-0.109724246
200	0x3d82125b	0.06351157
201	0x3e2059c6	0.15659246
202	0x3d8bea10	0.06831753
203	0x3da8f33b	0.082495175
204	0x3db7a259	0.08966512
205	0xbe339d25	-0.17540415
206	0x3dc16fdf	0.09445166
207	0x3e370ed5	0.17876752
208	0xbd172aca	-0.03690604
209	0xbd8e01bf	-0.06933927
210	0x3d5a71cc	0.05333118
211	0xbe58ec2a	-0.2118384
212	0xbd0137c2	-0.031547315
213	0x3e135fb0	0.1439197
214	0x3d8caf29	0.06869347
215	0xbe26205b	-0.1622328
216	0xbe043d72	-0.12914065
217	0xbe3dfbcb	-0.18553083
218	0xbddde9bc	-0.10835597
219	0x3d97b1d4	0.07406965
220	0xbdee1178	-0.11624426
221	0x3de37e59	0.11108083
222	0xbdd7b642	-0.1053281
223	0xbde05a0d	-0.10954676
224	0x3d6d3bac	0.057918236
225	0x3d1f65e5	0.038915534
226	0x3e4d68ce	0.20059511
227	0xbd8919b0	-0.066943526
228	0x3e37d623	0.1795278
229	0x3de3ecd9	0.111291595
230	0xbe5ed5aa	-0.21761194
231	0xbe434d9c	-0.19072574
232	0x3e03c84d	0.12869377
233	0x3dcf6821	0.10127283
234	0x3e711575	0.23543341
235	0xbc8c80c7	-0.01715125
236	0xbe3c5473	-0.1839159
237	0xbe2093f6	-0.15681443
238	0xbd07a0a7	-0.033112194
239	0xbe1e65bd	-0.15468498
240	0x3e097296	0.13422617
241	0xbdd057a2	-0.10172965
242	0xbdb9bc66	-0.09069137
243	0xbddf7ca1	-0.10912443
244	0xbe32020c	-0.17383593
245	0x3dee1889	0.116257735
246	0x3db448f9	0.08802981
247	0x3c903f52	0.017608318
248	0xbde7bd4d	-0.11315403
249	0xbdc3c41a	-0.09558888

conv1.bias f4 [10]
0	0xbdebad8e	-0.11507712
1	0x3e0e88b7	0.1391934
2	0x3d1a4bb4	0.037669852
3	0xbe4be876	-0.19912896
4	0xbd033dce	-0.032041363
5	0x3da90806	0.082534835
6	0xbdaee92c	-0.08540568
7	0xbdfdfb9b	-0.124015056
8	0x3e265364	0.16242748
9	0x3d86a77f	0.06574916

conv2.weight f4 [20, 10, 5, 5]
0	0xbd4d3e34	-0.05010815
1	0xbb823fba	-0.003974882
2	0x3d1cfa2a	0.038324513
3	0xbd7571fa	-0.05992315
4	0x3d8421d2	0.06451763
5	0xbc751fa0	-0.014961153
6	0xbd07d556	-0.033162437
7	0x3d7ebb6e	0.062190466
8	0x3d17b036	0.037033282
9	0x3d6289b5	0.05530711
10	0xbd6eb344	-0.05827643
11	0xbd1f8b55	-0.038951237
12	0x3ce6ff50	0.028197914
13	0xbcd14a8c	-0.025548242
14	0x3d82d5dd	0.063884474
15	0x3d2fcbd2	0.042918988
16	0xbc78a2d0	-0.015175536
17	0x3d59cadb	0.053171974
18	0x3b31fd11	0.0027158896
19	0x3d360ed1	0.044447724
20	0x3d690bcc	0.056896016
21	0x3b373bc4	0.0027959207
22	0xbd86b9e9	-0.06578428
23	0xbd4241d4	-0.04742606
24	0xbd7f474f	-0.062323865
25	0xbc980638	-0.018557653
26	0xbd7ae140	-0.06124997
27	0x3b52b630	0.003215205
28	0xbd856fef	-0.0651549
29	0xbbcb3690	-0.0062015727
30	0xbdbe43e1	-0.092902906
31	0x3bc945bb	0.0061423457
32	0xbb082bb2	-0.0020777998
33	0x3d0891dc	0.033342227
34	0xbd4be0d1	-0.04977495
35	0xbc560f45	-0.013065164
36	0xbd01a4f5	-0.031651456
37	0xbd7bd578	-0.061482877
38	0x3cb88335	0.022523502
39	0xbd999725	-0.07499532
40	0x3da4a0fc	0.08038518
41	0x3c4dc4aa	0.012559095
42	0x3d8056f6	0.062665865
43	0xbd722272	-0.05911488
44	0xbd8850e3	-0.06656053
45	0x3dbe8fa5	0.09304742
46	0x3ddd3cf6	0.10802643
47	0xbd0c08a4	-0.034187928
48	0x3d6657f3	0.05623622
49	0x3d75ec8a	0.060040034
50	0xbcd2de2f	-0.025740711
51	0x3d81bba3	0.06334617
52	0x3dafcaca	0.08583601
53	0x3d7e62a8	0.062105805
54	0x3c8e9c11	0.017408403
55	0x3d6e549e	0.058186166
56	0xbc82d428	-0.015970305
57	0xbc49e6ac	-0.012323063
58	0x3ccb91dc	0.024849825
59	0x3b24d9b5	0.0025154178
60	0xbca4c464	-0.020113178
61	0xbc886502	-0.016649727
62	0xbca91ae1	-0.0206427
63	0x3d366ef3	0.044539403
64	0x3d6e5a75	0.058191735
65	0xbd3bc876	-0.04584547
66	0x3d0080e5	0.031372923
67	0xbd77e07f	-0.06051683
68	0x39d68b46	0.00040921028
69	0xbd7cad21	-0.061688546
70	0xbcb6fc50	-0.022337109
71	0xbd1bf97a	-0.038079716
72	0xbd739dba	-0.05947659
73	0xbd65d2fe	-0.05610942
74	0xbcf57fae	-0.029968109
75	0xbae005be	-0.0017091555
76	0xbd3f87d8	-0.04676041
77	0x3d15ddfb	0.03658865
78	0x3cf3b3ca	0.029748816
79	0x3cd8d3b5	0.026468137
80	0xbd423f52	-0.04742367
81	0x3cf92efc	0.030417912
82	0x3cd14737	0.025546653
83	0xbca56ce2	-0.020193521
84	0x3d4bda1e	0.04976856
85	0xbd7daf9b	-0.06193505
86	0xbdac965d	-0.08427117
87	0x3c135d83	0.008994463
88	0x3cb3df18	0.021956965
89	0xbc9f7bf8	-0.019468293
90	0x39167473	0.00014348495
91	0x3d8f40bd	0.0699477
92	0x3ce3bd3a	0.027800191
93	0x3b23d997	0.002500152
94	0xbd94e089	-0.07269389
95	0x3b9c2f23	0.0047663613
96	0x3bc208ff	0.0059214826
97	0x3c9f9b25	0.019483158
98	0xbc15160f	-0.009099497
99	0xbd118cf6	-0.03553482
100	0x3cd1331e	0.02553707
101	0x3db3059c	0.08741304
102	0x3bd51f2e	0.006503961
103	0x3d20045c	0.039066657
104	0xbd4d7af8	-0.0501661
105	0xbd650ecf	-0.055922326
106	0x3d9fbd08	0.07799727
107	0x3d0fe749	0.03513268
108	0x3ca2b6c4	0.01986254
109	0x3d22a41d	0.039707292
110	0xbce7ec29	-0.028310852
111	0x3cefda52	0.029278908
112	0xbd2135ac	-0.039357826
113	0xbc775fe6	-0.015098548
114	0xbcfc2b42	-0.030782346
115	0x3d6e30f2	0.058152147
116	0x3df7fcdf	0.12108778
117	0xbd4d4cf6	-0.050122224
118	0x3c956e4b	0.018241068
119	0xbcdb20eb	-0.026749095
120	0x3d6a2ffb	0.057174664
121	0x3deee8cc	0.11665496
122	0xbdae3a52	-0.085072175
123	0xbd925fa7	-0.071471505
124	0xbd6ca796	-0.05777701
125	0x3c978114	0.018494166
126	0x3d4ff980	0.05077505
127	0x3d00fbff	0.031490322
128	0x3d100fa6	0.035171174
129	0x3c9148e1	0.017734947
130	0x3cd1427e	0.025544401
131	0xbd8c9825	-0.06864957
132	0xbd0f236e	-0.034945898
133	0xbc7bcd09	-0.015368708
134	0x3c39699e	0.011316685
135	0xbcb6a32d	-0.022294605
136	0xbd8ba1c5	-0.068179645
137	0xbd53a50b	-0.05167107
138	0xbcac294e	-0.02101579
139	0x3cdd7a12	0.027035747
140	0x3ccbd356	0.024881046
141	0x3cb6a5ca	0.022295851
142	0x3a0c3ef6	0.0005349958
143	0xbd5316ac	-0.051535293
144	0xbb5cc49b	-0.0033686522
145	0xbd95bce2	-0.07311417
146	0x3d3420b7	0.04397651
147	0xbda00b75	-0.07814685
148	0xbd1f4b72	-0.03889031
149	0xbba16b92	-0.0049261535
150	0xbd90b2ec	-0.07065377
151	0xbd4705ea	-0.048589624
152	0x3c3de557	0.011590323
153	0x3d72dc5e	0.05929219
154	0x3b1b8e69	0.0023736006
155	0x3c333a3c	0.010939177
156	0xbca1c502	-0.019747261
157	0xbd3933e9	-0.04521552
158	0x3cfa56f4	0.03055904
159	0xbd665d02	-0.056241043
160	0xbd6e951e	-0.058247678
161	0x3cabca08	0.02097036
162	0xbc18f247	-0.009335107
163	0xbcf9f006	-0.03050996
164	0xbcb8453c	-0.022493951
165	0xbd698153	-0.0570081
166	0x3d706ef0	0.05869955
167	0x3a975aae	0.001154741
168	0xb888ec7c	-6.529034e-05
169	0xbd528eef	-0.051405843
170	0x3d875e71	0.0660981
171	0xbb7fb0c8	-0.0039015282
172	0x3cf3cadd	0.029759819
173	0x3d74ccb9	0.05976555
174	0x3cf0ba6e	0.029385772
175	0xbd98b559	-0.07456464
176	0xbc048b73	-0.008089888
177	0xbcb77a58	-0.022397205
178	0xbd3c64c0	-0.04599452
179	0xbd20b805	-0.039237995
180	0xbd7b4ca6	-0.061352395
181	0xbc134efd	-0.008991
182	0xbd2d8ef7	-0.04237267
183	0xbc9073c8	-0.017633334
184	0xbbbc7f42	-0.005752475
185	0x3d06b1d1	0.032884423
186	0xbd913e98	-0.07092017
187	0xbc9b2465	-0.018938253
188	0xbd40cdcd	-0.047071267
189	0xbd2798b6	-0.04091712
190	0x3c641939	0.013922029
191	0x3cd78c47	0.026312007
192	0xba85f8ca	-0.001022124
193	0x3d2a3975	0.0415587
194	0x3ccf3b6a	0.025296886
195	0x3d30b70f	0.04314333
196	0xbbf47f16	-0.007461439
197	0x3cba40e9	0.02273603
198	0x3d615a8e	0.055018
199	0x3cb9867a	0.022647131
200	0x3c89537f	0.016763447
201	0x3d645c54	0.055752113
202	0x3d9a6fcd	0.075408556
203	0x3cafb135	0.021446804
204	0x3d29f7a8	0.04149595
205	0xbd3f1ce6	-0.04665842
206	0x3aefbf9f	0.001829136
207	0x3d123827	0.035698082
208	0xbd33f9f8	-0.04393956
209	0xbd39324f	-0.045213994
210	0x3d89ece6	0.06734638
211	0x3cfd61f9	0.030930506
212	0xbd8260f9	-0.06366152
213	0x3ce5e2a3	0.02806217
214	0x3d2eb37d	0.042651642
215	0x3d475fec	0.048675463
216	0xbd474d27	-0.048657563
217	0xbda542a4	-0.08069351
218	0xbd310dd0	-0.043226063
219	0x3b66fc70	0.003524568
220	0x3bb754dc	0.005594833
221	0xbda23549	-0.079203196
222	0x3c4dfd23	0.0125725595
223	0x3be3efe5	0.006956088
224	0xbd92e383	-0.07172301
225	0xbd3eb179	-0.04655597
226	0x3d6f292a	0.058388866
227	0x3d9e93f6	0.07743065
228	0x3c9a766f	0.018855302
229	0xbb47fd9b	-0.003051615
230	0x3d4de87d	0.050270546
231	0xbca7bb90	-0.020475179
232	0x3d3ddd94	0.04635389
233	0x3cf34a37	0.029698474
234	0x3d2b6fa2	0.04185451
235	0xbd0428b8	-0.032265395
236	0xbc8c2f3c	-0.017112367
237	0x3d4ab675	0.04949041
238	0x3c1ed329	0.009693899
239	0xbd5f41cb	-0.054506104
240	0xbd76c7ff	-0.060249325
241	0xbdb37bea	-0.08763869
242	0x3d2da0c0	0.04238963
243	0x3d47dd91	0.048795287
244	0xbb0016f2	-0.0019544926
245	0xbc88252c	-0.016619287
246	0xbd1040ff	-0.035218235
247	0x3c9ffb97	0.019529147
248	0x3d352e19	0.044233415
249	0xbb3d23fa	-0.0028860555
250	0x3c6afd4d	0.014342618
251	0xbd287afa	-0.041132905
252	0xbb8c9a99	-0.0042908904
253	0x3ca182b4	0.019715644
254	0xbc5b58a8	-0.0133878365
255	0xbd2af931	-0.041741554

conv2.bias f4 [20]
0	0xbd5fea3b	-0.05466674
1	0xbd6e7107	-0.05821326
2	0xbd8a3cd9	-0.06749887
3	0xbd31046b	-0.043217104
4	0x3c17b282	0.009258868
5	0x3b2fd54c	0.0026830016
6	0xbcacc304	-0.021089084
7	0xbc099472	-0.0083972085
8	0x3d3071bc	0.043077216
9	0x3c81e32a	0.01585539
10	0x3b9ff694	0.0048816893
11	0x3c935ad0	0.017987639
12	0xbb32db84	-0.0027291486
13	0x3c6828e5	0.014169906
14	0x3d06b3de	0.03288638
15	0xbd26a0b1	-0.04068059
16	0x3c927e44	0.017882474
17	0x3d01df1b	0.03170691
18	0x3d294709	0.04132751
19	0xbd32fedc	-0.043700084

fc1.weight f4 [50, 320]
0	0xbbff764e	-0.0077960854
1	0x3d12ccba	0.035839774
2	0x3c7a3f55	0.015273889
3	0xbd4b3870	-0.04961437
4	0xbc11c375	-0.008896698
5	0xbba18e3e	-0.0049302867
6	0xbd38d99d	-0.045129407
7	0x3912d202	0.00014001879
8	0x3c2111e0	0.009830922
9	0xbc327fc6	-0.010894721
10	0xbd0aac8a	-0.033855952
11	0x3d158bde	0.03651034
12	0xbd036fdb	-0.032089096
13	0xbd20b68d	-0.039236594
14	0xbcfae8b0	-0.030628532
15	0x3bb90680	0.005646527
16	0x3cfbce3b	0.030737987
17	0xbc8b2a9d	-0.016988093
18	0xbcedf113	-0.029045617
19	0x3c4e67f5	0.0125980275
20	0xbd2b72f9	-0.041857693
21	0x3ca4c214	0.020112075
22	0x3d2d9c4a	0.042385377
23	0xbb94bff3	-0.0045394837
24	0xbc625762	-0.013814779
25	0xbd5a9f86	-0.05337479
26	0xbceb9bf6	-0.028760891
27	0x3d54f42a	0.051990665
28	0xbbb0968a	-0.0053890394
29	0xbb9f9b24	-0.004870789
30	0x3bfe3b92	0.007758566
31	0xbd3e6a5b	-0.046488147
32	0x3bf9f755	0.007628361
33	0xbd5ffe5c	-0.054685935
34	0xbd0482a0	-0.032351136
35	0x3d2bd699	0.041952703
36	0xbc737c07	-0.014861113
37	0xbd135b9a	-0.03597603
38	0x3c098913	0.008394497
39	0x3cd4fa81	0.025998356
40	0x3cbc3474	0.02297423
41	0xbc82fc3c	-0.015989415
42	0xbd0a99ef	-0.03383821
43	0xbce99be4	-0.028516717
44	0xbd2aa651	-0.041662518
45	0x3d0f6425	0.035007615
46	0xbad1fefd	-0.0016021427
47	0xbd124c17	-0.035717096
48	0xbd464245	-0.048403043
49	0xbd726831	-0.059181396
50	0xbd157d58	-0.03649649
51	0xbc5d54af	-0.01350896
52	0xbbb2b966	-0.00545423
53	0x3cdefaac	0.027219139
54	0x3a9acb68	0.0011809887
55	0xbc534962	-0.012895914
56	0x3d30cf50	0.04316646
57	0x3cda10ce	0.026619341
58	0xbd2f5c92	-0.04281289
59	0x3d65a00b	0.056060832
60	0xbc67e500	-0.014153719
61	0xbb55bcf7	-0.0032613853
62	0x3c9b3413	0.01894573
63	0x3ccbeead	0.024894083
64	0x3d0187ac	0.031623527
65	0xbd20bf9e	-0.03924524
66	0xbd149c87	-0.03628209
67	0xba8d4f1e	-0.0010781025
68	0xbc96275f	-0.01832932
69	0xbd454169	-0.048158083
70	0xbd1fdf2c	-0.039031193
71	0x3a963d9b	0.0011462452
72	0xbd521fbb	-0.05129979
73	0xbd35492c	-0.044259235
74	0x3d37db0a	0.044886626
75	0x3d3b5625	0.04573645
76	0x3d06b9f7	0.032892194
77	0xbd4b1cc1	-0.04958797
78	0xbd21fc3f	-0.0395472
79	0xbd0e48ba	-0.034737326
80	0x3c6a2a64	0.014292333
81	0xbd0308ee	-0.031990938
82	0xbd614783	-0.05499984
83	0xbc074dc9	-0.0082582915
84	0xbcdbf4d8	-0.026850149
85	0x3d217b53	0.03942425
86	0x3cced467	0.025247766
87	0xbc8f0e6d	-0.017462933
88	0x3d3d76c2	0.046255834
89	0x3cde758d	0.027155662
90	0xbcb6a70d	-0.022296453
91	0xbd4c9537	-0.04994699
92	0xbc4c7ff9	-0.012481683
93	0xbb291645	-0.0025800627
94	0x3cad8842	0.021183137
95	0x3cb04932	0.021519277
96	0xbb62faac	-0.0034634275
97	0xbcc71b9a	-0.024305154
98	0xbd54d4aa	-0.051960625
99	0x3c846670	0.016162127
100	0xbd36ee67	-0.044660952
101	0xbb9bd50d	-0.0047556222
102	0xbba45176	-0.0050145937
103	0x3c8a50da	0.016884256
104	0x3c647202	0.013943197
105	0xbc6154c5	-0.013753121
106	0xbcc6b14d	-0.024254465
107	0x3d52f959	0.051507328
108	0xbd102bc1	-0.035197977
109	0xba3663c5	-0.0006957616
110	0xb9d0fa97	-0.00039859556
111	0xbd51064c	-0.051031396
112	0xbce02c92	-0.027365003
113	0xbd259538	-0.04042551
114	0x3d3d5810	0.04622656
115	0x3d5b5365	0.053546328
116	0x3cb4e8b4	0.022083618
117	0x3bcf370b	0.0063237003
118	0xbc813562	-0.015772525
119	0x3d21e0bd	0.039520968
120	0xbc5221db	-0.012825455
121	0x3c0bf408	0.008542068
122	0xbc564657	-0.013078294
123	0xbd408049	-0.046997342
124	0xbc0ed704	-0.008718256
125	0xbd144138	-0.03619501
126	0x3bc00786	0.005860272
127	0xbbdfff99	-0.0068358895
128	0xbd5d6280	-0.054049015
129	0xbc90d752	-0.017680798
130	0x3b5a18b8	0.0033278894
131	0xbbfc999e	-0.0077087423
132	0x3d20fd7a	0.039304234
133	0xbb91b1f3	-0.004446262
134	0x3bf02fb6	0.0073299063
135	0x3c21b301	0.009869338
136	0xbd59dce6	-0.05318918
137	0x3cfd451b	0.030916741
138	0xbd282ea3	-0.0410601
139	0x3d1573b5	0.0364873
140	0x3d1c621e	0.03817951
141	0x3d037483	0.032093536
142	0x3d1a7fa2	0.037719376
143	0x3c18f748	0.0093363
144	0x3d3a4927	0.04547992
145	0x3ca0771d	0.019588048
146	0x3cae82d8	0.021302626
147	0xbd25fb4a	-0.04052285
148	0xbb29ccd0	-0.0025909431
149	0xbd46fbc3	-0.048579942
150	0xbbf0dcaa	-0.007350524
151	0x3c1db4d1	0.0096256295
152	0xbd5289f6	-0.0514011
153	0x3bb708ac	0.0055857506
154	0xbd177019	-0.03697214
155	0xbc53e7a6	-0.012933647
156	0x3b0bac78	0.0021312516
157	0xbc8df8a1	-0.01733047
158	0x3cd1966c	0.025584422
159	0x3cde7a98	0.027158067
160	0x3d7912c0	0.060808897
161	0x3d450d32	0.048108287
162	0xbd1c410b	-0.038147967
163	0x3c90814e	0.017639782
164	0x3aa6b8a0	0.0012719817
165	0xbd5512a1	-0.05201972
166	0xbd32eb77	-0.043681588
167	0xbc84d205	-0.016213426
168	0xbc5a28c4	-0.013315383
169	0x3d415711	0.047202174
170	0x3d055447	0.032551076
171	0x3ce6833a	0.028138746
172	0x3c669e7e	0.014075873
173	0xbd55ccff	-0.052197453
174	0xbd4f9744	-0.050681368
175	0x3bcc7bf3	0.006240362
176	0xbc295abe	-0.010336576
177	0xbbe4ed61	-0.0069863056
178	0x3cd58276	0.026063185
179	0xbc8f673d	-0.017505283
180	0xbcfa17e3	-0.030528968
181	0xbb2cfe3f	-0.002639666
182	0xbd42a7ed	-0.047523428
183	0x3d020f01	0.03175259
184	0xbd5b648c	-0.053562686
185	0xbb288cda	-0.002571872
186	0xbd04a896	-0.03238734
187	0xbd3a1a2d	-0.04543512
188	0xbc8985ac	-0.016787373
189	0xbca2f57d	-0.019892449
190	0x3cf781a1	0.030213179
191	0xbcce3932	-0.025173757
192	0x3d35ef07	0.044417407
193	0xbc36e63a	-0.011163289
194	0xbd683434	-0.05669041
195	0xbc50d003	-0.012744906
196	0x3ce77bc7	0.028257264
197	0x3bd41b49	0.006472979
198	0x3bd5fbd6	0.0065302653
199	0x3bada3e8	0.00529908
200	0xbd3444c5	-0.044010896
201	0xbd16e9ae	-0.036843948
202	0x3cb5900b	0.022163412
203	0x3d1d873f	0.03845906
204	0xbd002732	-0.03128738
205	0x3bfc8835	0.007706667
206	0x3d10ad6c	0.035321638
207	0x3ada1db2	0.001664093
208	0x3cf9c178	0.03048776
209	0x3beb979f	0.0071897055
210	0xbcc6a306	-0.024247658
211	0xbd1337cf	-0.035941895
212	0x3babddeb	0.0052449605
213	0xbce41ad3	-0.027844822
214	0x3d18ac6e	0.037273817
215	0xbcd37374	-0.025811888
216	0xbd1495b5	-0.036275584
217	0x3cc67a5c	0.024228267
218	0xbd07d493	-0.03316171
219	0x3bc4493a	0.0059901746
220	0x3c2368ed	0.009973747
221	0x3d24fb2c	0.0402786
222	0xbd06c271	-0.032900278
223	0xbd1b1126	-0.03785815
224	0xbd4e5db9	-0.05038235
225	0xbc033c80	-0.00801003
226	0x3d04bb8d	0.032405425
227	0x3d64a82c	0.055824444
228	0xbcce2ea2	-0.02516872
229	0xbbd04eed	-0.006357065
230	0x3cc6e265	0.024277875
231	0xbd642ac1	-0.055704836
232	0x3d50380f	0.05083471
233	0xbd300a37	-0.04297849
234	0x3cf755f4	0.030192353
235	0xbd65e907	-0.056130435
236	0xbb2a00c1	-0.002594039
237	0x3d4c6194	0.049897745
238	0xbd0eeedd	-0.034895767
239	0xbd5ec61e	-0.054388158
240	0x3d43da0b	0.047815364
241	0x3c2b9790	0.010473147
242	0x3b806289	0.0039179963
243	0x3d1a5121	0.037675027
244	0x3caed6f0	0.021342725
245	0x3d33c75c	0.043891296
246	0xbcd7671d	-0.026294285
247	0xbd05101f	-0.032486077
248	0xbd47112c	-0.04860036
249	0xbccae433	-0.024767017
250	0xbc6cfbbe	-0.014464317
251	0x3d19c73a	0.037543513
252	0x3bc41aac	0.005984625
253	0x3bcc0891	0.006226607
254	0x3bd9c803	0.0066461577
255	0xbcebfec3	-0.028808003

fc1.bias f4 [50]
0	0xbbc1b0f9	-0.0059109894
1	0xbc4f5f6f	-0.0126570305
2	0xbcbb9fe8	-0.022903398
3	0xbd82c527	-0.0638526
4	0x3c0d118b	0.00861014
5	0x379f4b8c	1.8989456e-05
6	0x3d0a1a30	0.03371638
7	0x3d04f824	0.032463208
8	0xbcf3c0dc	-0.029755048
9	0x3c882aa9	0.016621904
10	0xbd56045f	-0.052250262
11	0xbba01b31	-0.004886054
12	0x3ad5fc11	0.0016325732
13	0x3cba49f1	0.022740336
14	0x3d1c004f	0.03808623
15	0xbc9e77a2	-0.019344155
16	0xbce10bcb	-0.027471444
17	0x3d0022e2	0.031283267
18	0x3cf003b8	0.029298648
19	0x3b0ea6b0	0.0021766834
20	0xbce50b72	-0.02795956
21	0xba5b8607	-0.00083741586
22	0xbc97afa5	-0.018516371
23	0x3daa2002	0.08306886
24	0x3d5ec032	0.05438251
25	0x3c437cca	0.0119316075
26	0x3d2800e3	0.04101647
27	0xbd265dc4	-0.040616766
28	0xbd729664	-0.059225455
29	0x3d54d1e1	0.05195797
30	0xbd09ab33	-0.033610534
31	0xbb85ecc6	-0.0040870635
32	0xbb475b6c	-0.0030419482
33	0xbd0400e2	-0.032227404
34	0xbd370e8f	-0.04469162
35	0x3d68555a	0.056722023
36	0xbd35bf38	-0.044371814
37	0xbd4d25ae	-0.050084762
38	0x3d45f7a0	0.048331857
39	0xbaffc332	-0.0019513129
40	0xbd4d5883	-0.05013324
41	0xbd62077b	-0.055182915
42	0x3bda1096	0.006654809
43	0x3cfd89e2	0.030949537
44	0x3d07c9f4	0.033151582
45	0x3ca20b87	0.019780887
46	0xbbb00ffb	-0.005372999
47	0x3c2235c1	0.009900511
48	0xbc7f1028	-0.015567817
49	0x3d88c662	0.066784635

fc2.weight f4 [10, 50]
0	0xbdfba148	-0.12286621
1	0x3b79dec7	0.003812717
2	0xbe0bc8f4	-0.13650876
3	0x3d7ae19f	0.061250325
4	0xbc9055f1	-0.017619105
5	0xbd862086	-0.06549172
6	0xbdda6b9d	-0.10665057
7	0xbd5af6fa	-0.05345819
8	0xbdce31cd	-0.100680925
9	0xbddef3cc	-0.10886344
10	0x3e5edce5	0.21763952
11	0xbd98658d	-0.07441244
12	0x3e6533f5	0.22383101
13	0xbe1a9ef8	-0.15099704
14	0xbde7c358	-0.11316556
15	0xbdc1ca2c	-0.09462389
16	0xbccc6cc1	-0.024954202
17	0xbe153f56	-0.14574942
18	0xbdc41603	-0.09574511
19	0x3b56ca9e	0.0032774578
20	0xbe0e49e8	-0.1389538
21	0x3df79104	0.120882064
22	0x3d09eacd	0.03367119
23	0x3cb8cb6e	0.02255794
24	0xbe3056a6	-0.17220554
25	0xbdc9b09e	-0.0984814
26	0xbdb66d40	-0.089075565
27	0xbde94504	-0.11390117
28	0x3da23bfc	0.07921597
29	0xbe7acea7	-0.24492894
30	0xbe4c2d48	-0.19939148
31	0x3dbdd846	0.092697665
32	0x3ea076da	0.31340677
33	0xbd961a77	-0.073292665
34	0xbdaf987e	-0.085740075
35	0x3cc58bb9	0.024114477
36	0x3e7808bc	0.24222082
37	0x3d921640	0.0713315
38	0x3dc5098a	0.0962096
39	0x3d358011	0.044311587
40	0xbdbcd230	-0.092197776
41	0x3ce6e4c4	0.028185256
42	0xbdbb9874	-0.091599375
43	0xbe07e8d3	-0.13272409
44	0x3e2dc571	0.16969849
45	0xbd743ab8	-0.05962631
46	0xbe86ea69	-0.26350716
47	0xbe1c0a40	-0.15238285
48	0x3e944315	0.2895743
49	0x3e58ace4	0.21159703
50	0x3ce0f0fa	0.027458657
51	0x3e89280c	0.26788366
52	0xbd7a4cff	-0.061108585
53	0xbdab906d	-0.083771564
54	0x3d5d77d4	0.054069355
55	0xbdd2d818	-0.10295123
56	0xbe1fe966	-0.15616378
57	0xbd19e49f	-0.037571546
58	0xbd934dde	-0.07192586
59	0x3df941c2	0.121707454
60	0xbe238bf0	-0.1597135
61	0xbe18a066	-0.14904937
62	0xbe5b9510	-0.21443582
63	0xbd99f561	-0.075175054
64	0x3de1baa3	0.11021926
65	0x3e5bd5b3	0.21468239
66	0xbe118b92	-0.14213398
67	0xbd1f677a	-0.038917042
68	0x3e757ef0	0.23974204
69	0xbd1b564a	-0.03792409
70	0x3db826ef	0.08991801
71	0x3dd26de1	0.10274864
72	0xbe4ebe63	-0.20189814
73	0x3d256621	0.0403806
74	0xbd8e3bdd	-0.06945012
75	0xbe181147	-0.14850341
76	0x3df503e6	0.11963634
77	0xbc5d00f2	-0.013488995
78	0xbdfaf5b1	-0.12253893
79	0x3e14cda0	0.14531565
80	0x3ac2fed3	0.0014876969
81	0x3cfa6183	0.030564075
82	0x3ca75a0f	0.020428685
83	0xbda1846a	-0.07886584
84	0xbdce1f6f	-0.10064589
85	0x3c357e0f	0.011077418
86	0xbc43e5a5	-0.011956607
87	0xbc911429	-0.017709808
88	0xbe5ccb28	-0.21561873
89	0x3ceef5d9	0.029169964
90	0xbdcda27a	-0.100407556
91	0xbd2fc3d3	-0.042911362
92	0xbe257b0d	-0.16160221
93	0xbde0ff48	-0.10986191
94	0xbe61e6c9	-0.22060694
95	0xbd5f74cf	-0.054554757
96	0xbdaa0fab	-0.0830377
97	0x3de8f247	0.11374336
98	0x3c12ad93	0.008952516
99	0xbda0939b	-0.078406535
100	0x3daa01f1	0.083011515
101	0x3cb51d52	0.022108708
102	0xbdcc2850	-0.099686265
103	0xbb5fa467	-0.003412509
104	0x3e890234	0.26759493
105	0xbda2d30c	-0.0795041
106	0xbc2f3d34	-0.010695744
107	0x3da772a2	0.08176161
108	0xbcde87c7	-0.027164353
109	0x3e03d150	0.12872815
110	0x3de61ad7	0.11235588
111	0xbd587b90	-0.052852213
112	0x3e2bba34	0.1677025
113	0xbddcc8f6	-0.10780518
114	0xbdd657b5	-0.104659475
115	0x3e23a77d	0.1598186
116	0x3dbea0a7	0.09307986
117	0xbd00eadd	-0.031473983
118	0xbd5507cc	-0.05200939
119	0x3d414ebe	0.047194235
120	0x3bf6c83d	0.0075311945
121	0xbd5665b0	-0.05234307
122	0x3d308281	0.04309321
123	0xbe4a0136	-0.19727024
124	0xbdef3723	-0.11680438
125	0xbb07ed06	-0.0020740642
126	0x3cc6e56a	0.024279315
127	0xbdd7a2c8	-0.10529095
128	0xbcf90557	-0.030398054
129	0x3e0a1f53	0.13488512
130	0x3df5da46	0.12004523
131	0x3d06fb39	0.03295443
132	0x3dfc4a71	0.12318886
133	0xbdfadec2	-0.12249519
134	0xbc9f052f	-0.019411651
135	0x3e4cf1f3	0.20014171
136	0xbdac03ad	-0.083991386
137	0x3c22977e	0.009923814
138	0xbde102ba	-0.10986848
139	0x3e309434	0.17244035
140	0xbddd2dcf	-0.10799753
141	0xbd80d1a3	-0.06289985
142	0xbd24bee9	-0.04022113
143	0x3e190192	0.14942005
144	0xbca07c7e	-0.019590613
145	0xbdd48fff	-0.103790276
146	0xbc155a49	-0.009115764
147	0xbd6a9c94	-0.05727823
148	0xbd486f3c	-0.048934206
149	0x3d99fdfe	0.07519148
150	0x3dca385a	0.098740295
151	0xbdbac7b0	-0.091201186
152	0xbc8da84c	-0.017292164
153	0x3d93a60f	0.072094075
154	0x3de031e4	0.10947016
155	0x3dc22124	0.09478977
156	0x3db5f2f0	0.08884227
157	0x3da4a79a	0.0803978
158	0x3d8da06d	0.069153644
159	0xbc8e5647	-0.017375125
160	0xbd33229d	-0.04373418
161	0x3d9bbd41	0.07604457
162	0xbce271d0	-0.02764216
163	0xbdca5118	-0.09878749
164	0xbe1ea55b	-0.15492766
165	0xbd8d297d	-0.06892679
166	0xbcd29388	-0.025705114
167	0xbdcff795	-0.101546444
168	0xbcce07d9	-0.025150226
169	0x3e31fb41	0.17381002
170	0x3d3d35b5	0.046193797
171	0x3d1ac360	0.03778398
172	0xbe303951	-0.17209364
173	0xbdb00443	-0.08594563
174	0xbd72c0f6	-0.059266053
175	0xbe46c8f1	-0.1941259
176	0x3e25353a	0.16133586
177	0xbd752505	-0.059849758
178	0xbcba1137	-0.022713287
179	0x3e992329	0.29909638
180	0xbd874ff5	-0.066070475
181	0x3e1c943e	0.15290925
182	0xbe0afab2	-0.13572195
183	0xbe36076a	-0.17776266
184	0xbcfd8075	-0.030945042
185	0x3cdb47fc	0.026767723
186	0xbe7561e5	-0.23963125
187	0x3e131d41	0.14366628
188	0xbc43ada7	-0.011943257
189	0x3e2e0bdc	0.16996711
190	0xbd994513	-0.07483878
191	0xbd0916e7	-0.033469107
192	0x3c136705	0.00899673
193	0xbcd02816	-0.02540974
194	0x3d437eae	0.047728233
195	0xbddc8580	-0.107676506
196	0x3df65014	0.120269924
197	0x3e4886b8	0.19582641
198	0xbe14d063	-0.14532618
199	0x3b956aa5	0.004559832
200	0x3d1ac077	0.037781205
201	0xbdf7819c	-0.12085268
202	0xbc9e17b2	-0.019298408
203	0x3bafe9d9	0.005368453
204	0xbc104a84	-0.008806828
205	0x3c2cfd02	0.010558369
206	0xbe27b232	-0.1637657
207	0xbdd9e0cd	-0.106385805
208	0x3e49fbe1	0.1972499
209	0xbe09c005	-0.13452156
210	0x3d8287ef	0.063735835
211	0xbc7fe3d9	-0.015618288
212	0xbda2dbd4	-0.07952085
213	0xbcec65a9	-0.02885707
214	0x3e0dde13	0.13854246
215	0x3d057010	0.032577574
216	0x3c81b3dc	0.015832834
217	0xbd3f3243	-0.046678793
218	0xbd6db769	-0.05803624
219	0x3d17a23e	0.03701996
220	0xbdad9f58	-0.08477658
221	0xbc49b06c	-0.012310129
222	0x3c4d4ea7	0.012530959
223	0xbdb3e432	-0.08783759
224	0xbd2e3461	-0.04253042
225	0x3e13b046	0.14422712
226	0x3e44a537	0.1920365
227	0xbe282561	-0.16420509
228	0x3d974979	0.07387061
229	0xbd34198e	-0.043969683
230	0x3e116f32	0.14202574
231	0xbd474201	-0.04864693
232	0xbdc758cc	-0.097337335
233	0x3dc12371	0.09430588
234	0x3dc2e02d	0.095154144
235	0xbd383f01	-0.04498196
236	0x3d02aa03	0.031900417
237	0x3d1b60a1	0.03793395
238	0xbdf526c9	-0.11970288
239	0xbe4d5675	-0.20052512
240	0x3d63ee86	0.055647396
241	0xbd9c3f5a	-0.07629271
242	0x3d827137	0.0636925
243	0x3ea0291c	0.31281364
244	0xbe53afbb	-0.20672505
245	0xbe0d3e68	-0.13793337
246	0x3e0d2d3b	0.13786785
247	0x3d9f266f	0.077710025
248	0xbe3bcec8	-0.183406
249	0x3d2ab7d7	0.04167923
250	0x3d81c92b	0.06337198
251	0xbdc06fe2	-0.0939634
252	0xbdaed946	-0.08537535
253	0x3dbf4e64	0.09341124
254	0xbdfed97c	-0.124438256
255	0xbdfc6321	-0.12323595

fc2.bias f4 [10]
0	0xbd88bbf8	-0.06676477
1	0x3e63e2ba	0.22254458
2	0xbdacdf74	-0.08441058
3	0xbd5766d7	-0.05258831
4	0xbd55823e	-0.05212616
5	0xbd34df06	-0.044158004
6	0xbd554114	-0.052064016
7	0xbda20134	-0.07910386
8	0x3d5cde76	0.053923093
9	0xbd34fac3	-0.044184458
