MNIST/Models/Client_1/Trained local models/Trained_8_5_2021_10_37_56.pth (torch, 90095 bytes, 8 tensors)

conv1.weight f4 [10, 1, 5, 5]
00000000: c7b8 0abe 48e1 973d b010 b53d 608f cabc
00000010: 5980 bebd 95c2 123e 8355 80bd 399e 43bd
00000020: aba6 2a3d f84c b03c facc 8d3d ec8b d6bd
00000030: e4a8 a6bd 34f5 473d 8792 91bd a661 cfbd
00000040: c887 273e fce6 b63b 74e4 1bbc dd9a f73d
00000050: 74d0 06be f961 37be d66e b83d 02f6 e8bd
00000060: 23ca 1ebe 1928 37be f661 a9bd 12df f43d
00000070: 9b71 01be 9945 1a3e 7c81 cebb 5e29 523d
00000080: 3265 2bbc 1cb0 dabc 12ee 153d 024c 44be
00000090: 9cd0 4b3d 842e a83d 5f16 0abd 86a9 a73d
000000a0: ff56 3cbd b57c 633d 6e80 3cbe 6ed4 a4bd
000000b0: f125 1f3e 2969 de3d ac38 2c3e 07d7 273e
000000c0: 5468 133e f7fa 013e 6dbe 03be 5e58 8d3d
000000d0: bc99 813d 560f 213e ec68 ff3d f028 8abc
000000e0: 5b3e 883d 40fe febd 227a 2bbe 131a efbb
000000f0: 176d a33d 1dba 0e3e 9ac9 59bc 2916 e03d
00000100: 3d27 30be 6a73 98bd f88b 04be ffca 3ebe
00000110: 105e 08be 117a e9bd 0322 40be ce5f 2dbe
00000120: 8883 7ebd 4dba 3bbd 6311 373e 3a96 4b3d
00000130: 3483 dc3d bd97 5f3c e153 dc3d 62bd 3a3e
00000140: e7a9 30be 8ea6 2cbe 372c 52bd 38ed 273e
00000150: 10d9 f7bd ef71 f2bc f72f 283e c4dc c03d
00000160: 1834 a93d 9deb 553c b6b9 ba3d 7e7d 03bc
00000170: 3088 3c3e acdb 16be bd1a dfbc 256e ed3c
00000180: c821 4a3d ef98 7bbc 71ae 053e 08f3 3bbe
00000190: d6c9 e23c 335c 16be b59d e33d 29e4 443e
000001a0: 2696 a83d 4879 cabd f5db 31be fc9a 50bd
000001b0: a030 acbd 6482 5e3b f8a9 44be 1790 0ebe
000001c0: 02d2 d3bb 6f46 753d cd13 c53d 963b e33d
000001d0: ad04 363e 89f4 77bc 2eb9 0fbe 2239 783d
000001e0: afc6 edbd 9b78 5abe 1bcc bd3d 0425 013e
000001f0: 2c6d 323e c9b9 0bbe 4967 2cbe a7ad d83d
00000200: 7f8b 01be 407e 3b3e d227 dbbd c3d3 403e
00000210: 2ccd fb3d 9e5c 323e d7ae 15be 07bd eb3d
00000220: ee59 1bbe de6f 0d3e 214d a7bc d9f0 15bd
00000230: f38d 193d d361 d8bd 38ae 1ebe 3991 8ebd
00000240: ce30 2d3e d701 9a3c a1b0 15be bbe8 f6bd
00000250: 5dfd 44be b141 ecbc 6262 d33c 0bd3 c5bd
00000260: 193b 343e cbbc 9c3c 213b 1dbe c0ce 4bbe
00000270: 0e98 46be 0bde e0bd ef91 283e e05c 9f3d
00000280: adbb 1a3e cd3f 4a3e 454b 7fbd aef2 12bd
00000290: c986 1b3e 02cb 103e 4295 963d 660b aa3d
000002a0: 8105 7c3d 5d51 26be 683b cfbb 20e4 15be
000002b0: d1e0 a6bc de49 a83d 1905 f6bd 6a26 fc3d
000002c0: bf5d 12be 1add 73bd d622 3fbd eaac eabd
000002d0: f1aa 1abe 0bb5 8b3d 7684 b0bb 1697 3abe
000002e0: 9d05 a8bd a80c 343e 6256 063e fa2d d8bd
000002f0: 944a bebb 1870 223e 080a 8cbd cc1d d7bc
00000300: 530f 1a3e 387f 433e ae7d 24be 98be ca3d
00000310: d863 e33d 1eaf 193e 4e1f 45be a6d4 17be
00000320: b219 953c 1386 cd3d dcf6 453b 9636 443c
00000330: 5ab9 d73c c8a2 2cbe 8979 ab3d c017 163e
00000340: 0d61 a0bd 3a56 d7bd 09d1 a63d 2a9a 49be
00000350: 060c efbc 1432 0c3e 858c 7c3d 8144 1abe
00000360: 375c eebd c201 32be 906f c6bd 0d65 bb3d
00000370: 1797 c9bd e8a5 103e b4b6 9dbd 983f a8bd
00000380: e9f0 b43d 90be 763d c9ae 4a3e 2fa4 aebd
00000390: fe54 223e cf0c 903d 0ce2 43be 7a0c 30be
000003a0: 8794 133e 39f7 cf3d 9fd2 4a3e 4947 aa3c
000003b0: 6c6f 15be 3fcb edbd ffc6 47bc fa38 30be
000003c0: 420c 323e 5b50 8bbd 93ad 73bd 47a2 bebd
000003d0: 4eab 35be 70d0 1b3e c672 f13d eaca 3c3d
000003e0: 335f c1bd c770 b3bd
-0.1354705 0.07416016 0.088410735 -0.02472657 -0.09301824 0.1433204 -0.0626631 -0.047758315
0.041662853 0.021521077 0.06923862 -0.10475907 -0.08137682 0.04881783 -0.07108026 -0.10126047
0.1636039 0.0055817347 -0.009514917 0.12090085 -0.13165456 -0.17908467 0.09005515 -0.11375047
-0.15506797 -0.1788639 -0.08270638 0.1195661 -0.12640993 0.15065612 -0.006302057 0.051308982
-0.010461139 -0.026695304 0.036603995 -0.1916962 0.049759492 0.08211997 -0.03371274 0.08186631
-0.045981403 0.05553885 -0.18408367 -0.0804833 0.15541817 0.108599015 0.16818494 0.1639062
0.14395267 0.12693392 -0.1286561 0.0690162 0.06328151 0.15728506 0.12471184 -0.016865224
0.06652518 -0.12450838 -0.16745809 -0.0072968095 0.079797916 0.13938184 -0.013292694 0.10941727
-0.17202468 -0.074438885 -0.12944019 -0.18632124 -0.13317132 -0.114002354 -0.18762974 -0.16931078
-0.062137157 -0.045831967 0.17877726 0.049703814 0.107672125 0.013647017 0.10758186 0.18236306
-0.17252313 -0.1686041 -0.051311698 0.16399086 -0.12101948 -0.029595343 0.16424547 0.09417108
0.08261889 0.013056663 0.09117453 -0.008025525 0.18411326 -0.14732236 -0.02723443 0.028983185
0.049348623 -0.015356286 0.13054825 -0.18354428 0.027684133 -0.14683609 0.111140646 0.19227661
0.082317635 -0.09886414 -0.17369063 -0.050929055 -0.08407712 0.003395223 -0.19205463 -0.13922153
-0.006464244 0.059881624 0.09622917 0.110953495 0.17775221 -0.015133985 -0.14035484 0.06060136
-0.116101615 -0.2133507 0.09267446 0.12611777 0.17424458 -0.1364509 -0.16836275 0.105799966
-0.1265087 0.1830988 -0.107009545 0.1883078 0.12294993 0.17418143 -0.14617477 0.115106635
-0.15171024 0.13812205 -0.02042252 -0.036606643 0.03748889 -0.105655335 -0.15496147 -0.06961293
0.16913149 0.018799705 -0.1461816 -0.120561086 -0.19237275 -0.028839918 0.025803749 -0.09659394
0.17600669 0.019132992 -0.15354587 -0.19903088 -0.19393942 -0.10979851 0.16461919 0.077813864
0.15110655 0.197509 -0.062327642 -0.03587597 0.15188135 0.14139941 0.073526874 0.08302955
0.061528686 -0.16241975 -0.0063242204 -0.14637804 -0.020370873 0.08217214 -0.12012691 0.123120144
-0.14293574 -0.05953703 -0.04666408 -0.11458762 -0.15104271 0.068216406 -0.0053868843 -0.18221697
-0.08204196 0.17582953 0.1311889 -0.10555644 -0.0058072302 0.15863073 -0.06837851 -0.026259325
0.15044908 0.19091499 -0.16063568 0.09899634 0.11103028 0.15008208 -0.19250223 -0.14827213
0.018200729 0.10035338 0.0030206954 0.011975905 0.0263335 -0.16858971 0.0837279 0.14657497
-0.07831011 -0.10514493 0.08145339 -0.19687715 -0.029180538 0.13690978 0.061657447 -0.15065195
-0.11638682 -0.17383483 -0.096892476 0.09150133 -0.09843271 0.14125788 -0.077008635 -0.082152545
0.088350125 0.06024033 0.19793238 -0.08527409 0.15852734 0.07033693 -0.19129199 -0.1719226
0.14412127 0.10154576 0.19806908 0.020785945 -0.14593285 -0.11611032 -0.01219344 -0.17209235
0.17387488 -0.06802436 -0.059491705 -0.09308296 -0.17741129 0.15216231 0.117894694 0.04609195
-0.09441986 -0.08761745

conv1.bias f4 [10]
00000000: d487 c0bd 2818 133e 72bb 7c3d ae8a 43be
00000010: f7c2 3abc 535f 2a3e adc6 bdbd 1e61 16be
00000020: 8e0c 343e 187d 163e
-0.09400907 0.14364684 0.0617022 -0.19095871 -0.011399022 0.16637926 -0.0926641 -0.14685485
0.17582914 0.14696157

conv2.weight f4 [20, 10, 5, 5]
00000000: 08a7 51bd f296 b8bb 5270 173d 69f3 75bd
00000010: 989e 833d ad95 8bbc 5bb1 07bd b30b 813d
00000020: 9c93 1f3d b137 5f3d 7926 72bd 2914 1abd
00000030: 9783 f93c 53fc b6bc eca7 803d 10b5 393d
00000040: 36ac 47bc 525d 6f3d dc82 cc3b d5a0 383d
00000050: 54cb 753d e2e4 e33b c3e0 76bd a815 37bd
00000060: 10e7 72bd e1f2 153d 8990 ccbc 35b6 f23c
00000070: 6821 24bd 0700 b93c 3e9b 17bd ff95 203d
00000080: f527 dc3c b047 813d a26c 36bc 6234 b93c
00000090: f0bf a1bc 7ff2 36bd a777 743d cc8c adbc
000000a0: 9012 823d a732 3cbc 3b46 873d 1d89 b4bc
000000b0: 5c74 edbc 8283 3a3d ff44 953d 2d71 11bd
000000c0: 87fd 703d 354a 293d 851f e9bc e88b 3e3d
000000d0: 8423 913d 3cdd 603d a647 5c3c bf86 813d
000000e0: 6b67 65bc cbb2 0fbc 96cf e43c 169c 563b
000000f0: ae13 6fbc a8bc 69ba 6282 90ba f554 6b3d
00000100: fa04 813d 1e40 14bd 1c5e 6d3d c3ce 09bd
00000110: c36b 793c 7395 5abd e782 963b 98ee b2bb
00000120: c2c7 0abd e970 0ebd 83e1 0abc a10c 3a3c
00000130: 2dec 0abd 8c2c 193d 401e bb3c c65b ae3c
00000140: 3c0c 92bc 490e 7c3d 7a26 0b3d a687 86bc
00000150: 8da4 5f3d c444 dbbc b9a7 5abd 07c0 4b3c
00000160: b562 023d c930 23bc a7e2 1c3d 1169 a03d
00000170: 544d 8f3c 04f6 b53c 8193 59bd c023 bf3c
00000180: 26fa 7cbc 58a6 413c 3c14 713c 0de8 a5bc
00000190: 7382 2c3d 68d3 933d 6cb6 7abc 1298 2e3d
000001a0: 9784 32bd d453 05bd 3e0a 903d f58a de3c
000001b0: 1bd4 fc3c e9f0 4e3d 9c5c ecbc 2aa5 b83b
000001c0: 4697 11bd 81f6 903b cc4f 38bc 5685 b63c
000001d0: bc3f aa3d 4d74 e3bc 5d39 213d c88c 1bbc
000001e0: 7c8f ee3b 3b14 a93d d332 6fbd 392c 72bd
000001f0: 85af 49bd c596 d93c 98c6 373d 90fa d23c
00000200: 6325 163d 9237 ac3c 82c0 333d bb98 56bd
00000210: 4e69 8dbc d935 57bb e89d ad3c 7ae7 91bb
00000220: 0def 2dbd 6eff b3bc 811e feba cc6e 293d
00000230: 2896 423d 1e75 6f3d b24b 033d 30c6 09bd
00000240: 573e 993c 6922 57bd 84ab 803d b332 49bd
00000250: 3afc 7dbb 5f15 f93c 09c6 5fbd 8619 09bd
00000260: 432f 9f3c e269 823d acba bd3b 64f8 0b3d
00000270: a071 8fb8 6ef6 09bd 5b56 2c3d 27c4 30bd
00000280: 3e7e 14bd 9752 153d 15b6 843a 7cac 87bc
00000290: 9187 c2bb f818 0abd 4867 7f3d 44eb 6c3a
000002a0: 4f55 943c 203c ccbc 2862 843d ab57 cebc
000002b0: 9cea d23c 7946 8e3d ff36 143d 2198 60bd
000002c0: ff9c 883c 00d1 773b f614 0cbd 34f9 1bbd
000002d0: 1bb9 22bd bc01 6f3c 6660 b1bc dff7 85bb
000002e0: 093f 093c 0873 773d f785 48bd cc43 aebc
000002f0: 5982 28bd 671f 9cbc fd18 133d afaf d33c
00000300: ecc5 0abd 8742 1b3d e7a2 3c3d 71c9 2b3d
00000310: 4b87 e2bc 8a6d d6bc dbc0 f33c 2faf 063c
00000320: efdd b93c cb76 4b3d 42f4 893d 8237 a43c
00000330: 2a8b 373d caab 25bd 4b52 b13b 3077 323d
00000340: 8ae5 18bd ec1b 25bd 5ea3 8e3d 8a36 203d
00000350: b2bb 40bd 6567 2e3d ebaa 503d 70d2 4e3d
00000360: ddc9 01bd d9ca 6bbd 2f7a edbc 4c84 433c
00000370: 0d47 883c c119 5ebd b08c 2e3d 4e54 e33c
00000380: ad4a 5ebd 325b 39bd 2b5d 543d 3dd3 9a3d
00000390: 014b c13c 5e6c ef3b b2a2 863d d0bd e7bb
000003a0: 232e 603d 01bc 223d f69d 683d a4ff 3dbc
000003b0: 221b 423c a199 8e3d 5191 d23c 5157 27bd
000003c0: 55bd 03bd 40ff 69bd b16d 703d 8111 803d
000003d0: d9a8 4f3c 6654 983c 019b 37bb c6b6 4b3d
000003e0: eb76 813d 4aff 3c3c f87f 583c 10cf 29bd
000003f0: 2ebd 89bb af52 a53c 488e 56bc 477e 30bd
-0.051184684 -0.0056332285 0.03697235 -0.060046587 0.06426734 -0.017039144 -0.033128124 0.063010596
0.03895913 0.05449647 -0.05911872 -0.037616882 0.030458255 -0.022337114 0.062820286 0.04533869
-0.012187054 0.058438607 0.0062411856 0.045075256 0.060008362 0.006954775 -0.060272943 -0.044698387
-0.05930239 0.03660858 -0.024971263 0.029627899 -0.04007092 0.02258302 -0.037013285 0.039205547
0.026874522 0.063125014 -0.0111342985 0.022607986 -0.019744843 -0.044664856 0.059684422 -0.021185301
0.06351197 -0.011486686 0.06605192 -0.022038037 -0.028986149 0.045535572 0.072885506 -0.035508323
0.058835533 0.041330535 -0.028457412 0.046520144 0.07086852 0.054898486 0.013444817 0.06324529
-0.014001708 -0.008770655 0.027931016 0.0032746843 -0.014592094 -0.00089163566 -0.0011025185 0.05745407
0.06299777 -0.03619396 0.057951078 -0.03364445 0.015223446 -0.053365182 0.0045932415 -0.0054605715
-0.03388191 -0.03477565 -0.008476618 0.01135555 -0.03391664 0.037396 0.022841573 0.021283995
-0.0178281 0.06153706 0.03397224 -0.016422104 0.054600287 -0.026766188 -0.05338261 0.01243592
0.031832416 -0.009960362 0.03830209 0.0783254 0.017492928 0.022212036 -0.053119186 0.023332477
-0.015440499 0.011819445 0.014714297 -0.020252252 0.042116594 0.07218057 -0.015302282 0.042625494
-0.04358348 -0.032550648 0.070332035 0.02716587 0.030862859 0.05052272 -0.028852753 0.0056349235
-0.035544656 0.004423917 -0.011249494 0.022280376 0.083129376 -0.027765417 0.039361347 -0.009494014
0.0072802883 0.08255812 -0.05839808 -0.059124205 -0.049239654 0.02656115 0.044867128 0.025754243
0.03665675 0.021022592 0.04388476 -0.05239175 -0.017262127 -0.0032838492 0.02119346 -0.004452643
-0.042464305 -0.021972384 -0.0019387753 0.04136543 0.04750648 0.0584613 0.03205461 -0.033636272
0.018706484 -0.05252305 0.06282714 -0.049120616 -0.0038755075 0.030405698 -0.05463222 -0.033471607
0.019431716 0.06367852 0.0057900753 0.03417243 -6.839936e-05 -0.03368228 0.042074542 -0.043155815
-0.036253206 0.036455717 0.0010125065 -0.01656174 -0.005936571 -0.03371522 0.062354356 0.0009037743
0.018107085 -0.024931014 0.06464034 -0.025188288 0.025746636 0.06947035 0.03618526 -0.05483258
0.016676424 0.0037813783 -0.034199677 -0.038079455 -0.03972731 0.014587816 -0.021652412 -0.0040883864
0.008376845 0.060412437 -0.048955884 -0.021272562 -0.041139934 -0.019057943 0.035912503 0.025840608
-0.03388016 0.037905242 0.046053793 0.041940156 -0.027652403 -0.02617528 0.029755047 0.008220478
0.022688834 0.049673837 0.067360416 0.020046 0.04481045 -0.040447034 0.0054114214 0.043570697
-0.03732828 -0.04030983 0.069647536 0.039114513 -0.047054 0.042579073 0.05094425 0.050493658
-0.031686652 -0.057566497 -0.028988926 0.0119333975 0.016635442 -0.05422378 0.04261464 0.02775016
-0.054270435 -0.045252986 0.051846664 0.07559822 0.023595335 0.0073066195 0.065740004 -0.007072188
0.0547315 0.039730076 0.05679127 -0.011596594 0.011847289 0.06962896 0.025704058 -0.040854756
-0.032162983 -0.05712819 0.05869836 0.062533386 0.012674534 0.018594932 -0.0028015974 0.049734853
0.0632151 0.011535475 0.013214104 -0.041457236 -0.00420346 0.020181028 -0.013095446 -0.043089177

conv2.bias f4 [20]
00000000: ea7d 00bd 693a 82bd a80e 84bd 5231 f2bc
00000010: bcab 233c 7250 4a3c c405 8abc 7a53 7dbc
00000020: 3caa 0b3d 1bab a63c 2d8e 213d 51df 8fb9
00000030: 3c54 3e3c e27b b83c da12 553d ed4a 39bd
00000040: e2bc ea3b 56dc 243d f989 e83c dd1d 7ebc
-0.03137008 -0.06358797 -0.06448108 -0.029564533 0.009989675 0.012348281 -0.016848452 -0.015461797
0.034097895 0.020345261 0.03944223 -0.0002744147 0.011616763 0.02252001 0.05201993 -0.04523747
0.00716363 0.04024919 0.028386103 -0.01551005

fc1.weight f4 [50, 320]
00000000: d9f2 d2bb ff43 243d 1c6f 8b3c f9aa 42bd
00000010: dba4 dbbb c79b a6ba 58db 34bd 632e e13a
00000020: 7d46 413c 7b32 0abc a767 03bd 3ee2 1d3d
00000030: 295c 09bd 82d6 27bd 4c40 f8bc 2101 e33b
00000040: 9d1c 053d 1c43 7dbc 6a52 e5bc d602 6d3c
00000050: c5ff 1cbd ab60 b93c 4195 2e3d 76bb 54bb
00000060: 0696 03bc c428 4cbd 62ba e7bc 33bb 573d
00000070: 23b9 12bb 813d 00bb c8aa ff3b 09eb 3fbd
00000080: 4ccc db3b 15c5 5cbd d1ee 01bd a0bc 293d
00000090: e952 72bc 0409 19bd 54b3 0d3c 3314 da3c
000000a0: 75cf a83c acb0 8bbc d47f 08bd adb2 e6bc
000000b0: 2e65 24bd 42db 123d 40e0 88ba 0610 13bd
000000c0: 9655 44bd 47a2 6ebd 7c9f 15bd 0eec 5cbc
000000d0: 726c b4bb bdaf dc3c 33e4 1c3b ed56 5fbc
000000e0: de7b 2d3d fcd6 e83c 85d5 25bd 6801 613d
000000f0: 0fbb 80bc 5d81 5bbb e12f af3c 1e4d cf3c
00000100: 6f41 0e3d be84 18bd 708d 10bd 3494 b9b9
00000110: 3fc6 67bc 91bb 44bd 5e5c 1cbd 1b87 183b
00000120: a80b 43bd 3ab2 37bd ff17 403d ad0a 443d
00000130: e1d8 223d 3cf4 49bd 4df4 1ebd 4f1e 0cbd
00000140: d37e 6d3c 74c4 f2bc 1701 63bd 717b 16bc
00000150: add5 d6bc 4214 363d 2a5f e03c 7399 8fbc
00000160: 980b 3d3d 67d6 013d 9dbf a7bc b7ee 4abd
00000170: d546 63bc dce9 adba d707 bc3c c1cf a43c
00000180: 61f4 10bb ab0c b3bc f633 40bd a812 983c
00000190: 4123 34bd 604b 44bb aa44 2bbb 335f a53c
000001a0: 9cc1 7a3c 3742 35bc 6817 a7bc 824b 643d
000001b0: de97 03bd 55e3 ab3b 802b 4f3b 8a31 4bbd
000001c0: 0dcb d9bc 4331 29bd 333d 403d a301 5f3d
000001d0: fd3f b73c 7752 c43b dc08 62bc 180c 243d
000001e0: a8a7 45bc 0e9e 013c 3624 54bc 35fe 3ebd
000001f0: fdea 1cbc 9fb4 16bd 996e c33b 5278 d3bb
00000200: a5dc 5abd 1af4 72ba 9654 8b3c 13ee 84ba
00000210: b438 373d eab1 863c c17c 983c 5151 aa3c
00000220: 06dc 4bbd 297b 4f3d 612d fbbc 8b2e 433d
00000230: 1335 2c3d 76fc 3a3d 21c2 3c3d 4e49 6d3c
00000240: 3fde 3b3d 6192 a83c ad72 a73c 4c3a 28bd
00000250: c6cf c7ba 5818 3cbd 538b fabb 7109 1e3c
00000260: ee63 4dbd 98c7 dd3b 5a81 1cbd 75c6 5ebc
00000270: 3048 133b 6463 8ebc a675 ca3c dcbe d23c
00000280: cd1d 553d a7cf 233d 3a77 09bd b153 d73c
00000290: e419 b93b 1b92 44bd fb3a 2cbd ee00 27bc
000002a0: ec60 abbc 72b3 083d ca47 ec3c 481a 1d3d
000002b0: 81c9 a93c af07 32bd 3817 37bd 2a7f 0b3c
000002c0: 8494 23bc 99e2 0fbb d6c7 013d 54a9 5abc
000002d0: 8b0f ecbc 367e df3b 7d5c 2abd eaf4 113d
000002e0: 719a 56bd d4e9 923b cde8 d9bc 7d7d 26bd
000002f0: 6bc1 83bc 202d 7bbc 8c43 0f3d 7a00 b5bc
00000300: e69e 343d 52a4 64bc 5be3 6dbd 6367 5ebc
00000310: 668a e23c be53 783b 75c1 d63b f024 b73b
00000320: e324 38bd bb1e 22bd 8d04 a53c 16ce 1a3d
00000330: 11b7 04bd 7dbf 993b 3fc7 063d ba62 443a
00000340: 00ff df3c 6941 393b c1d0 c4bc af75 0ebd
00000350: a18f ab3b 9795 e4bc d9db 1d3d 1f39 c8bc
00000360: c041 22bd 7292 913c 7e2f 11bd e64b ec3b
00000370: 107d 073c 09fb 1e3d b728 04bd 50cf 12bd
00000380: 70d9 4ebd 68d1 f3bb cfbe 023d f846 5f3d
00000390: 057a c6bc 4500 9cbb f061 ba3c cb13 68bd
000003a0: 77d9 563d b4f0 28bd 35f9 f23c 5c9a 66bd
000003b0: 71ec 38bb 2464 4a3d 8eff 13bd 8326 64bd
000003c0: c472 4a3d daab 5e3c 8453 323c 2df2 2b3d
000003d0: c51a d03c 5028 443d b82d bdbc 330d e5bc
000003e0: 9247 3fbd 2355 babc 30ce 27bc 61d9 2d3d
000003f0: 73e4 1a3c 8938 243c 8f6b 323c 96a8 c1bc
-0.006437641 0.04010391 0.017020755 -0.047526333 -0.006703002 -0.001271122 -0.044154495 0.0017179962
0.011796591 -0.008434887 -0.032081272 0.03854584 -0.033535156 -0.040976055 -0.030304097 0.006927625
0.03249799 -0.015457895 -0.0279934 0.014466008 -0.03832986 0.022629103 0.04262281 -0.0032460368
-0.008031374 -0.049843565 -0.028287116 0.05266876 -0.0022388182 -0.001956791 0.007802341 -0.046855006
0.0067077037 -0.05389889 -0.031721894 0.041439652 -0.014790275 -0.037362114 0.008648712 0.02662096
0.020606736 -0.017052017 -0.03332503 -0.028161371 -0.040135555 0.03585363 -0.0010442808 -0.035903953
-0.047933184 -0.05826023 -0.03652905 -0.013484014 -0.0055060918 0.026939267 0.0023939728 -0.013631565
0.042354457 0.028422825 -0.04048683 0.05493298 -0.015714196 -0.0033493855 0.021385135 0.025305327
0.03473037 -0.037235968 -0.035291135 -0.0003539637 -0.014146387 -0.04803044 -0.038174026 0.0023273889
-0.04761854 -0.044847704 0.046897884 0.047861744 0.039757613 -0.049305186 -0.038807202 -0.034208592
0.014495569 -0.029634692 -0.05542096 -0.009184704 -0.026224935 0.044452913 0.027389128 -0.017529225
0.046153635 0.03169861 -0.02047711 -0.049544062 -0.013871868 -0.0013268548 0.022952957 0.020118596
-0.0022118317 -0.021856626 -0.046924554 0.018563583 -0.043978933 -0.0029952154 -0.0026133456 0.020186996
0.015304949 -0.01106315 -0.020396903 0.055736072 -0.032127254 0.005245606 0.0031611621 -0.04960779
-0.02658608 -0.041306745 0.046933364 0.05444492 0.02236938 0.005991276 -0.013796058 0.040050596
-0.012063898 0.007911218 -0.0129480865 -0.04662915 -0.00957751 -0.036793347 0.005964112 -0.0064535523
-0.05343308 -0.00092679414 0.017008107 -0.0010141752 0.04473181 0.016442258 0.018614175 0.020790728
-0.049770378 0.050654564 -0.030661287 0.04765181 0.042042803 0.04565092 0.046083573 0.014482809
0.045866247 0.020577611 0.020440424 -0.04107122 -0.0015244416 -0.045921654 -0.0076460033 0.009645806
-0.05014413 0.006768178 -0.038209297 -0.0135971205 0.0022473447 -0.017381378 0.024714302 0.025725774
0.052030373 0.039992955 -0.03356097 0.026285024 0.0056488384 -0.0479909 -0.042048436 -0.010193093
-0.02092024 0.033374257 0.028842825 0.038355142 0.020725967 -0.04346436 -0.044699878 0.008514205
-0.009984139 -0.002195513 0.03168472 -0.013346035 -0.028816005 0.0068204654 -0.04159211 0.03563396
-0.05239338 0.004483441 -0.026600266 -0.04064702 -0.01608344 -0.015330583 0.034976527 -0.022094954
0.04409685 -0.013955193 -0.05807815 -0.013574454 0.027653884 0.003789171 0.0065538236 0.00558912
-0.044957053 -0.039580088 0.020143772 0.037794195 -0.03240115 0.0046920166 0.03290486 0.0007491518
0.027343273 0.0028267747 -0.024025323 -0.0347802 0.0052356278 -0.027903361 0.03853974 -0.0244413
-0.039613485 0.017770026 -0.035445683 0.0072111962 0.008269563 0.038813625 -0.03226539 -0.03584224
-0.050500333 -0.0074407347 0.03192025 0.05451104 -0.024228105 -0.0047607743 0.022751778 -0.0566595
0.052453484 -0.041245177 0.029659847 -0.056299552 -0.0028217102 0.049411908 -0.036132388 -0.05570079
0.049425855 0.013590777 0.0108841695 0.041979004 0.02540339 0.047890007 -0.02309309 -0.027960395
-0.046699114 -0.022745674 -0.01024203 0.042443637 0.009453881 0.010023245 0.010889902 -0.023639958

fc1.bias f4 [50]
00000000: cc2b 74ba 5f77 c7bc 67aa 04bd b0f2 81bd
00000010: f208 04bc 7819 9eb8 93a9 ad3c ed7f ba3c
00000020: 4e64 0fbd 0ab5 3c3c 2363 50bd acb4 69bb
00000030: 932f cbbc eead 70bc d440 d53c 9f39 28bd
00000040: c3ac 9dbc 525a 6f3b bf66 153c 7b49 06bb
00000050: 5966 1dbd 9440 9abb 9330 aabc e053 3f3d
00000060: 96fd 1f3d 6c7d 9f3a 0875 6c3c fa37 17bd
00000070: 56ce 74bd be8b 123d 2f3f 31bd a391 74bc
00000080: fee1 1a3c 8d2f 24bd 98a5 59bd 23c7 4e3d
00000090: 3268 bbbc 989c 6ebd 64b3 ba3c bb87 bbbc
000000a0: 59b3 43bd e6b1 48bd 3e6e 443c be03 c33c
000000b0: 93ff 1fbc 76b0 b63c 32cb 6cbc 5da1 cbbc
000000c0: b24f a43c ca17 5f3d
-0.00093143876 -0.024348913 -0.03238907 -0.06345117 -0.008058773 -7.538771e-05 0.021199023 0.022766078
-0.035007767 0.011517772 -0.050875794 -0.0035660667 -0.024802959 -0.014689906 0.026031889 -0.041070577
-0.019247418 0.003652234 0.009118735 -0.0020490575 -0.038427684 -0.0047074053 -0.020775115 0.04671085
0.039060198 0.0012168116 0.014432199 -0.036918618 -0.05976709 0.0357778 -0.043273147 -0.014927301
0.009453295 -0.04008441 -0.053136438 0.05048288 -0.022876833 -0.05825481 0.022790618 -0.02289187
-0.04777846 -0.048997782 0.011989174 0.023805495 -0.0097655235 0.02230094 -0.014452742 -0.024857217
0.020057533 0.054466046

fc2.weight f4 [10, 50]
00000000: 2aa4 efbd ee7c 0a3d d5b4 b4bd 489b 1b3d
00000010: 377a 993d 6d97 7fbd 9cd7 d3bd 66c7 07bd
00000020: 82ea 14bd 18ae 9ebd 37ac 133d dfdf 00be
00000030: ebf2 1e3e fa52 50be 9fb2 86bd f72c 4d3c
00000040: 5a75 22bd 9684 83bd 43ef 65bd fc93 713d
00000050: e1d0 e8bd 2cba 2abc 44c9 573d 0b54 a4bd
00000060: 0697 a0bc b773 04bd bf79 cc3d 5da3 d6bd
00000070: 2269 d33c 4a47 bbbd 2990 bebd 2ac5 033e
00000080: de5d 09bd 2757 15bd 1d1f f5bc 51cf 9a3d
00000090: edd6 7fbd 17e4 0b3e 334b d53d 6eb1 9b3d
000000a0: 388d b9bd f9fe e23c 6018 babd e009 a2bd
000000b0: 0331 913c 00ea 90bd 4c30 04be 9776 f43c
000000c0: e2c5 a7bc ea84 f53d 3dc7 233d 64ce a03b
000000d0: 4f51 05bd 07c7 98bd f969 ca3d 8ea4 cdbd
000000e0: 93b1 f4bd 453a 0fbd f77d 14bb 7590 953d
000000f0: 8778 22be e9e7 05be 3f27 01be cb58 0abd
00000100: 941f 0a3d 3a55 d63d bf8c 0bbe 61d9 173d
00000110: 83a7 a73d 2303 503c ed6c a83d ba29 c7bc
00000120: db81 17be 70a5 60bb 7bf6 cd3b 4348 afbd
00000130: 9777 083e d8ed 78bb 6c22 95bd 1146 843d
00000140: 18e8 f23c c6d8 8d3d b7f8 c4bd b5da 593b
00000150: 6e4a bfbc 4e58 353d acdd 10be 4953 813d
00000160: 1c0f b4bd c9ff 7bba bb49 bbbd bff2 5cbd
00000170: 5734 17be 5ae7 0ebc f2e9 04be a2ce 0cbd
00000180: 74e8 463d 3547 003e 2e24 0dbe bf42 ffbc
00000190: 2b24 cd3d 9214 03be 57ff a2bd 4274 08bc
000001a0: 2744 a33d 86b6 9abd 12f1 4b3d b276 6c3d
000001b0: 6861 aa3d d44d ba3d 891d 643d 525f aabc
000001c0: c05a d13d a570 a3bc ea57 f9bd 5491 3cbd
000001d0: cc35 003e b82d fb3d d43a 11be de15 d43c
000001e0: f460 cc3b 79ed 80bd afb7 c13d 0f60 01be
000001f0: 020b 843d f6bd d43b 7458 763d 26a9 cebd
00000200: a09f a2bd 394c 91bc 4755 393d bbeb b53d
00000210: 5f94 d8bc f5e4 50bd 0461 7e3d 5e96 a93d
00000220: ca9d c9bd d383 463d 3fac c03c 46cb 9cbc
00000230: ea64 dcbd c3f9 87bd 8350 c13b 2507 c13d
00000240: 2a31 273d baa7 c3bd 1ad5 f93d 2934 1d3b
00000250: 6184 0ebe 118f 94bd 05ca a13d f0f9 79bd
00000260: d04d 2a3d 3827 c33d 0a07 dfbd e3e6 ac3d
00000270: fd50 023d a37f 0bbd 09cf 0e3e a9c9 b7bd
00000280: aef4 65bd 7900 c33d 215e 68bd 4048 9b3c
00000290: 9999 b3bd 29ac dbbd 10f1 4f3b 32d1 77bb
000002a0: b484 8abb 42c2 b53c a3bb d73c daae db3d
000002b0: f861 b4bd 5138 243d 4e04 9b3d 1e32 90bd
000002c0: 37c6 6c3d d026 59bd 5dad 683d 2772 843c
000002d0: b20d 8dbd 5a80 c83d 9d4b e1bd 25bb babc
000002e0: 5e1f ee3d 6ea7 abbd abbb 39be d77a 993d
000002f0: ef24 c4bc 8215 f3bd 908d 81bd f0f2 08bd
00000300: 5be1 8c3d 2ee4 cbbc eeaa 243e c9a6 bdbd
00000310: 13c3 4f3d 1c31 193e 9742 cabd 08a8 093d
00000320: d746 003d b2f1 87bd a114 b73d 7262 033d
00000330: fe74 563c 98e1 6ebc 4def 06be 25ce e9bd
00000340: 0bee 8c3d 180a f0bd b62a c33d b9e8 e23b
00000350: 199d 733d 8e56 023e 9590 ba3d e256 f43d
00000360: 8989 fd3c 7ac0 833d f586 dabb 2d0a dabd
00000370: 36bc 95bd d04f 853d 8967 cb3d 39fe 4d3d
00000380: d2af d33c c98f 7b3d 1445 86bd b2b8 0fbe
00000390: 7265 8a3d 428f f7bd 85f1 ee3d e926 95bc
000003a0: ebcd 103d f5a3 b53d adc1 b43d a7b2 5fbd
000003b0: 3e4a 133d 0c4c 8c3d 12a9 d9bc 2536 06be
000003c0: 912c 943d 812b 97bd 903d 933d ce3a 183e
000003d0: c775 20bd 94e7 b6bd 01ce 69bd 15b2 07bd
000003e0: ec08 f1bd 6f5b 393d 9da2 753d a866 37bd
000003f0: 9ef7 d13c 2839 083e 8bc3 2bbd f007 02be
-0.11701234 0.03381055 -0.088235535 0.037989885 0.07494014 -0.06240027 -0.103438586 -0.033149146
-0.036356457 -0.077480495 0.03605291 -0.125854 0.15522353 -0.20344153 -0.06577038 0.0125229275
-0.039662696 -0.06421773 -0.05613638 0.05897902 -0.113679655 -0.010420363 0.052682176 -0.080238424
-0.019603264 -0.032336917 0.09984159 -0.10480378 0.025806967 -0.09144457 -0.0930484 0.12868181
-0.033536784 -0.036460068 -0.029922063 0.07559074 -0.06246083 0.13661228 0.10414734 0.076022014
-0.090601385 0.027709471 -0.090866804 -0.0791204 0.017723566 -0.07075882 -0.12909049 0.029841704
-0.0204801 0.11988242 0.03998493 0.004907416 -0.032548245 -0.074598365 0.09883494 -0.10041152
-0.11947932 -0.03496768 -0.0022658089 0.073029436 -0.1586629 -0.13076748 -0.12612627 -0.033776086
0.03372152 0.104654744 -0.13627909 0.037072543 0.08186247 0.01269606 0.08223901 -0.024311889
-0.1479563 -0.0034278296 0.0062854863 -0.08558705 0.1332687 -0.0037983563 -0.07281956 0.064586766
0.029651687 0.06926112 -0.09617751 0.0033241932 -0.02335092 0.044273667 -0.14147061 0.063147135
-0.087919444 -0.0009613005 -0.09144922 -0.05394244 -0.1476606 -0.008722151 -0.12979868 -0.034376748
0.04856153 0.12527163 -0.13783333 -0.031159757 0.10016664 -0.12800816 -0.079588585 -0.008328499
0.079719834 -0.07554345 0.04979045 0.057730384 0.0831936 0.09096876 0.05569223 -0.020797405
0.10222387 -0.019951174 -0.121749714 -0.046037033 0.12520522 0.122645795 -0.14182597 0.025889333
0.0062371437 -0.06295294 0.09458863 -0.126343 0.06447412 0.0064923717 0.06014295 -0.10090856
-0.07940602 -0.017736541 0.045247342 0.08882853 -0.026437936 -0.0509996 0.06210424 0.082806334
-0.09844549 0.04846556 0.023519633 -0.019139897 -0.10761435 -0.06639435 0.0058994903 0.09425191
0.04081837 -0.09553476 0.12198849 0.0023987389 -0.13917686 -0.0725385 0.0789986 -0.061029375
0.041578114 0.09528965 -0.108900145 0.08442476 0.031815518 -0.03405727 0.13946165 -0.089740105
-0.056141548 0.095215745 -0.056730393 0.01895535 -0.08769531 -0.10726196 0.0031729378 -0.00378139
-0.004227245 0.022187356 0.02633459 0.1072671 -0.088077486 0.04009277 0.075691804 -0.07040809
0.05780622 -0.05301553 0.056805957 0.016167713 -0.06887378 0.09790106 -0.1100075 -0.022794316
0.116270766 -0.08381544 -0.18137996 0.07494133 -0.023943393 -0.11869337 -0.06325829 -0.03343481
0.06878921 -0.024889078 0.1608083 -0.09260327 0.050723147 0.1496014 -0.09875982 0.033607513
0.03131756 -0.066378966 0.089394815 0.032076307 0.013089417 -0.014580153 -0.13177224 -0.11416272
0.068813406 -0.11720675 0.09529631 0.0069247154 0.059475992 0.1272833 0.09109608 0.11930634
0.030949371 0.06433196 -0.00666892 -0.10646472 -0.07311289 0.06509364 0.09931857 0.050291274
0.025840674 0.06141642 -0.06556144 -0.140353 0.067576304 -0.12087871 0.1166716 -0.01820703
0.03535263 0.08869163 0.08826003 -0.054613736 0.035959475 0.06850442 -0.026569877 -0.13106592
0.07235063 -0.073813446 0.071894765 0.14866182 -0.03917482 -0.08930889 -0.057081226 -0.033128817
-0.1176928 0.045253213 0.059969533 -0.044775635 0.025630768 0.13303053 -0.04193453 -0.1269834

fc2.bias f4 [10]
00000000: 23b9 c9bd df04 7e3d 3a03 88bd 746d 41bd
00000010: 7442 a5bb 88bf 0abd f475 62bc 0444 c0bc
00000020: 5a73 28bc c851 1a3d
-0.09849765 0.062016364 -0.066412404 -0.047223523 -0.005043322 -0.033874065 -0.0138220675 -0.023469932
-0.010281408 0.03767565
