MNIST/Models/Client_1/Trained local models/Trained_8_5_2021_10_44_10.pth (torch, 90095 bytes, 8 tensors)

conv1.weight f4 [10, 1, 5, 5]
-0.14117695 0.065723166 0.082998775 -0.025403745 -0.09112287 0.13120098 -0.07092179 -0.054784417
0.032688506 0.013219372 0.060860313 -0.10681605 -0.08148842 0.045119505 -0.07776009 -0.099079266
0.1668781 0.012739085 -0.0038749867 0.11904171 -0.12338477 -0.16825892 0.10418178 -0.103763476
-0.15049723 -0.22668289 -0.14984079 0.047750022 -0.18176383 0.107859835 -0.04281353 0.004919804
-0.051285245 -0.048010785 0.040489312 -0.21241331 0.038466234 0.08029887 -0.014323976 0.11862689
-0.029764649 0.09079259 -0.13674884 -0.009164267 0.22632399 0.15740524 0.2301379 0.23969808
0.23096354 0.20357303 -0.069986284 0.1327877 0.15255024 0.2644097 0.22581717 -0.006483131
0.0748021 -0.09653048 -0.13351884 0.024571745 0.051679626 0.1216507 -0.012502675 0.10228248
-0.18870208 -0.11455964 -0.14359505 -0.19076297 -0.14962527 -0.14943661 -0.20966053 -0.17219625
-0.065289214 -0.06493918 0.12499942 0.014646378 0.09474792 0.029070634 0.12752683 0.18092448
-0.19950111 -0.16453041 -0.019057693 0.18964939 -0.13322036 -0.06893925 0.15930125 0.11632024
0.09329346 -0.018593103 0.053316887 -0.008545666 0.19793826 -0.15514398 -0.06774624 0.014825121
0.06788344 0.00088976964 0.110256985 -0.2207286 -0.018618409 -0.18605697 0.065483026 0.18485874
0.13084294 -0.13423073 -0.2131359 -0.10088759 -0.068779305 0.078935966 -0.23532319 -0.19730952
-0.060520012 0.093704015 0.17428114 0.038803685 0.08943887 -0.06584387 -0.09721736 0.12951612
-0.18411483 -0.28940174 0.070659466 0.16986582 0.22512159 -0.06702272 -0.10764226 0.15327977
-0.07968799 0.23349944 -0.037919514 0.2541322 0.19543643 0.2594387 -0.04727581 0.13271181
-0.12819357 0.18352193 0.057182603 0.047161352 -0.013060784 -0.14127892 -0.1688139 -0.04652694
0.18905608 -0.06320025 -0.19311714 -0.14795472 -0.21383113 -0.06377683 0.026466936 -0.114065155
0.14655899 -0.007209432 -0.17806946 -0.17780992 -0.18815838 -0.10175094 0.18141358 0.09320779
0.19924039 0.24903968 0.0011467903 0.026576867 0.20983437 0.16566248 0.1263075 0.1528676
0.12530223 -0.10421954 -0.04959001 -0.14833377 -0.0019505317 0.10891602 -0.09219088 0.15046422
-0.1131942 -0.05531156 -0.07343093 -0.153778 -0.10228756 0.10687345 -0.0054925424 -0.21163768
-0.11223257 0.24361688 0.19136114 -0.082413234 -0.006305744 0.16551188 0.00564743 0.05297565
0.20304732 0.2195688 -0.12693068 0.15597801 0.1820035 0.20259833 -0.15937084 -0.11332518
0.05715178 0.15071632 0.062023655 0.075139314 0.08283772 -0.17472042 0.094219536 0.1756501
-0.04416781 -0.076994285 0.05930999 -0.20743291 -0.030118873 0.14189668 0.06522324 -0.15897968
-0.12507443 -0.1821821 -0.10663663 0.07622959 -0.11314741 0.11681226 -0.100437194 -0.10433591
0.0643395 0.04222634 0.20093393 -0.068053484 0.18025288 0.11271856 -0.2128372 -0.18701555
0.1332938 0.105538264 0.23656824 -0.011821246 -0.17840274 -0.15098807 -0.029314855 -0.15498893
0.13767155 -0.099047445 -0.088266104 -0.10750812 -0.1732124 0.117572956 0.09029432 0.021321286
-0.108748406 -0.091232434
00000000: b190 10be de99 863d 43fb a93d 841b d0bc
00000010: a19e babd 8d59 063e 723f 91bd a065 60bd
00000020: 62e4 053d 1196 583c aa48 793d 60c2 dabd
00000030: 67e3 a6bd 3bcf 383d af40 9fbd 12ea cabd
00000040: 18e2 2a3e 98b7 503c 7df3 7dbb 24cc f33d
00000050: 27b1 fcbd 114c 2cbe 425d d53d f281 d4bd
00000060: f21b 1abe 8f1f 68be dd6f 19be 8795 433d
00000070: 4c20 3abe 9ee5 dc3d 3d5d 2fbd 4f36 a13b
00000080: 7a10 52bd f5a6 44bd 1fd8 253d e082 59be
00000090: c58e 1d3d bc73 a43d 1caf 6abc a8f2 f23d
000000a0: fed4 f3bc 77f1 b93d e307 0cbe b925 16bc
000000b0: 7ac1 673e d72e 213e 45a9 6b3e 6a73 753e
000000c0: b581 6c3e 7375 503e f854 8fbd 80f9 073e
000000d0: 2136 1c3e b560 873e 9e3c 673e 7270 d4bb
000000e0: d831 993d c6b1 c5bd 2ab9 08be af4a c93c
000000f0: 04ae 533d 0124 f93d 05d8 4cbc 7a79 d13d
00000100: 1e3b 41be 3f9e eabd 950a 13be 5e57 43be
00000110: 5e37 19be e905 19be 40b1 56be 3754 30be
00000120: 5ab6 85bd d5fe 84bd b2ff ff3d 5df7 6f3c
00000130: 330b c23d 8a25 ee3c 6596 023e 4444 393e
00000140: 054a 4cbe a97a 28be e11e 9cbc 7333 423e
00000150: eb6a 08be 0630 8dbd de1f 233e 4e39 ee3d
00000160: a410 bf3d 9050 98bc cf62 5a3d 1f03 0cbc
00000170: 54b0 4a3e 10de 1ebe 8abe 8abd 10e5 723c
00000180: 7906 8b3d 6e3f 693a 6ace e13d ae06 62be
00000190: a285 98bc b885 3ebe f71b 863d 9c4b 3d3e
000001a0: b1fb 053e c873 09be 4c40 5abe 279e cebd
000001b0: 2adc 8cbd 2ea9 a13d 90f8 70be 820b 4abe
000001c0: d5e3 77bd e4e7 bf3d c176 323e 9df0 1e3d
000001d0: ba2b b73d 27d9 86bd e519 c7bd e09f 043e
000001e0: 9988 3cbe 772c 94be e9b5 903d 4ef1 2d3e
000001f0: 4686 663e 3543 89bd 8c73 dcbd 5ff5 1c3e
00000200: 7533 a3bd 7a1a 6f3e 7e51 1bbd 9e1d 823e
00000210: 7d20 483e 26d5 843e 48a4 41bd 9be5 073e
00000220: 2d45 03be 2ced 3b3e 4e38 6a3d 432c 413d
00000230: e6fc 55bc 6cab 10be 8ddd 2cbe 0893 3ebd
00000240: eb97 413e 226f 81bd 80c0 45be 7181 17be
00000250: 8cf6 5abe 6d9d 82bd 30d1 d83c fe9a e9bd
00000260: 8f13 163e 193d ecbb d757 36be ce13 36be
00000270: 97ac 40be cc62 d0bd 7bc4 393e bae3 be3d
00000280: ac05 4c3e 4204 7f3e e64f 963a bbb7 d93c
00000290: d2de 563e 6da3 293e c156 013e 5389 1c3e
000002a0: 3a4f 003e 0e71 d5bd e51e 4bbd cfe4 17be
000002b0: fca8 ffba 5d0f df3d 92ce bcbd 4b13 1a3e
000002c0: 5cd2 e7bd 608e 62bd f562 96bd fb77 1dbe
000002d0: 247c d1bd 78e0 da3d c9fa b3bb 8cb7 58be
000002e0: 31da e5bd b476 793e 2df4 433e 45c8 a8bd
000002f0: 6aa0 cebb f27b 293e 140e b93b fffc 583d
00000300: a3eb 4f3e a5d6 603e 1efa 01be b3b8 1f3e
00000310: 205f 3a3e f075 4f3e 1c32 23be 0817 e8bd
00000320: fc17 6a3d 6155 1a3e 840c 7e3d a4e2 993d
00000330: d3a6 a93d e9e9 32be 2cf6 c03d 9fdd 333e
00000340: 4ee9 34bd 2eaf 9dbd 08ef 723d 4b69 54be
00000350: dbbb f6bc 5d4d 113e c393 853d 92cb 22be
00000360: 8313 00be f28d 3abe 4e64 dabd 421e 9c3d
00000370: d4b9 e7bd 443b ef3d 04b2 cdbd 11ae d5bd
00000380: 6ec4 833d 87f5 2c3d a0c1 4d3e a05f 8bbd
00000390: 3694 383e fdd8 e63d fff1 59be 0181 3fbe
000003a0: 2b7e 083e 7224 d83d f23e 723e e6ad 41bc
000003b0: 35af 36be 9e9c 1abe b525 f0bc 6bb5 1ebe
000003c0: c5f9 0c3e 63d9 cabd dcc4 b4bd 382d dcbd
000003d0: 975e 31be 17ca f03d 3aec b83d faa9 ae3c
000003e0: 7cb7 debd 12d8 babd

conv1.bias f4 [10]
-0.11482976 0.14276174 0.037015095 -0.19794346 -0.029828392 0.0936481 -0.08638688 -0.12326372
0.16803642 0.077247754
00000000: dd2b ebbd 2230 123e 249d 173d b1b1 4abe
00000010: ac5a f4bc 93ca bf3d 9beb b0bd b071 fcbd
00000020: bd11 2c3e 1234 9e3d

conv2.weight f4 [20, 10, 5, 5]
-0.04963989 -0.0034777403 0.03892763 -0.059125002 0.065397434 -0.014537427 -0.032413896 0.06295104
0.037897903 0.05582094 -0.057727505 -0.038282763 0.028864011 -0.024997806 0.064011745 0.04355163
-0.014591222 0.053693604 0.0030528652 0.044768993 0.058040988 0.0040120315 -0.064377636 -0.04615234
-0.061033934 -0.0014180648 -0.04608198 0.014812205 -0.056923162 0.00022796053 -0.079098634 0.018179672
0.008973971 0.043745875 -0.039821573 0.0036833116 -0.014858428 -0.043862503 0.041295502 -0.055032928
0.101319805 0.036786925 0.088971205 -0.03279773 -0.0450076 0.10866689 0.12633345 -0.015712647
0.070855446 0.067895204 -0.021913283 0.066951364 0.091295 0.06956929 0.023803698 0.06560238
-0.008901053 -0.004071626 0.034214213 0.009856687 -0.013859322 -0.010916319 -0.015737671 0.047687404
0.05982385 -0.04135699 0.036078162 -0.05712714 0.0020491066 -0.059659574 -0.013631418 -0.027690647
-0.048583772 -0.045507915 -0.019008422 0.006228258 -0.037536748 0.044567578 0.03462166 0.0292343
-0.039131258 0.039798845 0.032027323 -0.015482897 0.054129403 -0.055672023 -0.07613813 0.013765172
0.026383402 -0.014001012 0.0069002407 0.07704293 0.03231065 0.011332232 -0.06472374 0.013327455
0.012954907 0.0282925 0.002149767 -0.028020535 0.03521073 0.09359815 0.010977633 0.046125423
-0.04439843 -0.043863192 0.085870415 0.04152347 0.030133503 0.049899492 -0.01626033 0.037597485
-0.031189032 -0.004157482 -0.019951044 0.06790987 0.1300506 -0.039082173 0.026257487 -0.020389197
0.062378652 0.12290757 -0.07596941 -0.067682154 -0.05446237 0.026024844 0.058612004 0.04127718
0.04748209 0.027945396 0.035748366 -0.05915093 -0.02593826 -0.0069349986 0.017549645 -0.014737418
-0.06118146 -0.045606725 -0.017423635 0.029381035 0.03335221 0.03283674 0.008990291 -0.04571323
0.003721044 -0.057730157 0.06371964 -0.05646534 -0.01951518 0.011517586 -0.060560603 -0.038102873
0.02086825 0.06738496 0.008542865 0.019244852 -0.012061507 -0.03871979 0.0360941 -0.05202801
-0.051453013 0.02861233 -0.0015709572 -0.023369027 -0.01581663 -0.046102732 0.07000201 0.013405121
0.013962873 -0.03795941 0.08041083 0.010643386 0.048060592 0.07823429 0.043400288 -0.06568893
0.0017894001 -0.0116564175 -0.035799634 -0.029665746 -0.054751232 -0.00067022635 -0.031132106 -0.007763923
0.0031906157 0.040995274 -0.06048865 -0.0062190457 -0.033791803 -0.028326485 0.026253147 0.03924882
0.014745746 0.060213987 0.042752907 0.05638101 0.0051047346 0.034656733 0.069950946 0.035194136
0.021492163 0.05957359 0.080454 0.029016467 0.049332313 -0.039525334 0.008505005 0.04260814
-0.03603407 -0.03734737 0.07385419 0.036848262 -0.058344923 0.032518428 0.04602091 0.053973462
-0.042444397 -0.0759255 -0.040340833 0.0062648593 0.012916913 -0.06923995 0.022795083 0.014612671
-0.06431809 -0.042963352 0.0627849 0.08487853 0.026722968 0.0039431313 0.05629256 -0.014420815
0.053934727 0.038235277 0.050581895 -0.027034225 -0.012024818 0.05396334 0.014738688 -0.049643353
-0.054620564 -0.08279965 0.045927122 0.05370489 0.003300154 -0.007357626 -0.025977675 0.027149161
0.050042823 0.0032108533 0.014115029 -0.041129608 -0.0042662793 0.019788062 -0.01325323 -0.042122
00000000: 3353 4bbd cdea 63bb 9472 1f3d 0f2d 72bd
00000010: 17ef 853d 632e 6ebc 6fc4 04bd 7aec 803d
00000020: d53a 1b3d 7fa4 643d ad73 6cbd 63ce 1cbd
00000030: 3874 ec3c 33c8 ccbc 9718 833d 3263 323d
00000040: 0510 6fbc d3ed 5b3d 9412 483b b15f 373d
00000050: 63bc 6d3d 5c77 833b 6cd8 83bd 3c0a 3dbd
00000060: b8fe 79bd 5cde b9ba 75c0 3cbd e4ae 723c
00000070: 4328 69bd b008 6f39 77fe a1bd 89ed 943c
00000080: 9007 133c e02e 333d f21b 23bd b763 713b
00000090: c470 73bc 2ba9 33bd 7925 293d 356a 61bd
000000a0: c280 cf3d e3ad 163d 8936 b63d ea56 06bd
000000b0: e459 38bd bf8c de3d 8e5d 013e cfb7 80bc
000000c0: a91c 913d a40c 8b3d 7c83 b3bc cc1d 893d
000000d0: dff8 ba3d 587a 8e3d f9ff c23c 8a5a 863d
000000e0: b9d5 11bc 466b 85bb 3424 0c3d f17d 213c
000000f0: 3612 63bc 5cda 32bc 4aec 80bc de53 433d
00000100: da09 753d f265 29bd b2c6 133d 26fe 69bd
00000110: 4e4a 063b 995d 74bd 5056 5fbc 7fd7 e2bc
00000120: c7ff 46bd 8266 3abd 8db7 9bbc 6a16 cc3b
00000130: 22c0 19bd 7e8c 363d 71cf 0d3d c57c ef3c
00000140: 1948 20bd 1d04 233d 152f 033d faab 7dbc
00000150: cbb6 5d3d 5908 64bd 4fee 9bbd 5187 613c
00000160: 0122 d83c 8064 65bc 6a1b e23b afc8 9d3d
00000170: 2c58 043d d3aa 393c e18d 84bd 665b 5a3c
00000180: d140 543c acc5 e73c 1be3 0c3b 528b e5bc
00000190: 2039 103d 63b0 bf3d 88db 333c 03ee 3c3d
000001a0: 21db 35bd e4a9 33bd d4dc af3d 8414 2a3d
000001b0: 89da f63c 6963 4c3d 6234 85bc d2ff 193d
000001c0: 2480 ffbc 7d3b 88bb 5f70 a3bc 5414 8b3d
000001d0: fc2b 053e a114 20bd f119 d73c 3f07 a7bc
000001e0: c280 7f3d f7b6 fb3d da95 9bbd f19c 8abd
000001f0: ef13 5fbd 0e32 d53c 2413 703d 4312 293d
00000200: 947c 423d beed e43c e16c 123d 3f48 72bd
00000210: 797c d4bc fc3e e3bb 46c4 8f3c 3675 71bc
00000220: 6999 7abd 1ece 3abd 03bc 8ebc 7fb0 f03c
00000230: 549c 083d d17f 063d 034c 133c cc3d 3bbd
00000240: c2dc 733b 7576 6cbd 717f 823d 3348 67bd
00000250: 4cde 9fbc 42b4 3c3c 650e 78bd c211 1cbd
00000260: e4f3 aa3c 2001 8a3d 5ff7 0b3c 61a7 9d3c
00000270: a19d 45bc a498 1ebd 68d7 133d 531b 55bd
00000280: 65c0 52bd 6864 ea3c 94e8 cdba 6770 bfbc
00000290: e191 81bc 38d6 3cbd 375d 8f3d 27a1 5b3c
000002a0: 89c4 643c 547b 1bbd 6fae a43d 9961 2e3c
000002b0: 2fdb 443d 4d39 a03d 80c4 313d eb87 86bd
000002c0: 4e8a ea3a 8ffa 3ebc a3a2 12bd 9405 f3bc
000002d0: d442 60bd 21b2 2fba c208 ffbc 8268 febb
000002e0: a619 513b a9ea 273d f2c2 77bd 23c9 cbbb
000002f0: 4669 0abd f20c e8bc d710 d73c 5fc3 203d
00000300: 2498 713c f1a2 763d ac1d 2f3d c6ef 663d
00000310: 9e45 a73b 38f4 0d3d 7142 8f3d ba27 103d
00000320: 5510 b03c 7003 743d 11c5 a43d f1b3 ed3c
00000330: ae10 4a3d 51e5 21bd 9458 0b3c df85 2e3d
00000340: 7698 13bd 8ef9 18bd de40 973d 34ee 163d
00000350: 16fb 6ebd 0b32 053d 6c80 3c3d 4713 5d3d
00000360: 2dda 2dbd d47e 9bbd 6e3c 25bd 7349 cd3b
00000370: 76a1 533c adcd 8dbd c1bc ba3c fc69 6f3c
00000380: 34b9 83bd 57fa 2fbd 5f95 803d cbd4 ad3d
00000390: 20ea da3c 6235 813b 0793 663d 4845 6cbc
000003a0: a9ea 5c3d 989c 1c3d f62e 4f3d e176 ddbc
000003b0: be03 45bc aa08 5d3d 8a7a 713c d456 4bbd
000003c0: d0b9 5fbd dd92 a9bd 141e 3c3d a9f9 5b3d
000003d0: 6647 583b 3e18 f1bb 22cf d4bc eb67 de3c
000003e0: b4f9 4c3d 2e6d 523b b942 673c 8577 28bd
000003f0: 25cc 8bbb 931a a23c 1324 59bc 1e88 2cbd

conv2.bias f4 [20]
-0.04211366 -0.060263403 -0.063558415 -0.029162101 0.004414423 0.0052093565 -0.016358757 -0.008307337
0.035162576 0.018477695 0.0055684377 0.011243703 -0.0012028284 0.020657344 0.037513003 -0.046972875
0.012331854 0.041898485 0.038986336 -0.03725412
00000000: 607f 2cbd c2d6 76bd ea2a 82bd 5ce5 eebc
00000010: dda6 903b 40b3 aa3b cd02 86bc 7f1b 08bc
00000020: a206 103d 895e 973c 7177 b63b 8237 383c
00000030: 39a8 9dba 9739 a93c 3ca7 193d a166 40bd
00000040: 8b0b 4a3c bf9d 2b3d 23b0 1f3d c797 18bd

fc1.weight f4 [50, 320]
-0.0071151108 0.036968824 0.015487503 -0.049211584 -0.007938124 -0.00400844 -0.044710394 0.0007898982
0.011015484 -0.0095841335 -0.032792304 0.037706032 -0.0320544 -0.03934844 -0.030339852 0.006160434
0.031908963 -0.016266514 -0.02841435 0.012971585 -0.040693376 0.021284385 0.04309005 -0.0042317137
-0.0124995755 -0.052348245 -0.02810579 0.052405726 -0.0040331595 -0.0038287628 0.008345722 -0.04614054
0.0073668035 -0.054269273 -0.032074865 0.041887615 -0.014829082 -0.036212366 0.008560561 0.026372053
0.022191338 -0.016316121 -0.03364348 -0.028369997 -0.041341454 0.035339948 -0.0013358912 -0.035742834
-0.048045903 -0.05882162 -0.036646824 -0.013381672 -0.005356272 0.026995676 0.00078630896 -0.013130435
0.043307457 0.02706165 -0.042572703 0.055938683 -0.014328391 -0.003019929 0.019520724 0.025322039
0.03347852 -0.038935456 -0.036099218 -0.00093434565 -0.016188122 -0.04806873 -0.038803834 0.0013007623
-0.049549114 -0.04410782 0.045412812 0.046184152 0.036031567 -0.0492414 -0.039085172 -0.03443372
0.014400523 -0.031534206 -0.055095352 -0.007569762 -0.02673406 0.04026025 0.026015164 -0.016913554
0.04637218 0.028147647 -0.021543678 -0.049357947 -0.012499751 -0.002192808 0.02183153 0.022109626
-0.0030041016 -0.023788506 -0.051352687 0.016234454 -0.044650905 -0.005324948 -0.0055776313 0.01746475
0.013807058 -0.014187013 -0.023927338 0.052099466 -0.034897655 0.000106920925 -0.00046434946 -0.051286258
-0.027044622 -0.040322557 0.046547882 0.053738307 0.023094634 0.006927386 -0.015223996 0.039707765
-0.012463446 0.008652397 -0.012564546 -0.046547674 -0.008763613 -0.036150325 0.0062082317 -0.0065846182
-0.05313625 -0.01402657 0.0062183286 -0.004018975 0.04024902 -0.00090389774 0.011330987 0.013467603
-0.051969253 0.03758584 -0.037494425 0.039323993 0.039783206 0.035876125 0.04037575 0.01192038
0.04567378 0.01981881 0.021184301 -0.040295355 -0.002185688 -0.04765973 -0.0069481004 0.010065522
-0.051164065 0.0061572273 -0.036748193 -0.012761013 0.002244053 -0.01691111 0.025870286 0.02703197
0.05893031 0.047424432 -0.035784412 0.019251982 0.0031234347 -0.050812155 -0.043299597 -0.014271503
-0.014911646 0.044466387 0.033651613 0.031888764 0.015544081 -0.051286053 -0.050114155 0.006707366
-0.010074983 -0.00606062 0.026840383 -0.016822519 -0.029802984 -0.00094898895 -0.04666886 0.03250246
-0.053128578 -0.0008122584 -0.03122899 -0.044693194 -0.016457347 -0.018698132 0.031009773 -0.024617746
0.0443748 -0.011442904 -0.056703713 -0.012736915 0.028243283 0.006341846 0.0067023197 0.0053664716
-0.043920975 -0.037274174 0.021676218 0.03839341 -0.03134781 0.0074218176 0.03500288 0.0016652152
0.029453946 0.0061727413 -0.024238314 -0.035588052 0.0055626254 -0.027659157 0.03764662 -0.025467409
-0.037186243 0.022803847 -0.033694394 0.0065763714 0.009752841 0.039968457 -0.032789487 -0.03743229
-0.05065622 -0.008304688 0.031889506 0.05521289 -0.02517575 -0.006394045 0.023340907 -0.056257986
0.050661556 -0.04345629 0.02983659 -0.05646284 -0.0030357866 0.04941099 -0.035319313 -0.05537593
0.049118306 0.012691553 0.0072493968 0.03984071 0.02320832 0.04517174 -0.024655567 -0.029994095
-0.048195343 -0.023573924 -0.011778648 0.039804388 0.0075212913 0.007920833 0.008343496 -0.02702557
00000000: e025 e9bb 9f6c 173d 4cbf 7d3c 1692 49bd
00000010: e80e 02bc 3b59 83bb 3f22 37bd 2c11 4f3a
00000020: 4a7a 343c c506 1dbc 3951 06bd a471 1a3d
00000030: 794b 03bd d42b 21bd 488b f8bc 77dd c93b
00000040: f9b2 023d 5a41 85bc 36c5 e8bc c586 543c
00000050: 19ae 26bd 975c ae3c 317f 303d 30aa 8abb
00000060: 05cb 4cbc 1d6b 56bd 1d3e e6bc 63a7 563d
00000070: 9828 84bb fbeb 7abb 7fbc 083c ddfd 3cbd
00000080: 3a65 f13b 7549 5ebd ef60 03bd 5992 2b3d
00000090: aef5 72bc 6b53 14bd 9841 0c3c 340a d83c
000000a0: 9cca b53c 63a9 85bc bfcd 09bd 3268 e8bc
000000b0: a855 29bd 9fc0 103d 1219 afba 1467 12bd
000000c0: c8cb 44bd f0ee 70bd fb1a 16bd cd3e 5bbc
000000d0: ab83 afbb 0926 dd3c 4d20 4e3a 0921 57bc
000000e0: 2963 313d 65b0 dd3c b760 2ebd f61f 653d
000000f0: a1c1 6abc 00ea 45bb ede9 9f3c 2a70 cf3c
00000100: c620 093d c97a 1fbd c6dc 13bd e0ee 74ba
00000110: f49c 84bc b7e3 44bd c5f0 1ebd 577e aa3a
00000120: 03f4 4abd 67aa 34bd c902 3a3d 982b 3d3d
00000130: d695 133d 5ab1 49bd c617 20bd 5f0a 0dbd
00000140: 2cf0 6b3c 032a 01bd aaab 61bd c40b f8bb
00000150: 6301 dbbc efe7 243d c11d d53c 4b8e 8abc
00000160: c1f0 3d3d e595 e63c 5e7c b0bc 8f2b 4abd
00000170: c1cb 4cbc 37b5 0fbb 09d8 b23c 3f1f b53c
00000180: 76e0 44bb 1de0 c2bc 3257 52bd 1efe 843c
00000190: dee3 36bd e77c aebb 90c4 b6bb 3c12 8f3c
000001a0: 0037 623c a570 68bc 4403 c4bc 4066 553d
000001b0: d8f0 0ebd bc3a e038 ee73 f3b9 8a11 52bd
000001c0: af8c ddbc 4429 25bd fea8 3e3d b31c 5c3d
000001d0: f530 bd3c 20ff e23b 116e 79bc 9ca4 223d
000001e0: 7b33 4cbc c9c2 0d3c 87db 4dbc c6a8 3ebd
000001f0: 4295 0fbc 5d12 14bd 6c6e cb3b c8c3 d7bb
00000200: 65a5 59bd b3cf 65bc 1fc3 cb3b 9bb1 83bb
00000210: 28dc 243d 8df3 6cba 9ba5 393c 39a7 5c3c
00000220: b6dd 54bd 9cf3 193d c193 19bd 3212 213d
00000230: b7f3 223d d8f2 123d 0b61 253d b34d 433c
00000240: 6e14 3b3d 0f5b a23c b38a ad3c be0c 25bd
00000250: c23d 0fbb d936 43bd e4ac e3bb dce9 243c
00000260: 6991 51bd 91c2 c93b 4685 16bd 9113 51bc
00000270: f610 133b 2b89 8abc eced d33c 2672 dd3c
00000280: e960 713d 1f40 423d ad92 12bd 55b6 9d3c
00000290: 8ab2 4c3b 6820 50bd eb5a 31bd 06d3 69bc
000002a0: fa4f 74bc 6322 363d 46d6 093d cb9d 023d
000002b0: 9aac 7e3c 5311 52bd 8044 4dbd 77c9 db3b
000002c0: 8b11 25bc 2a98 c6bb 5de0 db3c 61cf 89bc
000002d0: 6325 f4bc 92c5 78ba d927 3fbd 4d21 053d
000002e0: 5a9d 59bd bded 54ba f0d3 ffbc 3610 37bd
000002f0: 8fd1 86bc d32c 99bc 3508 fe3c 28ab c9bc
00000300: 5ac2 353d 057b 3bbc 2742 68bd 7eae 50bc
00000310: 755e e73c 43cf cf3b 229f db3b 3ad9 af3b
00000320: 7be6 33bd ceac 18bd 5392 b13c 6942 1d3d
00000330: 9066 00bd b832 f33b 2e5f 0f3d 5a43 da3a
00000340: 6749 f13c b544 ca3b 6e8f c6bc c7c4 11bd
00000350: af46 b63b 7595 e2bc 5833 1a3d 07a1 d0bc
00000360: 9a50 18bd 22cf ba3c 2203 0abd 9a7e d73b
00000370: 61ca 1f3c f7b5 233d 454e 06bd 9a52 19bd
00000380: e67c 4fbd 6310 08bc 929e 023d e926 623d
00000390: 603d cebc 2385 d1bb 6e35 bf3c c66e 66bd
000003a0: 7e82 4f3d 39ff 31bd dd6b f43c 9445 67bd
000003b0: 0cf4 46bb 2e63 4a3d fcaa 10bd dfd1 62bd
000003c0: 4730 493d 3bf0 4f3c 598c ed3b 0330 233d
000003d0: 601f be3c 0106 393d 79fa c9bc 2db6 f5bc
000003e0: 7b68 45bd 1a1e c1bc 3bfb 40bc ed09 233d
000003f0: 2a75 f63b 62c6 013c 29b3 083c ba64 ddbc

fc1.bias f4 [50]
-0.0045633516 -0.016048357 -0.027347714 -0.0631704 0.009317302 0.00078230747 0.029607106 0.029361067
-0.028908571 0.01693696 -0.05216839 -0.003455269 0.0014364596 0.02360621 0.036581337 -0.019448223
-0.028457807 0.024035217 0.024810616 0.0019436231 -0.029623846 -0.0031935957 -0.018367559 0.08026294
0.052476317 0.01175417 0.03997018 -0.041991934 -0.05926997 0.051450606 -0.032777574 -0.004085044
0.0019261217 -0.033170924 -0.044390745 0.058995686 -0.040970065 -0.049750187 0.049966052 -0.0021592723
-0.049549256 -0.05510053 0.0060009374 0.033153765 0.028449893 0.0184511 -0.0045614257 0.008754895
-0.016716585 0.06759051
00000000: 2b88 95bb d877 83bc 5008 e0bc 7c5f 81bd
00000010: 99a7 183c c413 4d3a 9a8a f23c 9f86 f03c
00000020: abd1 ecbc 61bf 8a3c 86ae 55bd cb71 62bb
00000030: 9647 bc3a cf61 c13c 50d6 153d e151 9fbc
00000040: 5920 e9bc 81e5 c43c a23f cb3c 2bc1 fe3a
00000050: b5ad f2bc a54b 51bb 9077 96bc e560 a43d
00000060: 68f1 563d 9094 403c c5b7 233d bcff 2bbd
00000070: 11c5 72bd dfbd 523d c741 06bd d5db 85bb
00000080: eb75 fc3a 3cde 07bd 12d3 35bd 76a5 713d
00000090: 3ad0 27bd dac6 4bbd 34a9 4c3d 9482 0dbb
000000a0: 29f4 4abd 18b1 61bd 83a3 c43b 3ecc 073d
000000b0: c00f e93c c326 973c 0378 95bb b170 0f3c
000000c0: 38f1 88bc e56c 8a3d

fc2.weight f4 [10, 50]
-0.12267445 0.014975475 -0.12955533 0.056934223 -0.0049921805 -0.06311416 -0.11176056 -0.05165521
-0.08811914 -0.098590896 0.24060002 -0.07844607 0.2128538 -0.17896836 -0.09983727 -0.07573372
-0.0163577 -0.16783379 -0.085916765 0.010245843 -0.13380893 0.110950075 0.029464824 0.0038857602
-0.16507186 -0.089373745 -0.07313175 -0.109380186 0.08052385 -0.22255167 -0.17975475 0.08772765
0.3231528 -0.05870138 -0.084027015 0.040104866 0.22777604 0.07961777 0.08542707 0.056116216
-0.09235055 0.028176386 -0.085367434 -0.11204617 0.107505254 -0.058069076 -0.25211033 -0.13432203
0.2831101 0.22743566 0.028765645 0.23253684 -0.054284465 -0.08063722 0.062821396 -0.10060472
-0.14676735 -0.03774663 -0.059492953 0.11371459 -0.14617367 -0.15113848 -0.20594683 -0.092421606
0.08534018 0.21396756 -0.13810796 -0.050689008 0.21807438 -0.027984273 0.08454781 0.07018305
-0.19636525 -0.014275406 -0.059858076 -0.13736346 0.11770686 -0.009871082 -0.109730996 0.14321373
0.008154528 0.03796334 0.018431883 -0.0626248 -0.09721689 0.012615811 -0.02243135 -0.0017529367
-0.20460808 0.0452472 -0.099697314 -0.043162245 -0.15241979 -0.090658054 -0.2195148 -0.04942712
-0.06396752 0.12843804 0.012380323 -0.06723682 0.08428105 0.007905267 -0.09332776 -0.00085751875
0.25636157 -0.07789693 -0.00023368008 0.06927256 -0.017225014 0.11480815 0.087261304 -0.05209629
0.13698883 -0.10381784 -0.11176104 0.1356372 0.10378769 -0.019182228 -0.0657861 0.04077735
0.006370329 -0.07494431 0.05125845 -0.19940947 -0.10323644 -5.0401577e-05 0.04560913 -0.0998128
-0.04299638 0.116078906 0.12287333 0.051371872 0.0685358 -0.10247829 -0.018216398 0.18636896
-0.11367528 0.029645588 -0.09081207 0.17049253 -0.109380186 -0.06271708 -0.013726535 0.1428812
-0.025603555 -0.10101054 0.02011238 -0.025761975 -0.050476477 0.054334383 0.093631275 -0.08703171
-0.0035883961 0.07809106 0.08789517 0.08999822 0.06806762 0.062595785 0.082387455 -0.036781836
-0.071105376 0.063122995 -0.04406788 -0.0980126 -0.13120104 -0.08613631 -0.018696066 -0.089330725
-0.020216605 0.18410897 0.032664046 0.033632554 -0.15945683 -0.07245451 -0.042047065 -0.17708468
0.18961681 -0.056157 -0.0026012538 0.25134102 -0.06149518 0.13204212 -0.16709082 -0.15890539
-0.024346462 0.0013475518 -0.24555793 0.112266496 0.007176225 0.09328269 -0.074582554 -0.033545014
0.03803345 -0.046125077 0.058378 -0.104182094 0.15139672 0.19780675 -0.1422845 0.0016811552
0.039332867 -0.1193454 0.008274986 0.016700422 -0.012531864 -0.0055280235 -0.15047671 -0.095404506
0.2144186 -0.13154759 0.046916105 -0.019227209 -0.062560074 -0.024965253 0.12477019 0.04445613
0.024803935 -0.028494101 -0.05056264 0.04729278 -0.08114271 -0.013391068 0.02171712 -0.07852151
-0.013261402 0.1303861 0.19108334 -0.15166321 0.07931091 -0.04956156 0.14494908 -0.029496249
-0.0922676 0.08829502 0.10124216 -0.05134165 0.014323305 0.03866379 -0.06772195 -0.20999852
0.056806758 -0.076052606 0.065965466 0.27236944 -0.1860968 -0.12351312 0.17133628 0.077097975
-0.17461069 0.059093054 0.066107385 -0.09349793 -0.06266607 0.10904516 -0.11360997 -0.12778942
00000000: be3c fbbd b25b 753c 27aa 04be dc33 693d
00000010: 7295 a3bb ff41 81bd b8e2 e4bd 6a94 53bd
00000020: cf77 b4bd 06ea c9bd da5f 763e 55a8 a0bd
00000030: 59f6 593e 7b43 37be 7c77 ccbd 481a 9bbd
00000040: 9500 86bc 9fdc 2bbe 21f5 afbd 2ede 273c
00000050: 3505 09be cb39 e33d 3760 f13c 3da8 7e3b
00000060: 9908 29be 9509 b7bd 19c6 95bd b802 e0bd
00000070: b0e9 a43d 96e4 63be a111 38be 8eaa b33d
00000080: 4974 a53e dc70 70bd 5b16 acbd 0045 243d
00000090: 1f3e 693e a40e a33d 63f4 ae3d 1eda 653d
000000a0: 4922 bdbd 2ad2 e63c 1fd5 aebd 7678 e5bd
000000b0: b72b dc3d d7d9 6dbd 9b14 81be b78b 09be
000000c0: cff3 903e e5e4 683e eea5 eb3c 231e 6e3e
000000d0: 6359 5ebd 2025 a5bd 81a8 803d d909 cebd
000000e0: 2e4a 16be 369c 1abd e2ae 73bd 32e3 e83d
000000f0: 8dae 15be 0cc4 1abe bae3 52be 8a47 bdbd
00000100: d5c6 ae3d 501a 5b3e 2c6c 0dbe 479f 4fbd
00000110: e44e 5f3e 463f e5bc 6727 ad3d 22bc 8f3d
00000120: f913 49be 64e3 69bc be2d 75bd 02a9 0cbe
00000130: 4b10 f13d 52ba 21bc a5ba e0bd 9fa6 123e
00000140: 929a 053c 727f 1b3d 76fe 963c 6e41 80bd
00000150: a619 c7bd 8cb2 4e3c f3c1 b7bc ccc2 e5ba
00000160: c884 51be 2155 393d 1b2e ccbd e5ca 30bd
00000170: ef13 1cbe eeaa b9bd 7dc8 60be 1774 4abd
00000180: 6701 83bd 4385 033e d7d6 4a3c 75b3 89bd
00000190: 8b9b ac3d 1885 013c a022 bfbd 1ccb 60ba
000001a0: d341 833e 6d88 9fbd 0508 75b9 c6de 8d3d
000001b0: 791b 8dbc 8920 eb3d 0eb6 b23d eb62 55bd
000001c0: cd46 0c3e 739e d4bd f9e2 e4bd 7ae4 0a3e
000001d0: a48e d43d 0c24 9dbc ddba 86bd 2706 273d
000001e0: 31be d03b 677c 99bd 61f4 513d ff31 4cbe
000001f0: a06d d3bd 4866 53b8 a4d0 3a3d a76a ccbd
00000200: f91c 30bd c7ba ed3d 03a5 fb3d 506b 523d
00000210: 7f5c 8c3d 23e0 d1bd 8e3a 95bc 81d7 3e3e
00000220: 96ce e8bd 4edb f23c aefb b9bd 9895 2e3e
00000230: b802 e0bd d071 80bd 43e5 60bc 734f 123e
00000240: 8cbe d1bc 9dde cebd b8c2 a43c c70a d3bc
00000250: 6cc0 4ebd bb8d 5e3d c1c1 bf3d ae3d b2bd
00000260: 4c2b 6bbb 35ee 9f3d 6202 b43d fd50 b83d
00000270: 0967 8b3d 3832 803d c1ba a83d 8da8 16bd
00000280: b29f 91bd a146 813d 8580 34bd d4ba c8bd
00000290: 9159 06be 3c68 b0bd 7e28 99bc 07f3 b6bd
000002a0: 4b9d a5bc 1087 3c3e bcca 053d 4ac2 093d
000002b0: a748 23be 0863 94bd 8b39 2cbd b055 35be
000002c0: e92a 423e e204 66bd cc79 2abb c5af 803e
000002d0: 5fe2 7bbd 0d36 073e db19 2bbe 18b8 22be
000002e0: 3b72 c7bc 56a0 b03a 8a73 7bbe faeb e53d
000002f0: 8a26 eb3b ff0a bf3d bdbe 98bd 7f66 09bd
00000300: f6c8 1b3d a6ed 3cbd c51d 6f3d 6c5d d5bd
00000310: be07 1b3e da8d 4a3e 07b3 11be 355a dc3a
00000320: 801b 213d 5c6b f4bd cf93 073c 53cf 883c
00000330: 7352 4dbc 6c24 b5bb 9116 1abe 7063 c3bd
00000340: 8d90 5b3e 69b4 06be 1a2b 403d 6182 9dbc
00000350: 7f1f 80bd ee83 ccbc 8387 ff3d a217 363d
00000360: 9f31 cb3c 766c e9bc c51a 4fbd 13b6 413d
00000370: 262e a6bd 3666 5bbc 1ae8 b13c e3cf a0bd
00000380: 5a46 59bc ef83 053e 5aab 433e 9a4d 1bbe
00000390: c26d a23d 1001 4bbd 886d 143e 1ea2 f1bc
000003a0: ccf6 bcbd 05d4 b43d 0d58 cf3d 9f4b 52bd
000003b0: 4cac 6a3c ec5d 1e3d ceb1 8abd da09 57be
000003c0: 34ae 683d 78c1 9bbd e718 873d 0274 8b3e
000003d0: 2990 3ebe 72f4 fcbd c772 2f3e 8be5 9d3d
000003e0: 25cd 32be 8f0b 723d 4f63 873d d87b bfbd
000003f0: 1257 80bd 1253 df3d 58ac e8bd 3bdb 02be

fc2.bias f4 [10]
-0.061744247 0.20895849 -0.071412735 -0.062394455 -0.04158154 -0.0408384 -0.042709306 -0.061473507
0.015360955 -0.04109771
00000000: 89e7 7cbd 37f9 553e d740 92bd 5491 7fbd
00000010: 6851 2abd 2b46 27bd f4ef 2ebd a5cb 7bbd
00000020: 84ac 7b3c 1356 28bd
