New folder/Models/Server/Client_1/Client_1_3_4_2021_3_56_0.pth (torch, 6943 bytes, 5 tensors)

0.weight f4 [32, 1]
000000 83 27 8c 3f a9 e1 3c 3f 79 19 c1 be 78 70 81 bf
       1.0949558 0.7378183 -0.37714747 -1.0112448
000010 ca 47 3a 3f 7e 2a a3 bf ff a0 6c 3e 60 11 76 be
       0.7276579 -1.2747343 0.2310829 -0.24030066
000020 8e 79 51 be 20 f1 66 bf d1 c1 6d bf 22 3c 82 bf
       -0.20456526 -0.9021168 -0.92873865 -1.0174601
000030 1b b4 8a bf 14 d4 2f bf e3 16 19 3e 6b 68 8b 3f
       -1.0836214 -0.6868298 0.14950137 1.0891241
000040 b3 97 7c bf ec 5c 41 be 5f 96 36 3f 43 ef 69 3f
       -0.98668975 -0.18883103 0.713232 0.9138071
000050 92 0f 1d 3e 68 c2 42 3f 0c 3a c2 bf 68 37 83 be
       0.15337971 0.7607789 -1.5173965 -0.2562821
000060 c8 e8 f2 be de 4b 64 bf 16 0e 20 3f 04 97 88 bd
       -0.47443223 -0.89178264 0.62521493 -0.06669429
000070 77 86 e1 3e 17 2a 81 3e b8 8f aa 3f 9e 63 66 bf
       0.440479 0.25227425 1.332511 -0.89995754

0.bias f4 [32]
000000 38 a9 8e bd 8a d9 42 bf 3a 1c 3c bf 9b 21 9a bd
       -0.0696587 -0.7611319 -0.7348057 -0.07525941
000010 6a 0b 47 bf 59 c7 cd 3e d5 42 76 3f dc c5 72 bf
       -0.7775179 0.40191153 0.9619573 -0.9483316
000020 0b ce f4 bd 9d 49 02 3f 9e 9c 4a 3e 38 93 02 bf
       -0.11953362 0.50893575 0.19786307 -0.5100589
000030 9c 4f 01 3f 20 24 21 3f 60 90 54 bf 4a ea bb 3e
       0.505121 0.6294575 -0.830328 0.36702186
000040 ad 39 13 3f 12 e8 4a 3f ed 23 a9 3d 24 d9 85 3e
       0.5750988 0.7926036 0.082588054 0.26142228
000050 66 59 4b 3f ed dd b7 bd 44 b5 18 3f d2 06 c5 bd
       0.79433286 -0.08977876 0.5965159 -0.096204415
000060 bc 5e 6e 3f bc 22 71 bf 8f 7e 27 bf 0c 4a cc be
       0.93113303 -0.94193625 -0.6542749 -0.39900243
000070 3c b7 21 bf 59 c6 18 3f 8c 73 57 bf 67 a1 cd 3e
       -0.6317022 0.59677655 -0.84160686 0.40162203

2.weight f4 [32, 32]
000000 ee 28 0e 3e 5f 38 9e 3d 3b 7a e6 bc 42 39 25 3e
       0.13882801 0.07725596 -0.028134456 0.16135123
000010 1b 4e d6 3d c8 f6 ed 3d 75 4b 68 3c f1 81 f5 3d
       0.10464116 0.116193354 0.014178147 0.11987675
000020 8a 66 42 3e 3f 02 8b bd 1a e6 bc bd 60 36 e8 bd
       0.18984428 -0.06787538 -0.09223576 -0.11338496
000030 38 af 5d 3e aa 45 15 be 7e 64 1a 3e 0f a7 ec 3d
       0.21648872 -0.14577356 0.15077397 0.115553014
000040 a4 63 ac bd ab 92 3d be 89 b2 f9 bd 37 86 03 3e
       -0.084174424 -0.1851298 -0.12192256 0.12844168
000050 04 b3 2d be 83 39 02 be 98 49 1c 3e e2 1a 1a 3e
       -0.1696282 -0.12717251 0.15262449 0.15049317
000060 54 dd 48 3c ca c4 82 3d c2 36 06 be 30 a1 4b bc
       0.0122598 0.06385191 -0.13106826 -0.012428567
000070 53 fc a7 3d bf 3d be 3d 1d 0d 00 be 40 1c b9 3d
       0.08202424 0.09289121 -0.12505002 0.090385914
000080 fd ce e3 3d ee 61 5f 3c 43 2d fd 3c 9e 72 c0 bd
       0.11123464 0.013634188 0.030905372 -0.093968615
000090 90 14 e6 3d fe 96 db bd e7 de ec bd fe e1 d9 bd
       0.11234391 -0.10722159 -0.11565953 -0.10638808
0000a0 be 99 81 bd 44 c2 0d be 4d 67 b7 bc c4 9d 43 be
       -0.06328152 -0.13843638 -0.022388125 -0.19103152
0000b0 30 ab 8c 3d 5e 96 36 bd 1e da f7 3d 34 10 63 bd
       0.06868589 -0.044576995 0.121021494 -0.055435374
0000c0 5f 6f 1c bd d4 df 05 3e 95 fb fa 3d f4 4b e3 3d
       -0.03819215 0.13073665 0.12255017 0.11098471
0000d0 8c 4b 1b 3e 24 96 21 3e 96 68 9d bc 56 82 cb bd
       0.15165538 0.1577993 -0.01921491 -0.09936969
0000e0 02 f1 0a 3d 70 4e 8d 3d 55 45 33 bd 04 47 43 3d
       0.03392125 0.068997264 -0.043767292 0.047675148
0000f0 96 b7 17 be a4 05 87 bd 22 69 0a be 01 78 8d bd
       -0.14816126 -0.06592873 -0.13516667 -0.069076546
000100 da cd ee 3d f0 e8 cf bd 81 c9 cd 3d 0c c7 a5 bd
       0.11660357 -0.10151851 0.100481994 -0.08094606
000110 66 43 1b 3e 83 ba 3b 3e 5e 78 04 be 28 e1 f4 3d
       0.15162429 0.18332867 -0.12936541 0.11957008
000120 64 01 a7 3c aa d0 26 3e 90 aa 7e bd b4 54 1c 3d
       0.020386405 0.16290537 -0.06217438 0.038166717
000130 a1 ed 30 3e 8f fe 29 be 39 9a 1e 3e 96 3e 61 be
       0.17278148 -0.16601013 0.15488519 -0.21996531
000140 3e f0 dd bc a2 96 29 be ed 38 00 3c ce a5 34 3d
       -0.027092095 -0.16561368 0.007826072 0.044103436
000150 a2 27 e0 bd ec e0 09 be 88 71 2a 3e f2 75 ba 3d
       -0.10945059 -0.13464707 0.16644871 0.091045275
000160 f4 72 76 3d 53 86 45 bc 22 7b aa 3c 03 e8 0d 3d
       0.06016822 -0.012055951 0.020810667 0.03464509
000170 65 25 77 3d 48 76 eb 3d 3c d3 2e 3b 1c 3f 02 3d
       0.060338397 0.1149717 0.0026676198 0.031798467
000180 5d f3 c8 bc 53 ea 38 be f0 32 28 be 97 e3 e6 3d
       -0.024530107 -0.18058138 -0.16425681 0.11273878
000190 3c 37 23 be 3e 21 73 bd 4e b1 14 3e 74 bb b7 bd
       -0.15939039 -0.059357874 0.14520761 -0.08971301
0001a0 b4 8b 1e bb c0 62 e0 3c 35 12 96 bd 54 ac a5 bb
       -0.0024192156 0.027390838 -0.073276915 -0.0050559435
0001b0 da 29 94 3c 8c 3c e6 bd b6 0f 81 bd cb 71 2a 3e
       0.018086363 -0.11242017 -0.06301825 0.16644971
0001c0 ec d7 37 3e 96 96 14 3e 09 f3 e7 3d dc ed c4 3d
       0.17953461 0.14510569 0.11325652 0.096156806
0001d0 91 ea 14 3e af cc 1a bc 3f 83 13 be 08 d4 2b bd
       0.14542605 -0.009448214 -0.14405535 -0.041950256
0001e0 81 2a b2 bd d0 04 d1 3c f5 47 19 3d da ae 85 3d
       -0.08699513 0.02551499 0.03742214 0.06527491
0001f0 31 ca 2d be 1e 59 18 be 58 3d 19 3c 73 20 dc bd
       -0.16971661 -0.14877746 0.009353004 -0.10748377
000200 67 f2 2e 3d 90 99 82 3d e8 f5 2a be c4 12 25 bc
       0.04271164 0.06376946 -0.16695368 -0.010075275
000210 93 6b 4c 3e c8 9b ec 3b 74 57 d3 3d af 04 2c be
       0.19962911 0.007220719 0.10319415 -0.16798662
000220 d8 97 f7 3a 01 4c 59 be 66 64 1a be 38 48 05 3c
       0.0018889857 -0.212204 -0.15077361 0.008134894
000230 8e 22 14 be e9 3e 86 3c 9c 63 e3 bd ea 86 2e 3e
       -0.14466307 0.01638742 -0.11102983 0.17043653
000240 11 7d 3e be 9e 54 dd 3d 11 33 d0 bd bc 8d 00 be
       -0.18602397 0.10807155 -0.1016599 -0.12554067
000250 1a d7 3a 3e 72 89 f1 bd e9 17 60 be 48 df 32 3d
       0.18246117 -0.11793794 -0.21884121 0.04366997
000260 a0 07 22 3e 08 91 e9 bc 9c 95 50 3e 48 37 c5 bd
       0.15823221 -0.02851154 0.20369571 -0.09629685
000270 3f d4 e1 bd 6b 1d 03 be 47 91 e5 3d ea 88 5d 3c
       -0.11026811 -0.12804191 0.1120935 0.013521412
000280 77 a2 b8 3d 27 97 f9 3d 56 90 3d be f6 55 4a 3d
       0.09015363 0.12187033 -0.18512091 0.049398385
000290 d0 0c 1e 3e dc 41 32 be cc 16 29 3e c4 a0 b8 bd
       0.15434575 -0.17407936 0.16512603 -0.090150386
0002a0 2d 37 f9 bd 7b 33 be bd 80 84 5a be 1b 8f ad 3c
       -0.12168727 -0.09287163 -0.21339607 0.021186402
0002b0 28 ce a5 3d fa 47 fc 3d fe 43 6c bd 86 5a f5 3d
       0.08095962 0.12318416 -0.05768203 0.119801566
0002c0 ae e2 e1 bd ac 7e 26 be 70 7d 0a bd 2e cd 84 3d
       -0.11029564 -0.16259259 -0.033811033 0.064844474
0002d0 5b b6 75 3d a5 31 61 3d 80 e9 8b 39 a6 5a 43 bd
       0.05998836 0.054978985 0.00026686117 -0.04769387
0002e0 0f ed af bd d1 b8 ce bd 0c e8 d5 bb 87 47 c4 3b
       -0.08590137 -0.10093845 -0.0065279063 0.005989972
0002f0 d2 6b 9e bd 4c 4b 03 3e 3a 2e 6a 3d b0 b6 88 bb
       -0.07735409 0.12821692 0.05717299 -0.0041721687
000300 8b 69 db bc c0 00 0b 3e c6 aa d4 3d 18 4e 67 3d
       -0.026783725 0.13574505 0.10384135 0.05647096
000310 8a 2b b1 3b 78 dc 02 bd d0 c3 ef 3d dc f4 7d bd
       0.0054068016 -0.031948537 0.1170727 -0.062001094
000320 30 6f f9 ba 72 bb 2c 3e 1c 15 2d 3e a4 8f bb 3d
       -0.0019030329 0.1686838 0.16902584 0.09158257
000330 8e de 1c 3e e0 c5 ae 3d f0 c3 8d 3d ec c1 0e be
       0.15319273 0.085338354 0.06922138 -0.13941163
000340 a5 d2 1c be 1a b8 05 be d2 54 c0 3d b6 bf 07 be
       -0.1531473 -0.1305851 0.09391178 -0.13256726
000350 9a 68 17 3c 36 20 e0 bd db cb d1 bb 4b b7 1a 3e
       0.009241248 -0.10943644 -0.0064024753 0.15108983
000360 e6 90 54 bd a4 14 2e bd b4 63 0e 3e e9 60 7b bd
       -0.051896 -0.042500153 0.13905221 -0.061371718
000370 20 0e ce bd 6e fc dd 3c 08 9f 8d 3d 50 6f c7 bc
       -0.10061288 0.027097907 0.069150984 -0.02434507
000380 d6 71 23 be 70 62 30 be 8c d9 a9 bc e9 10 05 3e
       -0.15961394 -0.17225051 -0.020733617 0.12994732
000390 de 63 11 3d 98 80 29 bd 7c e1 fc bd 72 3f 07 3d
       0.03549563 -0.041382402 -0.12347695 0.03301949
0003a0 da b7 1a 3c 8b fc 46 3d da 75 28 be 32 b0 66 3c
       0.009443248 0.048580687 -0.16451207 0.014080094
0003b0 08 18 e3 3c 92 fd a2 3d b1 7d 2f 3d 12 42 bb 3d
       0.02772142 0.07958521 0.042844478 0.09143461
0003c0 e7 f1 39 3d df 04 cd 3d 60 d9 4b bd 1a 72 bd 3d
       0.04539671 0.10010695 -0.04976785 0.09250279
0003d0 a6 2e 20 bc 84 b4 8c bd 58 8e 71 bd e8 a2 15 3e
       -0.009776747 -0.06870368 -0.05897364 0.14612925
0003e0 42 8f 1d bc ca 77 f8 bd 06 dc cb 3c ae 36 0d 3e
       -0.009616675 -0.12132223 0.024885189 0.1379039
0003f0 84 e2 fb bd ae 6d b7 bd ac 32 2b bd 0e d5 07 bd
       -0.12299064 -0.089564666 -0.04179637 -0.03316217

2.bias f4 [32]
000000 3c 56 cd bd 0e 8c 97 bd 3f 09 28 3e 7f d8 c5 bd
       -0.100262135 -0.0739976 0.16409777 -0.09660434
000010 3d 22 02 3e a8 ff 05 3e ed c1 cc 3d 00 e1 fb 3d
       0.12708373 0.13085806 0.09997926 0.12298775
000020 d8 b1 92 3d f8 44 64 3d 90 4a c8 3d 04 cb 9b 3d
       0.07162827 0.055729836 0.09779847 0.076070815
000030 18 eb a0 bd 2e 82 ef bd a4 f7 af 3c 86 42 e8 bd
       -0.078573406 -0.11694752 0.021480389 -0.11340813
000040 1c 81 9a bd d6 ab a4 bd 97 fb 5a be a2 19 73 3d
       -0.07544157 -0.080405876 -0.21385036 0.059350617
000050 46 35 4e be 91 87 b2 bc e7 95 92 3d 6e d8 c7 bc
       -0.2013751 -0.021793159 0.07157498 -0.024395194
000060 5e 78 99 3d 86 00 9c 3d 0c 49 cf bd c6 79 00 3e
       0.07493661 0.07617287 -0.101213545 0.12546453
000070 7e e8 e9 3d 60 36 2a 3e a8 cf df bb db 2c 81 bd
       0.114212975 0.16622305 -0.0068301745 -0.063073836

4.weight f4 [1, 32]
000000 9a 5f 3e be 8e f3 1c be 2e a1 14 3e 82 49 08 3e
       -0.18591157 -0.15327284 0.1451461 0.13309291
000010 ec 4c 12 3e c0 bb 52 3e c8 6b ad bb 24 67 d2 3c
       0.14287156 0.20579433 -0.0052923895 0.025683947
000020 12 69 df 3d 05 f1 58 be ab bc fd bb aa 20 56 3e
       0.109087124 -0.21185692 -0.0077434382 0.20910898
000030 4f 39 2f 3e de 39 4e 3e 0f cd 21 bd c6 40 55 3e
       0.17111705 0.20139262 -0.0395022 0.2082549
000040 92 5a b8 3b e6 7a 57 be 6a d8 7e 3e ec 66 8a bc
       0.005626031 -0.21042976 0.24887243 -0.01689478
000050 b8 d0 8a 3f 2a 85 d6 3d ff cc d8 3f c2 ee 3c 3e
       1.0844946 0.10474618 1.693756 0.18450454
000060 71 e6 55 be 26 01 73 3d 19 74 9a 3d 25 7b 19 3e
       -0.20888688 0.059327267 0.07541675 0.14988382
000070 c4 78 30 3d 68 eb c1 bd 36 42 a7 3d 4c 7d e1 3e
       0.04308392 -0.09468728 0.081669256 0.44040906
