New folder/Models/Server/Client_1/Client_1_3_4_2021_3_56_7.pth (torch, 6943 bytes, 5 tensors)

0.weight f4 [32, 1]
3.026763 3.097508 -0.16816688 -2.4613142 3.0313797 -3.3791366 -0.39826378 0.35566047
-0.2825554 -2.6523552 -2.6116638 -1.5876129 -3.191774 -2.560588 1.0294306 1.5931365
-2.9445086 -1.4957471 1.7957499 1.6129129 -0.61280406 2.053533 -4.033633 -0.5566338
-2.016339 -0.9505433 2.3010392 0.44594467 2.0532737 0.015502415 3.9520304 -3.002913
00000000: 7cb6 4140 923d 4640 f033 2cbe 2c86 1dc0
00000010: 2002 4240 c643 58c0 3be9 cbbe 2119 b63e
00000020: 1aab 90be 30c0 29c0 8025 27c0 e636 cbbf
00000030: 0646 4cc0 ace0 23c0 62c4 833f e6eb cb3f
00000040: d472 3cc0 a474 bfbf 22db e53f ee73 ce3f
00000050: bae0 1cbf 166d 0340 8613 81c0 8d7f 0ebf
00000060: b30b 01c0 ce56 73bf 3a44 1340 dc52 e43e
00000070: d668 0340 d7fd 7d3c 11ee 7c40 ba2f 40c0

0.bias f4 [32]
-1.2972543 -2.6044755 -0.26333314 1.0063274 -2.4976006 2.8477888 0.58176947 -0.42515898
0.083101094 1.2630324 0.95669967 0.03148791 2.7103496 1.2248776 -0.74431 -0.074270085
1.727636 0.872722 -0.17803016 -0.21071298 0.56712055 -0.70172167 1.7341657 0.1279954
1.09901 -0.5213571 -1.2417123 -0.33756813 -1.2488743 0.28780478 -3.4656892 1.3646927
00000000: 6e0c a6bf baaf 26c0 9ad3 86be 56cf 803f
00000010: b0d8 1fc0 2c42 3640 d8ee 143f 70ae d9be
00000020: e830 aa3d 0cab a13f 45ea 743f 77f9 003d
00000030: 5e76 2d40 cac8 9c3f 1a8b 3ebf ea1a 98bd
00000040: 2d23 dd3f b66a 5f3f 8a4d 36be 25c5 57be
00000050: d02e 113f 08a4 33bf 24f9 dd3f 3a11 033e
00000060: 5cac 8c3f a977 05bf 6ef0 9ebf bbd5 acbe
00000070: 1ddb 9fbf 265b 933e dacd 5dc0 40ae ae3f

2.weight f4 [32, 32]
0.15034387 0.08272655 -0.046043966 0.15690613 0.11100876 0.121870235 0.039177947 0.09470971
0.18408996 -0.07858296 -0.10440487 -0.11897674 0.2212345 -0.15965539 0.13550729 0.1187897
-0.09710809 -0.18108031 -0.119347885 0.13100195 -0.1444652 -0.1219616 0.13943027 0.14471626
0.005635308 0.046512887 -0.120202124 -0.0229077 0.08639314 0.108730376 -0.12530702 0.07338836
0.16144097 0.025775332 0.009933537 -0.13488904 0.12545004 -0.11738002 -0.0938466 -0.12629683
-0.07323521 -0.19082698 -0.078867644 -0.22802195 0.061374456 -0.087554194 0.10911733 -0.01645679
-0.0814438 0.1339823 0.16765192 0.14852759 0.17187682 0.19894385 -0.08827765 -0.11614534
0.023057897 0.035555772 -0.009219694 0.037346464 -0.1349828 -0.047459804 -0.115798905 -0.12244998
0.4781862 0.13221681 -0.001164447 -0.38673127 0.39618358 -0.102430165 -0.054607444 0.057868123
-0.04406424 -0.17071706 -0.3868148 -0.16244537 -0.11072747 -0.4619462 0.20272289 -0.0014872501
-0.34959877 -0.27709633 0.24080034 0.26523733 -0.06777785 0.13238987 -0.3272649 -0.003333475
-0.1506249 -0.16243267 0.28298017 0.038684003 0.26849064 0.18722242 0.27958044 -0.32936963
-0.18245757 -0.39554736 -0.10213758 0.2514949 -0.3727897 0.16060245 0.10470528 -0.054257564
0.03369497 0.18491259 0.06611867 0.080194056 0.22579743 0.053947967 -0.10710743 0.08124609
0.3765759 0.2439416 0.020591788 0.0032181717 0.12940663 -0.13210052 0.0015581441 0.017351253
0.054449093 0.105146095 -0.12412758 0.05079962 -0.3119839 -0.19521484 -0.25290287 0.06343497
0.038005263 0.08214797 -0.15410486 -0.0089733815 0.21454063 -0.021399938 0.08678299 -0.15518379
0.0029524358 -0.20491046 -0.14310944 0.017022135 -0.17014432 0.022666994 -0.104620196 0.16357693
-0.18700126 0.10810418 -0.109995335 -0.13101813 0.17112198 -0.122080036 -0.20323056 0.047412544
0.1630978 -0.007990675 0.20007184 -0.0924086 -0.10954665 -0.13833448 0.14804056 0.021337543
0.076194435 0.13641179 -0.17414916 0.05520654 0.16507193 -0.20039746 0.15124017 -0.080248356
-0.12145626 -0.0768724 -0.19701046 0.027423628 0.058065258 0.13729747 -0.05438553 0.115492225
-0.1037757 -0.1584644 -0.040480126 0.061357185 0.051919684 0.047784764 0.035007596 -0.043743007
-0.07627252 -0.081027985 -0.016257882 0.008893363 -0.0804377 0.11904065 0.09080383 0.014171943
-0.004143599 0.15352826 0.075279266 0.039270617 0.024550296 -0.045017935 0.15024447 -0.09178507
-0.010576973 0.15062115 0.14724539 0.06814641 0.14065796 0.06559847 0.055620164 -0.117394656
-0.17370492 -0.1328193 0.11215114 -0.11392629 0.03680018 -0.093222424 -0.024808224 0.14022702
-0.066285476 -0.0795998 0.15609638 -0.07072637 -0.08941309 0.050538152 0.08869107 -0.048955824
-0.1885939 -0.20928067 -0.004140048 0.15360928 -0.00047128735 -0.0018895788 -0.13982368 0.047452934
0.016210355 0.07727694 -0.13818732 0.031178847 0.064064935 0.107427865 0.046965454 0.07457176
0.08026298 0.10484007 -0.06918786 0.074690595 -0.021890126 -0.09007627 -0.024806194 0.1559546
0.0040335604 -0.10017699 0.00088367704 0.14180657 -0.13858974 -0.10361543 -0.10370162 -0.0012026425
00000000: bef3 193e 8a6c a93d 9998 3cbd 00ac 203e
00000010: 9058 e33d 1a97 f93d 0e79 203d 2af7 c13d
00000020: 1482 3c3e 1af0 a0bd 38d2 d5bd 14aa f3bd
00000030: 4c8b 623e b47c 23be 6cc2 0a3e 0448 f33d
00000040: 9be0 c6bd 1e6d 39be aa6c f4bd 6025 063e
00000050: afee 13be 01c7 f9bd cfc6 0e3e 8030 143e
00000060: 64a8 b83b 4c84 3e3d 882c f6bd eea8 bbbc
00000070: e3ee b03d 08ae de3d 7c50 00be a34c 963d
00000080: c850 253e ca26 d33c 46c0 223c 5a20 0abe
00000090: fa75 003e f064 f0bd a532 c0bd f553 01be
000000a0: 57fc 95bd 2668 43be 5c85 a1bd 967e 69be
000000b0: c863 7b3d 9d4f b3bd e878 df3d 64d0 86bc
000000c0: 02cc a6bd a832 093e f2ac 2b3e 9e17 183e
000000d0: 7a00 303e f0b7 4b3e eaca b4bd 9cdd edbd
000000e0: eae3 bc3c eea2 113d 330e 17bc 9bf8 183d
000000f0: ee38 0abe 3665 42bd fa27 edbd 0ec7 fabd
00000100: d2d4 f43e d863 073e 5ca0 98ba a401 c6be
00000110: 93d8 ca3e e8c6 d1bd 0eac 5fbd 2007 6d3d
00000120: b47c 34bd 74d0 2ebe 970c c6be 1458 26be
00000130: 15c5 e2bd 3684 ecbe 9796 4f3e d5ef c2ba
00000140: 9cfe b2be 92df 8dbe 5d94 763e 30cd 873e
00000150: 1dcf 8abd 3691 073e 448f a7be 6e76 5abb
00000160: 6a3d 1abe c054 26be c7e2 903e 1e73 1e3d
00000170: 9b77 893e 3cb7 3f3e 2b25 8f3e 23a3 a8be
00000180: 28d6 3abe 2f85 cabe 822d d1bd f1c3 803e
00000190: 4bde bebe f874 243e b96f d63d 2e3d 5ebd
000001a0: bd03 0a3d ba59 3d3e 3a69 873d c83c a43d
000001b0: 7137 673e 8bf8 5c3d 245b dbbd 5a64 a63d
000001c0: 8ece c03e d4cb 793e 1cb0 a83c f6e7 523b
000001d0: 2c83 043e 5c45 07be a43a cc3a 3724 8e3c
000001e0: 0306 5f3d d656 d73d 9a36 febd 4313 503d
000001f0: 5bbc 9fbe 66e6 47be 7c7c 81be 32ea 813d
00000200: 68ab 1b3d 323d a83d aacd 1dbe 1705 13bc
00000210: 8ab0 5b3e ec4e afbc 48bb b13d 80e8 1ebe
00000220: a77d 413b 0cd4 51be 488b 12be 0172 8b3c
00000230: 503a 2ebe 22b0 b93c 1d43 d6bd b680 273e
00000240: 427d 3fbe b965 dd3d 3c45 e1bd 9e29 06be
00000250: 9a3a 2f3e 1905 fabd ac1b 50be a833 423d
00000260: 1c03 273e 52eb 02bc a2df 4c3e b840 bdbd
00000270: fe59 e0bd 8ea7 0dbe f297 173e 12cc ae3c
00000280: d40b 9c3d 88af 0b3e 2854 32be 4120 623d
00000290: 9e08 293e fe34 4dbe b4de 1a3e 4059 a4bd
000002a0: 0fbe f8bd 476f 9dbd 1cbd 49be 84a7 e03c
000002b0: d6d5 6d3d b597 0c3e 5dc3 5ebd 3087 ec3d
000002c0: 5b88 d4bd 7e44 22be 7dce 25bd ac51 7b3d
000002d0: bca9 543d f5b9 433d 2064 0f3d de2b 33bd
000002e0: c434 9cbd 00f2 a5bd 402f 85bc 78b5 113c
000002f0: 85bc a4bd 96cb f33d 5cf7 b93d 7031 683c
00000300: 07c7 87bb 8336 1d3e 042c 9a3d 3ada 203d
00000310: b41d c93c ba64 38bd b0d9 193e d0f9 bbbd
00000320: 0a4b 2dbc 6e3c 1a3e 7fc7 163e 5890 8b3d
00000330: a408 103e 7e58 863d f8d1 633d 9c6c f0bd
00000340: b4df 31be c801 08be 7faf e53d 3052 e9bd
00000350: c9bb 163d 66eb bebd 9e3a cbbc ac97 0f3e
00000360: aec0 87bd 3805 a3bd bbd7 1f3e fdd8 90bd
00000370: 361e b7bd 1801 4f3d aaa3 b53d e785 48bd
00000380: c21e 41be ac4d 56be 3da9 87bb c04b 1d3e
00000390: 1e17 f7b9 beab f7ba f02d 0fbe 025e 423d
000003a0: 94cb 843c 5f43 9e3d fa80 0dbe c86a ff3c
000003b0: 7a34 833d 2403 dc3d d95e 403d 14b9 983d
000003c0: eb60 a43d 64b6 d63d 5db2 8dbd 62f7 983d
000003d0: ec52 b3bc e879 b8bd 5c36 cbbc 90b2 1f3e
000003e0: f52b 843b 9829 cdbd 90a6 673a be35 113e
000003f0: 78ea 0dbe 5434 d4bd 8461 d4bd fca1 9dba

2.bias f4 [32]
-0.07384044 -0.042292632 0.26196623 -0.17445447 0.094888285 0.09890191 0.14986809 0.09631845
0.016008638 -0.7035346 -0.06343628 0.38591105 -0.104776524 -0.3888658 0.026897158 -0.14589986
-0.0903748 -0.02837357 -0.87376285 0.05359841 -0.07266982 -0.17218816 -0.31935146 -0.1059905
-0.41792357 0.051121376 -0.12725396 0.041092373 0.0017777018 0.13637766 -0.042408958 0.583236
00000000: a839 97bd 0a3b 2dbd 7020 863e 31a4 32be
00000010: ca54 c23d 168d ca3d 0577 193e 9c42 c53d
00000020: 8c24 833c d81a 34bf e1ea 81bd 2296 c53e
00000030: 1395 d6bd 6b19 c7be 6e57 dc3c c666 15be
00000040: 6c16 b9bd b06f e8bc ecae 5fbf 028a 5b3d
00000050: ead3 94bd 1852 30be 0982 a3be 8c11 d9bd
00000060: 14fa d5be a664 513d dd4e 02be 7a50 283d
00000070: c601 e93a 96a6 0b3e 04b5 2dbd f44e 153f

4.weight f4 [1, 32]
-0.08544631 -0.27375004 0.65516233 0.4486419 0.067627 0.081001595 0.04788255 -0.017255077
-0.118331924 -2.3833704 -0.7996727 0.5546669 0.25066406 1.4670926 -0.028196007 0.18053603
0.122710444 -0.09197912 2.7813864 -0.03008302 2.9321396 0.451901 3.0449672 0.3058077
-3.6960106 0.042974643 0.21560073 0.4302845 -0.4479086 -0.19020927 0.13960645 1.6342515
00000000: 7afe aebd f728 8cbe b8b8 273f 64b4 e53e
00000010: 0680 8a3d 2ae4 a53d 7e20 443d 855a 8dbc
00000020: 0258 f2bd 2489 18c0 5ab7 4cbf a6fe 0d3f
00000030: 0a57 803e b1c9 bb3f 50fb e6bc 70de 383e
00000040: 9d4f fb3d 8d5f bcbd 3c02 3240 aa70 f6bc
00000050: 2da8 3b40 915f e73e bee0 4240 d492 9c3e
00000060: 708b 6cc0 2e06 303d 70c6 5c3e 404e dc3e
00000070: 4754 e5be 38c6 42be fef4 0e3e 272f d13f
