New folder/Models/Client_3/Global models/Server_3_4_2021_3_56_5.pth (torch, 6943 bytes, 5 tensors)

0.weight f4 [32, 1]
2.889031 2.9847956 -0.22330055 -2.3603272 2.9311757 -3.2833204 -0.30705297 0.27501434
-0.27906916 -2.5584588 -2.5085788 -1.5521281 -3.0959692 -2.4349825 0.9490802 1.5711973
-2.8352637 -1.4164139 1.7426497 1.5703542 -0.51739544 1.9766246 -3.8812268 -0.5424694
-1.9283547 -0.9612998 2.2082803 0.40776205 1.9525733 0.057278782 3.8198287 -2.8794312
00000000: e2e5 3840 e406 3f40 e6a8 64be 9a0f 17c0
00000010: 6298 3b40 ec21 52c0 0c36 9dbe aece 8c3e
00000020: 27e2 8ebe cabd 23c0 8e8c 20c0 22ac c6bf
00000030: 5c24 46c0 c1d6 1bc0 ecf6 723f fe1c c93f
00000040: f674 35c0 0d4d b5bf 250f df3f 5e01 c93f
00000050: 0774 04bf 0902 fd3f 0566 78c0 46df 0abf
00000060: 54d4 f6bf be17 76bf 7754 0d40 30c6 d03e
00000070: eced f93f 289d 6a3d 1378 7440 9a48 38c0

0.bias f4 [32]
-1.2749826 -2.4310627 -0.33323425 0.9741312 -2.3290563 2.671428 0.65808755 -0.4757454
0.06251831 1.2263379 0.9292752 -0.029497523 2.5306444 1.2228441 -0.7172142 -0.016572114
1.6676872 0.8467831 -0.14007014 -0.1610991 0.5786108 -0.66926676 1.7118503 0.10992974
1.0780401 -0.58528006 -1.207453 -0.33035293 -1.2052556 0.330672 -3.2693994 1.3503501
00000000: a132 a3bf 8896 1bc0 ae9d aabe aa60 793f
00000010: 420f 15c0 adf8 2a40 6d78 283f e794 f3be
00000020: 9a09 803d a4f8 9c3f fbe4 6d3f caa4 f1bc
00000030: 14f6 2140 2886 9c3f 5a9b 37bf 3ec2 87bc
00000040: c676 d53f c7c6 583f 8c6e 0fbe 2af7 24be
00000050: d61f 143f 1155 2bbf e91d db3f d822 e13d
00000060: 38fd 893f ead4 15bf d28d 9abf 0524 a9be
00000070: d145 9abf d74d a93e d73d 51c0 46d8 ac3f

2.weight f4 [32, 32]
0.14746931 0.088683136 -0.050762936 0.15818244 0.116362914 0.115142204 0.043192543 0.09206152
0.1825712 -0.07719103 -0.102224186 -0.12294142 0.21480682 -0.15873575 0.13541749 0.1222374
-0.09699011 -0.18207131 -0.11682041 0.13388409 -0.14305952 -0.12186345 0.1443873 0.14229967
0.005163003 0.039125446 -0.12022884 -0.023143712 0.087717496 0.11253201 -0.11548802 0.07590143
0.14571775 0.028102696 0.0101524815 -0.120721385 0.12700427 -0.119544044 -0.09212149 -0.12815264
-0.07232334 -0.17859201 -0.06151731 -0.21764007 0.05891014 -0.07587759 0.10488665 -0.027797174
-0.07406998 0.14044335 0.15452144 0.13755667 0.17351116 0.18560538 -0.07137047 -0.11284366
0.031781144 0.040440343 -0.01861198 0.035462562 -0.14065488 -0.047139976 -0.111126944 -0.10831256
0.4304434 0.11999905 0.0031750603 -0.3490824 0.38211632 -0.09066501 -0.05372195 0.055002626
-0.04002119 -0.13091676 -0.3464898 -0.14239316 -0.09870163 -0.4222052 0.19016288 -0.022937473
-0.31282353 -0.25617123 0.2174077 0.24320132 -0.061980933 0.101528086 -0.26297 0.005469611
-0.12121437 -0.14832926 0.2502274 0.03268585 0.24261586 0.18497409 0.27423677 -0.28184235
-0.15904972 -0.3606208 -0.10372244 0.23129982 -0.33720827 0.12060648 0.100415975 -0.050312877
0.030673813 0.15864559 0.047684472 0.0729206 0.18871938 0.028281553 -0.09308699 0.089720264
0.34006298 0.22482526 0.029539382 0.012777273 0.12373582 -0.11624542 -0.021932833 0.010078013
0.029520907 0.10179545 -0.096372604 0.05597147 -0.28751644 -0.19515598 -0.21366759 0.03697413
0.045096442 0.08207272 -0.15432188 -0.015048606 0.21482146 -0.020719877 0.08602878 -0.15445364
0.002462129 -0.21084532 -0.14981934 0.013592452 -0.16936396 0.016885692 -0.102845654 0.16719568
-0.19194642 0.10510274 -0.105743736 -0.12715414 0.17022258 -0.116807595 -0.2113992 0.046071723
0.15886253 -0.009421956 0.20483893 -0.09167488 -0.10612908 -0.13834417 0.14570722 0.014569177
0.088446796 0.13691172 -0.17593828 0.044347756 0.16615406 -0.20047602 0.15124545 -0.07978039
-0.12275328 -0.08711648 -0.2090976 0.019461986 0.058185197 0.12739539 -0.051380306 0.123711996
-0.11193908 -0.16383547 -0.03136017 0.06967686 0.050923146 0.057686683 0.021157216 -0.046767995
-0.08366389 -0.08623153 -0.008016318 0.010108331 -0.07444593 0.1201313 0.08878365 0.0026519352
-0.0026461242 0.15286408 0.076944105 0.038253218 0.024035174 -0.044123217 0.14860722 -0.09075548
-0.01023354 0.14950553 0.14605975 0.06960474 0.14145157 0.064532794 0.05626556 -0.11869135
-0.17467555 -0.13325152 0.11128546 -0.11484949 0.03591699 -0.09279463 -0.02652687 0.14084496
-0.06693861 -0.07661124 0.15696502 -0.07031165 -0.08884429 0.049150802 0.086864956 -0.050349116
-0.18872686 -0.21053788 -0.005807846 0.15356335 -0.0015882427 -0.0011022941 -0.13782756 0.046029232
0.015941253 0.077524155 -0.13847935 0.029085046 0.06492569 0.107911095 0.046005853 0.07664508
0.08095208 0.10550274 -0.067400515 0.076279484 -0.02046818 -0.08959098 -0.024831995 0.15546349
0.0046527497 -0.10318984 0.00030496775 0.1412362 -0.13948965 -0.10221903 -0.10447459 -0.0009594599
00000000: 3202 173e 819f b53d ccec 4fbd 94fa 213e
00000010: ae4f ee3d adcf eb3d aaea 303d c08a bc3d
00000020: f2f3 3a3e 5516 9ebd ea5a d1bd b6c8 fbbd
00000030: 52f6 5b3e a08b 22be e2aa 0a3e 9a57 fa3d
00000040: c0a2 c6bd e770 3abe 8a3f efbd e918 093e
00000050: 327e 12be 8b93 f9bd 44da 133e 01b7 113e
00000060: 692e a93b 0142 203d 8a3a f6bd e297 bdbc
00000070: 3ba5 b33d 2f77 e63d fc84 ecbd 3572 9b3d
00000080: 0937 153e a037 e63c 9856 263c c63c f7bd
00000090: 680d 023e 82d3 f4bd 31aa bcbd 723a 03be
000000a0: 421e 94bd d3e0 36be 93f9 7bbd 0add 5ebe
000000b0: c24b 713d b665 9bbd d0ce d63d e6b6 e3bc
000000c0: 00b2 97bd 62d0 0f3e de3a 1e3e a8db 0c3e
000000d0: e9ac 313e 560f 3e3e ae2a 92bd 941a e7bd
000000e0: f22c 023d c6a4 253d 2778 98bc 3141 113d
000000f0: d507 10be d915 41bd 8696 e3bd fad2 ddbd
00000100: 1463 dc3e 10c2 f53d ac14 503b eeba b2be
00000110: c0a4 c33e 94ae b9bd 8c0b 5cbd 6f4a 613d
00000120: 42ed 23bd 0b0f 06be 1c67 b1be 83cf 11be
00000130: 1524 cabd 482b d8be 0fba 423e 5ee7 bbbc
00000140: 682a a0be e028 83be 20a0 5e3e c409 793e
00000150: b8df 7dbd f5ed cf3d 01a4 86be 6c3a b33b
00000160: 3d3f f8bd a0e3 17be ce1d 803e 99e1 053d
00000170: 4b70 783e d969 3d3e c368 8c3e a44d 90be
00000180: eedd 22be 4aa3 b8be 6e6c d4bd dcd9 6c3e
00000190: 90a6 acbe 8800 f73d e4a6 cd3d e014 4ebd
000001a0: a647 fb3c fd73 223e cb50 433d 6557 953d
000001b0: a73f 413e b7ae e73c 64a4 bebd 42bf b73d
000001c0: bc1c ae3e 9838 663e 93fc f13c c457 513c
000001d0: 3569 fd3d 1412 eebd 7cac b3bc 401e 253c
000001e0: d4d5 f13c 227a d03d 005f c5bd 5742 653d
000001f0: 5b35 93be f8d6 47be adcb 5abe 2f72 173d
00000200: 0cb7 383d be15 a83d 8e06 1ebe 6e8e 76bc
00000210: 28fa 5b3e bbbc a9bc db2f b03d 1829 1ebe
00000220: ac5b 213b d6e7 57be 3e6a 19be e0b2 5e3c
00000230: bf6d 2dbe dd53 8a3c bea0 d2bd 5835 2b3e
00000240: 9a8d 44be 1b40 d73d 2c90 d8bd b234 02be
00000250: d44e 2e3e d238 efbd 0879 58be b4b5 3c3d
00000260: dcac 223e 8c5e 1abc 4cc1 513e 0ac0 bbbd
00000270: 345a d9bd 18aa 0dbe 4634 153e 8fb3 6e3c
00000280: 9823 b53d 9632 0c3e 2a29 34be fea5 353d
00000290: 4a24 2a3e 9649 4dbe 16e0 1a3e e763 a3bd
000002a0: 1266 fbbd 206a b2bd ae1d 56be be6e 9f3c
000002b0: 9a53 6e3d f073 023e 2874 52bd b75c fd3d
000002c0: 5140 e5bd 7cc4 27be 8673 00bd beb2 8e3d
000002d0: ca94 503d df48 6c3d e651 ad3c cc8f 3fbd
000002e0: f957 abbd 289a b0bd e056 03bc 6a9d 253c
000002f0: 1c77 98bd 6607 f63d 34d4 b53d 17cc 2d3b
00000300: 996a 2dbb 6788 1c3e df94 9d3d 68af 1c3d
00000310: 6ae5 c43c 8cba 34bd 7e2c 183e 02de b9bd
00000320: 94aa 27bc fa17 193e b090 153e ee8c 8e3d
00000330: aed8 103e c529 843d b776 663d 7314 f3bd
00000340: 26de 32be 1673 08be a2e9 e33d 3636 ebbd
00000350: b21d 133d 1c0b bebd e14e d9bc a939 103e
00000360: 1c17 89bd 5be6 9cbd 70bb 203e 8eff 8fbd
00000370: fff3 b5bd 5a52 493d 41e6 b13d e03a 4ebd
00000380: 9d41 41be 3e97 57be be4f bebb b63f 1d3e
00000390: 952c d0ba da7a 90ba ab22 0dbe 2689 3c3d
000003a0: 3b97 823c fcc4 9e3d 88cd 0dbe c343 ee3c
000003b0: c3f7 843d 7e00 dd3d a270 3c3d 18f8 9c3d
000003c0: 34ca a53d d211 d83d 4809 8abd 6b38 9c3d
000003d0: e2ac a7bc 7a7b b7bd 786c cbbc d231 1f3e
000003e0: 1876 983b 3255 d3bd 14e4 9f39 39a0 103e
000003f0: 60d6 0ebe 3658 d1bd c6f6 d5bd 4484 7bba

2.bias f4 [32]
-0.062476918 -0.041376427 0.25459912 -0.17810795 0.09483307 0.10223683 0.14530423 0.10009129
0.03656564 -0.6392044 -0.04326851 0.35495734 -0.13830501 -0.29998142 0.024958085 -0.14250188
-0.10680286 -0.029286109 -0.91009283 0.060330853 -0.079456255 -0.1587577 -0.3156622 -0.101832785
-0.41878563 0.040403645 -0.15037271 0.04696887 0.0106058 0.13815337 -0.043424487 0.5484256
00000000: cce7 7fbd 547a 29bd d15a 823e ee61 36be
00000010: d737 c23d 8b61 d13d a2ca 143e aafc cc3d
00000020: dac5 153d e6a2 23bf 523a 31bd f8bc b53e
00000030: d49f 0dbe 2a97 99be e674 cc3c 03ec 11be
00000040: 75bb dabd 6ce9 efbc d8fb 68bf 7c1d 773d
00000050: f6b9 a2bd 6191 22be 7a9e a1be b58d d0bd
00000060: 126b d6be 4b7e 253d 4efb 19be 6e62 403d
00000070: f3c3 2d3c 1478 0d3e e0dd 31bd 9f65 0c3f

4.weight f4 [1, 32]
-0.06585372 -0.22800723 0.56082237 0.35206008 0.07663351 0.09651244 0.0060865646 -0.014707579
-0.09531062 -2.1224034 -0.68041533 0.48669606 0.27102798 0.9576589 -0.013023524 0.18900126
0.13519701 -0.117748246 2.8017306 -0.027244646 2.9248195 0.3847465 3.071091 0.270163
-3.670277 0.06802821 0.22345963 0.36142072 -0.39579406 -0.2302076 0.11132655 1.5443304
00000000: 51de 86bd ba7a 69be 0e92 0f3f 3841 b43e
00000010: 08f2 9c3d 50a8 c53d ce71 c73b 0ff8 70bc
00000020: 3732 c3bd 75d5 07c0 b32f 2ebf 3a30 f93e
00000030: 2ec4 8a3e 2229 753f 9e60 55bc 8c89 413e
00000040: 1671 0a3e fe25 f1bd 8e4f 3340 2a30 dfbc
00000050: 3e30 3b40 7efd c43e c18c 4440 ce52 8a3e
00000060: d2e5 6ac0 6052 8b3d 9ad2 643e 230c b93e
00000070: 85a5 cabe 8bbb 6bbe 2dff e33d 9eac c53f
