New folder/Models/Server/Client_3/Client_3_3_4_2021_3_56_3.pth (torch, 6943 bytes, 5 tensors)

0.weight f4 [32, 1]
00000000: db03 2040 2614 2740 b09a a5be 18ae 04c0
00000010: 1162 2540 8627 3ec0 38b5 bbbd bec7 843d
00000020: b104 89be 10cb 11c0 380b 0dc0 b446 b4bf
00000030: 2669 34c0 7e11 06c0 5de7 383f 36b1 bb3f
00000040: 586e 1fc0 591c 97bf ceb3 c63f a67c b53f
00000050: a4d2 89be aa85 e03f ac33 5bc0 5634 f6be
00000060: 1eed d4bf 20ca 74bf caee f53f 402e a23e
00000070: 9434 d53f a091 0e3e 6ecd 5b40 de1e 21c0
2.5002353 2.6106048 -0.3234458 -2.0731258 2.5841105 -2.9711623 -0.09165424 0.0648341
-0.26761392 -2.278019 -2.2038097 -1.4084077 -2.8189178 -2.0948176 0.7222803 1.4663455
-2.4911098 -1.1805526 1.5523622 1.4178665 -0.2691852 1.7540791 -3.4250288 -0.48086804
-1.6634862 -0.9562092 1.9213498 0.3167591 1.665667 0.13922739 3.4344134 -2.517509

0.bias f4 [32]
00000000: 2e4f 98bf 322e ffbf bcce 01bf 7a72 5d3f
00000010: ce94 f4bf 80b1 0c40 de76 543f 2704 26bf
00000020: f295 3dbc 4ec6 8a3f 36cc 593f 8ccb 2ebe
00000030: d229 0240 f227 943f 0fe1 2bbf 3cbd 0f3e
00000040: 805b bd3f 3b4e 463f 613e 26bd 2c14 1ebd
00000050: 38b3 293f d091 12bf f886 ca3f 1021 6b3d
00000060: 7625 7e3f f2b9 3dbf e42f 8bbf 4eeb abbe
00000070: 43f7 87bf 3817 d83e 005f 2cc0 e062 a13f
-1.1899164 -1.9935973 -0.50706077 0.865028 -1.9107912 2.1983337 0.82993877 -0.64850086
-0.011571394 1.0841768 0.85077226 -0.17069834 2.0338025 1.157469 -0.6714029 0.14037031
1.4793549 0.7746312 -0.040586833 -0.038593456 0.6628909 -0.5725374 1.5822439 0.057404578
0.9927591 -0.74111855 -1.087399 -0.3357796 -1.0622333 0.42205215 -2.6932983 1.2608299

2.weight f4 [32, 32]
00000000: 6d30 173e 6c4a dd3d c44a 5bbd 5162 203e
00000010: 2ff9 083e 3b2c c23d 0c6c 303d 9cf6 bd3d
00000020: 6560 383e 94e8 a2bd 7699 d0bd c113 00be
00000030: dd3d 483e f262 27be ef8d 113e 6a57 fe3d
00000040: 56e6 d2bd fcbb 42be f737 ecbd 3689 0b3e
00000050: 2296 15be c629 f5bd ae5c 163e ba9b 0d3e
00000060: c454 19bb 961c 143d 8a84 e9bd e5d6 a5bc
00000070: e062 c63d 2af3 e93d 19b9 b6bd 5344 993d
00000080: d6e8 043e 64c2 523d 8752 863c ca39 d8bd
00000090: 1757 163e 6e25 13be ae4a ccbd 7b3d fabd
000000a0: 62ee 92bd f8cc 2abe c556 28bd 4e89 4cbe
000000b0: ba00 143d 738a 8ebd 367a e23d 344f 3ebd
000000c0: 570f 94bd fe24 0d3e c8fb 093e 297e f73d
000000d0: fbe7 2a3e 2049 2e3e 00c4 5abd 8aa7 e2bd
000000e0: ee4d 043d af07 603d 5df0 b3bc 1151 1c3d
000000f0: d33b 0cbe 1e44 55bd 29a1 a0bd 17ba c2bd
00000100: e23c b63e 56f2 d13d 406a 9b3c 569a 94be
00000110: a8f9 b83e 32e0 8abd 93f1 84bd c517 743d
00000120: d92d 05bd e432 87bd 9a44 8ebe f29d cbbd
00000130: 98ca 99bd 4f0a bcbe 3e32 323e c441 90bd
00000140: 28a3 83be 3ccb 69be 3b46 2d3e a919 4b3e
00000150: 3b8c 7fbd 2eee 483d b0ed 18be 6f14 a23c
00000160: 0d37 a4bd 1a84 eabd 0254 503e 8ce4 d43c
00000170: c0e6 553e 7e7c 333e 1ab3 863e cc17 53be
00000180: c481 d3bd 3232 9fbe 495b 03be 064e 383e
00000190: fb90 91be 7c86 843d 6f35 ef3d 8ec8 7ebd
000001a0: cf9a 9e3c 1481 d43d d6a9 52bb e49a 023d
000001b0: ac35 0a3e b4ff cbbc c9b4 a0bd 62ce 053e
000001c0: ae63 8e3e d8ae 453e c6a9 933d 9c17 5f3d
000001d0: 5449 033e 3ecf 8ebd a1fc 99bd 5119 2bbc
000001e0: fd16 79bc d8ff 823d 07fc 38bd ee28 7b3d
000001f0: a818 7bbe 4904 36be 11c2 22be b814 a5bc
00000200: 84d1 7f3d 3d07 9a3d 9226 29be a50e 01bd
00000210: 9829 573e 05d9 68bc 5a90 c53d 225c 26be
00000220: 802c 62ba 4846 67be f8d7 2cbe f487 b1bb
00000230: 10c5 27be 26b6 bb3b f7a2 d6bd 6caf 3e3e
00000240: 7037 4ebe 5a4c d13d 5901 b1bd a0d8 dfbd
00000250: 39d3 343e 66a1 cdbd 20cc 6dbe a386 253d
00000260: 02f9 1b3e 13e7 e2bc 0012 5b3e 6a6d bebd
00000270: 4da5 d0bd 6a4a 05be dc82 083e d633 b5ba
00000280: 5ba4 ec3d 23c6 0a3e b4b6 40be 12d1 993c
00000290: e22b 2b3e a638 4cbe f93a 253e 6ab0 b2bd
000002a0: c677 02be 36a4 e3bd b4d8 73be c7bc a8bb
000002b0: 621c 6e3d 188b dd3d 700a 4bbd 4267 183e
000002c0: ec06 04be 1a94 30be 47ed abbb 2a25 c03d
000002d0: a8a9 643d ffb6 a83d 8ae3 2fbc 9676 61bd
000002e0: 6a39 c7bd 2e5a dcbd e66f 0f3c 7c82 2c3c
000002f0: 383f 82bd a20f 043e 202e a73d a28c b9bc
00000300: d234 acbb 4608 2e3e 92ef 9f3d 49b2 223d
00000310: babb 1f3d 884c 7bbd faa3 143e 53c2 b3bd
00000320: e813 3dbc 04a3 193e fc37 193e 50ab 943d
00000330: 5c72 003e 12c9 7d3d 6f92 803d 5646 f9bd
00000340: b189 36be 9f30 0fbe 786f dd3d bc8f efbd
00000350: 09bf 003d 1081 c0bd c4fc aabc 345f 0e3e
00000360: fa4b 94bd ccd2 95bd e4af 243e c0dc 89bd
00000370: e5cd a6bd 2429 443d 8268 e03d b67e 47bd
00000380: 5481 3bbe 2aed 5bbe efea 38bc 4cc6 173e
00000390: 543d 92bb 64b4 263b dfe7 06be d4bc 283d
000003a0: aae3 743c fc77 953d e463 14be d8ac ab3c
000003b0: aecc 8b3d 7a07 d73d 1d81 303d 0d57 ad3d
000003c0: 5e1c a03d 4089 d93d bfce 73bd f0c4 aa3d
000003d0: fac8 82bc 682e acbd faad f9bc 152d 1d3e
000003e0: 94d6 773b 32f4 e5bd 56ae 223b cc0a 0f3e
000003f0: 305a 0fbe e256 c8bd 462b e1bd 1c12 c5bb
0.14764567 0.108052105 -0.0535381 0.15662505 0.13376306 0.094810925 0.04307179 0.09275553
0.18005522 -0.07954517 -0.1018552 -0.12507536 0.19554849 -0.16346338 0.142143 0.12419017
-0.10297839 -0.19017023 -0.11534112 0.1362656 -0.14608052 -0.11970858 0.14683792 0.13828936
-0.0023396472 0.036160074 -0.11402233 -0.020244071 0.09686828 0.11423333 -0.08922023 0.07483735
0.12979445 0.051454917 0.016396774 -0.105578974 0.1468166 -0.14369747 -0.099751815 -0.12218758
-0.07174374 -0.16679752 -0.041098375 -0.19974253 0.036133505 -0.06960001 0.11058466 -0.046462253
-0.07229488 0.13783643 0.13474953 0.1208461 0.16690056 0.17020082 -0.053409576 -0.11067112
0.032300882 0.054694828 -0.0219652 0.03816325 -0.13694696 -0.052066915 -0.07843239 -0.0950815
0.35593325 0.102513 0.018971562 -0.29024 0.36127973 -0.06781043 -0.06491389 0.05959298
-0.032514427 -0.066015035 -0.27786714 -0.09942235 -0.07509345 -0.36726615 0.17401978 -0.07043794
-0.25710416 -0.22831434 0.16921322 0.19834007 -0.062389594 0.04905527 -0.1493442 0.019785134
-0.080183126 -0.114509776 0.20344546 0.025987886 0.20888805 0.17527959 0.2630852 -0.20614547
-0.10327485 -0.31092983 -0.12827791 0.17998514 -0.28430924 0.06470963 0.116801135 -0.062202983
0.019360928 0.10376182 -0.0032144687 0.031885996 0.13497037 -0.024902202 -0.07846982 0.1306701
0.27810425 0.19304979 0.07210116 0.054465875 0.12820941 -0.06973122 -0.07518888 -0.010443048
-0.015203235 0.063964546 -0.045162227 0.06131833 -0.24521124 -0.17775072 -0.15894343 -0.020151481
0.06245567 0.07520912 -0.1651862 -0.031508107 0.2101196 -0.014211898 0.096466735 -0.16246083
-0.0008627847 -0.22585404 -0.1687926 -0.005417818 -0.16383767 0.005728501 -0.10480302 0.18621606
-0.20138335 0.10219641 -0.08642835 -0.1092999 0.176587 -0.1004055 -0.23222399 0.040411603
0.15231708 -0.027698075 0.21393585 -0.09298213 -0.101877786 -0.13016668 0.13331169 -0.0013824652
0.11554786 0.13552146 -0.18819696 0.01877645 0.16715959 -0.19943485 0.16135778 -0.087250546
-0.12741002 -0.11115305 -0.23813134 -0.005149457 0.058132537 0.10817546 -0.0495705 0.1488314
-0.12893265 -0.17243996 -0.0052467915 0.093820885 0.05582586 0.08238029 -0.010735402 -0.055044733
-0.09727748 -0.10759388 0.008754706 0.010529157 -0.06359714 0.12896588 0.081630945 -0.022650067
-0.00525532 0.16995344 0.07809366 0.039720807 0.03899739 -0.061352283 0.14515677 -0.08777299
-0.011540391 0.15003592 0.14962763 0.07259238 0.12543625 0.061959334 0.0627793 -0.12171619
-0.17825963 -0.13983391 0.108122766 -0.11697337 0.031432185 -0.09399617 -0.020872481 0.13903505
-0.07241054 -0.07315597 0.16082722 -0.06731558 -0.0814474 0.047890797 0.10957433 -0.048704825
-0.18311054 -0.2147719 -0.011286481 0.14821738 -0.0044628773 0.002543711 -0.1317439 0.041195706
0.0149468575 0.07298276 -0.1449123 0.020956442 0.06826149 0.10499473 0.043091882 0.08463869
0.078179106 0.106218815 -0.05952334 0.08338344 -0.015964974 -0.08407289 -0.030478466 0.15349229
0.0037817108 -0.11228217 0.002482315 0.13968962 -0.13999248 -0.097821966 -0.10994582 -0.0060141217

2.bias f4 [32]
00000000: 94ea 73bd 3b69 60bd 03ff 703e d519 0ebe
00000010: cff6 eb3d ece0 fc3d c076 0f3e 750f e43d
00000020: cc57 563d d125 cfbe f805 0b3a fad4 983e
00000030: a62c 1abe 383e 5cbe bc6d ae3c 1f8a c0bd
00000040: f777 e9bd 4ecd 74bd 646d 63bf 8cef 833d
00000050: c034 d6bd d0e7 05be 5844 95be eef7 8dbd
00000060: f280 d6be 3655 173d 99c8 23be e68c 473d
00000070: 4175 113d 3a6e 053e bb06 03bd cc3b e03e
-0.059549883 -0.054787856 0.23534779 -0.13877042 0.115216844 0.12347588 0.14010143 0.11135761
0.052329823 -0.4045854 0.00053033186 0.29849988 -0.15056095 -0.2150811 0.02129256 -0.094013445
-0.113998346 -0.059766106 -0.8883879 0.06442174 -0.1045928 -0.1307671 -0.29153705 -0.069320545
-0.41895252 0.036946498 -0.1599449 0.048718356 0.035512213 0.1303033 -0.03198884 0.4379562

4.weight f4 [1, 32]
00000000: 115e 88bd b128 51be 4251 f73e e34b a73e
00000010: 4281 653d ac35 023e 7383 03be bef0 083e
00000020: f8ab 00bc 2173 b2bf 255a 13bf 32b6 f73e
00000030: c018 913e 12be d83e 95e4 1a3d ff23 343e
00000040: 1cf5 1d3e dcee e0bd 7829 3240 be5c d3bc
00000050: 3c37 4640 50f5 943e 922e 4640 d8b1 983e
00000060: a4ed 60c0 5859 053e 345e 743e cd4f 913e
00000070: 42df b4be ad50 82be de81 1c3e 641d ac3f
-0.06658567 -0.20425679 0.48304182 0.32675084 0.056031473 0.12715787 -0.12843113 0.13373086
-0.007853501 -1.3941385 -0.57559425 0.48381191 0.28339195 0.42332512 0.03781565 0.17591856
0.15425533 -0.10983059 2.783781 -0.025801059 3.0971212 0.2909341 3.0965924 0.29823184
-3.5145044 0.13022363 0.2386406 0.28381196 -0.35326582 -0.25452176 0.15283915 1.3446469
