New folder/Models/Server/Client_2/Client_2_3_4_2021_3_56_7.pth (torch, 6943 bytes, 5 tensors)

0.weight f4 [32, 1]
0	0x403ecd94	2.9812975
1	0x4043440e	3.0510287
2	0xbe2b5194	-0.16730338
3	0xc01b0d5f	-2.422691
4	0x403ee8c2	2.9829564
5	0xc054cf4a	-3.325152
6	0xbec8d2c6	-0.39223307
7	0x3eb4ed24	0.35337174
8	0xbe8dd85b	-0.2770413
9	0xc026d9bf	-2.6070402
10	0xc0250332	-2.57832
11	0xbfc84fb4	-1.5649323
12	0xc0490cd0	-3.141407
13	0xc021a328	-2.5255833
14	0x3f8314da	1.0240738
15	0x3fc99685	1.574906
16	0xc0387072	-2.881863
17	0xbfbdd81e	-1.4831579
18	0x3fe329f2	1.7747176
19	0x3fcb6f93	1.5893425
20	0xbf1cb3d8	-0.6121192
21	0x4001838e	2.0236545
22	0xc07e5344	-3.9738321
23	0xbf0e07b1	-0.55480486
24	0xbfff1de0	-1.9930992
25	0xbf73b650	-0.9520006
26	0x4010e9d2	2.2642713
27	0x3ee2ee38	0.4432237
28	0x40014485	2.019807
29	0x3c78cff8	0.015186302
30	0x4079b374	3.901578
31	0xc03d9783	-2.9623725

0.bias f4 [32]
0	0xbfa1d3aa	-1.264272
1	0xc024d154	-2.5752764
2	0xbe90eb4d	-0.2830452
3	0x3f7aa9d6	0.979154
4	0xc01e40b8	-2.4727
5	0x4035bdd2	2.8397107
6	0x3f1671b9	0.58767277
7	0xbedc91ba	-0.4307993
8	0x3da10392	0.07862009
9	0x3f9e7164	1.2378354
10	0x3f6ae5fa	0.91757166
11	0xba8389c0	-0.001003556
12	0x402cbe5e	2.699119
13	0x3f98cf8c	1.1938338
14	0xbf3b85b2	-0.7325088
15	0xbd14c00b	-0.03631596
16	0x3fdc2bcd	1.7200867
17	0x3f57c1bf	0.8428001
18	0xbe1126b1	-0.14174916
19	0xbe39b6b0	-0.18136096
20	0x3f0ee458	0.55817175
21	0xbf2c279c	-0.6724794
22	0x3fd8b9ac	1.6931663
23	0x3de3034e	0.11084615
24	0x3f890d94	1.0707269
25	0xbf0ed6d8	-0.55796576
26	0xbf9c66d8	-1.2218885
27	0xbea9966a	-0.3312257
28	0xbf9db536	-1.2320926
29	0x3e99b9f4	0.30024683
30	0xc05cc3ec	-3.4494581
31	0x3fa93f4a	1.3222439

2.weight f4 [32, 32]
0	0x3e1a1bc3	0.15049653
1	0x3da71fc8	0.08160359
2	0xbd39ce00	-0.045362473
3	0x3e20a55c	0.1568808
4	0x3de113d6	0.109901115
5	0x3dfd00d9	0.12353677
6	0x3d1e3cee	0.038632326
7	0x3dc2c464	0.09510115
8	0x3e3ca324	0.18421608
9	0xbda0c98c	-0.07850942
10	0xbdd5ef1a	-0.10445996
11	0xbdf24f24	-0.11831501
12	0x3e63fb0c	0.22263736
13	0xbe23701e	-0.15960738
14	0x3e0a9518	0.13533437
15	0x3df1d1d6	0.11807601
16	0xbdc5b13c	-0.096529454
17	0xbe392350	-0.18079877
18	0xbdf59742	-0.11991741
19	0x3e05aa6c	0.13053292
20	0xbe143ebe	-0.14477059
21	0xbdf9f4ca	-0.12204893
22	0x3e0e5516	0.13899645
23	0x3e14b0c6	0.14520559
24	0x3bc21e76	0.0059240414
25	0x3d434050	0.047668755
26	0xbdf6e011	-0.12054456
27	0xbcbb23e0	-0.022844255
28	0x3db06bb8	0.08614296
29	0x3ddd8f91	0.10818399
30	0xbe027c68	-0.1274277
31	0x3d960638	0.07325405
32	0x3e2695b0	0.16268039
33	0x3cd1e34c	0.025621079
34	0x3c25bb9d	0.010115531
35	0xbe0b1e86	-0.13585863
36	0x3e004a46	0.12528333
37	0xbdee320f	-0.11630642
38	0xbdc0eb92	-0.094199315
39	0xbe011d3a	-0.12608805
40	0xbd96579c	-0.07340929
41	0xbe44632c	-0.19178456
42	0xbda33e96	-0.07970922
43	0xbe68e388	-0.22743046
44	0x3d7e39db	0.062066894
45	0xbdb569c6	-0.08858065
46	0x3ddfd248	0.1092878
47	0xbc8cfb81	-0.01720977
48	0xbda7871c	-0.08180067
49	0x3e08b3dc	0.13349861
50	0x3e2b14b2	0.16707113
51	0x3e17eff4	0.14837629
52	0x3e2f57ab	0.17123286
53	0x3e4c6986	0.19962129
54	0xbdb8c4fa	-0.09021945
55	0xbded9baa	-0.11601956
56	0x3cb85226	0.022500109
57	0x3d16ad1e	0.03678619
58	0xbc0f2f8b	-0.0087393625
59	0x3d1a19d4	0.037622288
60	0xbe096e6f	-0.13421033
61	0xbd4347e5	-0.047675986
62	0xbdf062ec	-0.11737618
63	0xbdfd96c9	-0.123822756
64	0x3ef49608	0.47770715
65	0x3e0cd1a8	0.13751853
66	0x3a112560	0.00055368803
67	0xbec5e8f2	-0.38654286
68	0x3ecd6ffa	0.40124494
69	0xbdda885e	-0.10670541
70	0xbd6b0cb2	-0.057385154
71	0x3d736dce	0.05943089
72	0xbd34d49a	-0.044148065
73	0xbe2ff0cb	-0.17181699
74	0xbec51c2b	-0.38498053
75	0xbe221322	-0.15827611
76	0xbdebba84	-0.115101844
77	0xbeece208	-0.46266198
78	0x3e5183e6	0.20460472
79	0xbbc3b517	-0.0059725153
80	0xbeb4736c	-0.3524431
81	0xbe8ebc02	-0.27877814
82	0x3e7252fa	0.23664466
83	0x3e86396f	0.26215693
84	0xbd8ec380	-0.069708824
85	0x3e06676f	0.13125394
86	0xbea6d661	-0.32585433
87	0xbb4afa97	-0.0030972117
88	0xbe1bd998	-0.15219724
89	0xbe20907c	-0.15680116
90	0x3e91dd12	0.28488976
91	0x3d212350	0.039340317
92	0x3e8ad992	0.27119118
93	0x3e3e1f19	0.1856655
94	0x3e919d11	0.28440145
95	0xbea89d48	-0.32932496
96	0xbe3c855a	-0.18410245
97	0xbec85550	-0.39127588
98	0xbdccc636	-0.09998743
99	0x3e81b2d6	0.25331753
100	0xbebcb91b	-0.36859974
101	0x3e1da93e	0.15396592
102	0x3dd1b8ae	0.10240303
103	0xbd57d5bc	-0.052694067
104	0x3d0c8468	0.03430596
105	0x3e3e34ae	0.18574783
106	0x3d8b5808	0.068039
107	0x3daaeee2	0.083463445
108	0x3e613bbf	0.21995448
109	0x3d6086b4	0.054815963
110	0xbdd87d46	-0.10570769
111	0x3da074ee	0.078348026
112	0x3ec04a98	0.3755691
113	0x3e795418	0.24348485
114	0x3c903cb8	0.017607078
115	0x39b74254	0.00034953898
116	0x3e03c3b2	0.1286762
117	0xbe097e50	-0.1342709
118	0x3b5448ab	0.0032391946
119	0x3c938cbc	0.018011443
120	0x3d5d521e	0.05403339
121	0x3ddeec16	0.108848736
122	0xbdfd5852	-0.123703614
123	0x3d517452	0.051136322
124	0xbe9f9950	-0.31171656
125	0xbe49b60c	-0.19698352
126	0xbe7af570	-0.2450769
127	0x3d83e31a	0.064398006
128	0x3d142390	0.036166728
129	0x3da7ca2a	0.081928566
130	0xbe1e1bef	-0.15440343
131	0xbbf4d32a	-0.007471462
132	0x3e5b645a	0.21425
133	0xbcb06580	-0.021532774
134	0x3db2a6f5	0.08723251
135	0xbe1f492e	-0.1555526
136	0x3b45bcd6	0.003017237
137	0xbe503d0f	-0.20335792
138	0xbe10e6c4	-0.1415053
139	0x3c8d719e	0.017266091
140	0xbe2e3db6	-0.17015728
141	0x3cc6500a	0.024208087
142	0xbdd74dfa	-0.1051292
143	0x3e27341b	0.1632847
144	0xbe3e3870	-0.18576217
145	0x3ddf065e	0.10889886
146	0xbde2491e	-0.11049102
147	0xbe06b027	-0.13153134
148	0x3e2fbd16	0.17161974
149	0xbdfc7603	-0.123271964
150	0xbe4ddc19	-0.20103492
151	0x3d428800	0.04749298
152	0x3e2823f9	0.16419972
153	0xbc0ac704	-0.008470301
154	0x3e4bab26	0.19889507
155	0xbdbdef22	-0.092741266
156	0xbde255ec	-0.110515445
157	0xbe0d575f	-0.1380286
158	0x3e184433	0.14869766
159	0x3cbe160e	0.023203876
160	0x3d96b3c4	0.07358506
161	0x3e089802	0.13339236
162	0xbe33dc42	-0.1756449
163	0x3d6a92a7	0.057268765
164	0x3e25fbc4	0.16209322
165	0xbe4a7973	-0.19772892
166	0x3e1cfab0	0.15330005
167	0xbda782ce	-0.08179246
168	0xbdf8b438	-0.12143749
169	0xbd984302	-0.07434656
170	0xbe47c71e	-0.19509551
171	0x3cd63073	0.02614615
172	0x3d793e64	0.060850516
173	0x3e0f40d4	0.13989574
174	0xbd6621f3	-0.05618472
175	0x3deee92e	0.11665569
176	0xbdceccc3	-0.10097649
177	0xbe203f94	-0.15649253
178	0xbd22bd76	-0.039731465
179	0x3d7d530e	0.061846785
180	0x3d5c17b5	0.053733546
181	0x3d3e6b4b	0.04648904
182	0x3d1bfcca	0.038082875
183	0xbd3391a2	-0.04384006
184	0xbd976c57	-0.07393711
185	0xbdabd668	-0.08390504
186	0xbc9903fc	-0.018678658
187	0x3c011301	0.007878066
188	0xbda9e536	-0.08295672
189	0x3df69c65	0.12041549
190	0x3db4e9a7	0.08833628
191	0x3c8b2f72	0.016990397
192	0xbb932315	-0.004490266
193	0x3e1d8c40	0.15385532
194	0x3d9a54c7	0.07535701
195	0x3d2210b8	0.039566725
196	0x3ccb9a8c	0.024853967
197	0xbd39de34	-0.045377925
198	0x3e19c0de	0.15014979
199	0xbdbbe505	-0.091745414
200	0xbc2c8e8c	-0.010532033
201	0x3e1a7beb	0.15086333
202	0x3e1725f3	0.1476057
203	0x3d8c39a0	0.068469286
204	0x3e0fb26a	0.14032903
205	0x3d86c64a	0.065807894
206	0x3d63e0e0	0.05563438
207	0xbdf11176	-0.117709085
208	0xbe31dd96	-0.17369685
209	0xbe07f76e	-0.1327798
210	0x3de5028c	0.111821264
211	0xbde9face	-0.1142479
212	0x3d167fe8	0.036743075
213	0xbdbf8878	-0.09352201
214	0xbcc6eb1e	-0.024282034
215	0x3e0fa1ea	0.14026609
216	0xbd878e04	-0.06618884
217	0xbda2921e	-0.07938026
218	0x3e1fbe44	0.15599924
219	0xbd90d607	-0.070720725
220	0xbdb72ad6	-0.08943717
221	0x3d4ec8ac	0.050484344
222	0x3db68e7b	0.08913895
223	0xbd472fb6	-0.048629485
224	0xbe3fb628	-0.18721831
225	0xbe57307e	-0.21014592
226	0xbb9d94d9	-0.004809004
227	0x3e1c0e23	0.15239768
228	0xba9ba31d	-0.0011874173
229	0xba897c6d	-0.0010489352
230	0xbe0e7992	-0.13913563
231	0x3d4083c7	0.047000673
232	0x3c8362ab	0.01603826
233	0x3d9c147c	0.076210946
234	0xbe0efa9c	-0.13962787
235	0x3cf376c1	0.029719712
236	0x3d84f6e3	0.064924024
237	0x3dda17fc	0.10649106
238	0x3d3fcfd6	0.046829067
239	0x3d9bc041	0.07605029
240	0x3da31ea4	0.079648286
241	0x3dd64398	0.10462111
242	0xbd8aa1c0	-0.067691326
243	0x3d9bba0d	0.07603846
244	0xbcafc5ca	-0.021456618
245	0xbdb60168	-0.08886987
246	0xbcd8e932	-0.026478384
247	0x3e1f4f42	0.15557578
248	0x3b67237c	0.0035268953
249	0xbdd00ece	-0.10159074
250	0x3ac7650a	0.0015212607
251	0x3e1118e4	0.14169651
252	0xbe0db455	-0.13838322
253	0xbdd32005	-0.103088416
254	0xbdd70fe4	-0.10501078
255	0xbb22af48	-0.0024823714

2.bias f4 [32]
0	0xbd99c35c	-0.07507965
1	0xbd30ea6b	-0.04319231
2	0x3e832d20	0.25620365
3	0xbe38a379	-0.1803111
4	0x3dc46a9c	0.095906466
5	0x3dd36446	0.1032186
6	0x3e193ae8	0.14963877
7	0x3dc83ef2	0.09777631
8	0x3c8ac612	0.01694015
9	0xbf2f09fc	-0.6837461
10	0xbd614326	-0.05499568
11	0x3ec67e16	0.3876807
12	0xbdcd67bc	-0.100295514
13	0xbec38c12	-0.38192803
14	0x3cc39380	0.023874044
15	0xbe150d6e	-0.14555904
16	0xbdb68aca	-0.08913191
17	0xbcef4762	-0.029208843
18	0xbf583fb6	-0.84472215
19	0x3d5fa4f0	0.054600656
20	0xbd907536	-0.07053606
21	0xbe2fb9ec	-0.17160767
22	0xbe9aaae2	-0.30208498
23	0xbdda535a	-0.10660429
24	0xbecd793a	-0.4013155
25	0x3d4cdf3c	0.05001758
26	0xbe01afa0	-0.12664652
27	0x3d3268c2	0.043556936
28	0x3b8332ef	0.0040038745
29	0x3e0bcd7a	0.13652602
30	0xbd301aa4	-0.042994156
31	0x3f108d6b	0.56465787

4.weight f4 [1, 32]
0	0xbdbe75a6	-0.092997834
1	0xbe8c84f0	-0.27445173
2	0x3f291fe6	0.660643
3	0x3ee59ba2	0.448453
4	0x3dab526e	0.083653316
5	0x3dcfe2ec	0.10150704
6	0x3d547bc8	0.05187586
7	0xbcd17506	-0.025568496
8	0xbdf82e54	-0.121182114
9	0xc01bcdf8	-2.4344463
10	0xbf4eae00	-0.8073425
11	0x3f13ed16	0.5778364
12	0x3e827e0a	0.25486785
13	0x3fbef9df	1.4920005
14	0xbd0eac68	-0.03483239
15	0x3e547c24	0.20750481
16	0x3e099f85	0.13439758
17	0xbddb31aa	-0.10702832
18	0x4034ffa0	2.828102
19	0xbcfc91bc	-0.03083121
20	0x404110c1	3.0166476
21	0x3ee96a48	0.455889
22	0x40491e62	3.1424794
23	0x3e9d295f	0.30695626
24	0xc07523f3	-3.8303192
25	0x3d2d3afd	0.042292584
26	0x3e69eb0a	0.22843567
27	0x3ee753cc	0.4518112
28	0xbee6c4b9	-0.45071962
29	0xbe479c06	-0.19493112
30	0x3e0e1030	0.13873363
31	0x3fd10853	1.6330665
