New folder/Models/Client_1/Trained local models/Trained_3_4_2021_3_56_4.pth (torch, 6943 bytes, 5 tensors)

0.weight f4 [32, 1]
000000 59 be 2e 40 72 58 35 40 98 58 76 be 0c e7 0e c0
       2.730368 2.8335233 -0.24057233 -2.232852
000010 89 c5 31 40 05 15 47 c0 b0 8e 7f be a0 d1 6a 3e
       2.7776816 -3.110658 -0.24956775 0.22931528
000020 cc 30 88 be 01 5e 1a c0 ba b4 18 c0 ce be be bf
       -0.2659973 -2.4119875 -2.3860307 -1.4901979
000030 2e 5f 3b c0 21 a4 13 c0 c7 12 67 3f b8 fd c2 3f
       -2.9276843 -2.3068926 0.90263027 1.5233679
000040 68 e2 29 c0 64 fb ac bf 12 48 d6 3f 1b 8a c0 3f
       -2.6544437 -1.3514218 1.6740744 1.5042146
000050 e7 97 f2 be 95 a7 f0 3f 40 fe 6a c0 81 95 07 bf
       -0.47381517 1.8801142 -3.6717682 -0.529625
000060 27 29 eb bf b1 2c 77 bf 42 7e 05 40 5f c5 c5 3e
       -1.8371934 -0.9655257 2.0858312 0.38627145
000070 6b 78 ec 3f 16 ee 9d 3d f0 d8 68 40 bd 6e 2e c0
       1.8474249 0.07711427 3.6382408 -2.725509

0.bias f4 [32]
000000 e2 fb 98 bf fd cd 13 c0 35 5e d0 be fb f4 65 3f
       -1.1951869 -2.3094475 -0.40696874 0.89826936
000010 c2 2c 0e c0 a3 fa 25 40 0a b9 36 3f 58 ba 07 bf
       -2.2214818 2.5934227 0.713761 -0.53018713
000020 12 35 2f 3d 9f 94 94 3f 28 14 55 3f 5f 2d d9 bd
       0.04277522 1.1607856 0.8323388 -0.10604357
000030 f3 c7 1c 40 9b 80 94 3f dc 73 33 bf 80 d1 9c 3d
       2.449704 1.1601747 -0.7009866 0.076571465
000040 ef 9f d0 3f 40 bf 49 3f 7f d6 64 bd f0 49 b1 bd
       1.6298808 0.7880745 -0.055868622 -0.086566806
000050 b0 c6 17 3f 80 ae 16 bf 81 73 cd 3f 92 c3 91 3d
       0.5928755 -0.58860016 1.6050874 0.0711738
000060 4c 1c 82 3f 09 cd 2b bf 47 f3 93 bf c1 58 a6 be
       1.0164886 -0.67109734 -1.1558617 -0.3248959
000070 55 39 94 bf 08 ca c2 3e e7 ee 49 c0 d4 3d a2 3f
       -1.1579996 0.38044763 -3.1552064 1.2675118

2.weight f4 [32, 32]
000000 10 d2 15 3e 1f b2 ad 3d 47 5a 4b bd 3e 72 23 3e
       0.14630914 0.084812395 -0.049646642 0.15961549
000010 17 aa e6 3d 65 e9 f6 3d 43 53 2d 3d 6b 2f be 3d
       0.11262911 0.12056235 0.042315733 0.09286388
000020 55 a0 3b 3e 88 cd 9a bd 5e 00 cf bd fc 0c f9 bd
       0.1832288 -0.07558733 -0.10107492 -0.1216068
000030 0c dc 60 3e f4 8d 20 be 56 2f 09 3e 8d a0 f7 3d
       0.21958941 -0.15679151 0.13396963 0.120911695
000040 0a de c0 bd 18 58 38 be 26 15 f2 bd 8c bc 07 3e
       -0.094173506 -0.18002355 -0.1182044 0.13255519
000050 30 b4 12 be e5 6f fc bd c2 5a 13 3e 84 fe 12 3e
       -0.14326549 -0.1232603 0.1439009 0.14354903
000060 83 5a f4 3b 2a 27 25 3d c8 53 fb bd 0a 6a c1 bc
       0.007457079 0.040320553 -0.122718394 -0.023610134
000070 7e 79 ae 3d 84 a2 e4 3d 0c b5 f9 bd 97 e2 9d 3d
       0.085192665 0.1116381 -0.12192735 0.07709234
000080 e2 15 1a 3e 49 78 11 3d 1c b2 09 3c ae 14 ff bd
       0.1504741 0.035515103 0.008404281 -0.12455116
000090 9e 5e 09 3e e9 43 00 be c2 bd ba bd cf 05 04 be
       0.13415 -0.12525906 -0.09118225 -0.12892841
0000a0 0d 6f 96 bd 95 8e 3b be eb eb 84 bd 1c 9a 5f be
       -0.073454 -0.1831611 -0.0649031 -0.21836132
0000b0 c1 9a 57 3d 3e 1d a5 bd ae a6 d9 3d a8 61 de bc
       0.05263782 -0.08062218 0.10627495 -0.027146176
0000c0 38 f6 a1 bd f5 8d 0c 3e 6f f5 1e 3e 2f 56 0e 3e
       -0.079082906 0.13726027 0.15523313 0.13900064
0000d0 f3 4a 31 3e 16 29 41 3e a1 87 a1 bd 4a fb e9 bd
       0.17313747 0.1886333 -0.07887197 -0.11424883
0000e0 c7 78 e3 3c 3f 05 22 3d 84 ec 70 bc d9 f7 13 3d
       0.027767552 0.039555784 -0.014704827 0.036125038
0000f0 cd 9f 0b be a6 41 3c bd 62 d4 d6 bd 55 c0 e8 bd
       -0.13635178 -0.045961045 -0.104897276 -0.113648094
000100 a2 09 d7 3e 77 37 00 3e e8 b3 c0 3b d4 06 af be
       0.41999537 0.12521158 0.0058808215 -0.34184897
000110 22 23 c6 3e 0d 18 bc bd 53 94 6a bd 58 a2 63 3d
       0.3869868 -0.09184275 -0.05727036 0.055574745
000120 84 24 24 bd 27 26 fc bd 15 93 ab be a8 a1 06 be
       -0.040073887 -0.123119645 -0.33510652 -0.13147604
000130 02 27 ce bd d2 1a d5 be 80 80 41 3e 05 b3 12 bd
       -0.10066034 -0.41622025 0.18896675 -0.035815258
000140 d5 d3 9d be 2e 62 82 be 14 cc 52 3e 23 21 6f 3e
       -0.30825678 -0.2546553 0.20585662 0.23352484
000150 1e 8a 80 bd 16 ea bf 3d 18 e6 79 be f4 82 cb 3b
       -0.06276344 0.0937082 -0.2440418 0.006210679
000160 a1 f7 f0 bd 8c 99 0c be 48 57 7c 3e 6e d8 00 3d
       -0.117659815 -0.13730448 0.2464267 0.031456403
000170 d5 65 77 3e 16 bf 3b 3e 01 f8 8d 3e a2 97 8a be
       0.2415994 0.18334612 0.27728274 -0.27068812
000180 23 59 28 be 31 93 ba be 4b 14 cc bd 60 67 71 3e
       -0.16440253 -0.36440423 -0.09964808 0.2357459
000190 7b 79 ae be a3 20 fb 3d 0b 5e c3 3d af 5d 3c bd
       -0.34077057 0.12262084 0.09539422 -0.04598778
0001a0 b9 13 04 3d f0 25 27 3e 34 bc 55 3d 2c cb 9d 3d
       0.03224537 0.16323066 0.052181438 0.077047676
0001b0 d2 2b 44 3e 4e 88 04 3d 17 e2 bc bd 9b 1d af 3d
       0.19157341 0.032356553 -0.09222811 0.08550569
0001c0 09 fe af 3e 87 cd 67 3e bf 45 d1 3c 0f ba 0e 3c
       0.343735 0.22636996 0.025545953 0.008711352
0001d0 41 22 f8 3d 57 b4 f6 bd 84 12 6b bc 84 d5 3f 3c
       0.121159084 -0.12046116 -0.014347676 0.011708621
0001e0 ed 34 02 3d d8 60 d9 3d b4 95 ca bd 1d 89 66 3d
       0.031788755 0.106141746 -0.09891835 0.056283105
0001f0 67 86 94 be 7b 41 4b be 30 78 5d be 1a d6 2c 3d
       -0.2900879 -0.19849198 -0.21627879 0.04219637
000200 4e 53 43 3d a1 3b 9a 3d cc 68 22 be b4 6a 94 bc
       0.047686867 0.075309046 -0.1586029 -0.018117286
000210 5f d2 55 3e 17 b3 6c bc e7 6e b9 3d cd a3 21 be
       0.20881031 -0.014446995 0.09054356 -0.15785141
000220 b5 a3 bf 3a e8 ef 59 be 8d 77 1d be d3 5a d9 3b
       0.0014620932 -0.21282923 -0.15377636 0.0066331415
000230 99 54 27 be 64 57 85 3c 86 ca d6 bd 27 23 32 3e
       -0.16340865 0.016277023 -0.10487847 0.17396222
000240 ea 1e 44 be 7e 83 d9 3d 7b 0e cb bd 02 3d f8 bd
       -0.19152418 0.10620783 -0.09914871 -0.12121011
000250 c7 78 31 3e 83 56 e7 bd 7d 78 5b be 76 0e 36 3d
       0.17331229 -0.11295798 -0.21432681 0.044447385
000260 ed 35 23 3e 08 47 8b bc ba fb 51 3e 65 0e be bd
       0.1593854 -0.017001644 0.20506182 -0.09280089
000270 eb ea db bd a4 42 0a be 59 89 0c 3e b5 99 50 3c
       -0.107381664 -0.13501984 0.13724269 0.012731959
000280 f5 58 b9 3d 2e ac 02 3e 94 98 3a be 52 d1 28 3d
       0.0905017 0.12760994 -0.18222266 0.04121525
000290 8c 75 21 3e 27 41 44 be b5 9f 21 3e 5c 81 ad bd
       0.15767497 -0.19165479 0.1578358 -0.08471939
0002a0 45 3f fe bd 6b 44 b5 bd 17 a5 5a be f5 9b 1b 3c
       -0.124144115 -0.0885094 -0.2135204 0.009497632
0002b0 42 8a 88 3d 1e c6 02 3e 36 1f 5e bd 84 c2 08 3e
       0.066669956 0.12770888 -0.054228984 0.13355452
0002c0 09 00 e1 bd 73 07 26 be 76 97 b4 bc cc b2 9f 3d
       -0.10986335 -0.16213779 -0.022044878 0.07797775
0002d0 40 d2 62 3d b0 81 7f 3d 00 9c 9c 3c 17 22 49 bd
       0.05537629 0.06237954 0.019117355 -0.049104776
0002e0 fb a4 a8 bd 40 84 c7 bd 00 08 0e bc c7 6d 0b 3c
       -0.082345925 -0.097420216 -0.0086689 0.00851006
0002f0 ae 62 9d bd 11 04 00 3e 59 1f 9f 3d ec 24 d5 3a
       -0.07684837 0.12501551 0.07769651 0.0016261614
000300 2c e9 9d bb 69 f0 17 3e 96 9a a2 3d 83 f6 26 3d
       -0.004819056 0.14837803 0.07939641 0.040762436
000310 78 8c a1 3c 45 cd 1c bd a1 3a 16 3e 97 f7 b6 bd
       0.019720301 -0.038281698 0.14670803 -0.08933943
000320 b8 7e 15 bc de af 1b 3e a9 fe 17 3e 41 90 95 3d
       -0.00912445 0.15203807 0.14843239 0.07302905
000330 61 3a 16 3e 63 cf 89 3d 89 e3 5f 3d 80 fe f9 bd
       0.14670707 0.06729009 0.054660354 -0.12206745
000340 70 78 2f be b3 b3 05 be ee 27 dd 3d bb ad f1 bd
       -0.17135787 -0.13056831 0.107986316 -0.118007146
000350 d7 50 10 3d 89 88 c3 bd c5 e6 d2 bc ad 57 12 3e
       0.035233345 -0.095475264 -0.025744805 0.14291258
000360 d5 b4 82 bd ec 44 95 bd 6b 5e 1d 3e 07 f6 90 bd
       -0.06382147 -0.072885364 0.15368049 -0.07078176
000370 67 5a bc bd 84 b6 41 3d 2e b5 a3 3d db 43 45 bd
       -0.091969304 0.0472932 0.07993542 -0.048160415
000380 3a 80 43 be 57 e2 54 be f5 5c 84 bb 72 43 1f 3e
       -0.19091883 -0.20789467 -0.0040394017 0.15553072
000390 38 a9 3c 3a 93 cb 97 bb 14 34 0f be 53 93 43 3d
       0.00071968464 -0.0046324222 -0.1398471 0.04774792
0003a0 78 2b 86 3c c7 3c a2 3d 24 49 0b be 39 39 01 3d
       0.01637815 0.079217486 -0.1360212 0.031548712
0003b0 9d c9 7d 3d 68 f0 de 3d 44 59 41 3d 4d d3 97 3d
       0.06195985 0.108856976 0.04720427 0.07413349
0003c0 17 5d a6 3d 02 30 d7 3d eb 1e 8f bd 3b 6f 97 3d
       0.08123224 0.10507204 -0.06988319 0.073942624
0003d0 a6 bf b2 bc 11 b2 bb bd e5 be ad bc 80 b4 1f 3e
       -0.0218199 -0.09164823 -0.02120919 0.15596199
0003e0 fc 22 97 3b 99 5a ce bd 36 50 e1 38 66 2b 11 3e
       0.0046123248 -0.10075874 0.000107437765 0.14176711
0003f0 7b 6d 0e be 30 36 d4 bd 76 4f cc bd 34 c2 8b 3a
       -0.13908951 -0.10361898 -0.099760935 0.0010662735

2.bias f4 [32]
000000 8a 0a 82 bd dc 83 24 bd dd 56 7e 3e c7 cf 3a be
       -0.063496664 -0.040164813 0.24837823 -0.18243323
000010 2a ab d5 3d 2f 21 ed 3d 26 93 10 3e 6a 60 c7 3d
       0.104330376 0.11578595 0.14118633 0.097351864
000020 4a 4a 34 3d 89 2f 15 bf c2 de f1 bc 5b 41 b1 3e
       0.04401616 -0.5827566 -0.029525165 0.34620175
000030 dc 12 12 be 74 87 99 be 6b 9e a8 3c a3 b7 04 be
       -0.14265007 -0.29986155 0.020583352 -0.12960677
000040 72 da d6 bd ed 44 23 bd 51 26 57 bf 70 2a 80 3d
       -0.10490884 -0.039860655 -0.8404284 0.06258094
000050 9f 9a aa bd e1 f4 16 be 9a cd 89 be ac 09 cc bd
       -0.08330273 -0.14741851 -0.26914674 -0.09962782
000060 37 9a c0 be c2 f7 20 3d 0d 4f 17 be 6f a6 56 3d
       -0.37617657 0.03929878 -0.14776249 0.052404817
000070 46 2b 65 3c 92 07 0c 3e 58 73 46 bd a0 ec 02 3f
       0.013987368 0.13674763 -0.048449844 0.5114231

4.weight f4 [1, 32]
000000 66 8f a2 bd ec f7 61 be 12 3d 0c 3f 79 e9 c6 3e
       -0.07937507 -0.22067231 0.54780686 0.3885
000010 fb 6f a6 3d e0 25 f1 3d 69 99 c9 bb 1a dc 48 bc
       0.08126827 0.11774802 -0.006152321 -0.012259508
000020 82 be 9c bd f8 67 01 c0 ef 0c 2d bf 0a 5b 08 3f
       -0.07653524 -2.0219707 -0.6759786 0.53263915
000030 34 8e 82 3e ee de 81 3f ed 61 c4 bc 51 30 53 3e
       0.25499117 1.0146158 -0.023972476 0.206239
000040 8e 41 25 3e d0 5c 00 be ed dd 36 40 0e 55 d7 bc
       0.16138288 -0.12535405 2.8572953 -0.026285674
000050 bb 71 4a 40 ae 21 bb 3e 75 17 4f 40 5f a7 8e 3e
       3.1631916 0.36549133 3.2358067 0.2786207
000060 4f e1 77 c0 1f e6 94 3d 39 a1 6f 3e af 70 cc 3e
       -3.8731267 0.072704546 0.23401345 0.3992972
000070 c3 99 c2 be ed 88 63 be 39 6c eb 3d 0a 9a c8 3f
       -0.38007936 -0.22220202 0.11495251 1.5672009
