MNIST/Models/Server/Global models/Global model_8_5_2021_10_39_22.pth (torch, 90095 bytes, 8 tensors)

conv1.weight f4 [10, 1, 5, 5]
000000 d6 b9 08 be e4 8e 9d 3d 41 89 ba 3d 17 27 be bc
       -0.13352141 0.0769327 0.0910821 -0.023211999
000010 3a c5 bc bd 8c 16 15 3e 55 75 78 bd ee 4d 43 bd
       -0.092173055 0.14559382 -0.06065877 -0.04768174
000020 ec a5 21 3d 3b 54 9a 3c 27 24 91 3d 35 39 d2 bd
       0.039464876 0.018838992 0.07086974 -0.102648176
000030 f1 3c a5 bd 05 6b 40 3d 97 04 98 bd 47 2a cd bd
       -0.08068264 0.04697706 -0.074227504 -0.100178294
000040 83 c5 29 3e cc a9 05 3c 7b 9c 0d bc 7e 68 f3 3d
       0.16579251 0.0081581585 -0.008643265 0.11885165
000050 6b c5 06 be ba e6 35 be 0c 57 be 3d 7b 1c e6 bd
       -0.13161246 -0.17763796 0.092939466 -0.11235901
000060 70 84 1f be 67 b8 48 be 56 30 d7 bd bd 52 c3 3d
       -0.15577865 -0.19601594 -0.10507266 0.095372654
000070 18 64 15 be 45 de 0a 3e f3 4f 9a bc 8d 40 13 3d
       -0.14588964 0.13561352 -0.01883695 0.035950232
000080 9e 48 cd bc 70 12 14 bd 3a b6 06 3d 22 6a 4b be
       -0.02505904 -0.036150396 0.03288863 -0.19864705
000090 47 a8 30 3d 08 69 9f 3d d2 de 00 bd 8c 30 b5 3d
       0.04312923 0.07783705 -0.031462498 0.0884715
0000a0 2a 63 3e bd 11 64 72 3d ea 67 34 be 9d a0 86 bd
       -0.04648129 0.059177462 -0.17617765 -0.06573603
0000b0 07 18 2f 3e 76 8b e5 3d d9 ef 35 3e bc 2e 38 3e
       0.1709901 0.11208241 0.17767276 0.17986578
0000c0 94 d8 26 3e 32 9f 12 3e 17 2f e3 bd 2d 73 c2 3d
       0.16293555 0.1431854 -0.11092966 0.09494624
0000d0 61 84 c2 3d 5b 71 44 3e 58 e5 1e 3e 00 05 a7 bb
       0.094979055 0.19183867 0.15517175 -0.0050970316
0000e0 5a 7f a4 3d 41 ba e6 bd b3 38 21 be e2 af 16 3b
       0.08032103 -0.11265994 -0.15744285 0.0022993018
0000f0 82 94 ac 3d 51 44 12 3e ed 1a 61 bc f6 c9 db 3d
       0.08426763 0.14283873 -0.01373933 0.1073188
000100 48 d3 33 be 24 fd 9e bd 75 ff 08 be 53 f1 44 be
       -0.17561066 -0.077631265 -0.13378699 -0.19232683
000110 fa de 0d be 6b 92 f6 bd 22 50 44 be e2 80 32 be
       -0.1385459 -0.12039646 -0.19171193 -0.17431977
000120 cf c7 89 bd 7e 84 4c bd 27 99 31 3e 54 29 4c 3d
       -0.067275636 -0.049931042 0.17343579 0.0498441
000130 ae 02 e4 3d 5e 87 aa 3c f6 50 ee 3d 29 c9 42 3e
       0.111333236 0.020816501 0.11636536 0.19022049
000140 46 34 32 be 68 8b 29 be 58 82 36 bd 85 52 2f 3e
       -0.17402753 -0.16557086 -0.0445579 0.17121322
000150 6f 43 ee bd d9 30 13 bd 34 dc 26 3e ba e5 c3 3d
       -0.11633956 -0.035935257 0.16294938 0.09565301
000160 9b 70 aa 3d 75 c5 1e 3c 90 46 ae 3d d4 77 07 bc
       0.08322259 0.009690632 0.085095525 -0.008268315
000170 9d c8 3b 3e 2d 20 1d be 51 d9 14 bd cc 0c ed 3c
       0.18338247 -0.15344305 -0.03634006 0.028936766
000180 b2 03 5c 3d db 78 81 bc a9 de fb 3d 5b 0c 45 be
       0.05371446 -0.015804699 0.122983284 -0.19242994
000190 59 1b a9 3c 9f 75 1b be 8d 9e dc 3d a4 9e 46 3e
       0.020642923 -0.15181588 0.10772429 0.19396454
0001a0 2b 17 b9 3d 96 34 d7 bd 14 8b 38 be 2f be 6a bd
       0.09037622 -0.10508077 -0.18021804 -0.05731028
0001b0 66 52 a6 bd 88 00 6d 3c 2b 27 4c be 54 8b 19 be
       -0.08121185 0.014465459 -0.19936816 -0.14994556
0001c0 a7 de 7b bc b2 ef 81 3d 5e f9 d9 3d 6a 03 c6 3d
       -0.015372909 0.063445464 0.10643266 0.0966862
0001d0 2e 1e 25 3e 52 b8 c3 bc c5 5c 0b be 5c 40 8b 3d
       0.16124794 -0.023891602 -0.13609608 0.06799385
0001e0 7d 30 05 be 13 a2 68 be c6 5e b6 3d bf f7 04 3e
       -0.13006778 -0.22718076 0.08904795 0.12985133
0001f0 c9 58 35 3e d2 7e 01 be 5a 0d 1e be a9 ae f9 3d
       0.1770965 -0.12646034 -0.1543478 0.12191517
000200 ef a1 e5 bd 12 67 47 3e 44 c9 bd bd b6 b8 54 3e
       -0.11212527 0.19472912 -0.09266904 0.20773587
000210 5e ff 14 3e eb ee 49 3e 3f 20 01 be c1 17 00 3e
       0.1455054 0.19720046 -0.12609957 0.12509061
000220 b4 33 0d be e3 fb 20 3e f4 57 05 3b aa f6 8e bc
       -0.13789254 0.15721087 0.0020346614 -0.017451603
000230 b5 75 1c 3d e1 6c d1 bd d4 0c 18 be 64 09 71 bd
       0.03819819 -0.10225845 -0.14848644 -0.058846846
000240 54 cd 34 3e 7f f3 68 3c 74 86 15 be 75 aa f2 bd
       0.17656451 0.01421821 -0.14602071 -0.11848918
000250 cc 36 43 be 43 46 01 bd 22 19 ae 3c c4 43 d1 bd
       -0.19063872 -0.031561147 0.021252219 -0.102180034
000260 a4 63 2d 3e 52 e4 4c 3c e8 17 24 be 34 52 4d be
       0.16932541 0.012505608 -0.16024745 -0.20050889
000270 13 3d 4b be 1d cc e6 bd 5d e8 27 3e 58 8c a0 3d
       -0.19847517 -0.112694 0.16397233 0.078392684
000280 04 15 1f 3e d5 0c 4e 3e aa a9 63 bd 94 6a e5 bc
       0.1553536 0.20122083 -0.055581726 -0.028004922
000290 96 a8 24 3e 7e 9a 10 3e 4c 30 a1 3d e7 75 bd 3d
       0.16079935 0.14121434 0.0787054 0.09251004
0002a0 47 a0 91 3d be aa 1c be 22 c6 85 bc ef 65 17 be
       0.071106486 -0.15299508 -0.016329829 -0.14784978
0002b0 ce 54 96 bc ef 5e ae 3d 7a 61 f0 bd 68 3c 08 3e
       -0.018350985 0.08514201 -0.11737342 0.13304293
0002c0 e7 75 06 be 96 bf 4a bd e9 dd 36 bd 2c 2d f2 bd
       -0.13130914 -0.049499117 -0.044645224 -0.11825022
0002d0 bf ba 09 be 09 2f b1 3d 40 36 d0 3b 99 38 38 be
       -0.13450144 0.08651549 0.0063541234 -0.1799034
0002e0 e8 87 a9 bd ce d4 51 3e 8d 8d 26 3e 03 89 a9 bd
       -0.08277875 0.20491335 0.16264935 -0.08278086
0002f0 6e db 03 3c fd db 2b 3e 20 87 11 bd cd 58 4d 3c
       0.008047922 0.16783138 -0.035529256 0.012533379
000300 1d 2f 3d 3e d0 03 5a 3e 21 39 17 be 30 d9 03 3e
       0.18475004 0.21290517 -0.14767887 0.12875819
000310 fd 3c 17 3e d1 ac 3a 3e 5a b9 32 be 64 05 0d be
       0.14769359 0.18229987 -0.17453519 -0.13771588
000320 17 27 ac 3c 92 58 d3 3d 22 c6 e9 3b d9 14 8b 3c
       0.021014733 0.10319628 0.007134215 0.016977714
000330 8d 23 f2 3c f2 e9 30 be 71 99 a8 3d 76 73 17 3e
       0.029557968 -0.17276743 0.082323916 0.14790139
000340 08 cf 9c bd e5 ad d8 bd 20 87 a0 3d aa 5c 48 be
       -0.076566756 -0.10580043 0.07838273 -0.19566599
000350 f0 1a e1 bc f2 0c 0a 3e 23 f6 5f 3d 64 43 18 be
       -0.027478665 0.134815 0.054678094 -0.14869457
000360 a5 3f e6 bd a3 3a 2f be 25 92 cd bd e1 b6 a4 3d
       -0.11242608 -0.17112212 -0.100376405 0.08042694
000370 d0 82 c9 bd 51 bd 0d 3e 93 03 a6 bd 66 af ba bd
       -0.09839404 0.1384175 -0.081061505 -0.09115486
000380 2a 90 96 3d 21 44 1e 3d fe eb 38 3e 37 53 c5 bd
       0.07351716 0.03863919 0.18058774 -0.096350126
000390 ca aa 19 3e f3 8e 90 3d 8b 35 54 be b9 f0 3e be
       0.15006557 0.070585154 -0.2072355 -0.18646516
0003a0 02 8d 03 3e 7c 34 ba 3d 57 73 4d 3e 8e 12 f3 3a
       0.12846759 0.09092042 0.2006353 0.0018544958
0003b0 3a 89 24 be 8e 71 05 be 49 63 97 bc 02 b5 29 be
       -0.16067973 -0.13031599 -0.01847996 -0.16572955
0003c0 5f c0 19 3e 29 5f ac bd f5 b9 8f bd db 96 c0 bd
       0.1501479 -0.08416588 -0.0701789 -0.094037734
0003d0 25 74 2e be 6a 7a 01 3e 87 21 cb 3d 9f 05 0f 3d
       -0.17036493 0.12644354 0.09918504 0.03491747
0003e0 6c a3 c3 bd 05 fd ab bd
       -0.095526546 -0.08397869

conv1.bias f4 [10]
000000 80 ef c0 bd 54 74 14 3e 50 a7 9d 3d b4 4a 42 be
       -0.09420681 0.144975 0.07697928 -0.1897381
000010 4f ce 57 bc 9c eb 20 3e 6a 3a be bd af 16 05 be
       -0.013171746 0.15714878 -0.09288485 -0.12996934
000020 8a 7c 26 3e 60 f7 e3 3d
       0.16258445 0.111311674

conv2.weight f4 [20, 10, 5, 5]
000000 7f 05 5a bd ae b9 fe bb 8d 78 0e 3d 43 41 7f bd
       -0.053227898 -0.0077735996 0.034782935 -0.062318098
000010 42 b1 7c 3d 54 bf 97 bc 27 e4 0e bd 74 90 79 3d
       0.061692484 -0.01852385 -0.03488555 0.060928777
000020 b8 77 15 3d 47 bc 53 3d c0 c5 77 bd c8 eb 20 bd
       0.036491126 0.051693227 -0.060491323 -0.03928736
000030 61 52 e7 3c 71 b2 d1 bc 36 98 73 3d 3c 21 30 3d
       0.028237524 -0.025597783 0.05947133 0.043000445
000040 08 70 6d bc 92 89 5f 3d 8a f0 16 3b a5 54 2b 3d
       -0.014492042 0.054574557 0.0023031556 0.04182877
000050 2b c5 69 3d 55 56 46 3b 84 64 85 bd c1 52 46 bd
       0.0570728 0.003026386 -0.065133125 -0.048418764
000060 f6 8b 81 bd 35 bb 52 3c de 44 40 bd 6b 45 03 3c
       -0.063255236 0.012862016 -0.046940677 0.008012156
000070 e4 ac 76 bd c8 88 b1 3b 43 3e 85 bd d3 a5 22 3c
       -0.060223475 0.005417917 -0.06506016 0.009927231
000080 65 ec 00 ba bd 4d 26 3d 24 2f dc bc cf 5a ef bb
       -0.0004918038 0.04060148 -0.026877947 -0.0073045264
000090 99 0a 4f bd 17 d5 91 bd 90 79 21 3d 0c e0 0a bd
       -0.050547216 -0.07120722 0.03942257 -0.033905074
0000a0 d5 a1 1e 3d 6e 9a 14 bd e7 98 32 3d 0a 11 28 bd
       0.038728554 -0.036280088 0.04360285 -0.041031875
0000b0 10 27 25 bd cf 41 de 3c b9 26 5d 3d 3f 86 53 bd
       -0.040320456 0.02713099 0.053992007 -0.0516417
0000c0 45 17 46 3d 1b 39 21 3d 42 27 23 bd 0b 12 17 3d
       0.048362035 0.0393611 -0.03983236 0.03688244
0000d0 f9 bc 7c 3d 35 72 3c 3d ad fc 94 3b 84 ef 51 3d
       0.061703656 0.046007354 0.004546723 0.05125381
0000e0 92 a8 cb bc 72 03 8b bc 42 f4 a7 3c 96 01 a0 bb
       -0.024860654 -0.016969416 0.020502213 -0.0048830016
0000f0 b0 26 c8 bc cd 4a 1c bc 13 f6 1e bc f0 71 3e 3d
       -0.02443251 -0.009539318 -0.009702223 0.046495378
000100 d3 de 51 3d 20 ab 3b bd 69 41 3d 3d 78 0e 39 bd
       0.051237892 -0.045817494 0.046204958 -0.045179814
000110 e0 b0 8d 3b c5 cc 82 bd c7 55 1d bc 9a 0c a6 bc
       0.0043240637 -0.06386713 -0.00960297 -0.02026968
000120 e6 28 39 bd da a2 3a bd 48 c6 aa bc 50 a9 bc 3a
       -0.04520502 -0.045565464 -0.020846501 0.0014393721
000130 e5 c1 36 bd 42 39 e0 3c 80 c5 7b 3c 69 ce 61 3c
       -0.044618506 0.027371053 0.015366912 0.013782122
000140 f6 1a 05 bd b5 c3 36 3d 2a ae 8d 3c 16 d4 ff bc
       -0.032496415 0.044620235 0.017294962 -0.03122906
000150 50 dd 2e 3d 3b 93 30 bd b9 4c 98 bd 58 e0 07 bc
       0.04269153 -0.04310916 -0.07436509 -0.008293234
000160 70 22 79 3c 75 cd a3 bc 01 38 82 3c 94 40 63 3d
       0.015205964 -0.01999543 0.015895845 0.05548151
000170 66 53 ef ba 47 a5 d7 3b 83 c3 7f bd 50 78 61 39
       -0.0018259108 0.006580982 -0.062442314 0.00021502492
000180 bf 8c 01 bd d2 5f 45 bb dc 50 ce b8 0b 00 e0 bc
       -0.031628367 -0.0030116928 -9.837907e-05 -0.02734377
000190 35 60 d9 3c 2f 8d 72 3d 43 87 d4 bc 97 40 02 3d
       0.026535133 0.059216674 -0.025943404 0.03179988
0001a0 de f8 55 bd b0 68 53 bd 17 fa 51 3d 78 64 43 3c
       -0.05223929 -0.05161351 0.051263895 0.011925809
0001b0 36 af 9e 3c 82 4e 32 3d 29 cf 3f bd bc 35 4a bc
       0.019370656 0.043531902 -0.046828423 -0.012341913
0001c0 db 19 4e bd 46 9e b9 bb 0a cf 91 bc 70 c1 c3 3b
       -0.050317626 -0.0056646196 -0.01779892 0.0059739873
0001d0 8a fe 85 3d d2 04 36 bd a4 ed f8 3c 2a 38 81 bc
       0.0654269 -0.04443819 0.030386753 -0.015773851
0001e0 fc 3a bb bb 14 2a 87 3d 90 38 97 bd ad 96 85 bd
       -0.0057138186 0.06599823 -0.07383835 -0.0652288
0001f0 3e 9d 59 bd bc 93 5d 3c d6 bd 0a 3d 19 d8 85 3c
       -0.053128473 0.013523992 0.033872448 0.016338395
000200 a9 9d e3 3c a2 ae 44 3c b4 ba fc 3c 5d 2c 82 bd
       0.02778514 0.012004526 0.030850746 -0.06356118
000210 87 15 db bc b9 59 4d bc 38 15 2b 3c f1 ee 88 bc
       -0.026743663 -0.012533599 0.010442071 -0.016715499
000220 8c 4a 60 bd 6d 80 10 bd 09 e1 81 bc 59 5a e4 3c
       -0.054758593 -0.035278726 -0.015854375 0.027875112
000230 32 cd 09 3d 14 c6 25 3d 6a 09 90 3c 8e 2a 36 bd
       0.033642955 0.040472105 0.017582614 -0.044474177
000240 84 e0 dc 3b 6c d4 8b bd ef 72 34 3d 07 3c 82 bd
       0.0067406315 -0.06827626 0.04405492 -0.063591056
000250 9c 68 8a bc a2 24 7f 3c a2 8c 7c bd e9 8c 2a bd
       -0.016895585 0.015572699 -0.061657555 -0.04163829
000260 0c d1 2f 3c 4c da 64 3d 7f 58 cb ba f1 0d c6 3c
       0.010730993 0.055872247 -0.0015514045 0.02417657
000270 b6 f8 2f bc 01 35 39 bd 97 7d f3 3c 05 d5 5d bd
       -0.01074045 -0.045216564 0.029722972 -0.05415823
000280 5f 2e 3a bd 15 a0 bb 3c c3 57 64 bc ce 4a ee bc
       -0.04545438 0.022903481 -0.01393694 -0.029088404
000290 24 70 62 bc c1 b2 3c bd 3b b9 40 3d 90 2e 45 bc
       -0.013820682 -0.04606891 0.04705165 -0.012035027
0002a0 a7 1d 06 3c 92 a0 03 bd b2 b4 5c 3d f6 fa 10 bd
       0.008185781 -0.032135554 0.053883262 -0.035395585
0002b0 b5 54 73 3c 93 99 70 3d e8 ef e9 3c 49 93 85 bd
       0.014851739 0.05874021 0.028556779 -0.06522233
0002c0 68 28 90 3b 40 67 23 bc 0d e6 3f bd f5 7a 40 bd
       0.004399348 -0.009973347 -0.046850253 -0.04699226
0002d0 5c e5 51 bd e7 97 fe 3a 09 5f 19 bd 9b 0a a4 bc
       -0.051244125 0.0019423933 -0.03744415 -0.020024588
0002e0 90 d7 56 bb ef 6a 43 3d 6f 12 83 bd 8d 57 14 bd
       -0.0032782294 0.0477094 -0.064 -0.036216307
0002f0 5a 2c 5f bd b1 91 ef bc 3f 93 c6 3c df ff 79 3c
       -0.054485656 -0.029244276 0.024240134 0.015258758
000300 62 41 2f bd 9a d7 ca 3c ed fd 0c 3d 40 eb 11 3d
       -0.042786963 0.02476101 0.03442185 0.035624743
000310 a4 b8 07 bd 74 f2 07 bd 45 33 8b 3c cc 12 1f ba
       -0.03313507 -0.033190206 0.01699222 -0.00060681696
000320 26 9a 17 3c 6e 2c 1b 3d b9 69 6b 3d a7 37 3b 3c
       0.00925306 0.03788417 0.05747387 0.011426843
000330 7e 70 14 3d 71 2f 57 bd 2b f3 e5 bb fd 5f 06 3d
       0.036240093 -0.052535478 -0.0070175133 0.032806385
000340 7e 7b 3a bd 36 48 45 bd 35 ad 6d 3d 4b 4f e2 3c
       -0.045527928 -0.04816457 0.05802651 0.0276257
000350 39 4a 68 bd e6 13 08 3d b9 2d 27 3d a8 97 20 3d
       -0.05671141 0.0332221 0.04081509 0.03920713
000360 f6 ea 34 bd 58 fd 8c bd bb ac 1e bd dc c0 c5 3a
       -0.04416939 -0.06884259 -0.038738947 0.0015087384
000370 c8 7a a0 3b f5 aa 8f bd 21 9d e7 3c bc 63 8b 3c
       0.004897449 -0.07015029 0.028273167 0.01701533
000380 d9 8a 86 bd 6f 5a 6b bd 4b 9d 2d 3d cb 41 87 3d
       -0.06569452 -0.05745929 0.042386334 0.06604346
000390 0f dc 4e 3c 1e bb 9b bb b7 bf 50 3d 45 84 aa bc
       0.012625708 -0.0047525307 0.050964084 -0.020815024
0003a0 1c 82 26 3d f7 0a ce 3c d5 f7 30 3d ff 86 c8 bc
       0.040651426 0.025151713 0.0432051 -0.024478434
0003b0 e1 f8 af bb 21 8c 50 3d a3 2e 0c 3c b5 d4 5f bd
       -0.005370245 0.050914887 0.008556041 -0.054646213
0003c0 24 21 45 bd 5d 8c 9b bd 49 4c 2b 3d 2d 30 3b 3d
       -0.04812731 -0.075951315 0.041820798 0.04570024
0003d0 52 92 1b bb 2d 14 47 bb 59 7f be bc 6d 08 08 3d
       -0.0023738337 -0.0030377016 -0.023254083 0.03321116
0003e0 a5 7c 3b 3d 94 ba 6a bb a5 72 66 3c 08 2a 27 bd
       0.045773167 -0.0035816776 0.014065419 -0.04081157
0003f0 2b 30 74 bb 06 96 a9 3c ef fc 47 bc f1 21 2d bd
       -0.0037260156 0.02070142 -0.0122063 -0.042268697

conv2.bias f4 [20]
000000 b8 6f 87 bd a1 b0 5e bd b1 b2 81 bd e5 f6 1b bd
       -0.066131055 -0.054367665 -0.06332911 -0.038077254
000010 65 bf b8 3c 44 0a 1a 3c 76 3e 1f 3c 73 2b 87 bc
       0.022552202 0.009401862 0.009719482 -0.01650021
000020 47 a5 3c 3d a0 66 c3 3c 45 e2 2a 3d a2 54 60 3c
       0.04605606 0.023852646 0.041719694 0.013692053
000030 2c 81 20 3c 15 22 dc 3c 12 8c 37 3d e2 62 2d bd
       0.009796422 0.02687172 0.044811316 -0.04233063
000040 f1 24 0f 3c 11 08 14 3d d4 e1 37 3d b3 80 22 bd
       0.008736835 0.036140505 0.0448931 -0.03967352

fc1.weight f4 [50, 320]
000000 ad d9 da bb 62 ef 20 3d 22 5a 89 3c 24 2c 44 bd
       -0.006678781 0.039290793 0.016766611 -0.04789366
000010 94 59 e4 bb 6b 25 ef ba 65 6b 33 bd ac a0 d8 3a
       -0.0069686864 -0.0018245404 -0.04380359 0.0016527376
000020 97 ef 43 3c 4f 5c 09 bc e0 4f 03 bd d4 0e 1e 3d
       0.011958978 -0.0083838245 -0.032058597 0.03858836
000030 21 76 05 bd 89 5a 24 bd 26 d4 f8 bc 8c c3 d5 3b
       -0.03258336 -0.040125404 -0.030374598 0.006523555
000040 50 4e ff 3c cf 39 8c bc 0e d7 f1 bc 33 98 5d 3c
       0.031165272 -0.017117409 -0.029521491 0.013525057
000050 28 67 24 bd 12 fc a4 3c 70 23 29 3d 68 46 74 bb
       -0.04013744 0.020139728 0.04129356 -0.003727341
000060 5a 82 32 bc b9 da 57 bd 10 41 f3 bc 7f 05 55 3d
       -0.010895336 -0.052698825 -0.02969411 0.052007195
000070 c0 5e 89 bb 74 44 8e bb f0 e4 dc 3b ff 3d 41 bd
       -0.0041922033 -0.0043416563 0.0067411587 -0.047178265
000080 41 ab ca 3b 48 09 5f bd 33 1c 02 bd 4f d7 29 3d
       0.006184966 -0.05445221 -0.031765174 0.0414651
000090 1c 6a 7c bc 54 fb 18 bd e4 08 0d 3c af 01 da 3c
       -0.015406158 -0.03734906 0.008608077 0.02661213
0000a0 c7 2b aa 3c 85 8f 8b bc f5 92 08 bd 0e b1 e6 bc
       0.020772828 -0.017036209 -0.033343274 -0.028160598
0000b0 eb 4d 27 bd e6 59 12 3d 53 fa 88 ba 15 14 13 bd
       -0.040845793 0.035730265 -0.0010450579 -0.035907824
0000c0 7c 95 44 bd 6f 03 70 bd b8 9c 14 bd 78 94 4e bc
       -0.047994122 -0.058597025 -0.03628227 -0.01260864
0000d0 6d ef b5 bb c6 e2 e0 3c 25 47 23 3b cc c6 4d bc
       -0.0055522234 0.027451884 0.0024914232 -0.012559604
0000e0 e3 e1 30 3d a7 de e9 3c eb 63 28 bd 8d 27 65 3d
       0.043184172 0.028548552 -0.041110914 0.05594592
0000f0 9a f5 76 bc bd a2 2d bb e7 9a ae 3c 2e 73 d5 3c
       -0.015073204 -0.0026494705 0.021314098 0.026055899
000100 69 42 0e 3d 07 0a 1a bd 52 fd 10 bd 36 a0 19 ba
       0.034731302 -0.03760722 -0.035397835 -0.000586036
000110 3c 0a 6c bc 96 2d 45 bd a2 54 1d bd 60 9f ee 3a
       -0.014406737 -0.048139177 -0.03841079 0.0018205456
000120 86 56 42 bd b0 bd 35 bd d6 cb 3d 3d 85 e3 40 3d
       -0.047445796 -0.044370353 0.04633697 0.04709198
000130 2b 3f 20 3d 7f 69 49 bd 72 21 1f bd 92 cc 0b bd
       0.03912274 -0.049172875 -0.038850255 -0.03413064
000140 65 1c 6f 3c f4 7c fd bc d8 c0 66 bd 58 9e 17 bc
       0.014594172 -0.030943371 -0.056336254 -0.009254061
000150 13 3e d4 bc 6c fa 2a 3d 8e b0 cc 3c 49 3b 93 bc
       -0.025908506 0.041742727 0.024986532 -0.017972605
000160 75 7e 3f 3d 44 04 ea 3c 39 e9 b7 bc 2f e1 51 bd
       0.04675146 0.028566487 -0.022450076 -0.051240142
000170 40 09 4a bc 5c 4e 36 bb fb 7b b2 3c f2 d2 ab 3c
       -0.012331307 -0.0027817702 0.021787634 0.02097461
000180 b2 5b 84 bb 40 74 cc bc 4e 93 53 bd 6f c2 82 3c
       -0.0040392512 -0.024957776 -0.051654153 0.015961854
000190 ec d5 3a bd 35 6e d7 bb 04 fd d7 bb 42 67 90 3c
       -0.045614168 -0.006574417 -0.006591441 0.017627362
0001a0 f1 b9 5e 3c 1a c4 73 bc d9 55 c8 bc a8 ea 57 3d
       0.013594137 -0.014878297 -0.024454998 0.05271402
0001b0 b9 df 0e bd 99 90 59 3a d5 e7 43 ba ae 27 55 bd
       -0.034881327 0.000829944 -0.00074732053 -0.052039795
0001c0 1f fe d9 bc 2e ce 27 bd 2f 47 40 3d 25 f6 5e 3d
       -0.026610432 -0.040968113 0.046942886 0.05443396
0001d0 54 a9 bf 3c ff c2 d9 3b 70 0c 6a bc 66 8e 23 3d
       0.023396172 0.00664556 -0.014285192 0.039930724
0001e0 f2 18 47 bc 20 87 fe 3b b3 56 52 bc ad 97 3d bd
       -0.0121519435 0.007767573 -0.0128380535 -0.046287227
0001f0 ed 67 17 bc 24 35 16 bd d1 e3 d1 3b e0 c5 ca bb
       -0.009241086 -0.036671773 0.0064053317 -0.0061881393
000200 9c a7 62 bd 63 16 39 bc 34 1e cb 3b b3 0b 07 bc
       -0.055335626 -0.011296841 0.006198669 -0.008242535
000210 e1 9a 26 3d f8 c7 91 3b 43 42 19 3c a1 cd 40 3c
       0.040675048 0.004448887 0.009354177 0.011767776
000220 65 1b 53 bd 5b 19 25 3d 46 b2 27 bd c9 59 1a 3d
       -0.051539797 0.040307384 -0.0409415 0.037683282
000230 44 14 1e 3d 7e 9c 0e 3d 3c fa 15 3d 63 f3 06 3c
       0.038593546 0.03481721 0.036615595 0.008236739
000240 0a 9e 3b 3d b1 83 a5 3c eb 04 a6 3c 24 a6 28 bd
       0.045805015 0.020204397 0.020266017 -0.04117407
000250 b9 b5 e7 ba d8 c9 3e bd f7 d6 fe bb 94 d7 1a 3c
       -0.0017678059 -0.046579212 -0.0077770907 0.009450812
000260 8c 27 4f bd 33 28 c6 3b 3b d2 1c bd d5 b8 62 bc
       -0.050574824 0.0060472726 -0.03828643 -0.013838013
000270 cc 25 10 3b 07 08 8f bc 1d b5 ca 3c ee 8d d2 3c
       0.0021995185 -0.017459882 0.024744565 0.025702443
000280 17 68 51 3d 2b 81 1f 3d e2 b9 1b bd d2 70 ab 3c
       0.05112466 0.038941544 -0.03801907 0.02092782
000290 e9 07 1b 3b b7 34 58 bd 78 ed 3b bd 46 d9 5b bc
       0.0023655838 -0.052784648 -0.045880765 -0.013418501
0002a0 7f 1a b2 bc 05 95 0a 3d 8d e3 e1 3c 4a dc 0d 3d
       -0.02174115 0.033833522 0.027574325 0.034633912
0002b0 c1 f0 88 3c 63 e2 4c bd f8 27 4e bd 30 a0 a7 3b
       0.016716363 -0.050020587 -0.050331086 0.0051155314
0002c0 8a cc 28 bc 7d fc 8d bb 3b a2 e0 3c 6d d8 8d bc
       -0.010302672 -0.0043330775 0.027421108 -0.017315114
0002d0 68 5a f4 bc 3d 2c 08 3b 56 f9 3c bd 93 ef 03 3d
       -0.029828265 0.0020778321 -0.046136223 0.032210898
0002e0 2e 05 5b bd f8 0d 70 3a 30 23 ff bc 94 24 39 bd
       -0.053471737 0.0009157355 -0.031144708 -0.0452009
0002f0 a1 a6 8b bc a6 e9 96 bc 3a ac ff 3c 08 5e cd bc
       -0.017047228 -0.01842196 0.031210054 -0.025069252
000300 9a 61 37 3d c4 35 45 bc fc 9f 67 bd 12 e2 4e bc
       0.044770814 -0.0120367445 -0.056549057 -0.012627142
000310 8f ff e6 3c 1d 77 b8 3b db 67 02 3c e9 71 cf 3b
       0.028198032 0.005629434 0.007959331 0.006330718
000320 4e 4c 34 bd 52 88 1c bd 2b bd b1 3c 58 f7 1e 3d
       -0.044018082 -0.038215943 0.021696648 0.038810104
000330 56 00 00 bd 8e da dc 3b 56 67 0d 3d 07 d8 d5 3a
       -0.03125032 0.006739921 0.034522377 0.0016314992
000340 59 b5 e0 3c 2d 07 78 3b 1a 6e c5 bc 65 97 0f bd
       0.027430223 0.0037846074 -0.024100352 -0.03505649
000350 4a f1 8d 3b a8 86 e7 bc 2d ad 1d 3d 87 fc c9 bc
       0.0043317424 -0.028262451 0.03849523 -0.024656547
000360 9d 05 22 bd c6 06 9e 3c 74 2c 0f bd 74 d2 e4 3b
       -0.039556134 0.01929034 -0.034954503 0.006983096
000370 c9 d1 11 3c 43 55 20 3d e5 f0 05 bd a1 f3 16 bd
       0.008900114 0.039143812 -0.032700438 -0.036853436
000380 a9 9e 4e bd 86 cb ee bb fa 55 05 3d b4 47 62 3d
       -0.05044428 -0.0072874455 0.032552697 0.055244163
000390 fc b1 c7 bc 20 d1 9e bb 02 88 be 3c 1c 88 66 bd
       -0.024376862 -0.004846707 0.023258213 -0.056282148
0003a0 24 2a 55 3d d9 33 2a bd 30 61 f8 3c 7e 2e 65 bd
       0.05204214 -0.041553352 0.03031978 -0.05595254
0003b0 f3 b7 31 bb 1c 07 4d 3d 3e ed 10 bd 6c 63 63 bd
       -0.00271177 0.05005561 -0.0353825 -0.055514738
0003c0 d0 82 41 3d 03 04 31 3c 15 c1 f4 3b 47 9e 22 3d
       0.047243893 0.010804179 0.0074693062 0.039701726
0003d0 56 cd ba 3c 0f 9a 38 3d c9 11 d1 bc 0e 1e f9 bc
       0.02280299 0.045068797 -0.025521176 -0.030409839
0003e0 f4 d6 47 bd c1 8f cc bc 13 d9 52 bc f0 20 26 3d
       -0.04878898 -0.024970891 -0.012869137 0.040558755
0003f0 81 c8 f2 3b 8e 51 02 3c 8c 5a 10 3c 38 6b d6 bc
       0.007409156 0.007954014 0.008810651 -0.026174173

fc1.bias f4 [50]
000000 3b 34 4e bb 28 23 b8 bc 9e 2d 06 bd a6 45 81 bd
       -0.0031464237 -0.022477701 -0.032758348 -0.063121125
000010 56 0a 40 bb fc c3 96 3a c2 e6 a6 3c 3e 4d b9 3c
       -0.0029303036 0.00115025 0.020373706 0.02261984
000020 2f ec f5 bc d6 be 09 3c 59 21 22 bd fb 49 38 bc
       -0.030019848 0.008407315 -0.039582584 -0.011248107
000030 ba 0d 55 bc c0 c8 73 b9 08 97 d5 3c 2c 88 16 bd
       -0.013003761 -0.00023249071 0.026072994 -0.036750957
000040 d4 56 cd bc 3c d3 99 3c 2a aa 40 3c bb 0a 8b bb
       -0.025065817 0.018777482 0.01175932 -0.0042432225
000050 f5 d4 19 bd da b2 bc ba 31 2e 9d bc b1 64 6e 3d
       -0.037556607 -0.0014396564 -0.019187065 0.058201496
000060 30 71 58 3d 57 63 c0 3b 9b dd d3 3c 04 ce 25 bd
       0.05284232 0.005871217 0.025862506 -0.040479675
000070 3d 94 75 bd 95 1e 00 3d 84 a7 23 bd 51 97 b3 bb
       -0.059955824 0.031279165 -0.039954677 -0.005480685
000080 91 cb cf 3b 60 8b 1a bd cb 26 35 bd c1 df 55 3d
       0.0063414057 -0.037730575 -0.04422645 0.05221534
000090 59 ab 12 bd 25 a3 4c bd 70 3a 2f 3d d5 ad 5b bc
       -0.03580794 -0.049960274 0.04278034 -0.013408144
0000a0 38 f4 40 bd 9d 6a 57 bd a5 c2 29 3b 5e bb 08 3d
       -0.047107905 -0.05259191 0.002590337 0.033381812
0000b0 9f 77 1d 3c 02 a8 8d 3c b2 6e 04 bc 07 1e 09 bc
       0.009611039 0.017292026 -0.008083032 -0.0083689755
0000c0 9c fa 12 3b 80 a3 71 3d
       0.0022427207 0.058993816

fc2.weight f4 [10, 50]
000000 01 eb f8 bd b9 e8 56 3d 1d e8 ce bd 54 40 21 3d
       -0.121541984 0.052468035 -0.10102866 0.03936799
000010 a2 35 84 3d 73 6e 80 bd fc 4b e6 bd e5 90 e5 bc
       0.06455542 -0.062710665 -0.112449616 -0.028023193
000020 a9 4b ea bc f1 a2 b1 bd 50 6b 4a 3d fe 4d ec bd
       -0.02860053 -0.08673657 0.049418747 -0.11538313
000030 e4 41 08 3e 55 c0 69 be 0a 5f 8a bd 8f b6 3b 3b
       0.13306385 -0.22827275 -0.067564085 0.002864275
000040 ed c4 05 bd e1 55 dd bd 91 62 43 bd f0 6a 76 3d
       -0.032658506 -0.10807396 -0.047701422 0.060160577
000050 fc 2e f0 bd be df 36 bc aa e7 a5 3d 39 58 c8 bd
       -0.117277116 -0.011161743 0.08100827 -0.09782452
000060 58 19 92 bd 85 e6 25 bd 68 a9 56 3d c1 df db bd
       -0.0713374 -0.040503044 0.052407652 -0.10736037
000070 2e a3 2b 3d 29 ad e1 bd 10 96 ca bd d2 4f 0e 3e
       0.041903667 -0.11019356 -0.098919034 0.13897637
000080 66 f2 25 3d f1 03 a6 bc 94 f3 47 bd c9 ca 94 3d
       0.040514372 -0.020265551 -0.04881628 0.07265241
000090 a8 f5 bb 39 b3 ff 00 3e af 9a 03 3e 3b 9e 97 3d
       0.00035850448 0.12597542 0.12851976 0.07403227
0000a0 c5 c3 bf bd 40 7d e7 3c df 94 b4 bd 05 2a b5 bd
       -0.09363512 0.028257966 -0.088174574 -0.08845905
0000b0 b8 cb df 3b 58 45 85 bd 16 1d 1e be d6 b4 c1 3a
       0.006829705 -0.06507367 -0.15440783 0.0014778625
0000c0 25 9a c9 3d 72 17 2d 3e 8b 84 08 3d 47 cd 40 3d
       0.09843854 0.16903475 0.033329528 0.047070768
0000d0 0f 21 32 bd ff 1c 99 bd 0f 8a c7 3d e2 b0 cd bd
       -0.04348856 -0.07476234 0.097431295 -0.10043503
0000e0 b4 ad 07 be d2 7f b8 bc 2a 7f 7e bb 64 3b 91 3d
       -0.13249856 -0.022521887 -0.003883312 0.07091406
0000f0 48 28 2e be 7a d3 0a be 8d d7 1d be c0 4a 8f bd
       -0.17007554 -0.13557234 -0.15414257 -0.06996679
000100 3a 65 3d 3d 98 f5 da 3d 54 54 0c be 13 7a 5e bb
       0.046239115 0.106913745 -0.13704044 -0.0033947274
000110 fa ed b0 3d 7c c3 5f 3c 1f 0e a1 3d 28 12 0b bd
       0.086391404 0.013657447 0.078640215 -0.033952862
000120 bd c6 19 be e0 42 fe bc aa a1 1c bd a2 e7 cb bd
       -0.15017219 -0.031037748 -0.038240112 -0.0995629
000130 e7 8b f1 3d bb c6 f1 bb 5c 59 9d bd 2e 83 c3 3d
       0.117942624 -0.007378427 -0.076830596 0.09546505
000140 63 fd e6 3c d1 d5 a6 3d 9c 2a bb bd 63 f1 73 bc
       0.028196996 0.08146251 -0.091389865 -0.014889094
000150 9f 91 62 bd fb dd 29 3d 7b 92 e9 bd 32 b5 52 3d
       -0.055314656 0.041471463 -0.11404892 0.051442333
000160 65 eb e9 bd 17 32 50 3b 6c 8d c3 bd 68 bd 4b bd
       -0.11421851 0.0031768137 -0.095484585 -0.04974118
000170 b2 ef 15 be cd 1f b1 bc c1 a4 1e be ca f2 09 bd
       -0.14642218 -0.02162161 -0.15492536 -0.033678807
000180 e0 d2 8e 3c 66 56 bd 3d fa 22 88 bd e2 ac cc bc
       0.017434537 0.09244995 -0.06647296 -0.02498478
000190 f2 52 bf 3d ad 8f ed bd 9c fa b9 bd 23 bc be bb
       0.093419924 -0.115996696 -0.09081003 -0.0058207675
0001a0 6f bd 01 3e 20 52 99 bd 0a e4 19 3d 91 66 57 3d
       0.1266992 -0.07486367 0.03757099 0.05258805
0001b0 93 b9 a6 3d 43 13 d6 3d 0d eb 29 3d ff fd da bc
       0.08140864 0.10452893 0.041483928 -0.026732443
0001c0 ff 49 af 3d a5 65 6b bd 17 3e e6 bd 1f ff 23 bd
       0.085590355 -0.057469983 -0.112423114 -0.040038224
0001d0 2d fe f5 3d f9 7b aa 3d 4b c2 14 be 37 01 52 3d
       0.12011371 0.08324427 -0.14527242 0.05127069
0001e0 99 1d e4 3b 03 31 b5 bd a3 43 b8 3d 71 a1 1e be
       0.006961536 -0.08847239 0.08997276 -0.15491273
0001f0 e6 7a 27 3c d1 d9 d9 bb f0 5b ce 3d 26 56 cc bd
       0.010222172 -0.00664828 0.100761294 -0.09977369
000200 44 37 a7 bd 7c be d9 3c b9 da 2c 3d b5 a4 b9 3d
       -0.08164838 0.026580088 0.042200778 0.090646185
000210 3b fb 34 bd f0 e4 68 bd bb 04 cb 3c 8d a2 b8 3d
       -0.044184905 -0.056858957 0.02478253 0.09015379
000220 5d 77 da bd 2f 8a 99 3d c2 7b 7a 3c 6e 6b 9e bc
       -0.10667298 0.074970596 0.015288295 -0.019338336
000230 35 60 e8 bd eb 19 79 bd 58 c6 cf 3b 9c 62 b4 3d
       -0.11346475 -0.060815733 0.006340783 0.08807871
000240 da b2 15 3c 20 01 be bd e1 4c e9 3d 11 3d a7 3c
       0.00913688 -0.09277558 0.113916166 0.02041486
000250 ff 07 0c be 09 85 12 bd 38 13 a5 3d 0c 5b 99 bd
       -0.13674925 -0.035771403 0.08060306 -0.07488069
000260 b9 28 c1 3c 93 35 c0 3d c4 cc 99 bd 49 77 b0 3d
       0.023578988 0.093852185 -0.07509759 0.08616502
000270 50 46 68 3d c8 e8 b3 3b 65 0a 0a 3e 92 e4 5a bd
       0.05670768 0.005490396 0.13480528 -0.053440638
000280 63 84 8b bd 37 f3 ab 3d fb 3b 95 bd 9b 17 eb bc
       -0.0681236 0.08395999 -0.07286831 -0.02869778
000290 ef d0 bf bd e8 8f e6 bd 4f d5 f4 ba 55 af c7 3c
       -0.09366023 -0.11257917 -0.0018679294 0.024375597
0002a0 2b 00 df bb a2 31 bf 3d 8b 7f 02 3d 1f e9 82 3d
       -0.00680544 0.093356386 0.031859916 0.063921206
0002b0 7b f9 b3 bd e4 e7 83 bb 7d bb cc 3d dc 75 b6 bd
       -0.08787819 -0.0040254463 0.09996698 -0.08909199
0002c0 7d fb 2d 3e 56 c3 7a bd d5 1e 43 3d 7b da aa 3d
       0.16990466 -0.061221443 0.047636826 0.08342453
0002d0 36 ed 97 bd 71 cc c7 3d 2e 12 0b be 20 da 45 bd
       -0.07418291 0.09755791 -0.13581154 -0.048303723
0002e0 84 cc ba 3d 86 4e 89 bd 89 38 4a be ad fa e0 3d
       0.091210395 -0.0670443 -0.19748129 0.109853126
0002f0 7e 43 ba 3c c6 d0 fd bd 65 9e 90 bd 2f 60 0c bd
       0.02273726 -0.12393336 -0.07061461 -0.034271415
000300 1c 13 86 3d 0d d4 02 bd 5b b2 01 3e bc a0 bb bd
       0.065466136 -0.03194051 0.12665693 -0.09161517
000310 77 75 c2 3d fe 44 48 3e f0 27 01 be b5 ed 3e 3c
       0.09495061 0.19557568 -0.12612891 0.011653353
000320 96 49 1e 3d 20 66 b1 bd 24 0c 58 3d ae 5d 21 3d
       0.038644396 -0.08662057 0.052745953 0.03939598
000330 fd c8 b9 3a 07 50 6c bc 43 68 e3 bd 27 8d e7 bd
       0.0014174279 -0.014423377 -0.11103871 -0.113062195
000340 92 44 69 3d d0 68 f3 bd 34 62 94 3d e4 66 6d bb
       0.05695016 -0.11885226 0.07245293 -0.0036224658
000350 24 36 f8 3c dd 58 6d 3d 88 2f b5 3d 74 8c dd 3d
       0.030299254 0.057946075 0.088469565 0.10817805
000360 0d 77 b2 3c 72 aa c2 3d e9 fa 83 bc 40 50 8d bd
       0.021785283 0.09505166 -0.016110854 -0.06900072
000370 b4 26 90 bd 6a f2 24 3c e1 ca a9 3d 44 11 34 bb
       -0.07038632 0.010067562 0.08290649 -0.0027476111
000380 7b 80 c8 3d 4e c3 56 3d e5 d7 bd 3c 02 ab 17 be
       0.09790131 0.05243235 0.023174236 -0.14811328
000390 91 8f 92 3d 63 fd bb bd d9 1c e2 3d 05 a0 ba bc
       0.07156289 -0.09179189 0.110406585 -0.022781381
0003a0 ad 10 88 bb fd 23 c4 3d fa 5d 01 3e 9b 0d 60 bd
       -0.0041523785 0.09577177 0.12633505 -0.054700475
0003b0 aa 41 11 3c fa 52 a9 3d 6a b4 55 3b d6 93 18 be
       0.008865753 0.0826778 0.0032608756 -0.14900145
0003c0 6e ad 76 3d 72 59 99 bd ac bd 75 3d 6b d2 27 3e
       0.06022399 -0.074877635 0.05999534 0.16388862
0003d0 fc 06 b0 bd ef a3 b7 bd 69 fd 7c bc e4 db 26 3d
       -0.08595082 -0.08966815 -0.015441277 0.040737048
0003e0 bc 9d 18 be 28 7f 78 3d 2e d4 7e 3d 24 cb 84 bd
       -0.14903921 0.06066814 0.06221407 -0.064840585
0003f0 e3 51 75 bc 39 bb 09 3e 20 09 6c bd 62 c4 01 be
       -0.014973137 0.13450326 -0.05762589 -0.1267257

fc2.bias f4 [10]
000000 0d 80 99 bd a0 51 ce 3d b8 cf 7f bd 42 a6 30 bd
       -0.07495127 0.100741625 -0.062453955 -0.043127306
000010 90 a4 a1 3b 44 d6 22 bd 56 29 4a bc 37 93 38 bd
       0.0049329475 -0.03975512 -0.012338957 -0.04506227
000020 0d ba 1e bd d0 e1 41 3c
       -0.03875165 0.011833623
