MNIST/Models/Server/Global models/Global model_8_5_2021_10_41_16.pth (torch, 90095 bytes, 8 tensors)

conv1.weight f4 [10, 1, 5, 5]
000000 ec 76 0f be 33 29 90 3d 85 d9 b3 3d ef 17 bd bc
       -0.14010209 0.07039108 0.08781723 -0.023082701
000010 73 f4 b9 bd f2 a9 09 3e b6 48 8a bd 20 db 52 bd
       -0.09079828 0.13443735 -0.0675215 -0.051478505
000020 5b ce 13 3d e4 1d 7d 3c 41 fd 7e 3d 0c 7b d9 bd
       0.036085468 0.015449021 0.06225324 -0.106191725
000030 69 1f a9 bd a4 53 35 3d 8b d4 9e bd f3 a5 ce bd
       -0.08257944 0.04426922 -0.07755383 -0.10090246
000040 ae 60 29 3e 6a bd 11 3c 31 b3 00 bc 9c bf f1 3d
       0.16540787 0.0088952575 -0.007855223 0.11804125
000050 df 80 01 be 48 3d 30 be 16 b6 c8 3d ea db dc bd
       -0.12646817 -0.17210877 0.09800355 -0.10784133
000060 9b 97 1b be 59 ae 5c be a1 41 04 be 05 d2 8e 3d
       -0.15194552 -0.21550883 -0.1291566 0.06973652
000070 18 e8 2c be e2 9b df 3d 2b 20 09 bd 8c 15 9a 3c
       -0.16885412 0.10918404 -0.033477943 0.018809102
000080 d5 41 25 bd 21 c8 4b bd 4e b2 98 3c 86 f8 52 be
       -0.040345985 -0.049751405 0.01863971 -0.20602617
000090 cd 19 1c 3d cf 7d 98 3d 2f dd 0d bd eb 8c a8 3d
       0.038110543 0.07445871 -0.034634765 0.08230003
0000a0 c0 06 1a bd 51 2f 91 3d a3 39 28 be 2e d3 5b bd
       -0.037604094 0.07089103 -0.16428237 -0.053668194
0000b0 aa 26 36 3e 66 d7 09 3e cc dd 4c 3e f4 fe 4d 3e
       0.17788187 0.13461074 0.20006484 0.20116788
0000c0 8c 57 39 3e b4 63 20 3e 2b fe bc bd 6a ae e3 3d
       0.18099803 0.15663034 -0.09228166 0.11117251
0000d0 a4 11 f1 3d c9 fb 60 3e 88 e9 38 3e 5f c3 ee bb
       0.11770943 0.21971048 0.18057835 -0.0072864736
0000e0 fd 40 9b 3d 91 1b e1 bd 62 7c 1c be 6b 71 8f 3b
       0.07580755 -0.10991586 -0.15281823 0.004377534
0000f0 4b 6b 8d 3d 2b 45 08 3e 6f d6 69 bc 0e 81 d6 3d
       0.0690523 0.13307635 -0.014272316 0.10473834
000100 e8 c2 3b be 41 e4 ba bd 66 62 09 be 3c 5c 40 be
       -0.1833607 -0.09125567 -0.13416442 -0.18785185
000110 99 30 0e be b4 df 06 be 84 58 49 be a4 ab 2d be
       -0.13885726 -0.13171273 -0.19662672 -0.16960007
000120 a6 1e 81 bd fb bd 5c bd de 69 1b 3e 68 65 0d 3d
       -0.06304674 -0.053892117 0.15177104 0.034520537
000130 d6 98 d4 3d fb d7 a9 3c b4 7d ea 3d 5e 6b 39 3e
       0.10380714 0.02073287 0.11449757 0.18107364
000140 f1 a5 3e be 77 23 2d be e5 6a 2a bd c5 2a 2f 3e
       -0.18617989 -0.1690806 -0.04160585 0.17106159
000150 a2 d5 00 be 0f 06 5f bd 90 36 1c 3e 8a cf bc 3d
       -0.12581494 -0.054449137 0.15255189 0.092192724
000160 e7 2a 9e 3d 18 fe 9f bb bb 25 87 3d 32 37 8d bc
       0.07723027 -0.0048825853 0.065989934 -0.017238233
000170 66 98 36 3e 6d 5c 26 be 66 01 57 bd 40 43 96 3c
       0.17831573 -0.16246195 -0.052491568 0.018342614
000180 17 aa 57 3d 28 30 82 bc 00 b6 eb 3d d5 11 51 be
       0.052652445 -0.015892103 0.11509323 -0.20416959
000190 37 97 0b 3c 7b 11 26 be 8b af ce 3d e4 c9 52 3e
       0.008519939 -0.16217606 0.10092076 0.20584828
0001a0 69 39 fa 3d 0a c0 ee bd e4 ab 45 be fe 8a 89 bd
       0.12217981 -0.11657722 -0.19303852 -0.06715964
0001b0 a9 a8 84 bd 07 2f 52 3d af 57 5b be ed de 2c be
       -0.06477482 0.05131438 -0.21420167 -0.16881914
0001c0 67 f8 d6 bc 13 ad b0 3d dd a5 14 3e f5 ca 9a 3d
       -0.026241494 0.08626761 0.14516397 0.07558242
0001d0 3c d6 0b 3e 34 a4 f8 bc 1a 20 de bd d3 2a da 3d
       0.13655943 -0.030351736 -0.10845967 0.10652699
0001e0 89 98 1a be 06 e9 7e be 3f 96 bb 3d 15 73 23 3e
       -0.1509725 -0.24893579 0.091595165 0.15961869
0001f0 ad 73 59 3e 04 d2 d7 bd 3b c9 0e be 4d 9a 06 3e
       0.21235533 -0.10538104 -0.13943951 0.13144799
000200 f3 a2 c8 bd 73 9c 5c 3e 00 a3 95 bd a0 e3 63 3e
       -0.09796705 0.21544056 -0.073064804 0.22254801
000210 9d 5a 26 3e 0c ef 63 3e 56 9c bd bd cb bc 03 3e
       0.16245504 0.22259158 -0.09258334 0.12864988
000220 f6 b0 09 be 0e 66 2b 3e eb 01 ca 3c 3e 11 11 3c
       -0.13446411 0.1673815 0.024659118 0.0088542085
000230 c3 f6 ab 3c 23 47 e9 bd fc 28 1b be e2 c7 4b bd
       0.020991689 -0.113905214 -0.15152353 -0.04975117
000240 29 cf 3b 3e 5e d0 58 bc 66 5d 23 be dd bc f9 bd
       0.18340744 -0.013233272 -0.15953597 -0.12194226
000250 59 00 44 be dd b2 1f bd 6a e5 b8 3c 17 10 d6 bd
       -0.19140758 -0.038988937 0.02257033 -0.10452288
000260 ba 90 26 3e fa 75 03 3c 8a b3 24 be 1e 76 43 be
       0.16266146 0.008023733 -0.16084114 -0.19088027
000270 fd c9 43 be 1a f6 d2 bd b5 19 38 3e c2 ce c8 3d
       -0.19120021 -0.103008464 0.17978556 0.09805061
000280 3f e3 35 3e 47 fe 69 3e b7 b9 c1 bc 4d 5e a4 3b
       0.17762469 0.22850905 -0.023648126 0.0050161243
000290 cd 16 49 3e d7 1c 20 3e 71 1d d8 3d d9 54 ff 3d
       0.19637604 0.15636002 0.105524905 0.12467355
0002a0 f9 40 cf 3d cb f5 fc bd 00 ec cb bc 74 6e 11 be
       0.101198144 -0.12351569 -0.024892807 -0.14202291
0002b0 6a f9 d9 bb d1 6f cb 3d 8e 51 d1 bd 93 2c 00 3e
       -0.006652047 0.09933437 -0.102206334 0.12517004
0002c0 26 38 0e be 3b 4e 83 bd 28 5c 80 bd e7 65 0a be
       -0.13888606 -0.06411406 -0.062675774 -0.13515435
0002d0 9c dc 0c be da 11 9b 3d 0e b5 3d bc d1 a8 4b be
       -0.13756031 0.07571764 -0.011578811 -0.19888617
0002e0 b3 b2 ca bd 60 3a 4d 3e 42 e2 1a 3e 09 ee cb bd
       -0.098973654 0.200418 0.15125373 -0.09957511
0002f0 03 8c 26 bc 20 11 20 3e cc 58 2c bd 30 53 38 3b
       -0.010165217 0.15631533 -0.04207687 0.0028125755
000300 9c fa 2e 3e 1a 06 4e 3e 41 8d 17 be 6d 34 ed 3d
       0.17087787 0.20119515 -0.14799978 0.11582265
000310 12 98 0c 3e c5 7a 32 3e 17 13 32 be 13 bb 04 be
       0.13729885 0.17429645 -0.17390095 -0.12961988
000320 a7 4a 05 3d 62 42 f3 3d e1 66 c9 3c f7 7d 10 3d
       0.032541897 0.11877896 0.02458519 0.03527638
000330 10 82 3d 3d 38 03 35 be 79 6e ac 3d d1 aa 1e 3e
       0.046266615 -0.17677009 0.084195085 0.15494849
000340 bb eb 8d bd c2 4f ce bd 1e 5a 8f 3d 2a 2d 4e be
       -0.06929728 -0.10073806 0.0699961 -0.20134416
000350 cd 01 f7 bc 13 2a 09 3e 44 ca 59 3d 20 f4 1c be
       -0.030152226 0.13394956 0.05317141 -0.15327501
000360 89 10 ee bd 15 8d 32 be d6 e7 d4 bd 53 b6 99 3d
       -0.116242476 -0.17436631 -0.10395782 0.07505479
000370 5c f9 d9 bd 4b 16 05 3e 41 e0 b5 bd 4c 54 c8 bd
       -0.10643265 0.12996785 -0.08880664 -0.09781703
000380 39 c5 8a 3d 48 61 25 3d 42 32 43 3e d7 65 a7 bd
       0.067758985 0.040375978 0.1906214 -0.08173721
000390 34 6b 2f 3e 3b a2 cd 3d 87 78 56 be ce e7 3d be
       0.17130738 0.10040709 -0.20944415 -0.18545458
0003a0 ab d7 09 3e db ae d9 3d 0c 7c 68 3e f2 64 50 bb
       0.13461177 0.10629054 0.2270357 -0.003179845
0003b0 da e0 2a be b5 bc 0b be 58 45 91 bc 31 11 20 be
       -0.16687337 -0.13646205 -0.017733261 -0.15631558
0003c0 c7 2a 15 3e 5c 3a b9 bd 9e 60 9f bd 58 9e c8 bd
       0.145671 -0.09044334 -0.077821 -0.09795827
0003d0 3b 06 2e be b5 93 fd 3d 04 5e c5 3d fa 37 fe 3c
       -0.16994564 0.123816885 0.09637073 0.031032551
0003e0 a2 0e c8 bd a6 c1 aa bd
       -0.09768416 -0.08337717

conv1.bias f4 [10]
000000 47 bf dc bd 49 e1 0b 3e f0 53 5d 3d c4 df 47 be
       -0.10778671 0.13660158 0.054035127 -0.19518954
000010 16 47 5b ba c3 02 03 3e f3 20 b2 bd e2 06 11 be
       -0.00083647796 0.12794022 -0.08697691 -0.14162782
000020 cc 80 2b 3e b1 50 de 3d
       0.16748351 0.108552344

conv2.weight f4 [20, 10, 5, 5]
000000 14 2f 54 bd 99 a4 c6 bb 9c 04 14 3d 3f 5d 7b bd
       -0.05180271 -0.006062102 0.03613721 -0.061368223
000010 2d ad 80 3d 81 fb 8a bc 01 37 0c bd 57 55 7b 3d
       0.06283031 -0.01696563 -0.034232143 0.061360683
000020 e0 8e 16 3d a1 d2 59 3d ad 79 75 bd b8 42 21 bd
       0.03675735 0.053179387 -0.059930492 -0.03937027
000030 db 4b e5 3c 76 62 d4 bc 40 4f 79 3d ea 56 2e 3d
       0.027990272 -0.025925856 0.060866594 0.042563356
000040 f0 22 76 bc ba 39 5b 3d be f3 f8 3a 29 36 2e 3d
       -0.015022978 0.05352185 0.0018993539 0.04253212
000050 be 48 69 3d 27 e7 35 3b b8 ba 85 bd f3 8f 44 bd
       0.056954138 0.0027756186 -0.065297544 -0.047988843
000060 d0 aa 80 bd 60 39 e6 bb a2 5c 69 bd b3 28 99 3a
       -0.0628258 -0.0070258826 -0.056973107 0.0011685103
000070 7f ea 90 bd e3 df 26 bc 2c 41 ad bd 38 bd 3a 39
       -0.070759766 -0.010185215 -0.08459696 0.00017808832
000080 93 9a 30 bc 42 28 f0 3c 7e d0 33 bd 0b dc 4a bc
       -0.010779041 0.029316071 -0.043900006 -0.012381564
000090 53 da 4d bd a1 45 95 bd ed 9b 05 3d 75 a8 37 bd
       -0.05025704 -0.07288671 0.032619406 -0.044838388
0000a0 5f 41 71 3d dc b4 87 bc 04 42 6b 3d 38 b4 26 bd
       0.058900233 -0.016565733 0.057436004 -0.040699214
0000b0 5f 57 2f bd c4 f8 6a 3d 82 7f a3 3d 6d 1a 1b bd
       -0.042807933 0.057366148 0.079833046 -0.037867
0000c0 c3 d8 5d 3d cc 32 43 3d eb 35 0e bd 5d 2f 44 3d
       0.0541618 0.047655866 -0.03471939 0.04789673
0000d0 93 76 93 3d d8 76 5b 3d 36 ad 26 3c 57 0b 57 3d
       0.072003506 0.053580135 0.010173133 0.05250105
0000e0 10 15 b9 bc cd 7c 60 bc b6 b4 d0 3c 75 5a 9b b9
       -0.022593051 -0.01370163 0.025476795 -0.000296313
0000f0 34 e0 ca bc 33 7f 57 bc a4 8d 56 bc 45 c7 32 3d
       -0.024765112 -0.013152885 -0.013095293 0.04364707
000100 3d ce 49 3d 6f 1c 4c bd d5 de 1c 3d 6f 3d 5b bd
       0.04926895 -0.049831804 0.038298447 -0.053525385
000110 c5 6b 1b bb b3 d5 8a bd 87 80 89 bc 08 76 e6 bc
       -0.0023715359 -0.06779041 -0.01678492 -0.028132454
000120 4c ec 4f bd 10 c8 46 bd 4c ed ad bc 94 a2 a9 bb
       -0.05076246 -0.04853064 -0.021231316 -0.0051768515
000130 4d 35 42 bd 93 98 00 3d 2c ac b5 3c 92 ea 8a 3c
       -0.047414113 0.031395506 0.022176825 0.016957555
000140 bf a1 38 bd 0b 44 0c 3d 8b 5a 89 3c c9 bb fc bc
       -0.045076128 0.03424458 0.016766807 -0.030851262
000150 84 af 27 3d 0e ef 64 bd 26 3e aa bd 82 e2 12 bc
       0.04093887 -0.055892043 -0.08312635 -0.0089651365
000160 69 8e 3e 3c dc e8 c2 bc e3 0b b8 3b f9 b1 64 3d
       0.011630633 -0.023792677 0.0056166514 0.05583379
000170 dc e1 df 3a ad fc 05 3b af 0c 8b bd 81 7e 9d 3a
       0.0017080861 0.0020444796 -0.067895286 0.001201585
000180 01 20 ac bc 33 84 99 3b 70 93 90 ba b8 a6 f9 bc
       -0.021011354 0.004684949 -0.0011030268 -0.030475006
000190 ef 3e b0 3c 40 13 8c 3d 2e b1 66 bc b0 da 0b 3d
       0.021514384 0.06839609 -0.014080329 0.034144104
0001a0 31 4b 5d bd 05 b7 69 bd 1a da 61 3d 7a a9 81 3c
       -0.054026786 -0.057059307 0.05513964 0.015827883
0001b0 14 7d 9b 3c a3 d0 31 3d df 2f 32 bd c4 3c c5 bb
       0.01898054 0.043411862 -0.043502685 -0.0060192067
0001c0 cc 90 50 bd 15 63 ef bb 63 95 9e bc 92 1f 89 3c
       -0.05091934 -0.0073055127 -0.019358343 0.016738687
0001d0 da fe 97 3d a2 c1 4c bd 94 41 d5 3c d3 e0 af bc
       0.07421656 -0.04998935 0.026032247 -0.02146951
0001e0 02 db ed 3b c8 ab 95 3d 0b c1 a8 bd 87 63 8e bd
       0.007258774 0.07308155 -0.08239945 -0.06952577
0001f0 9c 82 68 bd 39 6c 4e 3c bd e1 18 3d 57 50 b0 3c
       -0.056765184 0.0125990445 0.037324656 0.021522684
000200 ee 71 08 3d bc e8 8a 3c 4f 9a d3 3c 4e 58 8a bd
       0.033311777 0.01695668 0.025830416 -0.06755124
000210 28 f3 f2 bc 6a 11 33 bc 2b 9b 29 3c 7d 97 c5 bc
       -0.029656962 -0.010929445 0.010351936 -0.024120087
000220 47 7c 83 bd a1 d5 34 bd da bd ba bc e0 1a a3 3c
       -0.064201884 -0.044149045 -0.022795606 0.019910276
000230 19 33 d1 3c 4b 3c e5 3c 51 a8 fd 3b 2d d4 4f bd
       0.02553706 0.027982851 0.007741012 -0.050739456
000240 48 19 4f 3a be a9 8f bd 90 36 28 3d 21 9a 8f bd
       0.00079001905 -0.07014798 0.04106766 -0.0701182
000250 9e 9a a6 bc be 0d 6d 3c b0 04 8c bd 33 70 43 bd
       -0.0203374 0.014468608 -0.068368316 -0.047714423
000260 96 9c 03 3c b1 2c 61 3d 9b a2 2f bb 25 6a 81 3c
       0.008032938 0.05497426 -0.0026799801 0.015797684
000270 16 fb 8f bc 98 8c 46 bd 45 29 db 3c fd 33 79 bd
       -0.017575782 -0.048473924 0.026753077 -0.060840596
000280 0c 87 59 bd 07 44 87 3c 5f ba 93 bc c9 8c 0c bd
       -0.053107306 0.01651193 -0.018033205 -0.03431395
000290 2e de a9 bc 63 df 4e bd 4c ac 42 3d 87 58 25 bc
       -0.020735826 -0.050506007 0.047527596 -0.010091907
0002a0 14 d6 ac 3b f9 0d 15 bd 63 47 78 3d a2 18 c4 bc
       0.0052745435 -0.03639028 0.060614955 -0.023937527
0002b0 c3 04 b9 3c 1a ca 80 3d 89 f2 00 3d 55 2e 95 bd
       0.022585278 0.06288548 0.0314813 -0.07284228
0002c0 79 64 95 bb c9 7d 85 bc 1c b8 3c bd 6b c6 2d bd
       -0.0045590964 -0.01629533 -0.046074018 -0.042425554
0002d0 e8 13 73 bd db 0d bf bb 5c 33 27 bd cb 9f a4 bc
       -0.059345156 -0.005830509 -0.040820464 -0.020095726
0002e0 b7 53 d3 bb 12 40 26 3d a7 c4 8c bd 01 98 01 bd
       -0.0064491886 0.040588446 -0.06873446 -0.031639103
0002f0 ef e4 53 bd cc 49 05 bd 23 67 cf 3c 85 c9 b5 3c
       -0.051732 -0.03254108 0.025317734 0.022190819
000300 b5 a5 d5 bc 1b 8f 07 3d 67 41 0c 3d b4 e5 3f 3d
       -0.026079992 0.03309546 0.03424206 0.04684992
000310 01 3e 89 bc bd e5 18 bc 38 bb 04 3d df 41 f3 3b
       -0.016753199 -0.009332118 0.03240511 0.007423624
000320 8a d5 31 3c d5 95 33 3d 29 11 84 3d 90 f5 8b 3c
       0.010854134 0.043844063 0.064485855 0.017084867
000330 14 81 26 3d 5f 88 51 bd 97 0d 9a bb 86 91 07 3d
       0.040650442 -0.051155444 -0.004701327 0.033097766
000340 a8 14 2f bd 82 b2 35 bd 29 9a 74 3d 37 51 db 3c
       -0.04274431 -0.04435969 0.05971733 0.026772125
000350 bb a2 74 bd 84 94 00 3d f8 36 22 3d 71 8c 23 3d
       -0.059725504 0.031391636 0.039603204 0.039928857
000360 66 b7 4c bd b0 a7 98 bd 2a 1e 2e bd d3 7f 92 ba
       -0.04997959 -0.07453859 -0.042509235 -0.0011177011
000370 dd b3 68 3b 0e d7 9d bd f5 c3 a4 3c 55 bc 4f 3c
       0.0035507597 -0.07707034 0.02011297 0.012679179
000380 cb 59 89 bd a7 23 69 bd 61 35 3f 3d ed 01 93 3d
       -0.0670658 -0.056918766 0.046681765 0.07178102
000390 8e e1 89 3c 51 eb 5c bb 0c 96 3a 3d 1c d1 d1 bc
       0.016831186 -0.0033709595 0.045553252 -0.025612406
0003a0 e7 95 25 3d fe fc da 3c 1f 5b 30 3d e1 26 05 bd
       0.04042616 0.026731964 0.04305565 -0.03250778
0003b0 b4 6f 73 bc 64 39 32 3d db f4 53 3b 66 9b 6f bd
       -0.014858175 0.043511763 0.003234199 -0.05849781
0003c0 a8 8b 6b bd c7 5c af bd 8f e7 12 3d bb fe 25 3d
       -0.057506233 -0.08562618 0.035865363 0.040526133
0003d0 e3 8c eb bb 9e 7a 33 bc 3b 2a 03 bd 14 85 d8 3c
       -0.007188426 -0.010954527 -0.032022696 0.026430644
0003e0 1f 86 38 3d 49 6a a4 bb 23 a0 69 3c c5 06 27 bd
       0.045049783 -0.005017553 0.014259371 -0.04077794
0003f0 45 70 6d bb 9c dc a8 3c f5 56 46 bc 98 eb 2b bd
       -0.0036230248 0.020613007 -0.012105693 -0.041972727

conv2.bias f4 [20]
000000 66 90 83 bd d5 9b 57 bd 51 3c 5a bd e0 c4 0d bd
       -0.06424026 -0.052638847 -0.05328018 -0.034611583
000010 dd 62 26 39 bb 3d f5 3c c0 22 e5 bc d6 33 4c bc
       0.00015867823 0.029936662 -0.027970672 -0.0124635305
000020 99 0e 13 3d 77 8b 03 3d 36 77 01 3d 26 0d 64 3b
       0.035902593 0.032115426 0.03160783 0.0034797876
000030 86 11 e4 3b 62 23 35 3d a0 67 37 3d 4a 7c 37 bd
       0.006960097 0.044223197 0.04477656 -0.044796266
000040 5f 55 06 3c ae 49 2a 3d 2d 15 f5 3c dc 37 fc bc
       0.008199065 0.041574173 0.029917324 -0.030788355

fc1.weight f4 [50, 320]
000000 71 ea dc bb 64 11 20 3d a8 33 89 3c 42 9b 44 bd
       -0.006741815 0.039079085 0.016748264 -0.047999628
000010 a3 33 f1 bb 4f 29 08 bb b5 6f 33 bd 81 68 c9 3a
       -0.007360892 -0.0020776575 -0.043807704 0.0015366228
000020 e4 48 39 3c 65 0f 0e bc db 2d 04 bd 4e da 1c 3d
       0.011308882 -0.0086706625 -0.032270294 0.03829413
000030 36 6a 05 bd f8 00 24 bd 81 7c f8 bc 24 ff d6 3b
       -0.032571994 -0.040039986 -0.030332806 0.006561177
000040 ee eb fa 3c 8e 1a 8e bc 0d 65 f5 bc 52 7f 51 3c
       0.030630078 -0.017346647 -0.029955411 0.012786703
000050 4e 02 27 bd 36 d3 a5 3c 01 ac 29 3d 02 aa 92 bb
       -0.040773682 0.020242315 0.0414238 -0.004475833
000060 a9 c7 3c bc 79 8b 56 bd 54 62 f2 bc 63 0f 52 3d
       -0.011522212 -0.052379105 -0.029587902 0.051284205
000070 18 62 a1 bb 0c d6 8c bb 62 46 dc 3b c9 c3 42 bd
       -0.0049250238 -0.0042979773 0.0067222575 -0.047549997
000080 83 fe c7 3b 9b d0 5f bd 74 b1 02 bd 33 c8 29 3d
       0.006103338 -0.0546423 -0.031907514 0.04145069
000090 e7 a9 7d bc 3e 26 19 bd ab d6 0a 3c 07 60 d9 3c
       -0.015482402 -0.037389986 0.008474032 0.026535047
0000a0 89 eb a9 3c 1f 6f 8c bc 00 d6 08 bd 07 c3 e6 bc
       0.020742195 -0.01714283 -0.03340721 -0.028169168
0000b0 73 7a 27 bd 1d a7 11 3d a6 3e b1 ba 0c 6a 13 bd
       -0.04088826 0.035559762 -0.0013522699 -0.035989806
0000c0 0e 45 44 bd 4c 04 70 bd 28 81 14 bd e7 6e 4f bc
       -0.04791742 -0.058597848 -0.036255985 -0.0126607185
0000d0 13 78 b1 bb 20 31 e1 3c 60 7d 11 3b 4c ec 4d bc
       -0.0054159253 0.027489245 0.0022199973 -0.012568545
0000e0 ca 76 31 3d 7a 7f e8 3c 14 e7 28 bd 55 4f 65 3d
       0.043326177 0.028381098 -0.041236 0.05598386
0000f0 da 7d 73 bc 82 1f 33 bb 99 93 ab 3c 57 5f d4 3c
       -0.014861548 -0.0027332013 0.020944403 0.025924368
000100 ef 8a 0c 3d 46 e8 1b bd 0c c0 12 bd 5f 59 54 ba
       0.034312185 -0.03806331 -0.03582768 -0.00081004755
000110 fb ae 73 bc 81 d4 45 bd bf ed 1d bd 7e fd d1 3a
       -0.014873262 -0.048298363 -0.03855681 0.0016020981
000120 f6 8e 43 bd af d9 35 bd 0e c0 3b 3d d2 cf 3e 3d
       -0.04774376 -0.044397052 0.045837454 0.04658491
000130 da 23 1e 3d 68 7b 4a bd 78 95 21 bd 28 ec 0c bd
       0.03860841 -0.049434096 -0.039449185 -0.034404904
000140 73 31 6a 3c d2 6d 00 bd 85 b7 66 bd 38 c4 1b bc
       0.014294016 -0.031354733 -0.05632736 -0.009507231
000150 ca 54 d8 bc 86 c0 26 3d 5d 89 ce 3c ad 6c 91 bc
       -0.026407618 0.04071095 0.025211984 -0.017752016
000160 53 95 3c 3d be fd e5 3c 28 df b4 bc be 92 50 bd
       0.046040844 0.028075095 -0.022079065 -0.050921194
000170 6d 0b 56 bc 69 5f 48 bb ce 31 b2 3c 28 6c a9 3c
       -0.013064248 -0.0030574447 0.021752264 0.020681456
000180 d1 0f 71 bb cd 49 c8 bc 4c 6a 51 bd 46 34 87 3c
       -0.003678311 -0.024449253 -0.051126763 0.016504418
000190 e8 70 39 bd 37 0d c8 bb 2b e4 c2 bb 39 d1 94 3c
       -0.04527369 -0.006105091 -0.00594761 0.018166171
0001a0 c9 83 63 3c a7 de 6a bc 7e 4c c2 bc 02 30 59 3d
       0.0138864005 -0.014335311 -0.023718115 0.0530243
0001b0 44 e9 0d bd 70 ab bb 3a 9b 88 0a b9 7b 4e 54 bd
       -0.034646288 0.001431806 -0.00013211595 -0.051832657
0001c0 32 63 d9 bc 44 07 27 bd b0 4e 40 3d b6 16 5f 3d
       -0.026536558 -0.040778413 0.046950042 0.05446502
0001d0 cd 5e c1 3c 16 31 e0 3b ab 95 6e bc 95 09 24 3d
       0.023604775 0.006841789 -0.014562051 0.0400482
0001e0 ea 37 46 bc 8e 87 ff 3b d7 9d 50 bc 57 15 3d bd
       -0.012098292 0.007798142 -0.012732944 -0.04616293
0001f0 39 e3 14 bc 2f 43 16 bd 8a d8 d2 3b 9d 5d c8 bb
       -0.009087377 -0.036685165 0.006434505 -0.006114675
000200 87 7e 5f bd 39 e1 2d bc 2e 2f 0a 3c 06 5e 97 bb
       -0.054564025 -0.010612779 0.0084341 -0.0046193628
000210 33 9e 26 3d f4 e8 93 3b 2f a4 4c 3c 73 fd 6b 3c
       0.040678214 0.004513854 0.012490316 0.014403689
000220 e3 b9 56 bd 0b 0b 29 3d c6 88 17 bd 11 2b 1d 3d
       -0.05242337 0.041270297 -0.03699567 0.03837115
000230 fb 6f 21 3d fa 7a 1b 3d 46 4d 21 3d 40 49 0b 3c
       0.039413434 0.037959076 0.039380334 0.008501351
000240 49 18 3b 3d 4a 4e a2 3c aa c6 a3 3c 1e 90 29 bd
       0.045677457 0.019812722 0.019992191 -0.041397206
000250 56 92 13 bb a0 1d 42 bd 14 99 01 bc 39 27 17 3c
       -0.0022517643 -0.047391534 -0.007910032 0.00922566
000260 96 32 52 bd 76 a0 ab 3b af ad 1c bd 1e 56 6e bc
       -0.051317774 0.0052376343 -0.038251575 -0.014546899
000270 67 7b 05 3b 12 f2 8e bc f0 8f cc 3c a0 86 d1 3c
       0.0020367743 -0.017449412 0.024970978 0.02557689
000280 1f fe 50 3d bc d9 1d 3d 64 bf 21 bd 15 3a a1 3c
       0.0510236 0.038537726 -0.039489165 0.019681016
000290 9c c8 ee 3a 24 3c 59 bd 87 7c 3d bd 5c eb 67 bc
       0.0018217745 -0.05303587 -0.046261337 -0.014155235
0002a0 46 52 b2 bc fe a8 08 3d fc d5 db 3c 39 83 0a 3d
       -0.021767747 0.03336429 0.026835434 0.03381655
0002b0 e5 e3 81 3c 1c 9a 4c bd 91 4a 4c bd 37 fd a0 3b
       0.015855739 -0.049951658 -0.0498758 0.004912998
0002c0 39 b5 28 bc e6 1b 91 bb 8b 63 e6 3c 23 06 89 bc
       -0.010297113 -0.0044283746 0.028123638 -0.016726559
0002d0 c5 06 f5 bc 4d 67 03 3b fa 2a 3a bd 96 5c 05 3d
       -0.029910455 0.0020050586 -0.045451142 0.032559
0002e0 49 a4 5b bd eb dd 2a 3a cf 30 fa bc 1a 5a 37 bd
       -0.05362347 0.00065180537 -0.030540852 -0.044763662
0002f0 84 41 8a bc d7 31 93 bc 3a 5f 02 3d 2f 29 cb bc
       -0.016876943 -0.017968101 0.031829096 -0.024799911
000300 0d 3a 35 3d db db 46 bc 17 b9 68 bd 98 d1 4f bc
       0.044244815 -0.012137379 -0.05681714 -0.012684248
000310 0a bd e4 3c 44 58 bb 3b f4 45 e1 3b 9f f2 b9 3b
       0.027922172 0.005717309 0.006874794 0.0056746746
000320 79 70 34 bd 17 48 1c bd 96 d6 ab 3c d2 5c 1d 3d
       -0.044052575 -0.038154688 0.020976346 0.0384186
000330 47 4e 01 bd 86 78 e2 3b 6c 1f 0d 3d e5 67 d0 3a
       -0.03156879 0.00691134 0.034453794 0.0015900104
000340 bd b5 e1 3c 1e d1 73 3b 26 2d c8 bc 91 14 10 bd
       0.02755248 0.00372035 -0.024435591 -0.035175864
000350 12 86 9b 3b e2 c2 e7 bc f0 e1 1a 3d b8 6e ce bc
       0.004746207 -0.02829117 0.037813127 -0.02519928
000360 7c 12 20 bd e2 40 9e 3c 33 ee 10 bd 78 4a dd 3b
       -0.039080128 0.019318048 -0.035383414 0.006753262
000370 de dd 15 3c cc ce 21 3d e5 be 05 bd 28 84 17 bd
       0.009147136 0.039503857 -0.032652754 -0.03699127
000380 14 d6 4e bd ca fb f4 bb 80 8e 05 3d 9b 35 62 3d
       -0.05049713 -0.0074763047 0.0326066 0.055226903
000390 36 f0 ca bc f6 3d b0 bb e1 8b bf 3c 2e 52 67 bd
       -0.024772745 -0.00537848 0.02338213 -0.056474857
0003a0 8c bc 51 3d bc 64 2d bd de 84 f8 3c 62 f5 66 bd
       0.051205203 -0.042332396 0.030336794 -0.05638636
0003b0 e6 90 3a bb 62 67 4c 3d d7 dc 10 bd fd d6 64 bd
       -0.0028467714 0.04990328 -0.03536686 -0.05586909
0003c0 b5 d3 41 3d a5 55 2c 3c b4 39 db 3b 02 99 20 3d
       0.04732104 0.010518466 0.0066902284 0.03920842
0003d0 6a e3 b9 3c 21 98 35 3d 1e fc d5 bc 83 35 fa bc
       0.022691447 0.044334535 -0.026121195 -0.030543095
0003e0 c3 1a 49 bd 44 41 d1 bc 44 a1 51 bc 60 2f 25 3d
       -0.049097788 -0.025543816 -0.012794796 0.040328383
0003f0 1d 73 f6 3b 8a 61 04 3c 2e 4f 09 3c ae e2 df bc
       0.007521047 0.008079896 0.008380694 -0.027329769

fc1.bias f4 [50]
000000 f7 f7 83 bb 23 17 c7 bc ce 48 00 bd 44 c6 82 bd
       -0.0040273624 -0.024303025 -0.031319432 -0.063854724
000010 e2 a8 d4 3b 4f 09 20 3a a6 c3 ca 3c 8a d6 d3 3c
       0.006489859 0.0006104903 0.024751496 0.025859136
000020 08 d8 f1 bc 4f 80 46 3c 97 ec 3c bd 20 36 47 bb
       -0.029521957 0.012115552 -0.046124067 -0.0030397251
000030 67 6d 87 bb 01 f2 a1 3c ed 66 f2 3c bf 27 ed bc
       -0.004132915 0.019768717 0.029590094 -0.028949616
000040 d6 45 eb bc 87 5b ac 3c c3 a3 75 3c ba 0d 05 3a
       -0.028719824 0.021039737 0.014992657 0.0005075593
000050 fa 07 04 bd 19 31 17 bc 92 dd 9d bc 8e 2c 95 3d
       -0.03223417 -0.009228014 -0.019270692 0.07283889
000060 a9 03 67 3d 9f 2a 43 3c 85 4c 05 3d a9 92 2c bd
       0.056399975 0.011912017 0.032543678 -0.042132054
000070 81 44 7c bd a7 85 3b 3d 18 43 06 bd 18 9a 81 bb
       -0.061588768 0.045781758 -0.03277883 -0.003955137
000080 12 3b 83 3b a2 fa 0e bd 40 d9 2a bd b5 7e 66 3d
       0.0040048445 -0.03490699 -0.041711092 0.05627318
000090 53 d4 14 bd 14 27 4f bd 16 04 3d 3d 34 14 27 bc
       -0.0363353 -0.050574377 0.046146475 -0.010197688
0000a0 ba 8c 46 bd 89 6a 5f bd ed 81 19 3b 6c a8 27 3d
       -0.04847405 -0.05454496 0.002342339 0.040932104
0000b0 2b 56 a6 3c 41 f3 a2 3c 93 8b 1b bb a5 e2 1e 3a
       0.02030476 0.019891383 -0.0023734316 0.00060609943
0000c0 a8 75 8e bc 93 73 80 3d
       -0.017390087 0.06272044

fc2.weight f4 [10, 50]
000000 61 7b f5 bd d7 59 35 3d 94 96 d8 bd b3 62 5d 3d
       -0.11986423 0.04427513 -0.105755955 0.054049205
000010 ca 9c 1d 3d 48 ee 83 bd 7f c3 f8 bd 0b 01 1d bd
       0.038479604 -0.06441933 -0.12146663 -0.038331073
000020 3f e5 33 bd 70 f0 b0 bd c6 5f 05 3e 29 4f e6 bd
       -0.043919798 -0.0863961 0.13024816 -0.11245567
000030 2f 1e 23 3e a7 f9 7e be a5 77 96 bd a2 be ef bc
       0.15929483 -0.24899922 -0.07347039 -0.029265705
000040 cf e5 87 bc 94 01 1e be ed 6a 71 bd 3a 2f ec 3c
       -0.016589073 -0.1543029 -0.058939863 0.028831113
000050 09 d4 00 be 46 62 60 3d b8 95 63 3d 55 8e ca bd
       -0.12580885 0.05478122 0.055562705 -0.09890429
000060 da c5 01 be ea a4 68 bd 8a a5 08 bc c8 f1 dc bd
       -0.1267313 -0.0567979 -0.008340249 -0.107883036
000070 6b 7d 79 3d 30 37 3a be 63 06 03 be ff 07 dc 3d
       0.060910624 -0.18185115 -0.12795405 0.10743713
000080 7c 28 35 3e 99 4a ab bc 39 9f 9a bd 54 f3 a0 3d
       0.17691225 -0.020909594 -0.075499006 0.07858911
000090 55 fa df 3d 56 b5 ca 3d 99 7a c7 3d b6 88 cf 3d
       0.10936419 0.09897868 0.097401805 0.101334974
0000a0 11 ff bc bd 97 34 e5 3c 36 00 b2 bd d3 b4 97 bd
       -0.092283376 0.027979178 -0.086914465 -0.07407536
0000b0 62 61 77 3c 13 40 7e bd c0 fb 4f be 2a b9 91 bd
       0.015098901 -0.062072825 -0.20310879 -0.07115395
0000c0 a8 7a 82 3e f5 27 5b 3e ac a7 0a 3d 7d 86 1c 3e
       0.25484204 0.21401961 0.03385131 0.15285678
0000d0 5a f2 2f bd 70 a7 9c bd ff 01 b0 3d 6e 50 ce bd
       -0.042955734 -0.07649124 0.08594131 -0.100739345
0000e0 31 69 0d be aa e0 e1 bc 1a 4a 0c bd 42 80 a2 3d
       -0.13809659 -0.027572948 -0.034250356 0.079346195
0000f0 67 e1 1a be ec be 12 be a6 bf 37 be c6 4e c5 bd
       -0.15125047 -0.14330643 -0.17944202 -0.096341655
000100 73 6b 5b 3d 1b e6 1e 3e fb 29 0d be 59 46 11 bd
       0.05356927 0.15517466 -0.13785546 -0.03546748
000110 e0 e6 0f 3e 84 16 0d 3c 4b 51 a7 3d 05 7a 8e 3c
       0.14052916 0.008611325 0.08169802 0.017392168
000120 4d b8 32 be 51 60 57 bd 7e d0 22 bd c3 2a e0 bd
       -0.17453118 -0.05258209 -0.039749615 -0.10945656
000130 63 88 de 3d 28 ed 00 bc ca 8d ba bd 91 e1 e4 3d
       0.108658575 -0.007869042 -0.09109075 0.11175836
000140 3e ab 05 3d e1 5b 66 3d 5d 11 45 bd 56 b8 ef bc
       0.032634012 0.056239966 -0.048112262 -0.029262703
000150 bb 33 a9 bd 91 12 25 3d 5b 07 cc bd 55 0e b9 3c
       -0.0826182 0.04030091 -0.099623404 0.022589842
000160 7b f1 1e be 9e 3b 65 3d 33 e6 c6 bd 49 93 39 bd
       -0.15521805 0.05596506 -0.09711876 -0.045306478
000170 b3 00 17 be 27 5d 2c bd 88 5d 3c be b7 70 1b bd
       -0.1474636 -0.042081024 -0.18395054 -0.03794929
000180 bf c5 f0 bc 91 e8 c7 3d a7 8f 59 3c 82 83 30 bd
       -0.029391168 0.097611554 0.013278878 -0.043094166
000190 7b 5f bf 3d f8 4a 52 bd c5 cb b4 bd 23 8f ad bb
       0.09344383 -0.051341027 -0.088279285 -0.0052966042
0001a0 04 1e 68 3e 2a ee 9d bd b8 73 fe 3c c7 51 7d 3d
       0.226677 -0.07711442 0.031061038 0.061845567
0001b0 23 72 10 3d 92 a6 d2 3d c1 f7 1a 3d b6 5a 18 bd
       0.0352651 0.10285677 0.037833933 -0.037195884
0001c0 de f3 a3 3d 12 40 bb bd f0 5a de bd 97 33 1f 3d
       0.08005498 -0.0914308 -0.10857189 0.03886756
0001d0 ec 8c ea 3d 58 78 89 3c 7f d3 ef bd 52 d4 61 3d
       0.1145266 0.016781017 -0.117102616 0.055134125
0001e0 4d 94 00 3c 92 3e b1 bd 72 7c 90 3d b6 b0 3b be
       0.007847858 -0.086545125 0.07054986 -0.18329129
0001f0 23 03 51 bd f1 45 76 bc 6f 81 96 3d 0a a1 c9 bd
       -0.051028382 -0.015031324 0.07348906 -0.09845169
000200 c0 1b 8d bd 8f 2e c0 3d ce 4d 9a 3d 03 37 b7 3d
       -0.068900585 0.0938388 0.07534371 0.089460395
000210 7a 31 22 bd 90 ca 8e bd f2 c8 6a bc e6 4f d4 3d
       -0.039597966 -0.069722295 -0.014330136 0.10366802
000220 d6 fb 05 be 0e 84 74 3d de fd f3 bc c1 1c e8 3d
       -0.13084349 0.05969625 -0.02978414 0.11333609
000230 06 c4 e4 bd 76 f4 7f bd 39 dc 5e 3b ad a6 ae 3d
       -0.11170201 -0.062488995 0.0034005775 0.08527885
000240 b4 0b c5 bc 71 57 c7 bd a2 25 e0 3d e9 72 ef 3c
       -0.024053432 -0.09733475 0.10944678 0.029229598
000250 4a a3 9e bd 23 7e 7e 3b cb 63 a8 3d 60 dd ad bd
       -0.07745989 0.0038832508 0.08222159 -0.084894896
000260 3f 0b aa 3c 4c 89 b7 3d 5e 6f 38 bc 6d 63 b2 3d
       0.020757316 0.08961734 -0.011257021 0.0871037
000270 56 6c 3b 3d 08 c9 17 3d ee bd 0d 3e 28 d4 74 bd
       0.045757614 0.037056953 0.13841984 -0.05977264
000280 42 4e ac bd 09 b5 99 3d 1f e6 95 bd 28 6a 9f bd
       -0.08413364 0.07505233 -0.07319283 -0.077839196
000290 09 db ca bd 4a e9 e7 bd 30 2b 0b bc 47 7e 36 bd
       -0.09905059 -0.11323793 -0.008494183 -0.04455402
0002a0 a4 0d 5b bc c1 b6 1b 3e 41 30 02 3d 77 63 51 3d
       -0.013369951 0.15206434 0.0317843 0.051120248
0002b0 40 a8 d4 bd cc 3d 29 bd 9c ef ba 3c c0 b3 f4 bd
       -0.10383654 -0.0413187 0.022819333 -0.11948347
0002c0 54 ad 47 3e dd ac 7b bd a0 3c 80 3c 0b 67 17 3e
       0.19499713 -0.061444152 0.015653908 0.14785402
0002d0 52 93 84 bd a3 5a 18 3e 24 98 24 be 1b 02 a5 bd
       -0.064734116 0.14878325 -0.16073662 -0.08057042
0002e0 eb c5 8e 3c 1b 07 89 bd 1c 34 68 be 17 a3 c6 3d
       0.017428359 -0.066908084 -0.22676128 0.09699076
0002f0 c6 94 1a 3d bf 96 b2 bd a5 e7 90 bd 50 6b 0a bd
       0.037739538 -0.08720159 -0.07075433 -0.033793747
000300 d6 6a 81 3d 55 de 68 bd d0 71 e1 3d eb 70 c2 bd
       0.063192055 -0.056852657 0.11008036 -0.09494194
000310 84 4f 24 3e ab 2e 4a 3e 59 d0 0e be d2 84 92 b9
       0.16045958 0.19744365 -0.13946666 -0.0002794625
000320 2a eb 1c 3d af b4 d8 bd b9 03 3f 3d 19 65 fe 3c
       0.038310207 -0.10581338 0.04663441 0.031054066
000330 2a 02 7c bc 08 d6 ea bb 51 6b fb bd 19 c5 c9 bd
       -0.015381375 -0.007166628 -0.12276328 -0.098520465
000340 70 58 20 3e d9 23 f5 bd 7d e2 51 3d 07 f7 66 bc
       0.15658736 -0.11969728 0.051241387 -0.014096982
000350 e0 d3 39 bc f1 16 3b 3c 67 9b c1 3d 2d b3 b0 3d
       -0.011342019 0.011419044 0.09453469 0.08627925
000360 06 2b a9 3c 23 b1 0a 3d 84 1b f6 bc 55 fc 1d bc
       0.020650398 0.033860337 -0.030042417 -0.00964268
000370 c1 c6 9b bd f9 84 89 bb 93 42 40 3d 1e 0d 52 bd
       -0.07606269 -0.00419676 0.04693849 -0.05128204
000380 be 8b 8b 3d 78 79 9d 3d 95 7b 06 3e 5b 8b 19 be
       0.06813763 0.07689184 0.1313308 -0.14994566
000390 37 7c ad 3d 15 e1 7f bd 14 26 f3 3d 6a c4 93 3c
       0.08470958 -0.062470514 0.11872497 0.018037993
0003a0 e1 44 5f bd 4d b9 bc 3d c4 09 e9 3d 51 ee 68 bd
       -0.054509047 0.09215031 0.11378816 -0.0568679
0003b0 d3 a4 6d 3b 6e 2f ac 3d e1 2e 39 3c 07 f0 40 be
       0.0036261573 0.08407484 0.011302681 -0.18841563
0003c0 10 80 78 3d d9 7b 9a bd 6d c2 6f 3d 16 b4 46 3e
       0.060669005 -0.07543153 0.05853503 0.19404635
0003d0 79 5f cf bd 3e d5 c9 bd 89 9b 9e 3d 7a 18 b7 3d
       -0.10125632 -0.09855126 0.0774451 0.089402154
0003e0 0f 98 2a be 3d f9 a2 3d 84 ae 7c 3d f4 23 a9 bd
       -0.16659568 0.07957695 0.06168987 -0.08258811
0003f0 02 ab c1 bc a9 22 f7 3d 5d 94 9e bd 59 9b 01 be
       -0.023641113 0.12067158 -0.07743142 -0.12656917

fc2.bias f4 [10]
000000 05 2c 92 bd 2a 70 1f 3e 52 a4 60 bd ff 88 71 bd
       -0.07137302 0.15570131 -0.054844208 -0.05896854
000010 17 26 5e bc 58 2c 6d bd 11 9c 0e bc ac a1 1d bd
       -0.013558886 -0.057903618 -0.008704201 -0.03848426
000020 0a e1 05 bd 08 5f 94 bc
       -0.032685317 -0.01811172
