MNIST/Models/Server/Global models/Global model_8_5_2021_10_49_36.pth (torch, 90095 bytes, 8 tensors)

conv1.weight f4 [10, 1, 5, 5]
0	0xbe0c2cc3	-0.1368895
1	0x3d900c9e	0.070336565
2	0x3db431eb	0.087985836
3	0xbca779e6	-0.020443868
4	0xbdb01452	-0.08597626
5	0x3e0ccf9b	0.1375107
6	0xbd809ecb	-0.06280287
7	0xbd4ede01	-0.05050469
8	0x3d0abf9d	0.033874143
9	0x3c6ee5ec	0.014581185
10	0x3d8812a0	0.066441774
11	0xbdcfe1c7	-0.101504855
12	0xbd9e4658	-0.07728261
13	0x3d4778cc	0.048699185
14	0xbd991e38	-0.07476467
15	0xbdbd04d6	-0.09229438
16	0x3e30444c	0.17213553
17	0x3c999628	0.018748358
18	0x3b361a4c	0.002778667
19	0x3dfec5e6	0.1244009
20	0xbdef3753	-0.11680474
21	0xbe25ec38	-0.16203392
22	0x3de4030c	0.11133394
23	0xbdc893c4	-0.09793809
24	0xbe15deab	-0.14635722
25	0xbe611d9c	-0.21983951
26	0xbe2d207d	-0.16906925
27	0x3c3ee10f	0.011650338
28	0xbe554994	-0.20828849
29	0x3db6ea68	0.08931428
30	0xbd174e19	-0.036939714
31	0xbc36cba1	-0.011156947
32	0xbd9b162c	-0.07572588
33	0xbd6ab6c9	-0.057303224
34	0x3d4c0d0c	0.04981713
35	0xbe53575d	-0.20638795
36	0x3d152bc4	0.03641869
37	0x3d9ae557	0.07563274
38	0xbb023513	-0.001986806
39	0x3e120f42	0.14263633
40	0xbc608995	-0.013704677
41	0x3dd18305	0.10230068
42	0xbdffd73d	-0.12492225
43	0x3c81222b	0.015763363
44	0x3e77f259	0.24213542
45	0x3e3d3dc2	0.1848059
46	0x3e7fb7fa	0.24972525
47	0x3e82d9e5	0.25556865
48	0x3e7d6163	0.24744181
49	0x3e4b81d4	0.19873744
50	0xbd45cb38	-0.048289508
51	0x3e1dff24	0.1542936
52	0x3e452108	0.19250882
53	0x3ea56dfb	0.3231047
54	0x3e968679	0.2939947
55	0x3be9ae9f	0.007131412
56	0x3db24ea8	0.08706409
57	0xbd87c5ee	-0.06629549
58	0xbdc6dcd7	-0.097100906
59	0x3d915bdc	0.07097599
60	0x3d223e47	0.039610174
61	0x3deadf81	0.11468411
62	0xbbfde007	-0.0077476534
63	0x3dcad249	0.0990339
64	0xbe38e014	-0.18054229
65	0xbe13e0cb	-0.1444122
66	0xbe24b047	-0.1608287
67	0xbe5162e0	-0.20447874
68	0xbe2cf080	-0.16888618
69	0xbe228d75	-0.15874274
70	0xbe7190f1	-0.23590447
71	0xbe405685	-0.18783005
72	0xbd9f598e	-0.07780753
73	0xbd9a96e3	-0.075483106
74	0x3dd69b76	0.104788706
75	0x3c42adea	0.011882285
76	0x3dd4273a	0.103590444
77	0x3d5d2fe8	0.054000765
78	0x3e1ceb55	0.15324147
79	0x3e40bd69	0.18822254
80	0xbe4e9b4f	-0.20176433
81	0xbe19e5fb	-0.15029137
82	0x3c39334b	0.011303733
83	0x3e5d949f	0.21638726
84	0xbe0ab502	-0.13545612
85	0xbdae37ed	-0.08506761
86	0x3e2202d2	0.15821388
87	0x3e0f0b65	0.1396919
88	0x3deddd44	0.11614469
89	0xbcd4c6f5	-0.025973776
90	0x3cf196f7	0.029490931
91	0xbc707ad3	-0.014677721
92	0x3e599312	0.21247509
93	0xbe0de3c5	-0.13856418
94	0xbd9a9697	-0.07548254
95	0xba06c7fd	-0.0005141495
96	0x3d8c8a6c	0.068623394
97	0x3c14c287	0.009079582
98	0x3ddab09c	0.10678217
99	0xbe734916	-0.23758349
100	0xbd225cf6	-0.039639436
101	0xbe4d3d87	-0.20043002
102	0x3d193740	0.037406206
103	0x3e2e0d3b	0.16997235
104	0x3e1bcba6	0.15214404
105	0xbe168c24	-0.14701897
106	0xbe66a624	-0.22524315
107	0xbe07fa29	-0.13279022
108	0xbd99d7dd	-0.07511876
109	0x3df21656	0.118206665
110	0xbe819e40	-0.25316048
111	0xbe5d956c	-0.21639031
112	0xbdc87581	-0.09788037
113	0x3dccadf1	0.09994114
114	0x3e5c35a8	0.21504843
115	0x3c4afade	0.012388913
116	0x3d6906ad	0.056891132
117	0xbdceaefa	-0.10091968
118	0xbdaa9ccb	-0.08330687
119	0x3e271196	0.16315302
120	0xbe54bb6f	-0.20774625
121	0xbea3e0ad	-0.32007352
122	0x3d20dc8a	0.039272822
123	0x3e2f914c	0.1714527
124	0x3e7623b4	0.24037057
125	0xbd37bf21	-0.04486001
126	0xbdbf1b91	-0.0933143
127	0x3e2423fa	0.16029349
128	0xbd93b96b	-0.072131
129	0x3e74aba8	0.23893607
130	0xbcb4c0a0	-0.022064507
131	0x3e8afe5b	0.27147183
132	0x3e6392fb	0.22224037
133	0x3e95fe21	0.29295447
134	0xbbe76d5a	-0.0070625963
135	0x3df50ab8	0.11964935
136	0xbe0bebb6	-0.13664135
137	0x3e3f7e80	0.187006
138	0x3da8b559	0.08237714
139	0x3db1a5b2	0.08674182
140	0xbd64103b	-0.05567954
141	0xbe36786d	-0.17819376
142	0xbe48c9c9	-0.19608225
143	0xbd46f47d	-0.048573006
144	0x3e523cc3	0.20530991
145	0xbe00a58d	-0.12563153
146	0xbe76dedc	-0.24108452
147	0xbe467c3f	-0.19383334
148	0xbe816b2a	-0.25277072
149	0xbdb2a970	-0.08723724
150	0x3ccaeb99	0.024770545
151	0xbe09c906	-0.1345559
152	0x3df0ee30	0.11764181
153	0xbcfbdccb	-0.03074493
154	0xbe4b0eb5	-0.19829829
155	0xbe37c4d4	-0.17946178
156	0xbe4ba048	-0.19885361
157	0xbde1abcf	-0.11019098
158	0x3e3a208c	0.18176478
159	0x3db23869	0.08702166
160	0x3e590273	0.2119234
161	0x3e86c9d1	0.2632585
162	0x3cb56f28	0.02214773
163	0x3d3e5151	0.046464268
164	0x3e555eab	0.20836894
165	0x3e325a1c	0.17417186
166	0x3e11f072	0.14251879
167	0x3e317e70	0.17333388
168	0x3e0d3062	0.13787988
169	0xbddf626a	-0.10907443
170	0xbda05127	-0.078279786
171	0xbe28d748	-0.16488373
172	0xbc212243	-0.009834829
173	0x3dd53bb5	0.10411779
174	0xbdcda06b	-0.10040363
175	0x3e266c0a	0.16252151
176	0xbde49212	-0.11160673
177	0xbd95919b	-0.07303163
178	0xbdc7d6d6	-0.097577736
179	0xbe3249ff	-0.1741104
180	0xbda7e3b4	-0.08197728
181	0x3de44508	0.11145979
182	0xbcdb81a2	-0.026795212
183	0xbe7541f3	-0.23950939
184	0xbe052a7c	-0.13004488
185	0x3e85c255	0.26124826
186	0x3e52bb3c	0.20579237
187	0xbdb4a0f6	-0.08819763
188	0xbc911418	-0.017709777
189	0x3e2edd0a	0.17076507
190	0x3ca680c3	0.02032507
191	0x3da5bbc2	0.080924526
192	0x3e5eb611	0.2174914
193	0x3e6611e2	0.22467759
194	0xbde99b63	-0.11406591
195	0x3e233cf1	0.15941216
196	0x3e531f67	0.20617448
197	0x3e5f0468	0.21779025
198	0xbe1c7f89	-0.15283026
199	0xbdd60242	-0.104496494
200	0x3d67da6e	0.056604795
201	0x3e25846b	0.16163795
202	0x3db06a1d	0.086139895
203	0x3ddd2dc7	0.10799747
204	0x3deb090f	0.11476337
205	0xbe4381f6	-0.19092545
206	0x3db929ca	0.09041174
207	0x3e41ef51	0.18938948
208	0xbc7dacb4	-0.01548307
209	0xbd359a9e	-0.044336908
210	0x3cfd1ca0	0.030897439
211	0xbe6764bc	-0.22597021
212	0xbd17f308	-0.037097007
213	0x3e1d613c	0.15369123
214	0x3db36447	0.08759361
215	0xbe33cc14	-0.17558318
216	0xbe131503	-0.14363484
217	0xbe4c130b	-0.1992914
218	0xbddfd2dd	-0.10928891
219	0x3da6d86c	0.08146748
220	0xbdffcd46	-0.12490325
221	0x3dc59c68	0.09648973
222	0xbdf3c439	-0.11902661
223	0xbdf19bf4	-0.11797324
224	0x3d6224f0	0.055211008
225	0x3cdcefc7	0.026969803
226	0x3e4c1e37	0.19933401
227	0xbd794cc9	-0.060864244
228	0x3e46fbe2	0.19432023
229	0x3e08b793	0.13351278
230	0xbe6ecf58	-0.23321283
231	0xbe4e532b	-0.20148914
232	0x3df881c1	0.121341236
233	0x3ddb37c3	0.10703995
234	0x3e84e99a	0.25959474
235	0xbd195a05	-0.037439365
236	0xbe54a931	-0.20767666
237	0xbe37bcae	-0.1794307
238	0xbd2fcae5	-0.042918105
239	0xbe1382eb	-0.1440541
240	0x3df91770	0.121626735
241	0xbdf5ee92	-0.12008394
242	0xbde04720	-0.10951066
243	0xbdf68b6e	-0.12038313
244	0xbe33326c	-0.17499703
245	0x3dec1249	0.11526925
246	0x3da8b2da	0.08237238
247	0x3c0158c6	0.0078947
248	0xbdf90316	-0.12158792
249	0xbdcb0251	-0.09912551

conv1.bias f4 [10]
0	0xbe03c70e	-0.12868902
1	0x3e0ce348	0.13758576
2	0x3c80a982	0.015705828
3	0xbe56de1e	-0.20983168
4	0xbd3b4544	-0.045720354
5	0x3d8b42ee	0.06799875
6	0xbda45bfe	-0.080253586
7	0xbdf24ed0	-0.118314385
8	0x3e2a3669	0.16622318
9	0x3d8da5d3	0.06916394

conv2.weight f4 [20, 10, 5, 5]
0	0xbd4d12c1	-0.050066713
1	0xbb76c4ca	-0.0037653917
2	0x3d1d3cfe	0.038388245
3	0xbd7693dc	-0.060199603
4	0x3d82e0cb	0.06390532
5	0xbc782a5e	-0.01514682
6	0xbd0750bb	-0.033035975
7	0x3d7e0d65	0.062024493
8	0x3d15e35e	0.036593787
9	0x3d606a92	0.054789133
10	0xbd6f41f6	-0.058412515
11	0xbd205659	-0.039144848
12	0x3ce1ef27	0.027579857
13	0xbcd6b8ac	-0.026211105
14	0x3d81e547	0.06342559
15	0x3d300449	0.042972837
16	0xbc7c4343	-0.015396896
17	0x3d59a0e2	0.053131945
18	0x3b1530fc	0.0022764793
19	0x3d38c9ff	0.045114513
20	0x3d66ba2a	0.056329884
21	0x3b266491	0.0025389532
22	0xbd86a258	-0.06573933
23	0xbd3f6e42	-0.04673601
24	0xbd7e31f6	-0.062059365
25	0xbcfbc1ba	-0.030732024
26	0xbd96633f	-0.073431484
27	0xbc1bc429	-0.009507217
28	0xbda366e8	-0.07978612
29	0xbcc10036	-0.02355967
30	0xbdc90d33	-0.09816971
31	0xbc018d67	-0.007907248
32	0xbc92859c	-0.017885976
33	0x3ca50313	0.020143067
34	0xbd87f061	-0.066376455
35	0xbc9f140f	-0.019418744
36	0xbd3b4b3e	-0.045726053
37	0xbd91b198	-0.071139514
38	0x3c769872	0.015050994
39	0xbdb4b0d7	-0.08822792
40	0x3d999ba1	0.07500387
41	0x3b3c9782	0.002877683
42	0x3d699457	0.057026234
43	0xbd8cf1ea	-0.06882079
44	0xbda5a33c	-0.08087775
45	0x3dbc7b3c	0.092031926
46	0x3dc4b950	0.09605658
47	0xbd4a10fe	-0.04933261
48	0x3d115f6f	0.035491403
49	0x3d2fd8e7	0.042931464
50	0xbd048f2f	-0.032363113
51	0x3d81642f	0.06317937
52	0x3dbca2ea	0.09210761
53	0x3d88f534	0.06687394
54	0x3c8534a1	0.016260447
55	0x3d3481c2	0.04406906
56	0xbcbb5290	-0.022866517
57	0xbc487be9	-0.012236574
58	0x3cac79c3	0.021054154
59	0xbbb1efcc	-0.0054301973
60	0xbcd97fb3	-0.02655015
61	0xbca940f5	-0.020660857
62	0xbcb6ecaf	-0.022329656
63	0x3d0e43e3	0.03473271
64	0x3d3f6079	0.046722863
65	0xbd4c3b6a	-0.04986135
66	0x3cc3eb51	0.023915919
67	0xbd89f05d	-0.06735299
68	0xbbfdcd1e	-0.007745399
69	0xbd8e7abd	-0.06957004
70	0xbcd745f6	-0.026278477
71	0xbd3209d7	-0.043466415
72	0xbd79179d	-0.060813535
73	0xbd638240	-0.055544138
74	0xbd086238	-0.033296794
75	0xbc18d9d3	-0.009329277
76	0xbd4fd802	-0.05074311
77	0x3d113a04	0.03545572
78	0x3cefc5c5	0.029269109
79	0x3cebd36d	0.02878734
80	0xbd5f812f	-0.05456656
81	0x3cba6cb5	0.022756914
82	0x3c8087c4	0.015689738
83	0xbcc608b6	-0.024174076
84	0x3d576b98	0.052592844
85	0xbd85e399	-0.065375514
86	0xbdc158c6	-0.0944076
87	0xbb862b40	-0.0040945113
88	0x3caf1bd4	0.021375574
89	0xbc8c36da	-0.017115999
90	0x3ad8de12	0.0016545674
91	0x3d7b765f	0.061392184
92	0x3ca91e51	0.020644339
93	0x3bc46c3d	0.0059943483
94	0xbd9d0421	-0.07666803
95	0x3c7940d8	0.015213214
96	0x3c04b4d5	0.008099754
97	0x3cbc014f	0.022949843
98	0xbc3fe29c	-0.011711743
99	0xbd2d672a	-0.042334713
100	0x3cc8a5aa	0.024493057
101	0x3dc2299c	0.094805926
102	0x3c89ce8b	0.01682212
103	0x3d406aca	0.046976842
104	0xbd3d3c7b	-0.046200257
105	0xbd8365c3	-0.06415894
106	0x3d8df4ea	0.06931479
107	0x3d1992e6	0.03749361
108	0x3cf7ed00	0.030264378
109	0x3d391c4a	0.045192994
110	0xbd12db05	-0.035853405
111	0x3c973d3f	0.018461822
112	0xbcffe418	-0.031236693
113	0xbbc10d59	-0.0058914837
114	0xbcf5cda9	-0.030005293
115	0x3d635081	0.055496696
116	0x3de46b32	0.111532584
117	0xbd3c9004	-0.04603578
118	0x3ca73f76	0.020416003
119	0xbcfcb387	-0.030847324
120	0x3d6f250f	0.05838495
121	0x3dddf7a2	0.10838248
122	0xbdb59034	-0.08865395
123	0xbd936e68	-0.07198793
124	0xbd765058	-0.060135216
125	0x3b3975aa	0.0028298893
126	0x3d30406e	0.043030195
127	0x3cf448fa	0.029819954
128	0x3d01706d	0.03160136
129	0x3c2b70f0	0.010463938
130	0x3c2b110f	0.010441079
131	0xbd9c6268	-0.07635957
132	0xbd166521	-0.036717538
133	0xbcb96781	-0.022632362
134	0xba98bc37	-0.0011652772
135	0xbd006152	-0.031342812
136	0xbd9ccc93	-0.07656207
137	0xbd713d13	-0.058896136
138	0xbd16401c	-0.036682233
139	0x3c285f74	0.010276664
140	0x3c8cd303	0.017190462
141	0x3c1144ca	0.008866498
142	0xbc2d96bb	-0.010595019
143	0xbd817890	-0.063218236
144	0xbc729de3	-0.014808151
145	0xbdad14a2	-0.08451201
146	0x3cdd7e12	0.027037654
147	0xbdbbb7d0	-0.09165919
148	0xbd3cfb9b	-0.046138387
149	0xbc55ff50	-0.0130613595
150	0xbdb0b46c	-0.08628163
151	0xbd81c674	-0.0633668
152	0xba6fa341	-0.0009141453
153	0x3d4743dc	0.0486487
154	0xbbc337f7	-0.0059575993
155	0x3bcb8051	0.006210365
156	0xbce9fb92	-0.02856234
157	0xbd6475ee	-0.05577653
158	0x3c9f0efc	0.019416325
159	0xbd907096	-0.07052724
160	0xbd75ffc1	-0.06005836
161	0x3c1c2baa	0.009531895
162	0xbcb8bfa0	-0.022552311
163	0xbd318da9	-0.04334799
164	0xbd15d5e0	-0.03658092
165	0xbd702512	-0.058629103
166	0x3d50905f	0.050918933
167	0xbb93b49f	-0.0045076157
168	0xbc102a84	-0.008799199
169	0xbd80f17b	-0.06296059
170	0x3d836053	0.06414857
171	0xbc2f7dea	-0.010711173
172	0x3c944dbe	0.018103477
173	0x3d2da410	0.04239279
174	0x3c764bb0	0.015032694
175	0xbdb1e030	-0.086853385
176	0xbcbf1850	-0.023327023
177	0xbd1e8535	-0.038701255
178	0xbd7cca66	-0.06171646
179	0xbd498764	-0.049201384
180	0xbd7625d6	-0.060094677
181	0xbc667e0f	-0.014068141
182	0xbd6ee47b	-0.058323365
183	0xbd178eb7	-0.037001338
184	0xbcae0487	-0.021242393
185	0x3d121a0d	0.035669375
186	0xbd9324fe	-0.0718479
187	0xbd06d847	-0.032921102
188	0xbd7d3986	-0.061822437
189	0xbd5a25b9	-0.05325863
190	0x3c823d0c	0.01589825
191	0x3cf7a072	0.030227873
192	0xbc66497b	-0.014055605
193	0x3cce5234	0.025185682
194	0x3c4dd863	0.012563798
195	0x3d30a2d1	0.043124024
196	0xbbd97053	-0.0066357045
197	0x3ba3b4c7	0.0049959156
198	0x3d034770	0.03205055
199	0x3b6df98d	0.0036312074
200	0x3c28394e	0.010267569
201	0x3d5f2ac6	0.05448415
202	0x3d9f51bc	0.077792615
203	0x3cbb57fe	0.022869106
204	0x3d275489	0.040852103
205	0xbd6dfd6e	-0.058103018
206	0xbbaf741c	-0.0053544175
207	0x3d1299f5	0.035791356
208	0xbd34a74f	-0.04410487
209	0xbd4d7e3d	-0.05016922
210	0x3d73a7fc	0.059486374
211	0x3cc78195	0.024353782
212	0xbd838ffc	-0.06423947
213	0x3cca360c	0.024683975
214	0x3d0de090	0.034637988
215	0x3d3329db	0.04374109
216	0xbd6d622a	-0.057954945
217	0xbdafe857	-0.08589237
218	0xbd4bbd12	-0.04974086
219	0xbb8121d2	-0.0039407993
220	0xb90a51b0	-0.00013191137
221	0xbdb85961	-0.09001423
222	0x3ba78357	0.0051120925
223	0x3b93057b	0.0044867373
224	0xbd9813ba	-0.074256375
225	0xbd3e9b2e	-0.04653471
226	0x3d796f34	0.060897067
227	0x3d9f9bb2	0.077933684
228	0x3c86f5fc	0.016474716
229	0xbb9fa1c2	-0.004871578
230	0x3d3d49ff	0.046213146
231	0xbca4ac22	-0.02010161
232	0x3d3fe92a	0.046853222
233	0x3ce0d281	0.027444126
234	0x3d1f65e5	0.038915534
235	0xbd128d25	-0.035779137
236	0xbc87ff79	-0.016601311
237	0x3d4b0e6e	0.049574308
238	0x3c0c923d	0.008579788
239	0xbd71ae61	-0.05900419
240	0xbd84536a	-0.064612225
241	0xbdba4b98	-0.090964496
242	0x3d272f1a	0.040816404
243	0x3d36a713	0.04459293
244	0xbc18d779	-0.009328716
245	0xbc9bd31a	-0.01902156
246	0xbd1d92a1	-0.038469914
247	0x3c966d7f	0.018362759
248	0x3d23a740	0.039954424
249	0xbc099a5c	-0.008398619
250	0x3c70765c	0.014676657
251	0xbd295ec3	-0.041350137
252	0xbb8a9e2d	-0.004230282
253	0x3ca130f2	0.01967666
254	0xbc6799fd	-0.014135835
255	0xbd294120	-0.041321874

conv2.bias f4 [20]
0	0xbd6afebb	-0.057371836
1	0xbd6e21d0	-0.058137715
2	0xbd9349e0	-0.07191825
3	0xbd135e72	-0.035978742
4	0x3b05f94b	0.002044278
5	0x3c3b9141	0.011448205
6	0xbcb28ea5	-0.021796534
7	0xbc0e4184	-0.008682612
8	0x3d072ad7	0.03299984
9	0x3ca55a6e	0.020184722
10	0xbc0c0a20	-0.008547336
11	0x3c292c62	0.010325523
12	0xbb09ea7e	-0.002104431
13	0x3caed0f1	0.021339865
14	0x3d294e16	0.041334234
15	0xbd725d61	-0.059171084
16	0x3c574a8b	0.013140331
17	0x3d31e7e3	0.043434035
18	0x3d09875e	0.03357636
19	0xbcf0cb00	-0.029393673

fc1.weight f4 [50, 320]
0	0xbc06c09d	-0.0082246335
1	0x3d0c69d6	0.03428062
2	0x3c84d9ba	0.016217101
3	0xbd495f08	-0.049162894
4	0xbc10a23d	-0.008827743
5	0xbba9ef35	-0.0051859864
6	0xbd37e140	-0.04489255
7	0xb9e79036	-0.000441672
8	0x3c34bdef	0.011031612
9	0xbc209bdf	-0.009802788
10	0xbd0777df	-0.033073302
11	0x3d1890d9	0.037247512
12	0xbcfa7b65	-0.030576417
13	0xbd179488	-0.037006885
14	0xbceccbeb	-0.02890583
15	0x3bcebb84	0.0063089747
16	0x3cfabeca	0.030608553
17	0xbc871e8c	-0.016494058
18	0xbce8886b	-0.028385362
19	0x3c48d9e9	0.012258985
20	0xbd2dc700	-0.04242611
21	0x3ca82015	0.02052311
22	0x3d313804	0.04326631
23	0xbbaa6453	-0.005199948
24	0xbc71000e	-0.014709486
25	0xbd5a3efb	-0.05328272
26	0xbce24715	-0.027621785
27	0x3d546fb6	0.05186435
28	0xbbb09bde	-0.0053896746
29	0xbb9dcb03	-0.0048154606
30	0x3c0a417f	0.008438467
31	0xbd3dee34	-0.046369746
32	0x3c2a3593	0.01038875
33	0xbd5dbc2a	-0.054134525
34	0xbd07e8a8	-0.033180863
35	0x3d29810b	0.04138283
36	0xbc64492f	-0.013933464
37	0xbd0c0605	-0.03418543
38	0x3c08deae	0.008353872
39	0x3cceb3ef	0.025232283
40	0x3cce93cd	0.025216961
41	0xbc6e0700	-0.014528036
42	0xbd0b2a69	-0.033975992
43	0xbcebfc95	-0.028806964
44	0xbd29d742	-0.04146505
45	0x3d1155cf	0.035482224
46	0xba585d0b	-0.00082536106
47	0xbd0fd0fb	-0.03511141
48	0xbd4806da	-0.04883466
49	0xbd76c75f	-0.06024873
50	0xbd17143f	-0.036884543
51	0xbc5b806e	-0.013397319
52	0xbbbbba1c	-0.005728973
53	0x3cd6c8ee	0.026218858
54	0xb859b25d	-5.1902945e-05
55	0xbc5044ee	-0.012711747
56	0x3d322b6a	0.043498434
57	0x3cd238a2	0.02566177
58	0xbd329115	-0.043595392
59	0x3d665944	0.056237474
60	0xbc5839f6	-0.013197413
61	0xbb891238	-0.00418308
62	0x3c890f51	0.016730936
63	0x3cc32ec5	0.023826012
64	0x3cff9dbe	0.031203147
65	0xbd211ade	-0.039332263
66	0xbd138d6b	-0.03602354
67	0xba88508f	-0.0010399985
68	0xbc9548f6	-0.018223267
69	0xbd3c2192	-0.045930453
70	0xbd1e4667	-0.03864136
71	0x3a03855e	0.00050171267
72	0xbd50fd38	-0.05102274
73	0xbd324ef7	-0.043532338
74	0x3d37ddf4	0.044889405
75	0x3d380c1d	0.044933427
76	0x3cfb8f0d	0.03070786
77	0xbd48a043	-0.048980962
78	0xbd18f80d	-0.037345935
79	0xbd0e63e2	-0.034763224
80	0x3c6332ed	0.013867122
81	0xbd0a9377	-0.03383204
82	0xbd609779	-0.054831956
83	0xbc02a62f	-0.007974192
84	0xbce0c799	-0.027438926
85	0x3d183510	0.03715998
86	0x3cc1c621	0.023654046
87	0xbc8f87e9	-0.017520862
88	0x3d3a8036	0.045532428
89	0x3cc94f24	0.02457387
90	0xbcc169e4	-0.023610063
91	0xbd4aaa07	-0.049478557
92	0xbc5097e9	-0.012731531
93	0xbb69845c	-0.003563187
94	0x3ca44e41	0.020056846
95	0x3ca519e0	0.02015394
96	0xbb15890c	-0.0022817282
97	0xbcc0840e	-0.023500469
98	0xbd5689c0	-0.052377462
99	0x3c80160c	0.015635513
100	0xbd32dff2	-0.043670602
101	0xbb34d3ef	-0.0027592143
102	0xbb352497	-0.0027640217
103	0x3c85d8d1	0.016338738
104	0x3c6da923	0.014505657
105	0xbc4a1642	-0.012334408
106	0xbcc09e27	-0.023512913
107	0x3d4fe9bb	0.050760012
108	0xbd0db453	-0.0345958
109	0xb9e2c64b	-0.0004325382
110	0x39a7a12a	0.000319728
111	0xbd4aa932	-0.049477763
112	0xbcd6af8a	-0.02620675
113	0xbd236b95	-0.03989752
114	0x3d3a3c0f	0.045467433
115	0x3d597ba7	0.05309644
116	0x3cb3bb3c	0.021939866
117	0x3bb08b3e	0.0053876927
118	0xbc8d11b5	-0.017220357
119	0x3d1f4fd8	0.038894504
120	0xbc455969	-0.012045243
121	0x3c246745	0.010034387
122	0xbc55b8be	-0.013044534
123	0xbd43b338	-0.04777834
124	0xbc01ff54	-0.00793441
125	0xbd1266cc	-0.035742566
126	0x3bb3e389	0.005489771
127	0xbbeb15ae	-0.0071742153
128	0xbd5dece5	-0.054181
129	0xbca08444	-0.01959432
130	0x3b9675b4	0.004591668
131	0xbbc795f6	-0.006090875
132	0x3d1ae8d5	0.037819702
133	0xbbe01f32	-0.0068396563
134	0x3bfb3555	0.00766627
135	0x3c0fc7f6	0.008775702
136	0xbd5f4af8	-0.054514855
137	0x3ce864f9	0.02836846
138	0xbd282576	-0.04105135
139	0x3d1be227	0.038057473
140	0x3d1a0fb9	0.03761265
141	0x3d017a73	0.031610917
142	0x3d1e7ea6	0.038695
143	0x3c32f6e8	0.010923125
144	0x3d394b5b	0.04523788
145	0x3c9c6747	0.019092215
146	0x3cb331d4	0.021874346
147	0xbd2535d5	-0.04033454
148	0xbb4b535d	-0.003102503
149	0xbd4a0735	-0.04932328
150	0xbbf75744	-0.0075482447
151	0x3c1c0203	0.009521964
152	0xbd54d016	-0.05195626
153	0x3b92262e	0.004460118
154	0xbd1696a4	-0.036764756
155	0xbc47e4e2	-0.012200566
156	0x3b05f386	0.002043934
157	0xbc90f88c	-0.017696641
158	0x3cd4ed71	0.025992127
159	0x3cdf148a	0.027231473
160	0x3d952bdf	0.07283758
161	0x3d797b19	0.06090841
162	0xbd13ea8a	-0.036112346
163	0x3c5b8c12	0.013400095
164	0x3ad53c0d	0.0016268507
165	0xbd4e5919	-0.05037794
166	0xbd2686a4	-0.040655747
167	0xbc8b1156	-0.01697604
168	0xbbe1db5e	-0.0068926057
169	0x3d7f8042	0.062378176
170	0x3d31b918	0.04338941
171	0x3cdc6a6f	0.02690622
172	0x3c66c706	0.014085537
173	0xbd56ec1e	-0.052471273
174	0xbd4e025a	-0.05029521
175	0x3bfbba2c	0.0076821055
176	0xbc21ae67	-0.009868241
177	0xbbf4abf6	-0.0074667884
178	0x3cda6a94	0.026662149
179	0xbc81dcf0	-0.015852422
180	0xbcf4de35	-0.029891113
181	0xbb69c371	-0.003566947
182	0xbd42c45c	-0.047550544
183	0x3d062c4d	0.032757092
184	0xbd552ea9	-0.05204645
185	0xbaafaeae	-0.0013403499
186	0xbd03ca15	-0.032175142
187	0xbd363509	-0.044484172
188	0xbc805fe3	-0.015670722
189	0xbc9f876a	-0.01947375
190	0x3cf3d11d	0.029762799
191	0xbccaed30	-0.024771303
192	0x3d345b2b	0.044032257
193	0xbc2de42a	-0.010613481
194	0xbd6843c6	-0.05670526
195	0xbc544114	-0.012954969
196	0x3ce248ad	0.027622545
197	0x3bd3d84b	0.006464993
198	0x3bcbc956	0.0062190695
199	0x3ba6ee3d	0.005094318
200	0xbd38326e	-0.04496997
201	0xbd13043f	-0.03589272
202	0x3cbf2f34	0.023337938
203	0x3d1db49e	0.038502328
204	0xbd01198f	-0.031518515
205	0x3c0afd1e	0.008483199
206	0x3d13085a	0.035896637
207	0x3ac17127	0.0014758453
208	0x3d06ae0b	0.032880824
209	0x3c04a03b	0.008094843
210	0xbcd0b7d4	-0.025478281
211	0xbd16216d	-0.03665297
212	0x3b82891c	0.00398363
213	0xbceeb473	-0.02913878
214	0x3d13aec9	0.03605536
215	0xbcdd16a6	-0.026988339
216	0xbd0c059b	-0.034185033
217	0x3ce2bbbe	0.027677413
218	0xbd01d454	-0.031696633
219	0x3ba23aaa	0.004950841
220	0x3c26d895	0.010183473
221	0x3d277d16	0.040890776
222	0xbd06378a	-0.03276781
223	0xbd1cd838	-0.03829214
224	0xbd50109c	-0.05079709
225	0xbc1c8605	-0.009553437
226	0x3cfe1c42	0.031019334
227	0x3d6086c5	0.054816026
228	0xbcd2aab1	-0.025716158
229	0xbc01f5e3	-0.007932159
230	0x3cba27f2	0.022724126
231	0xbd67fb8c	-0.05663638
232	0x3d4c8220	0.049928784
233	0xbd3c909b	-0.046036344
234	0x3ce749bd	0.028233403
235	0xbd678665	-0.056524653
236	0xbb47d9d7	-0.0030494833
237	0x3d41c21f	0.04730427
238	0xbd11356e	-0.035451345
239	0xbd5d3344	-0.05400397
240	0x3d52a58b	0.051427405
241	0x3c60334b	0.013684104
242	0x3b825a31	0.003978037
243	0x3d16ba7b	0.036798935
244	0x3cb296ea	0.021800477
245	0x3d3a0598	0.04541549
246	0xbcc44903	-0.023960596
247	0xbd03dbc5	-0.03219201
248	0xbd42a62e	-0.047521763
249	0xbcae62ac	-0.021287285
250	0xbc3fcb3f	-0.0117061725
251	0x3d186a15	0.037210543
252	0x3bc684d0	0.006058313
253	0x3bd8bafd	0.0066140876
254	0x3bed82a4	0.0072482396
255	0xbce457c4	-0.027873881

fc1.bias f4 [50]
0	0xbbcca188	-0.006244842
1	0xbbe13556	-0.006872813
2	0xbc181c3a	-0.0092840735
3	0xbd80f47d	-0.062966324
4	0x3bc683a5	0.0060581737
5	0x3b91f831	0.0044546355
6	0x3d39b24a	0.045336045
7	0x3d0300a8	0.031983048
8	0xbcd58004	-0.02606202
9	0x3ca2bd79	0.019865738
10	0xbd492e38	-0.049116343
11	0xbbc539d6	-0.0060188575
12	0x3b6f6563	0.0036528937
13	0x3ba6672c	0.005078217
14	0x3d20f88a	0.039299525
15	0xbc8619c1	-0.016369702
16	0xbcd83598	-0.026392743
17	0x3d4e5cc4	0.050381437
18	0x3d0a9cf3	0.033841085
19	0x3bca2439	0.006168869
20	0xbcc20b65	-0.023687074
21	0xb9d7de3f	-0.00041173582
22	0xbca4417b	-0.020050755
23	0x3d9547c1	0.072890766
24	0x3d80cae9	0.06288702
25	0x3c29936d	0.01035009
26	0x3d2c4c2c	0.04206483
27	0xbd0f0110	-0.034913123
28	0xbd733265	-0.05937423
29	0x3d692526	0.056920193
30	0xbd0a0fd9	-0.03370652
31	0xbb874b68	-0.004128862
32	0x39ec4bfb	0.00045070038
33	0xbd078fc0	-0.033096075
34	0xbd423028	-0.047409207
35	0x3d62475e	0.055243842
36	0xbd2296fa	-0.039694764
37	0xbd4ff866	-0.050774
38	0x3d2fe1bc	0.042939886
39	0xbacdee49	-0.0015711273
40	0xbd4bb9c1	-0.049737696
41	0xbd6309c0	-0.05542922
42	0x3c864c90	0.01639393
43	0x3cd9d0be	0.026588794
44	0x3d155ff6	0.03646847
45	0x3cb8c28a	0.022553701
46	0xbc05c2f3	-0.008164155
47	0x3c46c33d	0.012131509
48	0xbc378503	-0.011201146
49	0x3d874509	0.06604964

fc2.weight f4 [10, 50]
0	0xbdfd1b72	-0.123587504
1	0xbbb7733b	-0.0055984533
2	0xbe02d553	-0.12776689
3	0x3dd1288f	0.10212814
4	0xbd186c4c	-0.037212655
5	0xbda2c242	-0.07947208
6	0xbd81e6a5	-0.0634282
7	0xbd92e1bc	-0.07171962
8	0xbdf0fbcd	-0.11766777
9	0xbe0684f6	-0.13136658
10	0x3e38ee2c	0.18059605
11	0xbda9c61c	-0.082897395
12	0x3e7ad6dc	0.24496025
13	0xbe0ff640	-0.1405878
14	0xbe0b783d	-0.13620086
15	0xbdf0a067	-0.11749344
16	0x3ccd9aea	0.025098283
17	0xbd7986d1	-0.060919587
18	0xbde1b895	-0.11021534
19	0xbc9754bb	-0.01847302
20	0xbe27c331	-0.16383053
21	0x3df8b8b8	0.12144607
22	0x3db6baf2	0.08922376
23	0x3d8f527d	0.06998155
24	0xbe0af092	-0.13568333
25	0xbdfd78d9	-0.123765655
26	0xbdfafdb5	-0.12255422
27	0xbdf205f2	-0.1181754
28	0x3ddee885	0.10884193
29	0xbe8ca347	-0.2746832
30	0xbe727f44	-0.2368136
31	0x3d93c197	0.07214659
32	0x3ea95980	0.33076096
33	0xbd929488	-0.07157236
34	0xbd950fcb	-0.07278403
35	0xbc3a8cfa	-0.0113861505
36	0x3e5e4f2f	0.21709894
37	0x3d40fdb5	0.047116954
38	0x3e15d964	0.14633709
39	0x3c65a61d	0.014016655
40	0xbdb76f71	-0.08956803
41	0x3ced9718	0.029002711
42	0xbe0777af	-0.1322925
43	0xbe1c8615	-0.15285523
44	0x3e94dead	0.29076138
45	0xbd7bc9c7	-0.061471727
46	0xbe934a2a	-0.2876752
47	0xbe3f926f	-0.18708204
48	0x3e9efcc1	0.3105221
49	0x3e450a62	0.19242242
50	0x3cc9e28e	0.024644163
51	0x3ea5663a	0.32304555
52	0xbd3c8f58	-0.04603514
53	0xbdb8cad9	-0.09023065
54	0x3d38b44a	0.045093812
55	0xbdf9548a	-0.12174328
56	0xbe28d947	-0.16489135
57	0xbd4f0aa1	-0.050547246
58	0xbdc1aeaa	-0.09457143
59	0x3e245cdb	0.16051047
60	0xbe3c224d	-0.1837246
61	0xbe1d89d9	-0.15384616
62	0xbe679e38	-0.2261895
63	0xbd3fdccd	-0.04684143
64	0x3e0ebf28	0.13940108
65	0x3e64fbca	0.22361675
66	0xbe16f30a	-0.1474115
67	0x3d894abb	0.06703707
68	0x3e924530	0.2856841
69	0xbd750ae3	-0.059824836
70	0x3dcb3963	0.09923055
71	0x3e07d35d	0.13264222
72	0xbe55577c	-0.20834154
73	0x3e11746a	0.14204565
74	0xbd9e381b	-0.07725545
75	0xbe2cc08b	-0.16870324
76	0x3de2e192	0.110781804
77	0xbcfb6668	-0.03068848
78	0xbe141d2e	-0.14464256
79	0x3e1be033	0.15222244
80	0x3ad32dbf	0.0016111656
81	0xbb46d391	-0.0030338506
82	0x3c44e848	0.012018271
83	0xbdb5c7e4	-0.08876017
84	0xbdda6a43	-0.10664799
85	0xbb7c65f6	-0.0038512922
86	0xbcc0113a	-0.023445714
87	0xbd529e7a	-0.051420666
88	0xbe717d08	-0.23582852
89	0x3b42f7d0	0.0029749759
90	0xbdd2829c	-0.10278818
91	0xbd1b7054	-0.03794892
92	0xbe45bc50	-0.19310117
93	0xbe04eb8c	-0.12980479
94	0xbe4ebe66	-0.20189819
95	0xbd8110be	-0.063020214
96	0xbddcfd37	-0.107904844
97	0x3dc89ab0	0.09795129
98	0x377b1f9a	1.4968124e-05
99	0xbdc93796	-0.09825055
100	0x3da12385	0.07868103
101	0x3d1cddb6	0.038297378
102	0xbdd58984	-0.1042662
103	0xbb86f0e8	-0.0041180737
104	0x3e91f24b	0.28505167
105	0xbddb127c	-0.10696885
106	0xbc8c972a	-0.017161924
107	0x3dd30a73	0.103047274
108	0xbd1b45d8	-0.037908405
109	0x3e3cbb49	0.18430819
110	0x3e2c5606	0.1682969
111	0xbd6a4295	-0.057192404
112	0x3e6585c9	0.22414316
113	0xbdc60352	-0.09668602
114	0xbde518e3	-0.111863874
115	0x3e364c54	0.17802554
116	0x3db46b9b	0.088095866
117	0xbbad21cc	-0.00528357
118	0xbceb789a	-0.02874403
119	0x3d39dc45	0.04537608
120	0x3b2baa50	0.0026194043
121	0xbd4094a8	-0.04701677
122	0x3d51b75a	0.05120025
123	0xbe33bb8c	-0.17552012
124	0xbe129c53	-0.14317445
125	0xbc5a3306	-0.013317829
126	0xbd23011d	-0.039795984
127	0xbe046c50	-0.12931943
128	0x3bd24e89	0.0064180535
129	0x3e0b0249	0.1357509
130	0x3dd7352a	0.10508187
131	0xbca5a25f	-0.020219026
132	0x3e07db39	0.1326722
133	0xbe068944	-0.131383
134	0xbce89be9	-0.028394656
135	0x3e73ad4f	0.2379658
136	0xbdbb784f	-0.091538064
137	0xbd316615	-0.043310244
138	0xbe1610d0	-0.14654851
139	0x3e237dc8	0.1596595
140	0xbdda0c88	-0.106469214
141	0xbd820eb3	-0.0635046
142	0xbdddcccb	-0.10830077
143	0x3e1024ac	0.14076489
144	0x3d8d7481	0.06906987
145	0xbdd5b24d	-0.10434399
146	0xbd2e7e72	-0.042601056
147	0xbde83ee0	-0.113401175
148	0xbd2a7447	-0.041614797
149	0x3d7f29a3	0.062295567
150	0x3df07bf9	0.11742396
151	0xbdcf33e1	-0.10117317
152	0xbd8fb2e2	-0.07016541
153	0x3d5dde54	0.054167107
154	0x3dfc3787	0.123152785
155	0x3de63cd0	0.11242068
156	0x3dcb1b86	0.09917359
157	0x3e4075ad	0.1879489
158	0x3d9417f2	0.0723113
159	0xbbac789b	-0.0052634007
160	0x3c3ca038	0.0115128085
161	0x3e2b4618	0.16725957
162	0x3cbd51ca	0.02311029
163	0xbda5113b	-0.08059927
164	0xbe3742bb	-0.1789655
165	0xbd80268d	-0.06257353
166	0x3acc69a1	0.0015595445
167	0xbe0faff3	-0.14031963
168	0xbd0011ee	-0.0312671
169	0x3e472771	0.1944864
170	0x3dad46fb	0.08460804
171	0x3d9d1b41	0.07671214
172	0xbe3e3f3b	-0.18578808
173	0xbda615a8	-0.08109599
174	0xbdcc6cdb	-0.099817
175	0xbe662966	-0.2247673
176	0x3e068875	0.13137992
177	0xbd9f7429	-0.07785828
178	0xbd41fbb4	-0.047359183
179	0x3e939774	0.28826487
180	0xbdd0885b	-0.10182258
181	0x3e2decaa	0.16984811
182	0xbe0b4392	-0.13599995
183	0xbe372cd8	-0.178882
184	0xbd315c81	-0.04330111
185	0x3d50851b	0.05090819
186	0xbe779d9f	-0.24181221
187	0x3dfbb33a	0.12290044
188	0xbd70e3d2	-0.058811016
189	0x3e3a89eb	0.18216674
190	0xbda173f5	-0.07883445
191	0xbd0bfd70	-0.034177244
192	0xbd6cd9ac	-0.057824776
193	0xbd08b47c	-0.03337525
194	0x3d8dbee7	0.06921177
195	0xbe00a911	-0.12564494
196	0x3de05bf1	0.109550364
197	0x3e3dd481	0.18538095
198	0xbe2002e1	-0.15626098
199	0xbb41d3a6	-0.0029575615
200	0x3d11cce2	0.035595782
201	0xbdf016b5	-0.11723081
202	0xbd949ed3	-0.07256856
203	0xbcd73374	-0.026269652
204	0xba4756ad	-0.0007604163
205	0x3daf0b6d	0.08547101
206	0xbe41ae20	-0.1891408
207	0xbd366829	-0.04453293
208	0x3e29092b	0.16507404
209	0xbe0e07b5	-0.13870127
210	0x3e0305ae	0.12795135
211	0x3d73d17e	0.05952596
212	0xbdd1ab99	-0.10237808
213	0xbc22fea0	-0.009948403
214	0x3e62abb6	0.22135815
215	0x3cd5535c	0.026040725
216	0x3d2b44b4	0.041813567
217	0xbdca9323	-0.09891345
218	0xbd6a0128	-0.05713001
219	0x3cf2bd59	0.029631304
220	0xbdba00d3	-0.090821885
221	0x3c363808	0.011121757
222	0x3bce24c1	0.0062910025
223	0xbd9a06f3	-0.07520857
224	0xbdc75445	-0.0973287
225	0x3e47758d	0.19478436
226	0x3e4dfbd6	0.20115599
227	0xbe450a0b	-0.19242112
228	0x3dadd1d6	0.08487289
229	0xbc81a4cb	-0.01582565
230	0x3e200986	0.15628633
231	0xbda9970e	-0.082807645
232	0xbdce68ff	-0.1007862
233	0x3e09b6ae	0.13448593
234	0x3da17b7c	0.07884881
235	0xbcc3e6de	-0.023913797
236	0x3e04185b	0.12899916
237	0xbc9d1e67	-0.019179536
238	0xbe406d25	-0.18791635
239	0xbe400624	-0.18752342
240	0x3d7524d2	0.059849568
241	0xbd9e1a08	-0.07719809
242	0xbcbe0986	-0.0231979
243	0x3ebc0738	0.36724257
244	0xbe661803	-0.22470097
245	0xbe3161cd	-0.17322464
246	0x3db4f7f2	0.08836354
247	0x3d51ca80	0.05121851
248	0xbe490941	-0.19632436
249	0x3c076626	0.0082641
250	0x3d75a84d	0.059974957
251	0xbdbcb27f	-0.09213733
252	0xbe08945c	-0.13337845
253	0x3d59421c	0.053041562
254	0xbe15fe9d	-0.14647909
255	0xbda95f51	-0.08270133

fc2.bias f4 [10]
0	0xbd9271b4	-0.071505934
1	0x3e735b63	0.2376533
2	0xbdcfd080	-0.1014719
3	0xbd2b1ded	-0.041776586
4	0xbd91a625	-0.07111768
5	0xbd53b0c4	-0.05168225
6	0xbda9b43d	-0.08286331
7	0xbde2c55d	-0.110728
8	0x3e0d18d8	0.13779008
9	0xbd311200	-0.043230057
