MNIST/Models/Server/Global models/Global model_8_5_2021_10_36_47.pth (torch, 90095 bytes, 8 tensors)

conv1.weight f4 [10, 1, 5, 5]
-0.13707161 0.072834626 0.087720536 -0.025248233 -0.09369191 0.14156266 -0.064194165 -0.04775106
0.04297133 0.022974828 0.06723683 -0.1066124 -0.08203871 0.049984027 -0.06939251 -0.103756994
0.1614118 0.003900315 -0.01011883 0.12164209 -0.1339109 -0.18153837 0.0878346 -0.115364574
-0.1561344 -0.17114757 -0.07031693 0.13412644 -0.115311846 0.15743473 -0.0012457973 0.060223784
-0.0010882552 -0.020532455 0.039432827 -0.18928356 0.054221544 0.08549715 -0.03367715 0.08087184
-0.046315625 0.056375228 -0.18570252 -0.08468568 0.1525768 0.10731939 0.16688056 0.1603817
0.1403525 0.12479717 -0.13192981 0.066958845 0.05954769 0.15171666 0.120882116 -0.015464518
0.06899727 -0.12475867 -0.16790761 -0.0053287214 0.08455201 0.14299445 -0.012799094 0.11120827
-0.16763088 -0.06923477 -0.12820289 -0.18649173 -0.13105984 -0.10806791 -0.18477386 -0.169788
-0.0629314 -0.043998506 0.18612948 0.048065178 0.10654933 0.012681458 0.10490587 0.17790166
-0.16968597 -0.16617623 -0.05214396 0.1599721 -0.12620455 -0.026399001 0.1664398 0.09287658
0.078744404 0.008904009 0.09249189 -0.00781557 0.18219788 -0.15079385 -0.030080017 0.028705293
0.047908403 -0.017346077 0.12833074 -0.186045 0.031580295 -0.14632429 0.11117835 0.18991576
0.07788781 -0.09686329 -0.17335032 -0.050428554 -0.086598344 -0.0012023137 -0.1903354 -0.13774064
-0.005258376 0.057632998 0.092707455 0.1136093 0.18027492 -0.014810352 -0.14395995 0.056204375
-0.112560414 -0.21075803 0.09102848 0.12057643 0.16871803 -0.13704267 -0.17022908 0.10337233
-0.12784699 0.18280178 -0.10696749 0.1870713 0.12027772 0.1718508 -0.14708793 0.11739012
-0.15001658 0.13779108 -0.022049515 -0.036007833 0.041921712 -0.10178108 -0.15277843 -0.068083785
0.17506294 0.023335302 -0.1435945 -0.119132124 -0.18836935 -0.019899478 0.024946002 -0.09689706
0.17769763 0.023229865 -0.14806433 -0.20089437 -0.1935242 -0.10791233 0.16671711 0.08047241
0.14446239 0.19351988 -0.06393891 -0.037018456 0.15058519 0.13815741 0.070486635 0.08035405
0.058954336 -0.16532001 -0.0019675088 -0.14362435 -0.01883786 0.08215164 -0.12142651 0.12772958
-0.13938062 -0.05707246 -0.04633837 -0.11525448 -0.14599518 0.0739412 -0.0021960346 -0.18180509
-0.08198864 0.18454246 0.13955557 -0.10075298 -0.0026165093 0.16111274 -0.060643002 -0.018094819
0.15857051 0.1977117 -0.15630299 0.10501058 0.11882478 0.15856314 -0.18562037 -0.14343192
0.014523614 0.094831824 -0.0032499717 0.0063589895 0.022499613 -0.16858341 0.08108206 0.14263463
-0.08008504 -0.10393427 0.08444889 -0.19566022 -0.02793474 0.14047404 0.06670314 -0.14724217
-0.11314505 -0.16864698 -0.0889564 0.09900192 -0.09499571 0.14649479 -0.069342814 -0.07320287
0.09421332 0.050546248 0.18557046 -0.101281166 0.13953881 0.05434406 -0.19906738 -0.18222873
0.12794629 0.084510714 0.18567626 0.009043783 -0.15741952 -0.12755898 -0.021319753 -0.17520624
0.15531157 -0.08249645 -0.06826416 -0.09659904 -0.17668244 0.13253878 0.102072716 0.0371322
-0.097234905 -0.08865811
00000000: 805c 0cbe 522a 953d d3a6 b33d 62d5 cebc
00000010: 8be1 bfbd cdf5 103e 3b78 83bd 9e96 43bd
00000020: b502 303d b535 bc3c 77b3 893d 9a57 dabd
00000030: e903 a8bd 0dbc 4c3d a91d 8ebd 8c7e d4bd
00000040: 2349 253e 6d9c 7f3b 73c9 25bc 7d1f f93d
00000050: f01f 09be 32e5 39be a0e2 b33d 4344 ecbd
00000060: b2e1 1fbe 4f41 2fbe 5302 90bd 7158 093e
00000070: 9e28 ecbd 9236 213e 054a a3ba 37ad 763d
00000080: c9a3 8eba ae33 a8bc 5184 213d 8dd3 41be
00000090: 6917 5e3d 2119 af3d 0df1 09bd 23a0 a53d
000000a0: 74b5 3dbd b6e9 663d cd28 3ebe b06f adbd
000000b0: 183d 1c3e 45ca db3d bde2 2a3e 1a3b 243e
000000c0: 91b8 0f3e a995 ff3d 9c18 07be b821 893d
000000d0: 47e8 733d 9d5b 1b3e 0b91 f73d e45e 7dbc
000000e0: 714e 8d3d 7981 ffbd f9ef 2bbe 8e9c aebb
000000f0: 9b29 ad3d 236d 123e 4bb3 51bc 29c1 e33d
00000100: 6ea7 2bbe f6ca 8dbd 9e47 03be b0f7 3ebe
00000110: 8d34 06be b552 ddbd 5c35 3dbe e8dc 2dbe
00000120: 2ee2 80bd c737 34bd ba98 3e3e fedf 443d
00000130: 8936 da3d e4c5 4f3c e4d8 d63d da2b 363e
00000140: 29c2 2dbe 1a2a 2abe e894 55bd bacf 233e
00000150: c43b 01be b842 d8bc 326f 2a3e 1436 be3d
00000160: bf44 a13d 1fe2 113c 636c bd3d e00c 00bc
00000170: 1592 3a3e b469 1abe 5e6a f6bc 5d27 eb3c
00000180: 9a3b 443d 5c19 8ebc 2269 033e 9582 3ebe
00000190: 575a 013d 09d6 15be 7ab1 e33d 4779 423e
000001a0: a583 9f3d 4360 c6bd bf82 31be 2c8e 4ebd
000001b0: 795a b1bd f496 9dba 48e7 42be e20b 0dbe
000001c0: 744e acbb 9410 6c3d 68dd bd3d feab e83d
000001d0: fd99 383e 1ea7 72bc 3d6a 13be 8f36 663d
000001e0: 1386 e6bd f4d0 57be 246d ba3d c6f0 f63d
000001f0: 6bc4 2c3e ea54 0cbe 8850 2ebe dfb4 d33d
00000200: 52ea 02be 6430 3b3e c511 dbbd 9e8f 3f3e
00000210: 2a54 f63d a8f9 2f3e 389e 16be 3b6a f03d
00000220: f29d 19be 1b19 0d3e 2fa1 b4bc f37c 13bd
00000230: 1ab6 2b3d 9972 d0bd f371 1cbe 836f 8bbd
00000240: b343 333e ad29 bf3c 700a 13be 8bfb f3bd
00000250: e5e3 40be 3b04 a3bc 8f5b cc3c f771 c6bd
00000260: 5ef6 353e 8f4c be3c 2d9e 17be 41b7 4dbe
00000270: 352b 46be 2401 ddbd e4b7 2a3e b8ce a43d
00000280: f3ed 133e 132a 463e 67f2 82bd aaa0 17bd
00000290: 0133 1a3e 2379 0d3e 4c5b 903d aa90 a43d
000002a0: 1a7a 713d a649 29be 52f1 00bb 4312 13be
000002b0: db51 9abc 1e3f a83d 76ae f8bd 8bcb 023e
000002c0: cbb9 0ebe d0c4 69bd 4dcd 3dbd 8a0a ecbd
000002d0: c37f 15be 7c6e 973d 59eb 0fbb 1d2b 3abe
000002e0: a9e9 a7bd b3f8 3c3e a8e7 0e3e 9457 cebd
000002f0: be79 2bbb bdfa 243e cc64 78bd 963b 94bc
00000300: 4f60 223e f074 4a3e e40d 20be c90f d73d
00000310: 685a f33d 605e 223e 4413 3ebe d1df 12be
00000320: 74f4 6d3c 3037 c23d 7afd 54bb 125f d03b
00000330: 1c51 b83c 21a1 2cbe 5a0e a63d d00e 123e
00000340: a003 a4bd 7edb d4bd 8af3 ac3d 275b 48be
00000350: 65d7 e4bc 6dd8 0f3e a89b 883d a7c6 16be
00000360: 98b8 e7bd cbb1 2cbe c62e b6bd 85c1 ca3d
00000370: 1c8d c2bd bb02 163e 9b03 8ebd 63eb 95bd
00000380: eaf2 c03d 9509 4f3d 2f06 3e3e 806c cfbd
00000390: 43e3 0e3e e197 5e3d 52d8 4bbe 2b9a 3abe
000003a0: 5a04 033e f413 ad3d eb21 3e3e 602c 143c
000003b0: 9532 21be d29e 02be c3a6 aebc 4469 33be
000003c0: ff09 1f3e e6f3 a8bd 14ce 8bbd b8d5 c5bd
000003d0: 3eec 34be 3fb8 073e 800b d13d ef17 183d
000003e0: 1823 c7bd 6292 b5bd

conv1.bias f4 [10]
-0.089702345 0.1471817 0.06603634 -0.19260204 -0.008437772 0.16856706 -0.09414142 -0.14013276
0.17119986 0.13719063
00000000: ddb5 b7bd cdb6 163e 103e 873d 7839 45be
00000010: 953e 0abc d89c 2c3e 38cd c0bd f67e 0fbe
00000020: 044f 2f3e b37b 0c3e

conv2.weight f4 [20, 10, 5, 5]
-0.052339174 -0.006959117 0.03538595 -0.061689913 0.062449068 -0.018603902 -0.034064017 0.061979454
0.037704326 0.052934345 -0.060398813 -0.038252916 0.029765692 -0.02350057 0.06079992 0.04471562
-0.012433544 0.058136635 0.005678751 0.044473737 0.059074048 0.00633377 -0.06070836 -0.044920895
-0.059932105 0.027825523 -0.032977886 0.022294125 -0.04654991 0.016854446 -0.04113815 0.031648736
0.01796927 0.055029232 -0.016907442 0.017671458 -0.028703656 -0.052539483 0.05343205 -0.02639031
0.051691357 -0.026395418 0.052596487 -0.032080825 -0.03791173 0.032113023 0.05701171 -0.048556596
0.04691131 0.029132672 -0.035191327 0.037482716 0.061707415 0.047465444 0.0076764366 0.053716492
-0.02351254 -0.015617592 0.021863792 -0.0030742784 -0.023535036 -0.004791538 -0.003084392 0.051707257
0.05519538 -0.04190799 0.057159018 -0.034140892 0.012659945 -0.057003837 0.0024532687 -0.0055542253
-0.033742696 -0.035474885 -0.0116784815 0.004261503 -0.040781863 0.030634066 0.017047033 0.017775692
-0.023459094 0.05747643 0.027851887 -0.024608456 0.04764379 -0.028026853 -0.056605067 0.0024085925
0.023552097 -0.013860099 0.037341528 0.06960077 0.0061541237 0.016104214 -0.058429144 0.018649204
-0.025044138 0.0027897216 0.006698936 -0.027728815 0.037573595 0.066301696 -0.022336038 0.03918045
-0.044591058 -0.03632574 0.06185493 0.018233724 0.02576396 0.04589529 -0.03560018 -0.0041221543
-0.041099228 0.0016053113 -0.015344469 0.011285982 0.069658615 -0.03436919 0.035549514 -0.01431656
-0.0028009142 0.070018336 -0.06467106 -0.06321052 -0.05304356 0.017369328 0.03371893 0.015283692
0.028018365 0.014245899 0.034755584 -0.059671946 -0.02268424 -0.009030981 0.01418038 -0.011688305
-0.046351884 -0.026657283 -0.010770526 0.03301639 0.042127877 0.055177014 0.028093018 -0.037064735
0.014280395 -0.05920756 0.054950595 -0.05370725 -0.0075290706 0.024415169 -0.06245631 -0.04213661
0.011229499 0.05773583 0.0014172862 0.02891569 -0.0045702523 -0.038380876 0.03527912 -0.05053128
-0.038611367 0.032780558 -0.0061247596 -0.024272744 -0.011035425 -0.035488274 0.05769445 -0.004282202
0.0138584515 -0.028979795 0.05971766 -0.03175396 0.018999165 0.062110797 0.028988639 -0.059538376
0.010482376 -0.0008306592 -0.039149586 -0.04466634 -0.040653087 0.011322578 -0.027523996 -0.011770249
0.002128913 0.06187602 -0.05201101 -0.02892255 -0.047481567 -0.023677731 0.03670141 0.023770092
-0.040609132 0.02934657 0.039227534 0.04119013 -0.03071298 -0.035192523 0.01762809 -0.00069186214
0.018122397 0.043891698 0.06058572 0.013696454 0.03958929 -0.0464398 -0.0013815984 0.038134284
-0.04142233 -0.045201443 0.061456654 0.03257665 -0.049465504 0.039529197 0.046099875 0.043169327
-0.03626674 -0.059351668 -0.031343676 0.008248232 0.011425329 -0.05888789 0.039834477 0.026021881
-0.05687338 -0.054133665 0.039395526 0.062165495 0.012872199 -0.00063126464 0.058088765 -0.015681084
0.04269454 0.026019964 0.045658804 -0.016149174 0.006701635 0.057223506 0.012868451 -0.048663422
-0.036123328 -0.06450015 0.0470323 0.05154628 0.0031855078 0.013776136 -0.009153394 0.044281933
0.05540386 0.0027834615 0.013155226 -0.0414694 -0.004187653 0.019920709 -0.013484836 -0.043156926
00000000: 9a61 56bd 4e09 e4bb dcf0 103d 90ae 7cbd
00000010: 98ca 7f3d 3667 98bc b686 0bbd 2bde 7d3d
00000020: da6f 1a3d afd1 583d bf64 77bd 17af 1cbd
00000030: 2ed7 f33c 4484 c0bc 5609 793d ba27 373d
00000040: 10b6 4bbc ae20 6e3d d114 ba3b 182a 363d
00000050: a1f7 713d 848b cf3b 54a9 78bd f9fe 37bd
00000060: 5e7b 75bd 5af2 e33c d213 07bd 2ba2 b63c
00000070: 1eab 3ebd 5612 8a3c 7a80 28bd 1ba2 013d
00000080: 4a34 933c 5566 613d 7a81 8abc bcc3 903c
00000090: ee23 ebbc a433 57bd 91db 5a3d 7e30 d8bc
000000a0: 51ba 533d 343b d8bc 6a6f 573d 2f67 03bd
000000b0: 5549 1bbd f288 033d 1c85 693d 48e3 46bd
000000c0: 1326 403d a4a7 ee3c c824 10bd 7a87 193d
000000d0: eac0 7c3d 206b 423d 9e8a fb3b d305 5c3d
000000e0: 5f9d c0bc eee0 7fbc b21b b33c d579 49bb
000000f0: 8ccc c0bc 5602 9dbb 8323 4abb fdca 533d
00000100: 8d14 623d b6a7 2bbd 931f 6a3d 52d7 0bbd
00000110: a86b 4f3c db7c 69bd 05c7 203b 3800 b6bb
00000120: c835 0abd 1d4e 11bd 1a57 3fbc 14a4 8b3b
00000130: e20a 27bd 4bf4 fa3c 38a6 8b3c 549e 913c
00000140: 492d c0bc 686c 6b3d a429 e43c ac97 c9bc
00000150: 2226 433d 9298 e5bc b7da 67bd 7ad9 1d3b
00000160: 54f0 c03c 7815 63bc 6ef3 183d d98a 8e3d
00000170: 88a8 c93b fcec 833c 6653 6fbd 37c6 983c
00000180: 5d29 cdbc c3d3 363b c082 db3b 8a27 e3bc
00000190: c5e6 193d 2fc9 873d 11fa b6bc ae7b 203d
000001a0: 1da5 36bd 4dca 14bd 985b 7d3d e45e 953c
000001b0: f10e d33c b3fc 3b3d 7fd1 11bd 2313 87bb
000001c0: aa57 28bd 4f69 d23a 5e67 7bbc d7e8 383c
000001d0: 2da9 8e3d b5c6 0cbd 5e9c 113d 0190 6abc
000001e0: 8b8f 37bb c665 8f3d 4372 84bd 8474 81bd
000001f0: 3444 59bd 1f4a 8e3c dc1c 0a3d 7368 7a3c
00000200: c586 e53c a267 693c df5b 0e3d 926a 74bd
00000210: 4dd4 b9bc aef6 13bc d354 683c 4e80 3fbc
00000220: 79db 3dbd 6060 dabc dc76 30bc 323c 073d
00000230: 488e 2c3d 4b01 623d 5423 e63c 31d1 17bd
00000240: 51f8 693c a083 72bd e013 613d 22fc 5bbd
00000250: 6cb6 f6bb 5202 c83c 30d2 7fbd 7097 2cbd
00000260: effb 373c 687c 6c3d 3cc4 b93a 99e0 ec3c
00000270: 0ec2 95bb 4435 1dbd d780 103d e3f9 4ebd
00000280: f426 1ebd e844 063d 35b2 c8bb a2d7 c6bc
00000290: edcd 34bc 275c 11bd 0451 6c3d b751 8cbb
000002a0: 8f0e 633c 0967 edbc 819a 743d 7110 02bd
000002b0: 23a4 9b3c e467 7e3d 9579 ed3c 83de 73bd
000002c0: 46be 2b3c 98c0 59ba 515b 20bd 0df4 36bd
000002d0: da83 26bd 5682 393c 017a e1bc 01d8 40bc
000002e0: 3c85 0b3b b671 7d3d 7f09 55bd fcee ecbc
000002f0: 087c 42bd cdf7 c1bc 3854 163d 7fb9 c23c
00000300: c355 26bd 3868 f03c 0dad 203d fbb6 283d
00000310: ca99 fbbc 0926 10bd c968 903c 155e 35ba
00000320: 6c75 943c c8c7 333d bb28 783d 1867 603c
00000330: 6128 223d a937 3ebd c016 b5ba b232 1c3d
00000340: 76aa 29bd 2625 39bd f9b9 7b3d 186f 053d
00000350: 579c 4abd 5ee9 213d 39d3 3c3d 52d2 303d
00000360: 6f8c 14bd bc1a 73bd 3a62 00bd 9823 073c
00000370: 4e31 3b3c 6e34 71bd 7a29 233d d72b d53c
00000380: 10f4 68bd 43bb 5dbd 345d 213d 3fa1 7e3d
00000390: eae5 523c 747b 25ba 7cee 6d3d 9e75 80bc
000003a0: 78e0 2e3d d227 d53c ba04 3b3d 464b 84bc
000003b0: 6499 db3b 3263 6a3d 32d6 523c 4c53 47bd
000003c0: 0ef6 13bd a818 84bd f1a4 403d 3122 533d
000003d0: f4c3 503b 4db5 613c 1ef8 15bc f960 353d
000003e0: 28ef 623d bc6a 363b 0489 573c d1db 29bd
000003f0: 9438 89bb c130 a33c 80ef 5cbc 51c5 30bd

conv2.bias f4 [20]
-0.043415386 -0.06330575 -0.06406629 -0.035035264 0.015613286 0.027693355 -0.0147460345 -0.011284738
0.035829213 0.019142753 0.0334898 -0.0024086935 0.0056257136 0.026877137 0.046546124 -0.042599127
0.015173802 0.035429996 0.02761535 -0.038559865
00000000: 55d4 31bd 72a6 81bd 3035 83bd 2381 0fbd
00000010: dece 7f3c 2ddd e23c 5a99 71bc 9fe3 38bc
00000020: a7c1 123d 43d1 9c3c 9a2c 093d 2cdb 1dbb
00000030: e857 b83b 712d dc3c 26a7 3e3d 6c7c 2ebd
00000040: 8a9b 783c 0b1f 113d 9639 e23c f3f0 1dbd

fc1.weight f4 [50, 320]
-0.006100412 0.041072287 0.017532509 -0.04678379 -0.006689469 -0.0009842467 -0.044092372 0.0024165213
0.012287872 -0.008357222 -0.031462472 0.039183535 -0.033294898 -0.041132048 -0.030005062 0.0073426315
0.032416772 -0.0155938035 -0.027911535 0.014503784 -0.037854154 0.02308927 0.04283356 -0.0029048736
-0.0069873254 -0.048226938 -0.027765503 0.05311213 -0.002594448 -0.0018324866 0.008323739 -0.047099467
0.0063238926 -0.05411234 -0.03167987 0.041445147 -0.0143884225 -0.03752526 0.008704761 0.026628476
0.020234995 -0.017157065 -0.03328138 -0.028159102 -0.039950754 0.03602297 -0.0010852036 -0.035902496
-0.047513865 -0.05641957 -0.0361172 -0.014363417 -0.004787111 0.02762348 0.0031416353 -0.0141378
0.042618327 0.029536251 -0.039334577 0.05448935 -0.014897907 -0.0031405916 0.022168728 0.02532125
0.035733867 -0.036189567 -0.0347617 0.00051211094 -0.011862132 -0.04749408 -0.037013616 0.0043583955
-0.04515752 -0.0448242 0.04947896 0.050062176 0.04207252 -0.047843494 -0.037181668 -0.033821803
0.014413674 -0.029160986 -0.055898823 -0.012160971 -0.026260434 0.044421703 0.02657025 -0.019567998
0.045345917 0.03053693 -0.02164454 -0.050607186 -0.014330232 -0.0017124019 0.022965118 0.019262576
-0.0035322455 -0.02337001 -0.04706938 0.017293323 -0.045775857 -0.0034009034 -0.003372772 0.018401228
0.014755381 -0.011856341 -0.021913772 0.0549889 -0.033107635 0.003564433 0.0018739859 -0.049858727
-0.026549412 -0.041764367 0.04698954 0.054514684 0.021386689 0.0051271226 -0.013407543 0.040303983
-0.01195781 0.008070585 -0.01262678 -0.04686221 -0.009898417 -0.036742173 0.005817409 -0.006656632
-0.054074455 -0.00016555708 0.016587945 -0.0044856756 0.044940863 0.018324524 0.01605013 0.018630488
-0.04956795 0.050920375 -0.03296507 0.04771059 0.041495763 0.04478793 0.04505552 0.014370684
0.045899555 0.02104055 0.020652846 -0.041066784 -0.001302408 -0.045186643 -0.0075955596 0.009785477
-0.049837366 0.0074093086 -0.038180616 -0.013352683 0.0022806465 -0.017331215 0.02467412 0.025735509
0.051462896 0.037721146 -0.032669522 0.029453238 0.0052086622 -0.047041085 -0.04038877 -0.009550765
-0.020917865 0.033319235 0.02878034 0.039994795 0.021743765 -0.039936274 -0.042327896 0.010777997
-0.010256472 -0.0015217328 0.031378597 -0.014655614 -0.030258628 0.007768218 -0.040758252 0.034929793
-0.05311999 0.0036894646 -0.02677012 -0.040204566 -0.017065559 -0.015646432 0.035774518 -0.02105497
0.047110613 -0.011815076 -0.056443382 -0.011127359 0.03136392 0.0061666775 0.0100861555 0.0084432755
-0.04078186 -0.036261044 0.023926258 0.040408924 -0.028611565 0.0075811893 0.03519014 0.0019762435
0.025773875 -0.0007395471 -0.024834154 -0.034737736 0.0036856553 -0.029624073 0.038050503 -0.024380935
-0.04058713 0.016149195 -0.036329083 0.00696433 0.0073925164 0.038694397 -0.032322213 -0.036235996
-0.050302655 -0.007105494 0.03173396 0.054533105 -0.023919428 -0.0041630086 0.022861788 -0.05633387
0.052976977 -0.040285606 0.029830175 -0.056186777 -0.0025281522 0.049560618 -0.036114976 -0.055482738
0.048565544 0.011979171 0.011939265 0.042709436 0.026813848 0.049729623 -0.022652864 -0.028804993
-0.044589244 -0.022087129 -0.0113255605 0.04347852 0.011727565 0.012811036 0.01201838 -0.022517582
00000000: f7e5 c7bb 6a3b 283d 56a0 8f3c 5ca0 3fbd
00000010: 5533 dbbb d701 81ba 349a 34bd 805e 1e3b
00000020: 1253 493c bbec 08bc cbde 00bd ea7e 203d
00000030: 3b60 08bd 147a 28bd 2dcd f5bc 759a f03b
00000040: 73c7 043d 277d 7fbc bba6 e4bc 47a1 6d3c
00000050: f50c 1bbd b525 bd3c 3e72 2f3d b15f 3ebb
00000060: eff5 e4bb 9c89 45bd 7b74 e3bc 1b8c 593d
00000070: 9d07 2abb 0c30 f0ba 4b60 083c 5feb 40bd
00000080: a838 cf3b e7a4 5dbd c0c2 01bd 63c2 293d
00000090: 6bbd 6bbc 16b4 19bd 6a9e 0e3c f623 da3c
000000a0: dcc3 a53c f98c 8cbc 0e52 08bd ebad e6bc
000000b0: 67a3 23bd d28c 133d 643d 8eba 7f0e 13bd
000000c0: e69d 42bd 3518 67bd a1ef 13bd 8a54 6bbc
000000d0: 33dd 9cbb a34a e23c e5e3 4d3b 3ba2 67bc
000000e0: 8e90 2e3d 02f6 f13c 4b1d 21bd 3a30 5f3d
000000f0: 5a16 74bc 62d2 4dbb 319b b53c 836e cf3c
00000100: ad5d 123d 833b 14bd 4962 0ebd 2f3f 063a
00000110: 6359 42bc 2789 42bd 979b 17bd dfd0 8e3b
00000120: 17f7 38bd 9599 37bd 73aa 4a3d ff0d 4d3d
00000130: 3c54 2c3d 8af7 43bd ce4b 18bd bb88 0abd
00000140: 5527 6c3c 05e3 eebc 2af6 64bd cf3e 47bc
00000150: 1f20 d7bc 88f3 353d daa9 d93c 114d a0bc
00000160: a4bc 393d 9528 fa3c e44f b1bc 7b49 4fbd
00000170: 59c9 6abc ac72 e0ba 5821 bc3c 8dcc 9d3c
00000180: 3f7d 67bb 7772 bfbc d2cb 40bd baaa 8d3c
00000190: 777f 3bbd b1e1 5ebb b909 5dbb 2cbe 963c
000001a0: 8ec0 713c 1941 42bc 8384 b3bc 0a3c 613d
000001b0: df9b 07bd 4399 693b 88a0 f53a aa38 4cbd
000001c0: 277e d9bc 1d11 2bbd 1b78 403d ca4a 5f3d
000001d0: 2333 af3c 6c01 a83b 50ab 5bbc ca15 253d
000001e0: b1ea 43bc 7d3a 043c 8ee0 4ebc 97f2 3fbd
000001f0: f82c 22bc f67e 16bd f79f be3b e01f dabb
00000200: 2d7d 5dbd 6499 2db9 71e3 873c 93fc 92bb
00000210: e913 383d 501d 963c 907b 833c f79e 983c
00000220: c307 4bbd e291 503d 6206 07bd 2e6c 433d
00000230: 76f7 293d 8c73 373d 238c 383d 0473 6b3c
00000240: 2c01 3c3d 3b5d ac3c 2830 a93c a535 28bd
00000250: 90b5 aaba a115 39bd 2ce4 f8bb 4453 203c
00000260: 4422 4cbd c9c9 f23b 4763 1cbd 36c5 5abc
00000270: e676 153b 31fa 8dbc 6121 ca3c 46d3 d23c
00000280: c2ca 523d 7d81 1a3d 7ad0 05bd eb47 f13c
00000290: 6dad aa3b 27ae 40bd b26e 25bd d07a 1cbc
000002a0: f15b abbc c079 083d bfc4 eb3c 95d1 233d
000002b0: fb1f b23c 3894 23bd 0460 2dbd 3296 303c
000002c0: c30a 28bc e174 c7ba d886 003d 1a1e 70bc
000002d0: f1e0 f7bc 898c fe3b 20f2 26bd 8b12 0f3d
000002e0: 5994 59bd f2ca 713b 034d dbbc 8bad 24bd
000002f0: 12cd 8bbc f22c 80bc 4d88 123d 797b acbc
00000300: 0ff7 403d 0594 41bc 2d31 67bd 874f 36bc
00000310: 7477 003d d711 ca3b 6740 253c aa55 0a3c
00000320: e10a 27bd 7686 14bd 0001 c43c d483 253d
00000330: cd62 eabc a06b f83b 8923 103d dd83 013b
00000340: bc23 d33c 2ade 41ba ff70 cbbc 2849 0ebd
00000350: 098b 713b 2fae f2bc d8da 1b3d 87ba c7bc
00000360: b13e 26bd 514b 843c cecd 14bd 0935 e43b
00000370: ec3c f23b 047e 1e3d 4c64 04bd 326c 14bd
00000380: 280a 4ebd 34d5 e8bb 78fb 013d 1b5e 5f3d
00000390: adf2 c3bc d969 88bb a548 bb3c 58be 66bd
000003a0: 63fe 583d 8502 25bd 695e f43c 1b24 66bd
000003b0: 5baf 25bb 1300 4b3d 4ced 13bd de41 63bd
000003c0: aaec 463d 4944 443c e89c 433c 17f0 2e3d
000003d0: b7a8 db3c 4ab1 4b3d 8092 b9bc 73f8 ebbc
000003e0: 36a3 36bd 11f0 b4bc d88e 39bc 8816 323d
000003f0: f924 403c 61e5 513c bde8 443c cb76 b8bc

fc1.bias f4 [50]
-0.0008053046 -0.02613811 -0.030841842 -0.057058215 -0.008083506 0.0066339057 0.024693916 0.022983417
-0.037167754 0.010497464 -0.053749714 -0.0035295954 -0.032671638 -0.01235974 0.03371538 -0.042372257
-0.016848413 0.004260675 0.017380925 -0.01640633 -0.032288138 0.0056829886 -0.021232503 0.045456883
0.030216644 0.001699582 -0.00305388 -0.030603949 -0.060359266 0.027710633 -0.046718992 -0.015931347
0.010111122 -0.041038528 -0.052202813 0.053746298 -0.012260153 -0.054889724 0.019995421 -0.019904058
-0.044133633 -0.04390657 0.017466487 0.022725329 -0.01212179 0.017116906 -0.025278434 -0.035821
0.006156 0.055738263
00000000: 141b 53ba 971f d6bc 08a8 fcbc e0b5 69bd
00000010: ae70 04bc 3c61 d93b e54a ca3c b847 bc3c
00000020: 373d 18bd 8efd 2b3c a928 5cbd c950 67bb
00000030: b2d2 05bd 8280 4abc 2319 0a3d 888e 2dbd
00000040: af05 8abc 229d 8b3b 7162 8e3c 9166 86bc
00000050: 9140 04bd 5d38 ba3b c9ef adbc ff30 3a3d
00000060: e588 f73c 82c4 de3a 9b23 48bb 22b5 fabc
00000070: 473b 77bd 6901 e33c 6a5c 3fbd 7582 82bc
00000080: 1fa9 253c 0418 28bd 9ed2 55bd 1425 5c3d
00000090: cfde 48bc 0cd4 60bd 70cd a33c d60d a3bc
000000a0: 78c5 34bd 60d7 33bd e115 8f3c 782a ba3c
000000b0: 799a 46bc c138 8c3c b814 cfbc 0ab9 12bd
000000c0: 45b8 c93b ce4d 643d

fc2.weight f4 [10, 50]
-0.10988087 0.03576569 -0.058062796 0.06661621 0.08034432 -0.062084228 -0.10160122 -0.03564946
-0.03223848 -0.07857192 0.039308485 -0.120839946 0.16329299 -0.18185696 -0.06565128 0.0071745403
-0.032763425 -0.035283763 -0.07415912 0.05252389 -0.120246254 -0.016516747 0.04970645 -0.07461127
-0.017352562 -0.0373651 0.08735808 -0.10152366 0.039026324 -0.0928461 -0.089869455 0.13305618
-0.03779877 -0.039988227 -0.019776154 0.07211591 -0.115477905 0.13756318 0.10309696 0.07566546
-0.09055835 0.028457567 -0.067573 -0.074754484 0.031027522 -0.067963816 -0.11464484 0.035556212
-0.052899063 0.1219624 0.047654178 0.005553815 -0.009181372 -0.042260077 0.09985729 -0.10221923
-0.11865048 -0.029147033 0.007913174 0.06397255 -0.15973519 -0.12709086 -0.10390135 -0.0027434945
0.021737915 0.1105753 -0.13063924 0.062055483 0.06802543 0.01679481 0.083353065 -0.02271272
-0.14964302 0.007531772 0.016936438 -0.08652813 0.14353141 0.0014496226 -0.04797717 0.045013715
0.02920759 0.077048466 -0.085390046 0.0073443213 -0.008864956 0.062789455 -0.14438218 0.06486255
-0.0473549 -0.007819249 -0.089992635 -0.05720941 -0.13233392 -0.0021860679 -0.1031275 -0.028502809
0.06233143 0.13208538 -0.12709358 -0.010746211 0.11189531 -0.12482274 -0.04488993 0.020236664
0.08772861 -0.073912024 0.049290553 0.06265266 0.09545654 0.098363385 0.069479525 -0.01630706
0.094025075 0.030722735 -0.124108076 -0.026148187 0.13531955 0.18874995 -0.14793955 0.026077978
0.007083642 -0.055454034 0.09616353 -0.114074245 0.12816934 0.00331342 0.11026438 -0.097376406
-0.05974875 -0.022357812 0.043337483 0.09454385 -0.00038954598 -0.050113235 0.08386274 0.11653486
-0.08757752 0.050592817 0.080043994 -0.02714298 -0.11015593 -0.06545574 0.040082775 0.09629549
0.07502244 -0.09289352 0.1267454 0.014109958 -0.116382666 -0.07013306 0.07767498 -0.059035484
0.10261943 0.13018636 -0.13367867 0.086894125 0.02952644 -0.029053932 0.1304617 -0.0804634
-0.03019754 0.10144913 -0.06884219 0.1102842 -0.08404534 -0.110484555 0.005590074 0.03097235
-0.007175406 0.012639427 0.028337575 0.122515306 -0.08367466 0.057790406 0.10981462 -0.064217225
0.04700735 -0.05791106 0.06902695 0.009605299 -0.07406862 0.07900215 -0.07710281 -0.018761737
0.13352185 -0.084995 -0.16956255 0.075840116 0.007074743 -0.13005294 -0.061573952 -0.0323283
0.094176404 -0.022164943 0.1704337 -0.08543832 0.007940568 0.14052677 -0.07070671 0.043257948
0.016762206 -0.06373769 0.08693901 0.054188088 0.017071934 -0.021732358 -0.13107052 -0.10410496
0.027514907 -0.115635104 0.10332847 0.0075315237 0.072322 0.15819988 0.09413553 0.117119595
0.02665835 0.050652865 -0.0059871883 -0.10145583 -0.07160244 0.0511361 0.104316235 0.069045946
-0.043436266 0.061366558 -0.08396581 -0.14149 0.030004747 -0.11108158 0.117350765 -0.040912822
0.07803554 0.08965303 0.04930387 -0.059423238 0.064131886 0.07043468 -0.040047433 -0.12649965
0.073809646 -0.07250951 0.012361933 0.13576496 -0.10328812 -0.07821809 -0.10528003 -0.06847857
-0.084430344 0.033505544 0.041422106 -0.0388721 -0.0314671 0.12981373 -0.03834263 -0.12647189
00000000: 3909 e1bd 0b7f 123d 41d3 6dbd 146e 883d
00000010: 908b a43d 084c 7ebd 4d14 d0bd 2b05 12bd
00000020: 7f0c 04bd 51ea a0bd ef01 213d ef7a f7bd
00000030: 4736 273e b638 3abe 2e74 86bd 6818 eb3b
00000040: f132 06bd b585 10bd bde0 97bd 4a23 573d
00000050: ab43 f6bd 214e 87bc fe98 4b3d cbcd 98bd
00000060: f626 8ebc 260c 19bd cbe8 b23d a3eb cfbd
00000070: 11da 1f3d 1926 bebd 7a0d b8bd e13f 083e
00000080: e2d2 1abd b2ca 23bd 9a01 a2bc 82b1 933d
00000090: ae7f ecbd 5ddd 0c3e 8024 d33d 7ef6 9a3d
000000a0: a876 b9bd d81f e93c b763 8abd e118 99bd
000000b0: 6e2d fe3c 9d30 8bbd eaca eabd 64a3 113d
000000c0: b0ac 58bd 6cc7 f93d 0731 433d c7fc b53b
000000d0: 776d 16bc e718 2dbd fb81 cc3d 5158 d1bd
000000e0: 06ff f2bd c2c5 eebc 42a6 013c 0a04 833d
000000f0: 9f91 23be 1b24 02be 3bca d4bd 33cc 33bb
00000100: b613 b23c 4e75 e23d 4bc6 05be e42d 7e3d
00000110: eb50 8b3d 4595 893c 03b5 aa3d 0710 babc
00000120: 053c 19be 15cd f63b 49be 8a3c a935 b1bd
00000130: e6f9 123e 4301 be3a b683 44bd 4d60 383d
00000140: c144 ef3c 96cb 9d3d fae0 aebd a2a8 f03b
00000150: 523e 11bc c297 803d ecd8 13be a8d6 843d
00000160: 36f7 41bd 4f1c 00bc 0f4e b8bd 6a54 6abd
00000170: 8b82 07be 2244 0fbb 8334 d3bd b97e e9bc
00000180: 3e4f 7f3d 6441 073e d224 02be e010 30bc
00000190: 5e29 e53d 11a3 ffbd 81de 37bd 5cc7 a53c
000001a0: 0fab b33d 305f 97bd e4e4 493d 0a50 803d
000001b0: b87e c33d be72 c93d 484b 8e3d 6296 85bc
000001c0: 3890 c03d 3fae fb3c 602c febd b934 d6bc
000001d0: 3591 0a3e ab47 413e 777d 17be 7ca1 d53c
000001e0: e51d e83b c523 63bd 63f1 c43d c29f e9bd
000001f0: d33e 033e f725 593b 4bd2 e13d 486d c7bd
00000200: 1bbb 74bd bb27 b7bc a582 313d 35a0 c13d
00000210: fa3b ccb9 8943 4dbd 3ac0 ab3d d4a9 ee3d
00000220: d85b b3bd 6a3a 4f3d 1bee a33d f45a debc
00000230: 6f99 e1bd a90d 86bd d62d 243d 9236 c53d
00000240: 5da5 993d f53e bebd 8cc9 013e 742d 673c
00000250: 095a eebd eca1 8fbd 0f14 9f3d 31cf 71bd
00000260: 232a d23d 934f 053e 10e3 08be 8cf5 b13d
00000270: 6fe1 f13c 8302 eebc c097 053e ffc9 a4bd
00000280: d560 f7bc 90c4 cf3d 22fd 8cbd afdc e13d
00000290: f71f acbd ba45 e2bd f12c b73b bab9 fd3c
000002a0: ab1f ebbb 9915 4f3c 3424 e83c 4ee9 fa3d
000002b0: 9f5d abbd a2b5 6c3d 7de6 e03d 5284 83bd
000002c0: c78a 403d 2634 6dbd 005e 8d3d 8b5f 1d3c
000002d0: 4ab1 97bd e1cb a13d 14e8 9dbd 37b2 99bc
000002e0: f4b9 083e dc11 aebd cea1 2dbe 1052 9b3d
000002f0: 3fd3 e73b 992c 05be f834 7cbd ae6a 04bd
00000300: 8fdf c03d 4193 b5bc 2c86 2e3e 49fa aebd
00000310: 2819 023c 40e6 0f3e aece 90bd 3f2f 313d
00000320: e550 893c e888 82bd 140d b23d 54f4 5d3d
00000330: 71da 8b3c 0f08 b2bc 5a37 06be fb34 d5bd
00000340: f166 e13c 19d2 ecbd e09d d33d 00cb f63b
00000350: 8f1d 943d 26ff 213e 21ca c03d 66dc ef3d
00000360: 9d62 da3c 6179 4f3d 2d30 c4bb 13c8 cfbd
00000370: 4da4 92bd 1674 513d c0a3 d53d f667 8d3d
00000380: 3aea 31bd 805b 7b3d 44f6 abbd c1e2 10be
00000390: 84cc f53c bd7e e3bd 9955 f03d 3494 27bd
000003a0: 19d1 9f3d 029c b73d dbf2 493d c865 73bd
000003b0: 9457 833d 0f40 903d c708 24bd 2089 01be
000003c0: 8329 973d de7f 94bd b489 4a3c f805 0b3e
000003d0: b988 d3bd ce30 a0bd 0e9d d7bd 7e3e 8cbd
000003e0: d1e9 acbd 1c3d 093d 3aaa 293d 5a38 1fbd
000003f0: a5e3 00bd e4ed 043e 290d 1dbd d981 01be

fc2.bias f4 [10]
-0.13834344 0.009902887 -0.078687824 -0.020827213 0.030207098 0.0034807187 -0.0032221335 -0.031577833
-0.015977805 0.046113186
00000000: e7a9 0dbe b83f 223c 1527 a1bd d59d aabc
00000010: e074 f73c c51c 643b 6e2a 53bb c257 01bd
00000020: e3e3 82bc 2ee1 3c3d
