MNIST/Models/Server/Global models/Global model_8_5_2021_10_46_55.pth (torch, 90095 bytes, 8 tensors)

conv1.weight f4 [10, 1, 5, 5]
000000 ad 65 0c be a0 ac 8e 3d b8 64 af 3d 04 16 bf bc
       -0.13710661 0.06966519 0.085641325 -0.023325928
000010 1c 6e b5 bd e2 72 0d 3e 53 8d 85 bd 64 11 5e bd
       -0.08858892 0.13813356 -0.06521096 -0.054215804
000020 b5 9f fe 3c b8 0b 4f 3c 0b 60 87 3d 25 92 d6 bd
       0.031082014 0.012637071 0.066101156 -0.104770936
000030 d6 14 a6 bd d5 20 38 3d 60 bf 9f bd 80 12 c4 bd
       -0.08109443 0.044953186 -0.07800174 -0.09573841
000040 1c ce 2c 3e 04 7c 7a 3c 9e 2e 91 ba 2b 0c f6 3d
       0.168755 0.015288357 -0.0011076515 0.120140396
000050 93 c3 f5 bd 61 b5 28 be 86 f7 de 3d ef 26 cd bd
       -0.120001934 -0.1647544 0.10887055 -0.100171916
000060 ef 49 18 be c6 7f 6c be 28 5f 2a be fc 08 d0 3c
       -0.14871953 -0.23095617 -0.16637862 0.02539491
000070 3f 34 46 be d0 aa d6 3d 7f bb 3d bd c3 83 15 bc
       -0.19355868 0.10481799 -0.04632139 -0.009125653
000080 1b fd 88 bd d9 54 51 bd 6f 71 4d 3d 81 c0 5b be
       -0.06688901 -0.051106308 0.050157007 -0.21460153
000090 a9 e5 02 3d e8 d9 95 3d 8a bc 1f bc f0 6d 05 3e
       0.031957302 0.07316953 -0.009749541 0.13030219
0000a0 78 9a cf bc 04 61 bb 3d e4 15 0b be c0 e2 33 39
       -0.025342211 0.09149364 -0.1358257 0.00017155241
0000b0 4b 0b 6d 3e 64 29 2f 3e 6f 3e 74 3e dd ea 7b 3e
       0.23148839 0.17105633 0.23851942 0.24601312
0000c0 80 3e 75 3e 2b f0 4e 3e 32 4d 4d bd a2 93 1e 3e
       0.23949623 0.20208804 -0.050122447 0.15486005
0000d0 c6 97 3d 3e fd bc 9b 3e 62 af 88 3e 4f 17 0c 3c
       0.18514928 0.30417624 0.26696306 0.008550479
0000e0 96 71 b9 3d f0 9d 91 bd 3b 4c dd bd 0e f8 50 3d
       0.09054868 -0.07110202 -0.108055554 0.051017813
0000f0 c2 53 50 3d 6d c3 fc 3d 27 5b a0 bb 2c 20 d2 3d
       0.050861128 0.12341962 -0.0048936787 0.102600425
000100 08 fb 3e be d4 ef 02 be fe 25 1b be 2d 7c 49 be
       -0.18650448 -0.127868 -0.15151212 -0.19676276
000110 b6 db 24 be 5a 2a 24 be ca 44 63 be 41 20 37 be
       -0.16099438 -0.16031781 -0.2219421 -0.17883398
000120 cb b0 8f bd 67 82 92 bd 83 7d db 3d d3 6c 1e 3c
       -0.070161425 -0.071537785 0.10717299 0.0096695
000130 0c 22 cd 3d b1 b2 45 3d f8 dc 17 3e a7 e9 3f 3e
       0.100162596 0.048266117 0.14830387 0.18741475
000140 27 84 4d be e0 33 1c be 33 d1 dd 3b 3a 33 5a 3e
       -0.20069943 -0.15254164 0.0067693233 0.21308604
000150 b6 05 07 be c9 91 97 bd 2d f5 2b 3e 0a 98 10 3e
       -0.13185772 -0.07400853 0.16792746 0.14120498
000160 a7 c8 ea 3d 86 5a 9e bc 8c cd 39 3d 58 99 0a bb
       0.11464053 -0.019330274 0.04536204 -0.002114853
000170 23 e0 5d 3e 96 60 0e be 80 a6 8c bd d5 74 32 3c
       0.21667533 -0.13904032 -0.06867695 0.010892113
000180 cd 50 9c 3d e2 76 5e 3c 85 cc e7 3d 08 9c 68 be
       0.07632599 0.013578149 0.11318306 -0.22715771
000190 2b 81 12 bd ce 0d 4a be 50 82 52 3d a3 94 44 3e
       -0.035767715 -0.19731829 0.051393807 0.19197325
0001a0 70 41 31 3e 8e fb 16 be d4 46 66 be 9f ca f0 bd
       0.17310119 -0.14744398 -0.22487956 -0.11757397
0001b0 70 fe 59 bd 00 71 0a 3e b4 0c 80 be 5f 81 59 be
       -0.053221166 0.13519669 -0.25009692 -0.21240757
0001c0 c8 11 a1 bd 17 93 f8 3d 08 36 6e 3e b6 4b ad 3c
       -0.0786472 0.1213743 0.23262799 0.021154266
0001d0 03 cb 8c 3d 35 4c a2 bd 87 db 81 bd 6a 07 3c 3e
       0.06874659 -0.079246916 -0.063407 0.18362203
0001e0 c4 42 4d be 8f 13 9f be 62 67 7b 3d c9 8a 4a 3e
       -0.20045 -0.3106961 0.06137789 0.19779505
0001f0 7a 8f 88 3e d7 12 6c bd 2c 75 d9 bd 95 2c 15 3e
       0.26671964 -0.057635155 -0.10618052 0.14567788
000200 b7 f9 b3 bd 43 64 66 3e a9 6b 10 bd 03 5a 81 3e
       -0.08787864 0.22499184 -0.035258923 0.25263986
000210 c8 df 48 3e 16 ee 86 3e 85 ae 14 bd 61 f9 f1 3d
       0.19616616 0.2635352 -0.036299247 0.118151434
000220 e9 64 10 be 92 0f 35 3e 1a ab 7a 3d c7 3b 75 3d
       -0.14100994 0.17681721 0.06119833 0.05987146
000230 8d 63 2b bd 0c 99 29 be 80 56 41 be df d8 5b bd
       -0.041842986 -0.16562289 -0.18880653 -0.05367362
000240 1f c0 41 3e b0 08 ce bd 96 4f 63 be 70 d3 34 be
       0.18920945 -0.10060251 -0.22198328 -0.17658782
000250 da 6a 76 be 54 8c af bd 47 44 9a 3c be 3d 08 be
       -0.24064198 -0.08571687 0.018831385 -0.13304803
000260 98 7b f7 3d 47 f5 e5 bc 96 67 49 be 5d 43 3e be
       0.120841205 -0.028071059 -0.19668421 -0.18580385
000270 46 05 50 be 1c 4d ed bd 29 81 2e 3e b5 33 9f 3d
       -0.20314512 -0.11586973 0.17041458 0.07773534
000280 ac 51 49 3e a5 35 7a 3e 42 81 e7 3a 4b ef d3 3c
       0.19660062 0.24434526 0.0017662423 0.02587094
000290 c7 ab 4a 3e 16 d2 23 3e c3 b6 fc 3d d5 1e 1d 3e
       0.1979209 0.1599811 0.123395465 0.15343793
0002a0 8e b0 f9 3d 4f 43 e8 bd 07 6a 99 bd 6a 93 29 be
       0.12191878 -0.11340963 -0.07490926 -0.1656014
0002b0 82 1c 79 bc 24 f9 c7 3d 13 55 d0 bd 81 28 1e 3e
       -0.015204551 0.09764317 -0.101724766 0.15445139
0002c0 73 ec e9 bd 39 2d 88 bd dd b9 b3 bd ec 9e 29 be
       -0.11422052 -0.066492505 -0.08775685 -0.1656453
0002d0 f4 51 c6 bd 12 3d d1 3d d6 c7 bd bc c8 9c 6d be
       -0.096836 0.10216726 -0.023166578 -0.23204339
0002e0 9c a8 01 be 0e 89 77 3e c8 6c 3d 3e c3 68 c8 bd
       -0.12661976 0.24173376 0.18498528 -0.09785607
0002f0 93 75 c6 bc a1 88 22 3e 54 1c 99 ba f5 17 4e 3d
       -0.024225986 0.15872432 -0.0011681416 0.050315816
000300 59 e0 45 3e e5 49 55 3e f3 e0 02 be 01 e3 13 3e
       0.19323863 0.2082897 -0.12781124 0.14442064
000310 67 52 39 3e 72 7b 4a 3e ae 2c 28 be fc 4f e4 bd
       0.1809784 0.19773653 -0.16423294 -0.11148068
000320 a0 1d 77 3d 3c e4 1f 3e f6 11 90 3d a1 06 b1 3d
       0.060330987 0.15614408 0.07034676 0.086438425
000330 7a 9e c0 3d c6 38 3a be c6 79 bb 3d 7f 1c 37 3e
       0.09405227 -0.1818572 0.09154086 0.17881964
000340 4f f6 0b bd 6d 5e 85 bd 6e c5 3a 3d b6 4e 5e be
       -0.034170445 -0.06512151 0.04559844 -0.21709713
000350 37 5c 10 bd 98 5f 13 3e a3 64 91 3d 06 05 2a be
       -0.035244193 0.14391935 0.07099273 -0.16603479
000360 db 62 09 be 5f b2 43 be 9f aa e2 bd 51 26 93 3d
       -0.13416617 -0.19111012 -0.110677 0.07185043
000370 04 c1 f2 bd b9 88 d8 3d 96 32 e3 bd a9 ad ec bd
       -0.11853221 0.10572953 -0.11093633 -0.115565605
000380 88 9c 4e 3d 22 d8 fe 3c 55 dd 49 3e df 07 8b bd
       0.05044225 0.03110892 0.19713338 -0.06788611
000390 2f 2a 39 3e 9f 05 ec 3d a3 d4 66 be 03 b4 48 be
       0.18082498 0.1152451 -0.22542052 -0.19599919
0003a0 04 2e ff 3d c6 55 cf 3d dd 6b 77 3e a3 ed cf bc
       0.12459949 0.10123782 0.2416224 -0.025381869
0003b0 77 5d 45 be 59 85 28 be cc e9 12 bd 58 2f 1a be
       -0.19273935 -0.16457118 -0.035867497 -0.15057123
0003c0 00 33 03 3e 90 1f de bd d5 cc c6 bd 63 cb e6 bd
       0.12812424 -0.10845864 -0.09707037 -0.11269262
0003d0 40 9d 32 be 45 5d e8 3d 44 e5 aa 3d b3 d7 46 3c
       -0.17442799 0.11345915 0.0834451 0.012136388
0003e0 5e 06 f1 bd c7 ca c9 bd
       -0.117687926 -0.0985313

conv1.bias f4 [10]
000000 17 9b f8 bd 31 ff 0e 3e f7 47 e0 3c bf 8d 4d be
       -0.12138956 0.13964535 0.027378066 -0.20073603
000010 b0 61 c6 bc 9b 6e 89 3d 43 ea be bd b9 34 07 be
       -0.024216503 0.067105494 -0.093220256 -0.13203706
000020 93 8f 24 3e 75 03 81 3d
       0.16070394 0.062994875

conv2.weight f4 [20, 10, 5, 5]
000000 ae 43 4e bd b7 c8 84 bb 25 0d 1c 3d 55 6c 77 bd
       -0.050357513 -0.0040522474 0.038098473 -0.060406048
000010 80 f7 82 3d de da 79 bc 42 93 08 bd 5a c8 7c 3d
       0.06394863 -0.015249936 -0.03334356 0.061714508
000020 17 d7 15 3d 39 95 60 3d 20 3e 70 bd 99 17 21 bd
       0.03658208 0.05482981 -0.058652997 -0.039329145
000030 c1 be e2 3c 11 09 d5 bc 68 e5 81 3d e1 ae 2e 3d
       0.02767885 -0.0260053 0.06342584 0.042647246
000040 cc 97 7d bc 72 d3 58 3d 0c da 14 3b 82 09 36 3d
       -0.015478086 0.052936025 0.0022712974 0.04444266
000050 09 5a 66 3d c6 e5 12 3b 86 b5 87 bd 5f e8 42 bd
       0.056238208 0.0022414788 -0.0662642 -0.047584888
000060 9b db 7f bd 4c 03 d0 bc 07 6a 8f bd 3f 03 d1 bb
       -0.06246529 -0.025392197 -0.07002645 -0.006378561
000070 34 c6 99 bd 1f 4d 8b bc a8 63 ca bd 93 d1 a9 bb
       -0.07508507 -0.017004548 -0.09882289 -0.005182454
000080 f8 90 78 bc 28 f4 b8 3c 3b bc 78 bd 7e d1 ae bc
       -0.015171282 0.02257736 -0.060726386 -0.021340128
000090 29 e5 37 bd 56 9d 93 bd 29 0e 83 3c 49 0d ad bd
       -0.04489628 -0.07207744 0.015997963 -0.084497996
0000a0 11 33 8f 3d 1c f0 df ba 53 22 52 3d 28 1d 92 bd
       0.06992162 -0.0017085108 0.051302265 -0.07134467
0000b0 79 25 a8 bd a5 46 ab 3d 37 18 bf 3d 35 e3 47 bd
       -0.08210272 0.08363084 0.093307905 -0.048800666
0000c0 68 0d 20 3d 52 02 38 3d e5 f6 00 bd 96 c0 70 3d
       0.039075285 0.044924088 -0.031485457 0.058777414
0000d0 ff df a8 3d 99 be 6f 3d 74 8a 57 3c 91 00 4f 3d
       0.08245849 0.058531377 0.013155568 0.05053765
0000e0 9a 8a b7 bc 4e ec 8c bc a8 58 a0 3c bf 67 45 bb
       -0.022404958 -0.017202523 0.019573525 -0.0030121652
0000f0 4a 02 cf bc 16 ee ac bc 48 6e cb bc eb 94 15 3d
       -0.025269646 -0.021109622 -0.02483286 0.036518972
000100 f8 17 4b 3d 32 7a 50 bd 0c bc d5 3c b6 dd 87 bd
       0.049583405 -0.050897785 0.026090644 -0.06634085
000110 bc 05 db bb 1c 7a 89 bd 16 3e e6 bc 10 0f 32 bd
       -0.006684033 -0.06712744 -0.028105777 -0.043471396
000120 ed 57 81 bd 02 0d 71 bd 02 50 0a bd a6 a7 d8 bb
       -0.06315599 -0.058850296 -0.033767708 -0.006611782
000130 99 0b 51 bd 33 28 05 3d ea 2e d9 3c 56 97 d1 3c
       -0.05103645 0.03250904 0.026511628 0.025584858
000140 c4 cf 54 bd d8 6c ce 3c 94 3e 95 3c 8b c1 c9 bc
       -0.051955953 0.025198385 0.018218316 -0.024628421
000150 f4 4e 47 3d a1 f6 83 bd e6 17 ba bd 26 fc 91 ba
       0.04865928 -0.06443525 -0.090865895 -0.0011137768
000160 61 46 94 3c 7f 46 a7 bc f8 21 50 ba 6d 7c 7c 3d
       0.018099966 -0.020419357 -0.0007939632 0.0616421
000170 7d 62 9c 3c 1b 80 cd 3a b4 2c 9d bd 59 b7 b9 3b
       0.019089932 0.0015678437 -0.07674542 0.0056676087
000180 88 0c 5f b9 9b 55 7f 3c c9 20 48 bc b2 41 2f bd
       -0.00021271606 0.015584375 -0.012214848 -0.04278726
000190 04 ca b1 3c 4f b2 ad 3d 68 11 ac 3b 58 55 1c 3d
       0.021702774 0.08481275 0.0052510984 0.038167328
0001a0 c5 75 51 bd 31 3d 80 bd 6b 75 8c 3d 93 e1 f4 3c
       -0.051137704 -0.06261671 0.06858333 0.029892718
0001b0 3c 56 9d 3c 5b 29 1c 3d d8 09 18 bd 2b 1a 8d 3c
       0.019206159 0.038125377 -0.037118763 0.017224392
0001c0 f7 d0 27 bd 5f 74 78 bc 25 b4 0f bd c1 06 42 3d
       -0.04097077 -0.015164464 -0.03508391 0.047369722
0001d0 3f 1a da 3d a1 0f 55 bd b9 15 79 3c e6 76 07 bd
       0.10649537 -0.052016858 0.015202933 -0.033072375
0001e0 c5 3a 38 3d 1a 79 d3 3d 04 81 b4 bd 71 56 99 bd
       0.044977922 0.10325833 -0.0881367 -0.074871905
0001f0 27 83 7b bd 99 dd 28 3c a1 de 30 3d 89 86 d1 3c
       -0.061404373 0.010306739 0.043181065 0.025576847
000200 76 fd ee 3c d0 40 40 3c 73 26 99 3c e8 55 98 bd
       0.029173594 0.0117342025 0.018695092 -0.0743826
000210 d4 82 22 bd 89 ad b1 bc 08 9d 8e 3b ce f2 e5 bc
       -0.03967555 -0.021689193 0.0043522157 -0.02806988
000220 c3 1f 98 bd 52 c3 6c bd 29 f1 00 bd c4 1f 87 3c
       -0.07427933 -0.05780346 -0.03147999 0.01649464
000230 11 d3 97 3c d3 5e 6b 3c 12 8f bc bb 4b 83 70 bd
       0.018533261 0.01436587 -0.00575436 -0.05871896
000240 cb e1 1b bc 78 2a a8 bd b7 39 09 3d 39 0d b1 bd
       -0.009514282 -0.08211225 0.033502307 -0.086451
000250 52 72 3c bd 11 8a 54 bc b1 9e 9d bd c6 8c 63 bd
       -0.04600746 -0.012972371 -0.076962836 -0.055554174
000260 20 8c 99 3b 16 2f 5a 3d 78 4c cd ba 63 48 04 3c
       0.0046858937 0.05326756 -0.0015663048 0.008073899
000270 a5 f6 cd bc 7c 80 56 bd 04 65 bd 3c 23 90 84 bd
       -0.025142023 -0.052368626 0.023119457 -0.064728044
000280 81 89 77 bd a5 e8 5f 3c a1 1a 91 bc 78 93 19 bd
       -0.06043387 0.013666307 -0.017712893 -0.037494153
000290 a7 56 f3 bc ec 23 74 bd d9 38 54 3d 58 bf 89 bb
       -0.029704405 -0.05960457 0.051812027 -0.004203718
0002a0 1e 2c ac bb f4 f1 70 bd a8 1e 81 3d 74 c0 35 bc
       -0.0052542826 -0.058824494 0.06304675 -0.011093248
0002b0 fc 88 a8 3c 55 91 40 3d a9 26 88 3c a7 b2 a1 bd
       0.020573132 0.0470136 0.016619997 -0.07895403
0002c0 b8 84 63 bc d3 a0 f9 bc 2e 68 63 bd 2a 19 3e bd
       -0.013886623 -0.030472195 -0.055519275 -0.046410717
0002d0 c4 6e 7f bd 55 39 47 bc c9 e2 54 bd 03 8f f7 bc
       -0.062361494 -0.012159665 -0.05197409 -0.03021956
0002e0 4e 8e 82 bc 72 7f 01 3d df 95 96 bd 73 af eb bc
       -0.015936997 0.031615682 -0.073528044 -0.028770184
0002f0 1c b4 67 bd e4 c9 41 bd 7f 16 4a 3c 50 33 c8 3c
       -0.05656825 -0.04731168 0.012334465 0.02443853
000300 02 9a 45 bc 67 9f f9 3c 95 ff 85 3c 71 54 2d 3d
       -0.012060644 0.030471517 0.016357223 0.042316858
000310 54 e7 25 bc 05 c6 0c 3c ed 36 20 3d e3 43 20 3c
       -0.010125954 0.008592133 0.03911488 0.00978181
000320 0e e2 3e 3c 49 18 52 3d 6e 8c 93 3d a3 7c 95 3c
       0.011650575 0.05129269 0.07204519 0.018247908
000330 72 2d 1b 3d 26 d0 59 bd 98 d6 82 bb d2 bb 01 3d
       0.037885137 -0.05317702 -0.0039928667 0.03167326
000340 fb 61 43 bd be 7e 4c bd 19 3d 7c 3d 19 9f d2 3c
       -0.047700863 -0.04992556 0.061581705 0.02571063
000350 3f d5 88 bd 04 d2 bc 3c 21 17 13 3d 43 9a 30 3d
       -0.066812985 0.023049362 0.03591073 0.043115865
000360 bb e9 61 bd 0d ee ad bd 37 8d 47 bd 77 6e 09 bb
       -0.055154543 -0.0849267 -0.048718657 -0.0020970383
000370 b4 d1 7a ba c7 10 b2 bd f7 ed ec 3b d8 57 61 3b
       -0.00095679914 -0.08694606 0.007230516 0.0034384634
000380 5e 08 99 bd 50 31 4f bd 8f f8 60 3d 2c 7a 96 3d
       -0.07472299 -0.050584137 0.054924544 0.07347521
000390 da ab 69 3c f4 44 f5 bb 1e 9e 3a 3d 1b ad ca bc
       0.014262164 -0.0074850265 0.04556095 -0.024740746
0003a0 f3 a5 2a 3d 93 61 cc 3c 04 a7 1c 3d 49 a7 14 bd
       0.041662168 0.02494887 0.038245216 -0.036292348
0003b0 1e cc a6 bc 26 c1 36 3d 38 c7 93 3b 6c 10 70 bd
       -0.020361003 0.044617794 0.0045098327 -0.05860941
0003c0 a6 d3 84 bd 56 14 bd bd b7 44 1a 3d 6d fb 33 3d
       -0.06485681 -0.092323944 0.037663188 0.04394095
0003d0 95 52 e9 bb 18 c3 a5 bc bc d6 22 bd 86 d7 86 3c
       -0.0071204402 -0.02023463 -0.039755568 0.016460191
0003e0 a5 e5 26 3d 18 a6 f2 bb 6e b0 78 3c 1e 9c 26 bd
       0.04074635 -0.007405054 0.015178783 -0.04067623
0003f0 3d 31 7d bb dc 90 a4 3c 4f 03 56 bc 40 f6 27 bd
       -0.0038634085 0.020088606 -0.013062312 -0.041006327

conv2.bias f4 [20]
000000 13 6e 79 bd 87 29 3f bd 47 15 82 bd 56 ac 3b bd
       -0.06089599 -0.046670463 -0.063517146 -0.04581865
000010 6c 35 b8 3b f8 ed 0a 3c ee f1 03 bd 80 54 f0 bb
       0.0056216028 0.008479588 -0.032213144 -0.007334292
000020 42 00 3d 3d 2e 9d c1 3c 41 54 41 bb 55 3f 8b 3c
       0.046142824 0.02363452 -0.0029499682 0.016997973
000030 8b 5f 7c bb 9b bb 92 3c a0 9c 07 3d eb 42 14 bd
       -0.0038509096 0.017911723 0.033108354 -0.03619663
000040 50 71 72 3c 2c ee f0 3c 94 fe 0a 3d 36 3a 2f bd
       0.014797524 0.029410444 0.03393419 -0.042780124

fc1.weight f4 [50, 320]
000000 e3 ba fe bb 2c b2 11 3d ce 67 84 3c c2 64 49 bd
       -0.0077737435 0.03557031 0.01616278 -0.049168356
000010 53 c0 16 bc d1 22 a2 bb 12 bc 36 bd 7e 8b 46 b9
       -0.009201127 -0.004947998 -0.04461295 -0.00018934716
000020 e2 4b 23 3c 25 cd 26 bc 27 f4 09 bd 6b 42 16 3d
       0.009966822 -0.010180746 -0.033680107 0.036684435
000030 b9 f2 ff bc f0 1d 1c bd e0 55 f2 bc 68 7e cc 3b
       -0.031243669 -0.038114488 -0.029581964 0.0062406547
000040 b9 f2 fa 3c fb 2f 8c bc dc 48 ee bc 31 c7 4c 3c
       0.030633317 -0.017112723 -0.029087476 0.012498663
000050 63 27 2d bd 74 23 a3 3c 75 a7 2d 3d c4 23 9f bb
       -0.04227389 0.019914366 0.042396028 -0.0048565585
000060 e8 c0 6d bc af 62 5b bd e9 c4 eb bc ca ba 53 3d
       -0.014511324 -0.05356091 -0.028780418 0.051691808
000070 aa c6 be bb bc 86 a3 bb 79 f2 fe 3b 77 c6 3e bd
       -0.0058220224 -0.004990427 0.00778037 -0.04657599
000080 85 9f 05 3c 71 7b 60 bd 13 00 07 bd 5e 4e 2a 3d
       0.008155708 -0.054805223 -0.032959055 0.041578643
000090 09 06 73 bc 09 90 12 bd 53 8e 03 3c 64 75 d2 3c
       -0.014832982 -0.035781894 0.008029538 0.025690742
0000a0 c6 e5 bf 3c 38 85 82 bc 3e b6 0b bd db 96 ea bc
       0.023424994 -0.015932664 -0.034109347 -0.028636387
0000b0 2c 0a 2c bd ca 5e 0d 3d 60 6d 08 bb 9a 4a 13 bd
       -0.04200189 0.034514226 -0.0020817146 -0.035959817
0000c0 1c 26 46 bd e7 73 72 bd e6 39 13 bd 1e 86 52 bc
       -0.048376188 -0.059192564 -0.035943888 -0.012849359
0000d0 16 00 aa bb a8 87 e2 3c fd 28 ea 3a 33 6f 4a bc
       -0.0051879985 0.027652577 0.0017864999 -0.0123556135
0000e0 b5 ad 32 3d 13 a0 d8 3c b4 6c 2f bd 60 dd 68 3d
       0.04362269 0.026443517 -0.042828277 0.056851745
0000f0 1f 7a 58 bc ea d2 32 bb 9e 1b 9c 3c 0d ff cf 3c
       -0.01321271 -0.002728636 0.019056138 0.025390172
000100 54 e9 fe 3c cf bc 21 bd 2e b5 14 bd eb 6c 8d ba
       0.031117119 -0.039486703 -0.0363056 -0.0010789906
000110 43 c1 9a bc da e5 43 bd 68 2e 20 bd ce 87 3c 3a
       -0.018890982 -0.047826625 -0.039106756 0.00071918673
000120 62 8d 53 bd 4b 7a 34 bd d3 78 35 3d 80 45 38 3d
       -0.051648505 -0.04406194 0.04430468 0.044988155
000130 8b 00 03 3d 19 0b 4b bd 96 67 22 bd fc 74 0f bd
       0.03198294 -0.04957113 -0.03964957 -0.035023674
000140 c1 dc 67 3c 0d 7c 06 bd 2a ad 62 bd c2 c9 0a bc
       0.014151753 -0.032833148 -0.055340923 -0.008470954
000150 58 32 dd bc 96 f3 1c 3d f0 c0 c7 3c f8 e6 91 bc
       -0.027001545 0.03831824 0.024383992 -0.01781033
000160 c3 5c 3c 3d a7 f1 d3 3c 7d 36 bd bc 27 60 4c bd
       0.045986902 0.025872065 -0.023097271 -0.049896386
000170 d4 77 4f bc a6 99 59 bb e6 a9 a8 3c e7 f1 ab 3c
       -0.012662847 -0.0033203154 0.020588826 0.020989371
000180 b4 a1 42 bb 1a 54 c2 bc f4 d6 53 bd 88 68 84 3c
       -0.0029698433 -0.023721743 -0.051718667 0.016163126
000190 5c 4c 35 bd 0d cf 82 bb 7a 8d 89 bb c2 b9 8a 3c
       -0.044262275 -0.0039919675 -0.0041977735 0.01693428
0001a0 ef 34 69 3c 86 a6 55 bc 88 95 c1 bc cc 40 52 3d
       0.014233812 -0.013040191 -0.023630872 0.051331326
0001b0 e3 21 10 bd 95 db 18 ba 7d f5 e5 b8 5c bb 4e bd
       -0.035188567 -0.000583106 -0.00010965297 -0.05047165
0001c0 68 92 e0 bc 6a 77 25 bd 2b 75 3c 3d f6 d8 5a 3d
       -0.027413562 -0.040397085 0.046010178 0.053429566
0001d0 d1 e1 b3 3c f8 f8 c2 3b bd 5e 86 bc 01 d5 20 3d
       0.021958264 0.0059500895 -0.016402597 0.039265636
0001e0 af d1 50 bc e2 4c 0d 3c 99 4f 5a bc 01 6e 41 bd
       -0.012745305 0.008624287 -0.013324642 -0.04722405
0001f0 49 79 0a bc 79 7e 13 bd 7f cf ba 3b e5 5b e5 bb
       -0.008451768 -0.036009286 0.005701005 -0.00699948
000200 59 6f 5e bd 77 1a 9c bc 6e 21 3a 3b 6c 6a fd bb
       -0.05430541 -0.019055588 0.0028401273 -0.0077336337
000210 df bc 1d 3d f7 c4 c7 bb 31 4d e7 3b 69 34 15 3c
       0.0385102 -0.006096478 0.0070587625 0.009106734
000220 3c 4e 5f bd 39 40 e8 3c 81 9d 28 bd 87 a7 11 3d
       -0.05451797 0.028350936 -0.041165832 0.035560157
000230 9d 6a 1a 3d 5c 46 02 3d 94 f0 1b 3d c9 19 0d 3c
       0.03769933 0.03180538 0.03807123 0.008612105
000240 ad 93 39 3d 79 b4 9c 3c f3 ce aa 3c a3 95 27 bd
       0.04530685 0.019129025 0.020850634 -0.04091419
000250 56 05 40 bb 90 95 49 bd 84 ec fd bb e9 19 19 3c
       -0.0029300055 -0.0492149 -0.007749142 0.009344556
000260 b1 07 54 bd 28 cb 9a 3b e2 cd 18 bd 9f d2 56 bc
       -0.051765148 0.004723925 -0.03730572 -0.013111739
000270 fc fd 00 3b e1 ef 90 bc 3a 35 d1 3c ac 73 dc 3c
       0.0019682636 -0.017692508 0.025538076 0.026910625
000280 82 7a 85 3d d5 c6 57 3d 88 4f 18 bd 27 b2 84 3c
       0.06517507 0.052679855 -0.037185222 0.01619823
000290 bf ed f9 3a 8a 4b 52 bd fe 59 2f bd 6b 51 86 bc
       0.0019068046 -0.05134157 -0.042810433 -0.016396245
0002a0 cb 28 29 bc a6 95 57 3d 34 10 15 3d 97 1c e1 3c
       -0.010324667 0.05263295 0.036392406 0.027479453
0002b0 13 cf 65 3c 28 6e 56 bd 7a b4 4f bd fd 97 d6 3b
       0.014026421 -0.052351147 -0.050709225 0.00654888
0002c0 40 1c 28 bc e1 91 e9 bb 25 15 d6 3c e6 97 8c bc
       -0.010260642 -0.007127986 0.02613313 -0.017162275
0002d0 27 00 fa bc ee 6d 47 bb c8 db 42 bd 24 08 03 3d
       -0.03051765 -0.0030430513 -0.04757288 0.031990185
0002e0 c3 58 5a bd 90 06 2c bb 5c 1a 04 bd 18 98 39 bd
       -0.053307306 -0.0026249029 -0.0322517 -0.045311064
0002f0 6f c4 87 bc b2 82 a2 bc 50 39 f7 3c 34 d0 ce bc
       -0.016573159 -0.019837711 0.030178696 -0.025245763
000300 5a d3 35 3d 73 04 32 bc 2e 04 68 bd 0e 89 51 bc
       0.044391014 -0.010865319 -0.05664461 -0.012789024
000310 43 02 e8 3c 32 94 da 3b fa f9 d6 3b ad 5a ac 3b
       0.028321391 0.0066704983 0.0065605612 0.005259833
000320 25 ed 34 bd 80 97 14 bd 72 37 ba 3c 67 e1 1d 3d
       -0.04417147 -0.036277294 0.022731517 0.03854504
000330 34 07 00 bd 2d c2 05 3c 02 69 12 3d a7 61 d9 3a
       -0.03125687 0.008163971 0.035744675 0.0016584889
000340 75 f8 fc 3c 9a be e9 3b d1 6d cb bc 39 26 14 bd
       0.030880192 0.007133317 -0.024832638 -0.036169264
000350 5a 40 97 3b 8d 63 ea bc 2d fa 15 3d 17 f5 d6 bc
       0.0046158256 -0.028611923 0.03661554 -0.026239915
000360 ab 86 12 bd d7 c0 cb 3c 06 26 08 bd ed f6 b3 3b
       -0.03577296 0.024872227 -0.033239387 0.0054920823
000370 33 da 23 3c 6b d8 24 3d f0 9e 07 bd 19 3b 1c bd
       0.010000753 0.040245455 -0.03311056 -0.038142297
000380 ca b2 4e bd f9 36 08 bc b7 ef 03 3d af a2 64 3d
       -0.050463475 -0.008313888 0.03221103 0.05581921
000390 f9 df ce bc f7 01 dc bb bb 84 c7 3c 05 e6 63 bd
       -0.025253283 -0.0067141014 0.024355283 -0.055639286
0003a0 02 1e 4f 3d 02 35 32 bd b3 dc f3 3c 9b 05 66 bd
       0.050565727 -0.043507583 0.029768324 -0.05615769
0003b0 2b 76 23 bb 07 a9 4a 3d b4 37 0f bd c1 c5 5c bd
       -0.002494226 0.049477603 -0.034965232 -0.05389953
0003c0 6a a7 44 3d 0e 41 25 3c a1 e9 29 3b a8 c1 15 3d
       0.04801122 0.010086311 0.0025926607 0.036561638
0003d0 d9 d9 ac 3c a4 23 32 3d da b8 da bc a3 a8 06 bd
       0.021099972 0.04349102 -0.026699472 -0.03287567
0003e0 88 4e 46 bd 28 99 c7 bc ab 21 6b bc c9 b4 17 3d
       -0.048414737 -0.024365023 -0.014351289 0.037037645
0003f0 3b 2c b6 3b 88 a3 c0 3b 1d 95 bf 3b 2d 4a f4 bc
       0.005559472 0.0058788694 0.005846633 -0.029820526

fc1.bias f4 [50]
000000 cd d8 ca bb 58 32 28 bc ba a2 8f bc 03 2b 80 bd
       -0.0061903954 -0.010265909 -0.017533649 -0.06258204
000010 37 ff ea 3b 8e fd 6e 3a 0d 51 1b 3d ac e0 fb 3c
       0.0071715373 0.0009116762 0.037919093 0.03074678
000020 c3 d0 e0 bc dc 94 93 3c a5 bc 4d bd fb eb 9a bb
       -0.027443295 0.018015318 -0.050228734 -0.004727838
000030 ed 5f 9b 3b bc 1f 88 3c ab 86 21 3d c3 07 94 bc
       0.00474166 0.016616695 0.03943507 -0.018070107
000040 5e 44 d6 bc c7 e4 1b 3d 1a 55 02 3d e9 3f 4b 3b
       -0.026155647 0.038059976 0.03181944 0.0031013435
000050 a4 dc d5 bc d6 19 9a ba bf c8 9c bc a5 2e a8 3d
       -0.026106186 -0.0011756967 -0.019138692 0.08212022
000060 3d 1f 70 3d e4 9c 46 3c de f9 29 3d 93 68 23 bd
       0.05862354 0.012122367 0.041498058 -0.03989465
000070 35 da 6c bd 0c ee 52 3d 69 08 09 bd 50 33 97 bb
       -0.057825286 0.05149655 -0.033455286 -0.004614271
000080 d8 8f 07 bb a6 98 f8 bc ce 4c 34 bd 7b f3 62 3d
       -0.0020685103 -0.030346226 -0.04401856 0.055407982
000090 c3 94 37 bd 47 2e 4b bd 35 f7 3c 3d d9 86 6e bb
       -0.044819605 -0.04960468 0.046134192 -0.0036396293
0000a0 d8 63 4d bd 3f f7 61 bd a1 03 13 3c 80 ce dc 3c
       -0.050144047 -0.055167433 0.008973033 0.026953936
0000b0 81 a1 16 3d e9 3d aa 3c bc 5d f4 bb e7 11 14 3c
       0.036775116 0.020781474 -0.007457463 0.009037471
0000c0 58 5b 56 bc 27 0b 87 3d
       -0.0130833015 0.06593924

fc2.weight f4 [10, 50]
000000 8e a4 fa bd 77 00 7c ba 51 cd 0f be 74 99 9e 3d
       -0.122384176 -0.00096131064 -0.14043166 0.077441126
000010 2f f6 b7 bc 39 36 91 bd d5 35 c2 bd 91 ad 69 bd
       -0.022456257 -0.0709042 -0.09482924 -0.05705029
000020 54 09 e2 bd c2 29 f2 bd 63 3d 5d 3e 25 ce 9c bd
       -0.110369354 -0.11824371 0.21605448 -0.076565064
000030 5d e8 72 3e 3b 98 0f be 18 db fb bd 16 47 d5 bd
       0.23721452 -0.14022915 -0.12297648 -0.10413949
000040 78 28 54 bc 4b fd eb bd b6 04 d2 bd 60 5a ae bb
       -0.012949102 -0.11522921 -0.10254805 -0.005320832
000050 35 7a 17 be 22 5c fe 3d 64 cc 58 3d 5f de 58 3d
       -0.14792712 0.12419917 0.052929297 0.052946445
000060 96 f3 2e be 61 8b df bd 2f 49 d6 bd ee ba ec bd
       -0.17085108 -0.10915256 -0.104631774 -0.115590915
000070 d9 1c c1 3d de fd 83 be f7 8f 5d be 33 93 bf 3d
       0.094293304 -0.25779623 -0.2163695 0.09354248
000080 c0 73 9f 3e 11 94 a0 bd ac 0a aa bd 0c 44 4f 3c
       0.31142998 -0.078407414 -0.08302817 0.012650501
000090 8f 23 72 3e 99 89 89 3d e4 ae e8 3d 46 4a 15 3d
       0.23646377 0.06715698 0.11361483 0.036447786
0000a0 ee bf b8 bd 9c d5 e6 3c b6 e4 e7 bd 55 9b 11 be
       -0.09020983 0.028178029 -0.1132292 -0.1421941
0000b0 be c3 70 3e a2 80 7a bd 09 59 8b be 93 a7 2b be
       0.2351217 -0.06115783 -0.27216366 -0.16763143
0000c0 e7 b7 96 3e be 85 49 3e 93 98 d8 3c 4d 02 96 3e
       0.2943718 0.19679925 0.02643994 0.2929863
0000d0 e2 88 6c bd 09 ae b0 bd 15 6e 4b 3d c7 7c e3 bd
       -0.05774773 -0.086269446 0.04966553 -0.11107784
0000e0 b2 e6 23 be 11 5a 16 bd 27 e9 ac bd 18 25 0f 3e
       -0.16005972 -0.036706988 -0.08442908 0.13978994
0000f0 de 37 2b be cb d7 19 be cd 82 62 be 9c a0 57 bd
       -0.1672053 -0.15023725 -0.22120209 -0.052643403
000100 72 a2 fa 3d 4b 8a 63 3e e7 25 17 be 4b e9 9d bb
       0.12238015 0.22220723 -0.14760552 -0.0048190705
000110 21 1b 86 3e d9 32 3c bd 98 0e c5 3d b6 12 f9 3d
       0.26192573 -0.04594693 0.09621924 0.12161772
000120 2c 27 52 be 11 00 b9 3d 4a 48 9c bd 04 cf 20 be
       -0.20522755 0.09033216 -0.076309755 -0.1570397
000130 51 b9 f7 3d cb ed 96 bc cc 12 08 be 57 ee 23 3e
       0.12095893 -0.018423935 -0.1328842 0.16008888
000140 75 b7 25 3b 08 5b 71 3c 18 d8 81 3c 7c 43 b8 bd
       0.002528635 0.014731176 0.015850112 -0.089972466
000150 32 49 d5 bd b3 04 a0 3a f4 ba 86 bc e7 f4 f6 bc
       -0.104143515 0.0012208432 -0.016446568 -0.030146075
000160 3b e7 67 be 32 f3 af 3c 82 01 cf bd d2 8f 2b bd
       -0.22646801 0.02147827 -0.101077095 -0.041885205
000170 7f 80 31 be a5 2d f3 bd d3 fa 5b be f1 12 74 bd
       -0.17334174 -0.118739404 -0.214824 -0.059588376
000180 57 f8 be bd 7d 03 ce 3d 90 a2 ab 3b d7 6b b3 bd
       -0.09324711 0.10059259 0.005237885 -0.08760803
000190 c7 b3 a7 3d 2c 46 d8 3c fa 06 d6 bd 56 b4 b5 bb
       0.08188587 0.026400648 -0.104505494 -0.0055451794
0001a0 2b 58 8b 3e 2e bf b5 bd d5 18 33 bc 4f 50 b7 3d
       0.27215704 -0.08874355 -0.010931213 0.089508645
0001b0 17 40 12 bd 48 19 15 3e bb 63 0c 3e fc 50 57 bd
       -0.035705652 0.14560425 0.13709919 -0.052567467
0001c0 57 35 40 3e de 02 d7 bd 5d 7b ce bd 14 00 2b 3e
       0.18770348 -0.10498594 -0.100821234 0.16699249
0001d0 4c 36 ac 3d e8 59 24 bd 4c 85 2c bd 6d e7 57 3d
       0.08408794 -0.040124804 -0.04211931 0.05271094
0001e0 e0 6b 40 3c ac 9b 39 bd cc c6 29 3d d1 ab 41 be
       0.011744469 -0.045314476 0.041449353 -0.18913199
0001f0 32 32 01 be 9e 32 dd bb 0f 8d ef ba 02 b9 e4 bd
       -0.12616804 -0.006750419 -0.0018276292 -0.111681
000200 fe b2 78 bc 73 02 0f 3e 25 63 f1 3d 94 be 01 3c
       -0.015179394 0.13965778 0.117864884 0.0079189725
000210 45 ba 06 3e be 4e 08 be 98 65 c8 bc 35 b5 56 3e
       0.13156994 -0.13311288 -0.024462506 0.20967562
000220 da 09 a8 bd 19 67 0c bc d7 8e 06 be 6e 9f 26 3e
       -0.08205004 -0.008569502 -0.13140427 0.16271755
000230 56 ca d9 bd fa 4f 81 bd 76 00 8a bd f0 40 15 3e
       -0.10634296 -0.063140824 -0.06738369 0.14575553
000240 b1 65 ef 3b 3f 12 dc bd 16 11 93 bc be 57 9f bd
       0.0073058237 -0.10745668 -0.017952483 -0.07780407
000250 94 9f 49 bd 19 e1 8d 3d 08 5e d7 3d 5e dc c9 bd
       -0.04922445 0.069276996 0.10515982 -0.09856485
000260 95 bd 15 bd 9d b9 88 3d 34 11 f1 3d 6a 6b c4 3d
       -0.036557753 0.06676028 0.11770859 0.095908
000270 32 d5 ae 3d 63 35 04 3e 73 aa 88 3d d0 de 3c bc
       0.085367575 0.1291099 0.066731356 -0.011527732
000280 a6 7e 08 bd 36 78 d5 3d 0e 9d 48 bc 69 11 c5 bd
       -0.033323906 0.10423319 -0.012244476 -0.09622461
000290 6b 60 2e be 85 7b 92 bd d9 92 da bc e8 98 ed bd
       -0.17028968 -0.07152466 -0.02668135 -0.1160143
0002a0 b3 a1 ec bc 00 88 36 3e 5f 51 8a 3d b7 5b 5f 3d
       -0.028885698 0.17825317 0.067538016 0.054530825
0002b0 8a 31 37 be 50 77 b6 bd 06 e0 91 bd 0f 35 55 be
       -0.17889991 -0.08909476 -0.07122807 -0.20821021
0002c0 ec 23 0f 3e 89 42 84 bd 1a f6 17 bd 3c 03 91 3e
       0.13978547 -0.06458003 -0.037099935 0.2832278
0002d0 3a 22 9a bd f4 c8 27 3e b9 85 09 be f7 25 3b be
       -0.075260594 0.16385251 -0.13429917 -0.18276201
0002e0 a8 3a 17 bd 9d a5 23 3d d0 60 71 be 53 87 09 3e
       -0.036921173 0.039952863 -0.23572087 0.13430528
0002f0 09 af 06 bd 3b 2b 40 3e e2 08 9c bd 7d 62 0a bd
       -0.03288177 0.18766491 -0.07618882 -0.033785332
000300 f9 d3 87 bc fe 01 bf bc 22 09 0d 3d 8e ba e7 bd
       -0.016580569 -0.02331638 0.034432538 -0.11314879
000310 bc 90 e6 3d 9c b0 3e 3e 31 cb 17 be 7b da 8e 3b
       0.11258075 0.18622059 -0.14823605 0.004359541
000320 ef 97 17 3d e9 8a f4 bd 1e 2c 1c bd 1c 60 22 bc
       0.03701013 -0.119405575 -0.03812801 -0.00991061
000330 23 ce c3 bb a1 80 2a 3d be e3 32 be 39 33 a4 bd
       -0.005975501 0.041626576 -0.17469689 -0.080175824
000340 3b 13 3f 3e ef 5e 0b be 66 f7 9a 3d 68 f5 fd 38
       0.1865968 -0.13610433 0.07566719 0.000121096906
000350 1c b0 bf bd 73 cd db bc b0 7c 27 3e 34 c1 e5 3c
       -0.09359762 -0.026831364 0.16356158 0.028046228
000360 0b 7c cc 3c 61 b7 82 bd c8 80 7c bd a4 38 02 3d
       0.024961492 -0.06382633 -0.061646253 0.031792298
000370 d1 19 ae bd fe c8 58 ba e2 4b 9b 3b 3a 2d b5 bd
       -0.08501018 -0.0008269696 0.0047392705 -0.08846517
000380 ad 54 76 bd 19 96 2c 3e 2c 2e 45 3e a5 b0 2f be
       -0.060139347 0.16854133 0.19255894 -0.17157228
000390 66 59 92 3d 1d 87 dc bc f9 9d 1a 3e 1a 83 81 bd
       0.07145958 -0.026919896 0.15099324 -0.06323834
0003a0 56 b8 ca bd e2 bf ea 3d 61 d3 b3 3d a9 09 0f bd
       -0.098984405 0.1146238 0.08780552 -0.034921322
0003b0 e9 99 8d 3d a5 92 da 3c 34 4e 21 be b1 00 3d be
       0.06914122 0.026681254 -0.15752488 -0.18457295
0003c0 f4 16 6b 3d 2d e7 9c bd 53 86 38 3d 2d ca b0 3e
       0.057394937 -0.07661281 0.045049977 0.34529248
0003d0 1c c8 5c be 84 7b 19 be c8 7d e7 3d f8 0f 97 3d
       -0.2156071 -0.14988524 0.11303288 0.07376093
0003e0 8e 5f 42 be bb d3 e0 3c 20 f9 7b 3d b1 9b c1 bd
       -0.18981764 0.027444711 0.06151688 -0.09453524
0003f0 fa 31 d3 bd 89 4a 9e 3d d8 31 0b be d1 35 d4 bd
       -0.10312267 0.0772906 -0.13593233 -0.10361827

fc2.bias f4 [10]
000000 b0 db 86 bd 73 a9 6c 3e 93 d4 c0 bd de dc 4e bd
       -0.06584871 0.23111515 -0.09415545 -0.050503604
000010 da f5 76 bd b3 03 58 bd 5a 39 61 bd fc a3 c0 bd
       -0.060293056 -0.052737903 -0.054986335 -0.094062775
000020 ec 2a b6 3d 16 17 3e bd
       0.088949054 -0.046408735
