New folder/Models/Server/Global models/Initial_3_4_2021_3_55_59.pth (torch, 6943 bytes, 5 tensors)

0.weight f4 [32, 1]
0	0x3f496a60	0.7867794
1	0x3eee3e24	0.46531785
2	0xbea79c34	-0.3273636
3	0xbf4e608e	-0.8061608
4	0x3f0381b4	0.51369786
5	0xbf446096	-0.7670988
6	0x3e606208	0.21912396
7	0xbe725038	-0.23663414
8	0xbde49940	-0.111620426
9	0xbf16051a	-0.58601534
10	0xbf1ebe08	-0.62008715
11	0xbf685ac0	-0.90763474
12	0xbf23344e	-0.63751686
13	0xbefc48d8	-0.49274325
14	0x3e428868	0.18997347
15	0x3f798f96	0.9748472
16	0xbf1bd43c	-0.6087072
17	0xbe5ab078	-0.2135638
18	0x3f044c6e	0.5167912
19	0x3f42277e	0.7584151
20	0x3e004b40	0.12528706
21	0x3efd47f4	0.49468958
22	0xbf6dccf4	-0.9289086
23	0xbe51e960	-0.20499182
24	0xbec51d78	-0.38499045
25	0xbf6563c6	-0.8960537
26	0x3ec2e3cc	0.3806442
27	0xbdaf9a40	-0.08574343
28	0x3eb156d8	0.3463657
29	0x3e776e20	0.24163103
30	0x3f5c372a	0.86021674
31	0xbf086acc	-0.5328796

0.bias f4 [32]
0	0x3e90e538	0.2829988
1	0xbf55637e	-0.8335494
2	0xbf43e5d4	-0.76522565
3	0xbec18b00	-0.3780136
4	0xbf572914	-0.84047055
5	0x3e212a28	0.15738738
6	0x3f726ade	0.94694316
7	0xbf7026a8	-0.93808985
8	0xbdca0500	-0.09864235
9	0x3f0c40d4	0.5478642
10	0x3dc79870	0.09745872
11	0xbf39944a	-0.72491896
12	0x3eedf298	0.46474147
13	0x3f2fda52	0.68692505
14	0xbf4fae08	-0.81124926
15	0x3ef09cc8	0.46994615
16	0x3f281d8e	0.65670097
17	0x3f45e67c	0.77304816
18	0x3e49d6c8	0.19710839
19	0x3ec97084	0.39343655
20	0x3f4866e0	0.78281975
21	0xbad1c800	-0.0016005039
22	0x3ebda934	0.37043154
23	0xbde35e20	-0.11101937
24	0x3f7846b0	0.9698286
25	0xbf7832b0	-0.96952343
26	0xbf3ec0a6	-0.7451271
27	0xbec67b64	-0.38766015
28	0xbf24461e	-0.6416949
29	0x3f184ed0	0.5949526
30	0xbf7357be	-0.9505576
31	0x3eb698e8	0.35663533

2.weight f4 [32, 32]
0	0x3e2fe9b1	0.1717899
1	0x3dcffa06	0.1015511
2	0xbd76034e	-0.060061745
3	0x3e085aa5	0.13315828
4	0x3e02a9ed	0.12760134
5	0x3d3aeab4	0.045633987
6	0x3d3b5208	0.045732528
7	0x3db64fda	0.08901949
8	0x3e2e88e5	0.17044409
9	0xbe071fe8	-0.13195765
10	0xbe19a5ee	-0.15004703
11	0xbe0d89ec	-0.13822144
12	0x3e0597ff	0.13046263
13	0xbe32ab17	-0.17448078
14	0x3e0b22b5	0.13587458
15	0x3e09e85b	0.13467543
16	0xbe2099d7	-0.15683685
17	0xbe30485c	-0.17215103
18	0xbda6f188	-0.08151537
19	0x3e218833	0.15774612
20	0xbe108c6a	-0.14116064
21	0xbd996050	-0.07489073
22	0x3d5a8e84	0.05335857
23	0x3e062057	0.13098274
24	0x3c0a70d0	0.008449748
25	0x3d25aff4	0.040451005
26	0xbde0d593	-0.10978236
27	0xbcf587a8	-0.029971913
28	0x3db8a412	0.09015669
29	0x3df99c2e	0.12187992
30	0xbc2da930	-0.0105994195
31	0x3cdc7c30	0.026914686
32	0x3da8988e	0.082322225
33	0x3b5678c0	0.0032725781
34	0x3ced7b80	0.028989553
35	0xbd8cc232	-0.06872977
36	0x3dd18ce6	0.10231952
37	0xbdaa036a	-0.083014324
38	0xbde09006	-0.1096497
39	0xbde60fe8	-0.112335026
40	0xbd812212	-0.063053265
41	0xbe073a06	-0.13205728
42	0xbc00d700	-0.00786376
43	0xbe34d1c6	-0.17658147
44	0x3d9671c2	0.07345916
45	0xbd0f7ff8	-0.03503415
46	0x3de5dfe2	0.11224343
47	0xbda37807	-0.07981878
48	0xbd173b2c	-0.036921665
49	0x3e0ecf57	0.13946281
50	0x3de38626	0.11109571
51	0x3db94216	0.09045808
52	0x3e21b09d	0.15790029
53	0x3e163d61	0.14671852
54	0x3b32fd40	0.0027311593
55	0xbdc58321	-0.096441515
56	0x3d331424	0.04372038
57	0x3d973256	0.07382648
58	0xbd5a279a	-0.053260423
59	0x3d366674	0.0445313
60	0xbe21c3e4	-0.15797383
61	0xbd82753d	-0.06370018
62	0xbdfd5526	-0.123697564
63	0xbd7848d0	-0.060616314
64	0x3e1e5fb7	0.154662
65	0xbdd6c6fd	-0.10487173
66	0x3db44a36	0.08803217
67	0xbdf0f6ec	-0.117658466
68	0x3e17b9ad	0.14816923
69	0x3e1be4c9	0.15223993
70	0xbdf602e5	-0.12012271
71	0x3de215ca	0.11039312
72	0x3c8cc730	0.017184824
73	0x3e240849	0.16018786
74	0xbda981dc	-0.08276722
75	0x3bc916c0	0.006136745
76	0x3e2bfcd1	0.1679566
77	0xbe29646b	-0.16542213
78	0x3e1be18d	0.1522276
79	0xbe33bf63	-0.17553477
80	0xbcbf16e0	-0.023326337
81	0xbe273988	-0.1633054
82	0x3ce37ce8	0.02776952
83	0x3da4d4da	0.08048411
84	0xbdd243e5	-0.10266856
85	0xbdf0b538	-0.11753315
86	0x3e0bbcd5	0.13646252
87	0x3dace60a	0.08442314
88	0x3d8334a4	0.06406525
89	0xbd15c4ac	-0.036564514
90	0x3c983f80	0.018584967
91	0x3cf4b788	0.02987267
92	0x3d770dbc	0.060315832
93	0x3dffb8c6	0.124864146
94	0xbc894ab0	-0.016759247
95	0x3cc77468	0.024347499
96	0xbc7913e0	-0.0152024925
97	0xbe2d7f99	-0.16943206
98	0xbe25be6f	-0.16185926
99	0x3dd5f2aa	0.10446675
100	0xbe19880b	-0.14993303
101	0xbd87bedd	-0.06628201
102	0x3e1066d5	0.14101727
103	0xbdaf5406	-0.08560948
104	0xbb65d980	-0.0035072267
105	0x3cae4bf8	0.02127646
106	0xbda074b2	-0.07834758
107	0xbc106050	-0.008812025
108	0x3c7caf30	0.015422627
109	0xbdf98e83	-0.12185385
110	0xbd712d6c	-0.05888121
111	0x3e3462cf	0.17615817
112	0x3e3265f3	0.17421703
113	0x3e1072a9	0.1410624
114	0x3deef8e2	0.116685644
115	0x3dd3a102	0.10333444
116	0x3e10df17	0.14147602
117	0xbbbf7d60	-0.0058438033
118	0xbe176b95	-0.14787133
119	0xbd30eed0	-0.0431965
120	0xbdc00dff	-0.093776695
121	0x3cc528f0	0.024067372
122	0x3d46ba70	0.048517644
123	0x3d8a9762	0.06767155
124	0xbe26ab46	-0.16276273
125	0xbe1aafff	-0.151062
126	0x3bf3c520	0.0074392706
127	0xbde76a66	-0.11299591
128	0xbc5ba1b0	-0.0134052485
129	0x3d12ebbc	0.035869345
130	0xbe111a38	-0.14170158
131	0x3d21185c	0.03932987
132	0x3e337ed9	0.17528857
133	0x3daf6bca	0.08565481
134	0x3da77726	0.08177023
135	0xbe16967e	-0.14705846
136	0x3ca359b0	0.019940227
137	0xbe1de548	-0.15419495
138	0xbdb79380	-0.0896368
139	0x3d479a80	0.048731327
140	0xbd8cbc6a	-0.06871875
141	0x3d408c90	0.04700905
142	0xbdd3ccf5	-0.10341827
143	0x3e015a51	0.12632109
144	0xbdf8eacb	-0.12154158
145	0x3dd05f7a	0.10174461
146	0xbe15d051	-0.14630248
147	0xbe2f2025	-0.17102106
148	0x3e276c13	0.16349821
149	0xbe2fac13	-0.17155485
150	0xbdfa3358	-0.12216824
151	0x3d7c0bc4	0.061534658
152	0x3e2ab3d3	0.1667016
153	0xbad9c580	-0.0016614646
154	0x3e349ccf	0.17637943
155	0xbdad83bb	-0.08472391
156	0xbdfc94f0	-0.12333095
157	0xbe19a792	-0.15005329
158	0x3cc723c8	0.024309054
159	0x3d979086	0.074006125
160	0x3d4ed3ac	0.050494835
161	0x3dd1462e	0.10218464
162	0xbe207b72	-0.1567209
163	0x3dac6076	0.08416836
164	0x3e0c31c1	0.13690855
165	0xbde65c73	-0.11248102
166	0x3e0cfb79	0.13767804
167	0xbd817c3d	-0.06322525
168	0xbdd64c54	-0.10463777
169	0xbd2fbe00	-0.042905807
170	0xbe2795d5	-0.1636575
171	0x3d5669d8	0.052347034
172	0x3e17815b	0.14795439
173	0x3e15c0e5	0.14624365
174	0xbd31542c	-0.043293163
175	0x3dbf340a	0.093360975
176	0xbd5bb3f6	-0.05363842
177	0xbe339ace	-0.17539522
178	0xbd91dfbc	-0.07122752
179	0x3d062758	0.032752365
180	0x3d1035f0	0.03520769
181	0x3c22d8a0	0.009939343
182	0x3da29a62	0.079396024
183	0xbcfe3b08	-0.031034008
184	0xbdae1fd0	-0.085021615
185	0xbd9c6a0e	-0.07637416
186	0xbcca0798	-0.024661824
187	0x3caa3930	0.020779222
188	0xbdaafee4	-0.08349398
189	0x3dd33df2	0.103145495
190	0xbce7dfa8	-0.02830489
191	0x3d41a56c	0.0472769
192	0xbcceb0e0	-0.025230825
193	0x3e0d88fd	0.13821788
194	0x3dd7097e	0.10499857
195	0x3d63c1fc	0.05560492
196	0x3bf381a0	0.007431224
197	0xbd071fb4	-0.03298922
198	0x3decfb4a	0.11571367
199	0xbd785694	-0.060629442
200	0xbb038980	-0.002007097
201	0x3e2bfc4b	0.16795461
202	0x3e2cffb9	0.16894425
203	0x3dbbe366	0.09174232
204	0x3e1ca35f	0.15296696
205	0x3dab5a76	0.083668634
206	0x3d8f26f6	0.06989853
207	0xbe0ee7e7	-0.13955651
208	0xbe1da4c2	-0.15394881
209	0xbe066298	-0.13123548
210	0x3dc0068e	0.0937625
211	0xbe07cb9c	-0.13261265
212	0x3c04a590	0.008096114
213	0xbddfff30	-0.10937345
214	0xbbde7380	-0.006788671
215	0x3e1af74b	0.15133397
216	0xbd59ca82	-0.053171642
217	0xbd295e00	-0.04134941
218	0x3e10c405	0.14137276
219	0xbd77e330	-0.060519397
220	0xbdcbb4dc	-0.099466056
221	0x3cd4e348	0.025987282
222	0x3d8da382	0.06915952
223	0xbccd6078	-0.025070414
224	0xbe1dd045	-0.1541148
225	0xbe2ee402	-0.17079166
226	0xbcaaa9c8	-0.020832911
227	0x3e013f77	0.12621866
228	0x3d1bce60	0.03803861
229	0xbd5c251e	-0.053746335
230	0xbdfdf784	-0.124007255
231	0x3d09c7cc	0.033637807
232	0x3c13ba00	0.009016514
233	0x3d2e8bc0	0.042613745
234	0xbe2fc578	-0.17165172
235	0x3c51b880	0.012800336
236	0x3c8a7200	0.016900063
237	0x3d9fa482	0.07795049
238	0x3d383bf4	0.04497905
239	0x3dbd75ee	0.09251009
240	0x3d20ff94	0.03930624
241	0x3dc81c92	0.09771074
242	0xbd3c7590	-0.046010554
243	0x3dc2d716	0.09513681
244	0xbc299510	-0.010350481
245	0xbd80b2a8	-0.06284076
246	0xbda0805a	-0.07836981
247	0x3e149bf5	0.14512618
248	0xbc3fbb70	-0.011702403
249	0xbdf58de7	-0.11989956
250	0x3ccec498	0.025240228
251	0x3e0d3557	0.13789879
252	0xbdf8d6ee	-0.121503696
253	0xbdb70d7b	-0.08938118
254	0xbcf52178	-0.029923186
255	0xbd232060	-0.039825797

2.bias f4 [32]
0	0xbd8756a7	-0.066083245
1	0xbd802f0f	-0.06258976
2	0x3e2f54a7	0.17122136
3	0xbdd3f66f	-0.10349738
4	0x3ddbf30e	0.107397184
5	0x3dce739a	0.10080643
6	0x3dc95aa2	0.0983174
7	0x3df8a352	0.12140526
8	0x3d4fd660	0.050741553
9	0x3d8bbdb6	0.06823294
10	0x3db91a72	0.09038247
11	0x3cfe1760	0.031017005
12	0xbda9720a	-0.08273704
13	0xbe1061da	-0.14099827
14	0x3cdda0e8	0.027054265
15	0xbe1f77c2	-0.15573028
16	0xbd9cfa3f	-0.07664918
17	0xbcc836a0	-0.02444011
18	0xbe14b68a	-0.14522758
19	0x3d4da688	0.050207645
20	0xbdd310fa	-0.103059724
21	0xbc2be980	-0.010492682
22	0x3cd0e690	0.025500566
23	0xbd209c74	-0.039211705
24	0x3dba5476	0.09098141
25	0x3da99d9e	0.08282016
26	0xbde13065	-0.10995559
27	0x3dfb1e8a	0.12261684
28	0x3de731ae	0.112887725
29	0x3e34935f	0.17634343
30	0xbc2f6370	-0.01070486
31	0xbdacacf5	-0.084314264

4.weight f4 [1, 32]
0	0xbe12ded8	-0.1434282
1	0xbd51d89c	-0.051231965
2	0x3df7592a	0.120775536
3	0x3e13aebb	0.14422123
4	0xbb9d1960	-0.0047942847
5	0x3e29e815	0.16592439
6	0xbd88d2f7	-0.06680863
7	0xbcf04d20	-0.029333651
8	0x3e148ef9	0.14507665
9	0xbe062e22	-0.13103536
10	0xbc8b3e90	-0.016997606
11	0xbd69dd2e	-0.0570957
12	0x3dfef012	0.124481335
13	0x3e192209	0.1495439
14	0xbdae880e	-0.08522044
15	0x3da10b1e	0.078634486
16	0xbc398c80	-0.011325002
17	0xbe1c44f5	-0.1526068
18	0x3e2e83f5	0.17042525
19	0x3c5f53e0	0.013630837
20	0x3e266b47	0.1625186
21	0x3daa693a	0.083208516
22	0x3e1824bb	0.14857762
23	0x3e0505ef	0.12990545
24	0xbe0e59ae	-0.13901398
25	0xbc022200	-0.007942677
26	0x3d03345c	0.032032356
27	0x3da48e56	0.08034961
28	0x3cd3a0b8	0.025833473
29	0xbe06b080	-0.13153267
30	0x3db831ee	0.08993898
31	0x3e0f5439	0.13996972
