New folder/Models/Client_3/Trained local models/Trained_3_4_2021_3_56_6.pth (torch, 6943 bytes, 5 tensors)

0.weight f4 [32, 1]
00000000: 5233 4140 795f 4540 5ab1 3cbe 0244 1dc0
00000010: ef27 4140 e2aa 57c0 6ca5 c5be 4125 af3e
00000020: 5199 91be 4c07 2ac0 5fd7 26c0 e400 ccbf
00000030: bb70 4bc0 8a20 23c0 e593 823f f7c4 cc3f
00000040: 9ad9 3cc0 8e39 bebf 8f9b e63f 8119 cf3f
00000050: e6ba 17bf ec30 0340 e94a 81c0 4326 10bf
00000060: 26c6 00c0 de1a 75bf 385f 1340 f007 df3e
00000070: bf9c 0240 af88 cc3c 01c6 7b40 4be8 3fc0
3.0187573 3.0839522 -0.18427029 -2.4572759 3.0180624 -3.3698049 -0.3860277 0.3420811
-0.28437284 -2.6566954 -2.6068952 -1.5937772 -3.1787555 -2.548861 1.0201384 1.5997609
-2.9507813 -1.4861314 1.8016223 1.6179658 -0.5926956 2.049861 -4.0403943 -0.5630838
-2.012094 -0.9574412 2.3026867 0.43560743 2.040817 0.02496752 3.9339602 -2.998553

0.bias f4 [32]
00000000: 8efc a5bf 0dfe 24c0 1d2c 8bbe 9f65 803f
00000010: e265 1ec0 30c0 3440 89cf 173f 0c7a dbbe
00000020: 1b22 a43d 09a2 a03f 0723 753f f362 c93c
00000030: 8ad1 2b40 8862 9c3f 7b5c 3dbf a35d 94bd
00000040: f6ad da3f 1e15 5f3f 7ddd 36be 82b4 51be
00000050: 9c65 103f f646 33bf c635 df3f d386 ff3d
00000060: 931f 8c3f a55d 06bf 52f1 9dbf 37b8 aabe
00000070: 792e 9ebf e835 953e 1579 5cc0 cc90 ae3f
-1.2967699 -2.578006 -0.27182093 1.0031012 -2.4749684 2.8242302 0.5930105 -0.42866552
0.080143176 1.2549449 0.9575657 0.024583315 2.6846642 1.2217569 -0.7396924 -0.07244422
1.7084339 0.871416 -0.17857929 -0.20479015 0.56405044 -0.7003015 1.7438285 0.124768876
1.0947136 -0.5248664 -1.233927 -0.3334367 -1.2357932 0.2914269 -3.4448903 1.3637938

2.weight f4 [32, 32]
00000000: c97a 173e f6d4 a53d 4793 41bd 6753 223e
00000010: 9eb1 df3d 36ff fd3d fe17 273d 1a38 bf3d
00000020: 7f4e 3c3e 8bcc 9cbd 89f4 d1bd 5498 f4bd
00000030: a595 643e 5a68 21be e439 093e ac95 f33d
00000040: 5d8c c2bd d9fa 37be a18a f4bd 4635 063e
00000050: 81ea 12be 6dd2 fbbd a168 123e e33b 143e
00000060: 911f f53b ef7f 383d 9820 fabd ced2 c0bc
00000070: 771a ae3d 0d00 e13d f382 02be 6285 9b3d
00000080: de78 1d3e d987 933c 9c35 1a3c 91e0 03be
00000090: 7d35 f13d ceff dcbd 0313 bcbd 475e 03be
000000a0: c316 95bd 6e7b 3cbe ba71 93bd 109f 66be
000000b0: ed7d 8f3d f0a1 a4bd 6ca5 d63d 0865 a3bc
000000c0: 4db2 97bd ffb9 0e3e 509d 273e 8ab8 143e
000000d0: 20cb 313e 3e8f 463e 9cae a1bd ffa5 e9bd
000000e0: 0548 f43c 27a0 163d 5f30 84bc f635 123d
000000f0: 9bcb 0fbe e272 3fbd e15a 01be 659f eabd
00000100: f71f ed3e ac22 073e 5e80 4c3b 0439 bfbe
00000110: da2a ca3e 7742 d5bd 13e7 64bd f6ff 713d
00000120: 1434 2abd a1db 21be d953 bfbe f406 1dbe
00000130: c87e e5bd 3566 e6be e8e0 4c3e fc5e 23bc
00000140: ac8f adbe 00a6 8abe caa5 6c3e 79f9 823e
00000150: 10e2 8abd 5fe5 f73d a6e8 9dbe 844e bb3a
00000160: c264 11be 1808 1fbe ec78 8b3e 7cd2 1c3d
00000170: c089 853e c385 3c3e 499f 913e 65b4 a1be
00000180: f423 2dbe a8b5 c2be 152c d3bd c5b6 763e
00000190: fff0 b6be 665a 103e 9633 d43d 61ed 57bd
000001a0: e5c1 053d 3634 2f3e 78cd 613d 239c 993d
000001b0: c81c 553e 48e6 263d 3811 cdbd 5564 b33d
000001c0: e8a8 b73e 2b4d 703e 3133 dc3c 07e3 153c
000001d0: 14f2 023e 7567 fdbd 7e78 6ebc 455c 5d3c
000001e0: b769 2b3d 34bd cf3d edba e1bd 84ca 593d
000001f0: 054e 9abe 4b9a 47be 10eb 6dbe f0df 453d
00000200: 019d 123d 97e9 ae3d 4eeb 1bbe 59a6 dabb
00000210: a388 5e3e b9ce cbbc 2ee6 ad3d 6f72 1dbe
00000220: 9ae7 613b d1fe 4fbe 5ad5 0fbe 3db8 a53c
00000230: 9d92 31be c732 c33c 1639 d4bd 815f 243e
00000240: bccc 3ebe bec0 dc3d a6bd e7bd 2a28 09be
00000250: 800d 2e3e db04 ffbd b4ad 4dbe 1717 453d
00000260: 4b33 273e 674a 9ebb 832b 4c3e 9450 bcbd
00000270: cb5b e0bd c121 0fbe 81c7 1c3e 1f82 bd3c
00000280: f018 983d cf00 0b3e dd4b 32be f4ee 693d
00000290: cc1f 283e 4ddf 4cbe 6246 1b3e 3da1 a4bd
000002a0: 3f22 f8bd 8541 99bd d6e0 47be eda0 e23c
000002b0: 864b 703d c22a 0e3e 0f04 61bd cd07 ec3d
000002c0: fda8 d0bd ba69 21be ebd6 27bd 3eaf 783d
000002d0: e948 573d 1762 3d3d f0db 173d 1387 32bd
000002e0: bbdb 99bd 0967 a7bd 72b2 91bc 13c8 0a3c
000002f0: 74f6 a7bd af18 f43d a0fe ba3d 173c 833c
00000300: 01f5 42bb b615 1f3e 7910 9b3d 06d1 1c3d
00000310: dcb6 d73c 759d 40bd 5c13 193e 1ee1 babd
00000320: 7fd5 2ebc 410a 193e 92d1 153e c91e 8c3d
00000330: 1d09 0e3e 82be 833d 0806 683d 25d0 f0bd
00000340: 1e61 33be fe29 09be aca3 e53d 0053 e9bd
00000350: 3bfc 133d 5283 bdbd 72fb d3bc 2f62 0f3e
00000360: 3d66 8abd 6230 a1bd c53b 213e 01d4 8fbd
00000370: 0d61 b4bd dc34 4d3d 9c08 ba3d c88e 4dbd
00000380: 605b 3dbe e26a 5abe 38b2 e7bb 0bc7 193e
00000390: f101 81bb c60d 073b 0d0a 0cbe 0492 393d
000003a0: 168b 7e3c 9ca0 983d e2cb 11be 3757 d33c
000003b0: d94a 8b3d 219b d73d 338c 3b3d b4a4 a33d
000003c0: a600 a23d a1c7 d63d 7cd8 82bd 03bd a23d
000003d0: 85b8 a2bc ace3 b0bd 636d f0bc 384b 1e3e
000003e0: e799 553b 2bea d8bd 3939 0d3b a877 103e
000003f0: cbfc 0dbe c55b cfbd 1cbb dfbd 3c77 90bb
0.14792933 0.0809726 -0.047259595 0.15852128 0.1092255 0.12402193 0.040794365 0.093368724
0.18389319 -0.07656201 -0.102517195 -0.11943117 0.2232271 -0.15762463 0.1340099 0.11893782
-0.094994284 -0.17966785 -0.11940504 0.1310626 -0.14347269 -0.12295995 0.14297725 0.1447597
0.0074805696 0.045043882 -0.12213248 -0.02353802 0.085011415 0.10986338 -0.12745266 0.075938
0.15378138 0.018009113 0.0094121955 -0.12878634 0.1177778 -0.10790978 -0.09183314 -0.12828933
-0.07279732 -0.1840646 -0.07199426 -0.22521615 0.0700644 -0.080386996 0.104807705 -0.019945636
-0.07407055 0.1393814 0.16368604 0.14523521 0.17362642 0.1939058 -0.07894632 -0.11408614
0.029819498 0.036773827 -0.016136346 0.035695992 -0.14042513 -0.04674042 -0.12632324 -0.11456183
0.4631345 0.1319682 0.0031204442 -0.37348187 0.39485818 -0.10413068 -0.055884432 0.059081994
-0.04155357 -0.15806438 -0.37368658 -0.15334684 -0.11205822 -0.44999853 0.2000767 -0.0099713765
-0.33898675 -0.27079773 0.23110119 0.25580958 -0.06781399 0.12104296 -0.3084156 0.0014290367
-0.14198592 -0.15530431 0.27240694 0.03828667 0.26081657 0.18410401 0.28441837 -0.31582943
-0.16908246 -0.38029218 -0.10311142 0.24093159 -0.3573074 0.14096984 0.10361402 -0.052716617
0.032655615 0.1710976 0.05512759 0.07500484 0.2081176 0.040746957 -0.1001305 0.08759371
0.35871053 0.23466937 0.026879879 0.009148366 0.12787658 -0.123732485 -0.014555095 0.013510768
0.041848864 0.101435095 -0.110219814 0.05317165 -0.3013765 -0.19492452 -0.232342 0.048309267
0.03579426 0.085406475 -0.1522648 -0.006672662 0.2173181 -0.024878846 0.08491169 -0.15375684
0.003447032 -0.20312048 -0.14046231 0.020229453 -0.17341085 0.023827923 -0.10362451 0.16052057
-0.18632787 0.1077895 -0.113154694 -0.13394228 0.16997337 -0.12452098 -0.20085794 0.048117723
0.1632816 -0.004830647 0.19938473 -0.091950566 -0.10955008 -0.1397772 0.1531048 0.023133336
0.074266315 0.13574527 -0.17411752 0.05711265 0.1641838 -0.20007057 0.15163568 -0.08038566
-0.12115907 -0.074832 -0.19519362 0.027664626 0.058665775 0.13883498 -0.05493551 0.115249254
-0.10188482 -0.15762988 -0.040976446 0.060714 0.052559767 0.046236124 0.037074983 -0.043585848
-0.075126134 -0.08173949 -0.017785285 0.008470553 -0.08201304 0.119187705 0.09130597 0.016019864
-0.0029748084 0.15535626 0.07571501 0.038285278 0.026332311 -0.047025163 0.14948791 -0.09124969
-0.010671019 0.14945318 0.14630726 0.06841809 0.13870664 0.06432821 0.056646377 -0.117584504
-0.17517516 -0.13394925 0.112128586 -0.11392784 0.036129218 -0.09253563 -0.025876734 0.14002298
-0.06757782 -0.078705564 0.15745457 -0.070228584 -0.088075735 0.05009924 0.09083673 -0.050184995
-0.18491888 -0.21329835 -0.007070806 0.15017335 -0.003936999 0.0020607575 -0.13675709 0.045305267
0.01553609 0.07452509 -0.14237931 0.025798423 0.068013854 0.10527635 0.045788 0.07990399
0.0791028 0.10487295 -0.06388947 0.079462074 -0.019863376 -0.08637175 -0.029349035 0.15458381
0.0032592954 -0.10591539 0.0021549 0.14108145 -0.13865964 -0.101249255 -0.1092436 -0.004408745

2.bias f4 [32]
00000000: 7e53 90bd d553 23bd 679b 813e a37d 34be
00000010: 22a1 b93d da5e cc3d a7c0 173e d409 d33d
00000020: d024 c23c 53cb 30bf 5ba6 5bbd c5b3 c33e
00000030: a1f8 ddbd c7dc bbbe 9dd2 c13c bf34 1ebe
00000040: 552f c6bd efbf bbbc 1eb6 63bf 72d3 693d
00000050: b4e9 a7bd eced 37be 290c a4be 14df e3bd
00000060: b68f d5be 7f27 3c3d 625c 0bbe 65fd 223d
00000070: 30fc 543c f364 143e 78be 2fbd c513 153f
-0.07047175 -0.03987487 0.25313875 -0.17626052 0.09063937 0.09979029 0.14819585 0.10304609
0.023699194 -0.6906025 -0.053625446 0.3822309 -0.10838438 -0.36691877 0.023659999 -0.15449809
-0.096769966 -0.02291867 -0.88949764 0.057086416 -0.08198872 -0.17961854 -0.32040527 -0.11126533
-0.41711205 0.045936104 -0.1360946 0.039792437 0.012999579 0.14491634 -0.042906255 0.5823329

4.weight f4 [1, 32]
00000000: ae0f b7bd 4bc1 81be 6a35 1f3f 8675 c23e
00000010: d4fe d73d eae0 ee3d 3a31 453d b26d 3fbd
00000020: c190 02be deb8 17c0 d56b 40bf 1450 0d3f
00000030: 4c16 8b3e b63d ab3f 625a 02bd d580 6b3e
00000040: 7d41 0f3e 62e4 08be 9b95 2d40 9a92 04bd
00000050: 8615 3440 99d2 de3e e062 4340 2600 8e3e
00000060: 01e7 70c0 9a3d 4c3d 771f 763e f7d1 e33e
00000070: 3852 e0be 9fb5 6ebe 9c92 e63d 3582 d13f
-0.089385375 -0.25342783 0.6219088 0.37980288 0.105466515 0.11663993 0.04814265 -0.046735473
-0.12750532 -2.3706584 -0.7516454 0.55200315 0.2716545 1.3378208 -0.031824477 0.22998364
0.13989826 -0.13368371 2.7122562 -0.032366373 2.8138137 0.43520048 3.0529099 0.27734488
-3.7640994 0.049863435 0.2403544 0.44496128 -0.43812728 -0.2331147 0.11258432 1.6367861
